<?xml version="1.0" ?>
<net name="person-reidentification-retail-0248" version="10">
	<layers>
		<layer id="0" name="data" type="Parameter" version="opset1">
			<data element_type="f16" shape="1,3,256,128"/>
			<output>
				<port id="0" precision="FP16">
					<dim>1</dim>
					<dim>3</dim>
					<dim>256</dim>
					<dim>128</dim>
				</port>
			</output>
		</layer>
		<layer id="1" name="data/reverse_input_channels3263132635/Split_input_port_1/value32665_const890_const" type="Const" version="opset1">
			<data element_type="i64" offset="0" shape="" size="8"/>
			<output>
				<port id="1" precision="I64"/>
			</output>
		</layer>
		<layer id="2" name="data/reverse_input_channels3263132635/Split" type="Split" version="opset1">
			<data num_splits="3"/>
			<input>
				<port id="0">
					<dim>1</dim>
					<dim>3</dim>
					<dim>256</dim>
					<dim>128</dim>
				</port>
				<port id="1"/>
			</input>
			<output>
				<port id="2" precision="FP16">
					<dim>1</dim>
					<dim>1</dim>
					<dim>256</dim>
					<dim>128</dim>
				</port>
				<port id="3" precision="FP16">
					<dim>1</dim>
					<dim>1</dim>
					<dim>256</dim>
					<dim>128</dim>
				</port>
				<port id="4" precision="FP16">
					<dim>1</dim>
					<dim>1</dim>
					<dim>256</dim>
					<dim>128</dim>
				</port>
			</output>
		</layer>
		<layer id="3" name="data/reverse_input_channels3263132635/Concat" type="Concat" version="opset1">
			<data axis="1"/>
			<input>
				<port id="0">
					<dim>1</dim>
					<dim>1</dim>
					<dim>256</dim>
					<dim>128</dim>
				</port>
				<port id="1">
					<dim>1</dim>
					<dim>1</dim>
					<dim>256</dim>
					<dim>128</dim>
				</port>
				<port id="2">
					<dim>1</dim>
					<dim>1</dim>
					<dim>256</dim>
					<dim>128</dim>
				</port>
			</input>
			<output>
				<port id="3" precision="FP16">
					<dim>1</dim>
					<dim>3</dim>
					<dim>256</dim>
					<dim>128</dim>
				</port>
			</output>
		</layer>
		<layer id="4" name="data/reverse_input_channels3263132637/Concat32678_const895_const" type="Const" version="opset1">
			<data element_type="f16" offset="8" shape="1,3,1,1" size="6"/>
			<output>
				<port id="1" precision="FP16">
					<dim>1</dim>
					<dim>3</dim>
					<dim>1</dim>
					<dim>1</dim>
				</port>
			</output>
		</layer>
		<layer id="5" name="Mul_/Fused_Mul_" type="Multiply" version="opset1">
			<input>
				<port id="0">
					<dim>1</dim>
					<dim>3</dim>
					<dim>256</dim>
					<dim>128</dim>
				</port>
				<port id="1">
					<dim>1</dim>
					<dim>3</dim>
					<dim>1</dim>
					<dim>1</dim>
				</port>
			</input>
			<output>
				<port id="2" precision="FP16">
					<dim>1</dim>
					<dim>3</dim>
					<dim>256</dim>
					<dim>128</dim>
				</port>
			</output>
		</layer>
		<layer id="6" name="data/reverse_input_channels32633/Concat32662_const897_const" type="Const" version="opset1">
			<data element_type="f16" offset="14" shape="1,3,1,1" size="6"/>
			<output>
				<port id="1" precision="FP16">
					<dim>1</dim>
					<dim>3</dim>
					<dim>1</dim>
					<dim>1</dim>
				</port>
			</output>
		</layer>
		<layer id="7" name="Add_/Fused_Add_" type="Add" version="opset1">
			<input>
				<port id="0">
					<dim>1</dim>
					<dim>3</dim>
					<dim>256</dim>
					<dim>128</dim>
				</port>
				<port id="1">
					<dim>1</dim>
					<dim>3</dim>
					<dim>1</dim>
					<dim>1</dim>
				</port>
			</input>
			<output>
				<port id="2" precision="FP16">
					<dim>1</dim>
					<dim>3</dim>
					<dim>256</dim>
					<dim>128</dim>
				</port>
			</output>
		</layer>
		<layer id="8" name="70177021_const" type="Const" version="opset1">
			<data element_type="f16" offset="20" shape="" size="2"/>
			<output>
				<port id="1" precision="FP16"/>
			</output>
		</layer>
		<layer id="9" name="70187022_const" type="Const" version="opset1">
			<data element_type="f16" offset="22" shape="" size="2"/>
			<output>
				<port id="1" precision="FP16"/>
			</output>
		</layer>
		<layer id="10" name="70197023_const" type="Const" version="opset1">
			<data element_type="f16" offset="20" shape="" size="2"/>
			<output>
				<port id="1" precision="FP16"/>
			</output>
		</layer>
		<layer id="11" name="70207024_const" type="Const" version="opset1">
			<data element_type="f16" offset="22" shape="" size="2"/>
			<output>
				<port id="1" precision="FP16"/>
			</output>
		</layer>
		<layer id="12" name="569/Ins_Norm/MVN_/fq_input_0" type="FakeQuantize" version="opset1">
			<data levels="256"/>
			<input>
				<port id="0">
					<dim>1</dim>
					<dim>3</dim>
					<dim>256</dim>
					<dim>128</dim>
				</port>
				<port id="1"/>
				<port id="2"/>
				<port id="3"/>
				<port id="4"/>
			</input>
			<output>
				<port id="5" precision="FP16">
					<dim>1</dim>
					<dim>3</dim>
					<dim>256</dim>
					<dim>128</dim>
				</port>
			</output>
		</layer>
		<layer id="13" name="569/Ins_Norm/MVN_" type="MVN" version="opset1">
			<data across_channels="0" eps="9.999999747378752e-06" normalize_variance="1"/>
			<input>
				<port id="0">
					<dim>1</dim>
					<dim>3</dim>
					<dim>256</dim>
					<dim>128</dim>
				</port>
			</input>
			<output>
				<port id="1" precision="FP16">
					<dim>1</dim>
					<dim>3</dim>
					<dim>256</dim>
					<dim>128</dim>
				</port>
			</output>
		</layer>
		<layer id="14" name="onnx_initializer_node_in_first.weight/Output_0/Data_/copy/copy_const900_const" type="Const" version="opset1">
			<data element_type="f16" offset="24" shape="1,3,1,1" size="6"/>
			<output>
				<port id="1" precision="FP16">
					<dim>1</dim>
					<dim>3</dim>
					<dim>1</dim>
					<dim>1</dim>
				</port>
			</output>
		</layer>
		<layer id="15" name="569/Ins_Norm/mul_" type="Multiply" version="opset1">
			<input>
				<port id="0">
					<dim>1</dim>
					<dim>3</dim>
					<dim>256</dim>
					<dim>128</dim>
				</port>
				<port id="1">
					<dim>1</dim>
					<dim>3</dim>
					<dim>1</dim>
					<dim>1</dim>
				</port>
			</input>
			<output>
				<port id="2" precision="FP16">
					<dim>1</dim>
					<dim>3</dim>
					<dim>256</dim>
					<dim>128</dim>
				</port>
			</output>
		</layer>
		<layer id="16" name="onnx_initializer_node_in_first.bias/Output_0/Data_/copy/copy_const902_const" type="Const" version="opset1">
			<data element_type="f16" offset="30" shape="1,3,1,1" size="6"/>
			<output>
				<port id="1" precision="FP16">
					<dim>1</dim>
					<dim>3</dim>
					<dim>1</dim>
					<dim>1</dim>
				</port>
			</output>
		</layer>
		<layer id="17" name="569/Ins_Norm/add_" type="Add" version="opset1">
			<input>
				<port id="0">
					<dim>1</dim>
					<dim>3</dim>
					<dim>256</dim>
					<dim>128</dim>
				</port>
				<port id="1">
					<dim>1</dim>
					<dim>3</dim>
					<dim>1</dim>
					<dim>1</dim>
				</port>
			</input>
			<output>
				<port id="2" precision="FP16">
					<dim>1</dim>
					<dim>3</dim>
					<dim>256</dim>
					<dim>128</dim>
				</port>
			</output>
		</layer>
		<layer id="18" name="59875991_const" type="Const" version="opset1">
			<data element_type="f16" offset="36" shape="" size="2"/>
			<output>
				<port id="1" precision="FP16"/>
			</output>
		</layer>
		<layer id="19" name="59885992_const" type="Const" version="opset1">
			<data element_type="f16" offset="38" shape="" size="2"/>
			<output>
				<port id="1" precision="FP16"/>
			</output>
		</layer>
		<layer id="20" name="59895993_const" type="Const" version="opset1">
			<data element_type="f16" offset="36" shape="" size="2"/>
			<output>
				<port id="1" precision="FP16"/>
			</output>
		</layer>
		<layer id="21" name="59905994_const" type="Const" version="opset1">
			<data element_type="f16" offset="38" shape="" size="2"/>
			<output>
				<port id="1" precision="FP16"/>
			</output>
		</layer>
		<layer id="22" name="570/fq_input_0" type="FakeQuantize" version="opset1">
			<data levels="256"/>
			<input>
				<port id="0">
					<dim>1</dim>
					<dim>3</dim>
					<dim>256</dim>
					<dim>128</dim>
				</port>
				<port id="1"/>
				<port id="2"/>
				<port id="3"/>
				<port id="4"/>
			</input>
			<output>
				<port id="5" precision="FP16">
					<dim>1</dim>
					<dim>3</dim>
					<dim>256</dim>
					<dim>128</dim>
				</port>
			</output>
		</layer>
		<layer id="23" name="570/fq_weights_1/Convert_to_float/Cast_016359_const" type="Const" version="opset1">
			<data element_type="u8" offset="40" shape="16,3,7,7" size="2352"/>
			<output>
				<port id="1" precision="U8">
					<dim>16</dim>
					<dim>3</dim>
					<dim>7</dim>
					<dim>7</dim>
				</port>
			</output>
		</layer>
		<layer id="24" name="570/fq_weights_1/Convert_to_float" type="Convert" version="opset1">
			<data destination_type="f16"/>
			<input>
				<port id="0">
					<dim>16</dim>
					<dim>3</dim>
					<dim>7</dim>
					<dim>7</dim>
				</port>
			</input>
			<output>
				<port id="1" precision="FP16">
					<dim>16</dim>
					<dim>3</dim>
					<dim>7</dim>
					<dim>7</dim>
				</port>
			</output>
		</layer>
		<layer id="25" name="570/fq_weights_1/Copy/out_low14268_const" type="Const" version="opset1">
			<data element_type="f16" offset="2392" shape="1" size="2"/>
			<output>
				<port id="1" precision="FP16">
					<dim>1</dim>
				</port>
			</output>
		</layer>
		<layer id="26" name="570/fq_weights_1/Copy/out_high14269_const" type="Const" version="opset1">
			<data element_type="f16" offset="2394" shape="1" size="2"/>
			<output>
				<port id="1" precision="FP16">
					<dim>1</dim>
				</port>
			</output>
		</layer>
		<layer id="27" name="59996003_const" type="Const" version="opset1">
			<data element_type="f16" offset="2396" shape="16,1,1,1" size="32"/>
			<output>
				<port id="1" precision="FP16">
					<dim>16</dim>
					<dim>1</dim>
					<dim>1</dim>
					<dim>1</dim>
				</port>
			</output>
		</layer>
		<layer id="28" name="60006004_const" type="Const" version="opset1">
			<data element_type="f16" offset="2428" shape="16,1,1,1" size="32"/>
			<output>
				<port id="1" precision="FP16">
					<dim>16</dim>
					<dim>1</dim>
					<dim>1</dim>
					<dim>1</dim>
				</port>
			</output>
		</layer>
		<layer id="29" name="570/fq_weights_1" type="FakeQuantize" version="opset1">
			<data levels="255"/>
			<input>
				<port id="0">
					<dim>16</dim>
					<dim>3</dim>
					<dim>7</dim>
					<dim>7</dim>
				</port>
				<port id="1">
					<dim>1</dim>
				</port>
				<port id="2">
					<dim>1</dim>
				</port>
				<port id="3">
					<dim>16</dim>
					<dim>1</dim>
					<dim>1</dim>
					<dim>1</dim>
				</port>
				<port id="4">
					<dim>16</dim>
					<dim>1</dim>
					<dim>1</dim>
					<dim>1</dim>
				</port>
			</input>
			<output>
				<port id="5" precision="FP16">
					<dim>16</dim>
					<dim>3</dim>
					<dim>7</dim>
					<dim>7</dim>
				</port>
			</output>
		</layer>
		<layer id="30" name="570" type="Convolution" version="opset1">
			<data dilations="1,1" output_padding="0,0" pads_begin="3,3" pads_end="3,3" strides="2,2"/>
			<input>
				<port id="0">
					<dim>1</dim>
					<dim>3</dim>
					<dim>256</dim>
					<dim>128</dim>
				</port>
				<port id="1">
					<dim>16</dim>
					<dim>3</dim>
					<dim>7</dim>
					<dim>7</dim>
				</port>
			</input>
			<output>
				<port id="2" precision="FP16">
					<dim>1</dim>
					<dim>16</dim>
					<dim>128</dim>
					<dim>64</dim>
				</port>
			</output>
		</layer>
		<layer id="31" name="21322134_const" type="Const" version="opset1">
			<data element_type="f16" offset="2460" shape="1,16,1,1" size="32"/>
			<output>
				<port id="1" precision="FP16">
					<dim>1</dim>
					<dim>16</dim>
					<dim>1</dim>
					<dim>1</dim>
				</port>
			</output>
		</layer>
		<layer id="32" name="570/add_" type="Add" version="opset1">
			<input>
				<port id="0">
					<dim>1</dim>
					<dim>16</dim>
					<dim>128</dim>
					<dim>64</dim>
				</port>
				<port id="1">
					<dim>1</dim>
					<dim>16</dim>
					<dim>1</dim>
					<dim>1</dim>
				</port>
			</input>
			<output>
				<port id="2" precision="FP16">
					<dim>1</dim>
					<dim>16</dim>
					<dim>128</dim>
					<dim>64</dim>
				</port>
			</output>
		</layer>
		<layer id="33" name="46974701_const" type="Const" version="opset1">
			<data element_type="f16" offset="2492" shape="" size="2"/>
			<output>
				<port id="1" precision="FP16"/>
			</output>
		</layer>
		<layer id="34" name="46984702_const" type="Const" version="opset1">
			<data element_type="f16" offset="2494" shape="" size="2"/>
			<output>
				<port id="1" precision="FP16"/>
			</output>
		</layer>
		<layer id="35" name="46994703_const" type="Const" version="opset1">
			<data element_type="f16" offset="2492" shape="" size="2"/>
			<output>
				<port id="1" precision="FP16"/>
			</output>
		</layer>
		<layer id="36" name="47004704_const" type="Const" version="opset1">
			<data element_type="f16" offset="2494" shape="" size="2"/>
			<output>
				<port id="1" precision="FP16"/>
			</output>
		</layer>
		<layer id="37" name="571/Ins_Norm/MVN_/fq_input_0" type="FakeQuantize" version="opset1">
			<data levels="256"/>
			<input>
				<port id="0">
					<dim>1</dim>
					<dim>16</dim>
					<dim>128</dim>
					<dim>64</dim>
				</port>
				<port id="1"/>
				<port id="2"/>
				<port id="3"/>
				<port id="4"/>
			</input>
			<output>
				<port id="5" precision="FP16">
					<dim>1</dim>
					<dim>16</dim>
					<dim>128</dim>
					<dim>64</dim>
				</port>
			</output>
		</layer>
		<layer id="38" name="571/Ins_Norm/MVN_" type="MVN" version="opset1">
			<data across_channels="0" eps="9.999999747378752e-06" normalize_variance="1"/>
			<input>
				<port id="0">
					<dim>1</dim>
					<dim>16</dim>
					<dim>128</dim>
					<dim>64</dim>
				</port>
			</input>
			<output>
				<port id="1" precision="FP16">
					<dim>1</dim>
					<dim>16</dim>
					<dim>128</dim>
					<dim>64</dim>
				</port>
			</output>
		</layer>
		<layer id="39" name="onnx_initializer_node_conv1.bn.weight/Output_0/Data_/copy/copy_const907_const" type="Const" version="opset1">
			<data element_type="f16" offset="2496" shape="1,16,1,1" size="32"/>
			<output>
				<port id="1" precision="FP16">
					<dim>1</dim>
					<dim>16</dim>
					<dim>1</dim>
					<dim>1</dim>
				</port>
			</output>
		</layer>
		<layer id="40" name="571/Ins_Norm/mul_" type="Multiply" version="opset1">
			<input>
				<port id="0">
					<dim>1</dim>
					<dim>16</dim>
					<dim>128</dim>
					<dim>64</dim>
				</port>
				<port id="1">
					<dim>1</dim>
					<dim>16</dim>
					<dim>1</dim>
					<dim>1</dim>
				</port>
			</input>
			<output>
				<port id="2" precision="FP16">
					<dim>1</dim>
					<dim>16</dim>
					<dim>128</dim>
					<dim>64</dim>
				</port>
			</output>
		</layer>
		<layer id="41" name="onnx_initializer_node_conv1.bn.bias/Output_0/Data_/copy/copy_const909_const" type="Const" version="opset1">
			<data element_type="f16" offset="2528" shape="1,16,1,1" size="32"/>
			<output>
				<port id="1" precision="FP16">
					<dim>1</dim>
					<dim>16</dim>
					<dim>1</dim>
					<dim>1</dim>
				</port>
			</output>
		</layer>
		<layer id="42" name="571/Ins_Norm/add_" type="Add" version="opset1">
			<input>
				<port id="0">
					<dim>1</dim>
					<dim>16</dim>
					<dim>128</dim>
					<dim>64</dim>
				</port>
				<port id="1">
					<dim>1</dim>
					<dim>16</dim>
					<dim>1</dim>
					<dim>1</dim>
				</port>
			</input>
			<output>
				<port id="2" precision="FP16">
					<dim>1</dim>
					<dim>16</dim>
					<dim>128</dim>
					<dim>64</dim>
				</port>
			</output>
		</layer>
		<layer id="43" name="572" type="ReLU" version="opset1">
			<input>
				<port id="0">
					<dim>1</dim>
					<dim>16</dim>
					<dim>128</dim>
					<dim>64</dim>
				</port>
			</input>
			<output>
				<port id="1" precision="FP16">
					<dim>1</dim>
					<dim>16</dim>
					<dim>128</dim>
					<dim>64</dim>
				</port>
			</output>
		</layer>
		<layer id="44" name="93409344_const" type="Const" version="opset1">
			<data element_type="f16" offset="2560" shape="" size="2"/>
			<output>
				<port id="1" precision="FP16"/>
			</output>
		</layer>
		<layer id="45" name="93419345_const" type="Const" version="opset1">
			<data element_type="f16" offset="2562" shape="" size="2"/>
			<output>
				<port id="1" precision="FP16"/>
			</output>
		</layer>
		<layer id="46" name="93429346_const" type="Const" version="opset1">
			<data element_type="f16" offset="2560" shape="" size="2"/>
			<output>
				<port id="1" precision="FP16"/>
			</output>
		</layer>
		<layer id="47" name="93439347_const" type="Const" version="opset1">
			<data element_type="f16" offset="2562" shape="" size="2"/>
			<output>
				<port id="1" precision="FP16"/>
			</output>
		</layer>
		<layer id="48" name="573/fq_input_0" type="FakeQuantize" version="opset1">
			<data levels="256"/>
			<input>
				<port id="0">
					<dim>1</dim>
					<dim>16</dim>
					<dim>128</dim>
					<dim>64</dim>
				</port>
				<port id="1"/>
				<port id="2"/>
				<port id="3"/>
				<port id="4"/>
			</input>
			<output>
				<port id="5" precision="FP16">
					<dim>1</dim>
					<dim>16</dim>
					<dim>128</dim>
					<dim>64</dim>
				</port>
			</output>
		</layer>
		<layer id="49" name="573" type="MaxPool" version="opset1">
			<data kernel="3,3" pads_begin="1,1" pads_end="1,1" rounding_type="floor" strides="2,2"/>
			<input>
				<port id="0">
					<dim>1</dim>
					<dim>16</dim>
					<dim>128</dim>
					<dim>64</dim>
				</port>
			</input>
			<output>
				<port id="1" precision="FP16">
					<dim>1</dim>
					<dim>16</dim>
					<dim>64</dim>
					<dim>32</dim>
				</port>
			</output>
		</layer>
		<layer id="50" name="574/fq_weights_1/Convert_to_float/Cast_016309_const" type="Const" version="opset1">
			<data element_type="u8" offset="2564" shape="16,16,1,1" size="256"/>
			<output>
				<port id="1" precision="U8">
					<dim>16</dim>
					<dim>16</dim>
					<dim>1</dim>
					<dim>1</dim>
				</port>
			</output>
		</layer>
		<layer id="51" name="574/fq_weights_1/Convert_to_float" type="Convert" version="opset1">
			<data destination_type="f16"/>
			<input>
				<port id="0">
					<dim>16</dim>
					<dim>16</dim>
					<dim>1</dim>
					<dim>1</dim>
				</port>
			</input>
			<output>
				<port id="1" precision="FP16">
					<dim>16</dim>
					<dim>16</dim>
					<dim>1</dim>
					<dim>1</dim>
				</port>
			</output>
		</layer>
		<layer id="52" name="574/fq_weights_1/Copy/out_low13980_const" type="Const" version="opset1">
			<data element_type="f16" offset="2820" shape="1" size="2"/>
			<output>
				<port id="1" precision="FP16">
					<dim>1</dim>
				</port>
			</output>
		</layer>
		<layer id="53" name="574/fq_weights_1/Copy/out_high13981_const" type="Const" version="opset1">
			<data element_type="f16" offset="2394" shape="1" size="2"/>
			<output>
				<port id="1" precision="FP16">
					<dim>1</dim>
				</port>
			</output>
		</layer>
		<layer id="54" name="65296533_const" type="Const" version="opset1">
			<data element_type="f16" offset="2822" shape="16,1,1,1" size="32"/>
			<output>
				<port id="1" precision="FP16">
					<dim>16</dim>
					<dim>1</dim>
					<dim>1</dim>
					<dim>1</dim>
				</port>
			</output>
		</layer>
		<layer id="55" name="65306534_const" type="Const" version="opset1">
			<data element_type="f16" offset="2854" shape="16,1,1,1" size="32"/>
			<output>
				<port id="1" precision="FP16">
					<dim>16</dim>
					<dim>1</dim>
					<dim>1</dim>
					<dim>1</dim>
				</port>
			</output>
		</layer>
		<layer id="56" name="574/fq_weights_1" type="FakeQuantize" version="opset1">
			<data levels="255"/>
			<input>
				<port id="0">
					<dim>16</dim>
					<dim>16</dim>
					<dim>1</dim>
					<dim>1</dim>
				</port>
				<port id="1">
					<dim>1</dim>
				</port>
				<port id="2">
					<dim>1</dim>
				</port>
				<port id="3">
					<dim>16</dim>
					<dim>1</dim>
					<dim>1</dim>
					<dim>1</dim>
				</port>
				<port id="4">
					<dim>16</dim>
					<dim>1</dim>
					<dim>1</dim>
					<dim>1</dim>
				</port>
			</input>
			<output>
				<port id="5" precision="FP16">
					<dim>16</dim>
					<dim>16</dim>
					<dim>1</dim>
					<dim>1</dim>
				</port>
			</output>
		</layer>
		<layer id="57" name="574" type="Convolution" version="opset1">
			<data dilations="1,1" output_padding="0,0" pads_begin="0,0" pads_end="0,0" strides="1,1"/>
			<input>
				<port id="0">
					<dim>1</dim>
					<dim>16</dim>
					<dim>64</dim>
					<dim>32</dim>
				</port>
				<port id="1">
					<dim>16</dim>
					<dim>16</dim>
					<dim>1</dim>
					<dim>1</dim>
				</port>
			</input>
			<output>
				<port id="2" precision="FP16">
					<dim>1</dim>
					<dim>16</dim>
					<dim>64</dim>
					<dim>32</dim>
				</port>
			</output>
		</layer>
		<layer id="58" name="data_add_1967119676/copy_const915_const" type="Const" version="opset1">
			<data element_type="f16" offset="2886" shape="1,16,1,1" size="32"/>
			<output>
				<port id="1" precision="FP16">
					<dim>1</dim>
					<dim>16</dim>
					<dim>1</dim>
					<dim>1</dim>
				</port>
			</output>
		</layer>
		<layer id="59" name="575/variance/Fused_Add_" type="Add" version="opset1">
			<input>
				<port id="0">
					<dim>1</dim>
					<dim>16</dim>
					<dim>64</dim>
					<dim>32</dim>
				</port>
				<port id="1">
					<dim>1</dim>
					<dim>16</dim>
					<dim>1</dim>
					<dim>1</dim>
				</port>
			</input>
			<output>
				<port id="2" precision="FP16">
					<dim>1</dim>
					<dim>16</dim>
					<dim>64</dim>
					<dim>32</dim>
				</port>
			</output>
		</layer>
		<layer id="60" name="576" type="ReLU" version="opset1">
			<input>
				<port id="0">
					<dim>1</dim>
					<dim>16</dim>
					<dim>64</dim>
					<dim>32</dim>
				</port>
			</input>
			<output>
				<port id="1" precision="FP16">
					<dim>1</dim>
					<dim>16</dim>
					<dim>64</dim>
					<dim>32</dim>
				</port>
			</output>
		</layer>
		<layer id="61" name="71977201_const" type="Const" version="opset1">
			<data element_type="f16" offset="2918" shape="" size="2"/>
			<output>
				<port id="1" precision="FP16"/>
			</output>
		</layer>
		<layer id="62" name="71987202_const" type="Const" version="opset1">
			<data element_type="f16" offset="2920" shape="" size="2"/>
			<output>
				<port id="1" precision="FP16"/>
			</output>
		</layer>
		<layer id="63" name="71997203_const" type="Const" version="opset1">
			<data element_type="f16" offset="2918" shape="" size="2"/>
			<output>
				<port id="1" precision="FP16"/>
			</output>
		</layer>
		<layer id="64" name="72007204_const" type="Const" version="opset1">
			<data element_type="f16" offset="2920" shape="" size="2"/>
			<output>
				<port id="1" precision="FP16"/>
			</output>
		</layer>
		<layer id="65" name="577/fq_input_0" type="FakeQuantize" version="opset1">
			<data levels="256"/>
			<input>
				<port id="0">
					<dim>1</dim>
					<dim>16</dim>
					<dim>64</dim>
					<dim>32</dim>
				</port>
				<port id="1"/>
				<port id="2"/>
				<port id="3"/>
				<port id="4"/>
			</input>
			<output>
				<port id="5" precision="FP16">
					<dim>1</dim>
					<dim>16</dim>
					<dim>64</dim>
					<dim>32</dim>
				</port>
			</output>
		</layer>
		<layer id="66" name="577/fq_weights_1/Convert_to_float/Cast_016433_const" type="Const" version="opset1">
			<data element_type="u8" offset="2922" shape="16,16,1,1" size="256"/>
			<output>
				<port id="1" precision="U8">
					<dim>16</dim>
					<dim>16</dim>
					<dim>1</dim>
					<dim>1</dim>
				</port>
			</output>
		</layer>
		<layer id="67" name="577/fq_weights_1/Convert_to_float" type="Convert" version="opset1">
			<data destination_type="f16"/>
			<input>
				<port id="0">
					<dim>16</dim>
					<dim>16</dim>
					<dim>1</dim>
					<dim>1</dim>
				</port>
			</input>
			<output>
				<port id="1" precision="FP16">
					<dim>16</dim>
					<dim>16</dim>
					<dim>1</dim>
					<dim>1</dim>
				</port>
			</output>
		</layer>
		<layer id="68" name="577/fq_weights_1/Copy/out_low14100_const" type="Const" version="opset1">
			<data element_type="f16" offset="3178" shape="1" size="2"/>
			<output>
				<port id="1" precision="FP16">
					<dim>1</dim>
				</port>
			</output>
		</layer>
		<layer id="69" name="577/fq_weights_1/Copy/out_high14101_const" type="Const" version="opset1">
			<data element_type="f16" offset="2394" shape="1" size="2"/>
			<output>
				<port id="1" precision="FP16">
					<dim>1</dim>
				</port>
			</output>
		</layer>
		<layer id="70" name="72097213_const" type="Const" version="opset1">
			<data element_type="f16" offset="3180" shape="16,1,1,1" size="32"/>
			<output>
				<port id="1" precision="FP16">
					<dim>16</dim>
					<dim>1</dim>
					<dim>1</dim>
					<dim>1</dim>
				</port>
			</output>
		</layer>
		<layer id="71" name="72107214_const" type="Const" version="opset1">
			<data element_type="f16" offset="3212" shape="16,1,1,1" size="32"/>
			<output>
				<port id="1" precision="FP16">
					<dim>16</dim>
					<dim>1</dim>
					<dim>1</dim>
					<dim>1</dim>
				</port>
			</output>
		</layer>
		<layer id="72" name="577/fq_weights_1" type="FakeQuantize" version="opset1">
			<data levels="255"/>
			<input>
				<port id="0">
					<dim>16</dim>
					<dim>16</dim>
					<dim>1</dim>
					<dim>1</dim>
				</port>
				<port id="1">
					<dim>1</dim>
				</port>
				<port id="2">
					<dim>1</dim>
				</port>
				<port id="3">
					<dim>16</dim>
					<dim>1</dim>
					<dim>1</dim>
					<dim>1</dim>
				</port>
				<port id="4">
					<dim>16</dim>
					<dim>1</dim>
					<dim>1</dim>
					<dim>1</dim>
				</port>
			</input>
			<output>
				<port id="5" precision="FP16">
					<dim>16</dim>
					<dim>16</dim>
					<dim>1</dim>
					<dim>1</dim>
				</port>
			</output>
		</layer>
		<layer id="73" name="577" type="Convolution" version="opset1">
			<data dilations="1,1" output_padding="0,0" pads_begin="0,0" pads_end="0,0" strides="1,1"/>
			<input>
				<port id="0">
					<dim>1</dim>
					<dim>16</dim>
					<dim>64</dim>
					<dim>32</dim>
				</port>
				<port id="1">
					<dim>16</dim>
					<dim>16</dim>
					<dim>1</dim>
					<dim>1</dim>
				</port>
			</input>
			<output>
				<port id="2" precision="FP16">
					<dim>1</dim>
					<dim>16</dim>
					<dim>64</dim>
					<dim>32</dim>
				</port>
			</output>
		</layer>
		<layer id="74" name="21362138_const" type="Const" version="opset1">
			<data element_type="f16" offset="3244" shape="1,16,1,1" size="32"/>
			<output>
				<port id="1" precision="FP16">
					<dim>1</dim>
					<dim>16</dim>
					<dim>1</dim>
					<dim>1</dim>
				</port>
			</output>
		</layer>
		<layer id="75" name="577/add_" type="Add" version="opset1">
			<input>
				<port id="0">
					<dim>1</dim>
					<dim>16</dim>
					<dim>64</dim>
					<dim>32</dim>
				</port>
				<port id="1">
					<dim>1</dim>
					<dim>16</dim>
					<dim>1</dim>
					<dim>1</dim>
				</port>
			</input>
			<output>
				<port id="2" precision="FP16">
					<dim>1</dim>
					<dim>16</dim>
					<dim>64</dim>
					<dim>32</dim>
				</port>
			</output>
		</layer>
		<layer id="76" name="54475451_const" type="Const" version="opset1">
			<data element_type="f16" offset="3276" shape="1,16,1,1" size="32"/>
			<output>
				<port id="1" precision="FP16">
					<dim>1</dim>
					<dim>16</dim>
					<dim>1</dim>
					<dim>1</dim>
				</port>
			</output>
		</layer>
		<layer id="77" name="54485452_const" type="Const" version="opset1">
			<data element_type="f16" offset="3308" shape="1,16,1,1" size="32"/>
			<output>
				<port id="1" precision="FP16">
					<dim>1</dim>
					<dim>16</dim>
					<dim>1</dim>
					<dim>1</dim>
				</port>
			</output>
		</layer>
		<layer id="78" name="54495453_const" type="Const" version="opset1">
			<data element_type="f16" offset="3276" shape="1,16,1,1" size="32"/>
			<output>
				<port id="1" precision="FP16">
					<dim>1</dim>
					<dim>16</dim>
					<dim>1</dim>
					<dim>1</dim>
				</port>
			</output>
		</layer>
		<layer id="79" name="54505454_const" type="Const" version="opset1">
			<data element_type="f16" offset="3308" shape="1,16,1,1" size="32"/>
			<output>
				<port id="1" precision="FP16">
					<dim>1</dim>
					<dim>16</dim>
					<dim>1</dim>
					<dim>1</dim>
				</port>
			</output>
		</layer>
		<layer id="80" name="578/fq_input_0" type="FakeQuantize" version="opset1">
			<data levels="256"/>
			<input>
				<port id="0">
					<dim>1</dim>
					<dim>16</dim>
					<dim>64</dim>
					<dim>32</dim>
				</port>
				<port id="1">
					<dim>1</dim>
					<dim>16</dim>
					<dim>1</dim>
					<dim>1</dim>
				</port>
				<port id="2">
					<dim>1</dim>
					<dim>16</dim>
					<dim>1</dim>
					<dim>1</dim>
				</port>
				<port id="3">
					<dim>1</dim>
					<dim>16</dim>
					<dim>1</dim>
					<dim>1</dim>
				</port>
				<port id="4">
					<dim>1</dim>
					<dim>16</dim>
					<dim>1</dim>
					<dim>1</dim>
				</port>
			</input>
			<output>
				<port id="5" precision="FP16">
					<dim>1</dim>
					<dim>16</dim>
					<dim>64</dim>
					<dim>32</dim>
				</port>
			</output>
		</layer>
		<layer id="81" name="578/fq_weights_1/Convert_to_float/Cast_016499_const" type="Const" version="opset1">
			<data element_type="u8" offset="3340" shape="16,1,3,3" size="144"/>
			<output>
				<port id="1" precision="U8">
					<dim>16</dim>
					<dim>1</dim>
					<dim>3</dim>
					<dim>3</dim>
				</port>
			</output>
		</layer>
		<layer id="82" name="578/fq_weights_1/Convert_to_float" type="Convert" version="opset1">
			<data destination_type="f16"/>
			<input>
				<port id="0">
					<dim>16</dim>
					<dim>1</dim>
					<dim>3</dim>
					<dim>3</dim>
				</port>
			</input>
			<output>
				<port id="1" precision="FP16">
					<dim>16</dim>
					<dim>1</dim>
					<dim>3</dim>
					<dim>3</dim>
				</port>
			</output>
		</layer>
		<layer id="83" name="578/fq_weights_1/Copy/out_low13852_const" type="Const" version="opset1">
			<data element_type="f16" offset="3178" shape="1" size="2"/>
			<output>
				<port id="1" precision="FP16">
					<dim>1</dim>
				</port>
			</output>
		</layer>
		<layer id="84" name="578/fq_weights_1/Copy/out_high13853_const" type="Const" version="opset1">
			<data element_type="f16" offset="2394" shape="1" size="2"/>
			<output>
				<port id="1" precision="FP16">
					<dim>1</dim>
				</port>
			</output>
		</layer>
		<layer id="85" name="54595463_const" type="Const" version="opset1">
			<data element_type="f16" offset="3484" shape="16,1,1,1" size="32"/>
			<output>
				<port id="1" precision="FP16">
					<dim>16</dim>
					<dim>1</dim>
					<dim>1</dim>
					<dim>1</dim>
				</port>
			</output>
		</layer>
		<layer id="86" name="54605464_const" type="Const" version="opset1">
			<data element_type="f16" offset="3516" shape="16,1,1,1" size="32"/>
			<output>
				<port id="1" precision="FP16">
					<dim>16</dim>
					<dim>1</dim>
					<dim>1</dim>
					<dim>1</dim>
				</port>
			</output>
		</layer>
		<layer id="87" name="578/fq_weights_1" type="FakeQuantize" version="opset1">
			<data levels="255"/>
			<input>
				<port id="0">
					<dim>16</dim>
					<dim>1</dim>
					<dim>3</dim>
					<dim>3</dim>
				</port>
				<port id="1">
					<dim>1</dim>
				</port>
				<port id="2">
					<dim>1</dim>
				</port>
				<port id="3">
					<dim>16</dim>
					<dim>1</dim>
					<dim>1</dim>
					<dim>1</dim>
				</port>
				<port id="4">
					<dim>16</dim>
					<dim>1</dim>
					<dim>1</dim>
					<dim>1</dim>
				</port>
			</input>
			<output>
				<port id="5" precision="FP16">
					<dim>16</dim>
					<dim>1</dim>
					<dim>3</dim>
					<dim>3</dim>
				</port>
			</output>
		</layer>
		<layer id="88" name="18627/value18629_const" type="Const" version="opset1">
			<data element_type="i64" offset="3548" shape="5" size="40"/>
			<output>
				<port id="1" precision="I64">
					<dim>5</dim>
				</port>
			</output>
		</layer>
		<layer id="89" name="18627" type="Reshape" version="opset1">
			<data special_zero="True"/>
			<input>
				<port id="0">
					<dim>16</dim>
					<dim>1</dim>
					<dim>3</dim>
					<dim>3</dim>
				</port>
				<port id="1">
					<dim>5</dim>
				</port>
			</input>
			<output>
				<port id="2" precision="FP16">
					<dim>16</dim>
					<dim>1</dim>
					<dim>1</dim>
					<dim>3</dim>
					<dim>3</dim>
				</port>
			</output>
		</layer>
		<layer id="90" name="578" type="GroupConvolution" version="opset1">
			<data dilations="1,1" output_padding="0,0" pads_begin="1,1" pads_end="1,1" strides="1,1"/>
			<input>
				<port id="0">
					<dim>1</dim>
					<dim>16</dim>
					<dim>64</dim>
					<dim>32</dim>
				</port>
				<port id="1">
					<dim>16</dim>
					<dim>1</dim>
					<dim>1</dim>
					<dim>3</dim>
					<dim>3</dim>
				</port>
			</input>
			<output>
				<port id="2" precision="FP16">
					<dim>1</dim>
					<dim>16</dim>
					<dim>64</dim>
					<dim>32</dim>
				</port>
			</output>
		</layer>
		<layer id="91" name="data_add_1975119756/copy_const922_const" type="Const" version="opset1">
			<data element_type="f16" offset="3588" shape="1,16,1,1" size="32"/>
			<output>
				<port id="1" precision="FP16">
					<dim>1</dim>
					<dim>16</dim>
					<dim>1</dim>
					<dim>1</dim>
				</port>
			</output>
		</layer>
		<layer id="92" name="579/variance/Fused_Add_" type="Add" version="opset1">
			<input>
				<port id="0">
					<dim>1</dim>
					<dim>16</dim>
					<dim>64</dim>
					<dim>32</dim>
				</port>
				<port id="1">
					<dim>1</dim>
					<dim>16</dim>
					<dim>1</dim>
					<dim>1</dim>
				</port>
			</input>
			<output>
				<port id="2" precision="FP16">
					<dim>1</dim>
					<dim>16</dim>
					<dim>64</dim>
					<dim>32</dim>
				</port>
			</output>
		</layer>
		<layer id="93" name="580" type="ReLU" version="opset1">
			<input>
				<port id="0">
					<dim>1</dim>
					<dim>16</dim>
					<dim>64</dim>
					<dim>32</dim>
				</port>
			</input>
			<output>
				<port id="1" precision="FP16">
					<dim>1</dim>
					<dim>16</dim>
					<dim>64</dim>
					<dim>32</dim>
				</port>
			</output>
		</layer>
		<layer id="94" name="50675071_const" type="Const" version="opset1">
			<data element_type="f16" offset="3620" shape="" size="2"/>
			<output>
				<port id="1" precision="FP16"/>
			</output>
		</layer>
		<layer id="95" name="50685072_const" type="Const" version="opset1">
			<data element_type="f16" offset="3622" shape="" size="2"/>
			<output>
				<port id="1" precision="FP16"/>
			</output>
		</layer>
		<layer id="96" name="50695073_const" type="Const" version="opset1">
			<data element_type="f16" offset="3620" shape="" size="2"/>
			<output>
				<port id="1" precision="FP16"/>
			</output>
		</layer>
		<layer id="97" name="50705074_const" type="Const" version="opset1">
			<data element_type="f16" offset="3622" shape="" size="2"/>
			<output>
				<port id="1" precision="FP16"/>
			</output>
		</layer>
		<layer id="98" name="617/reduce/fq_input_0" type="FakeQuantize" version="opset1">
			<data levels="256"/>
			<input>
				<port id="0">
					<dim>1</dim>
					<dim>16</dim>
					<dim>64</dim>
					<dim>32</dim>
				</port>
				<port id="1"/>
				<port id="2"/>
				<port id="3"/>
				<port id="4"/>
			</input>
			<output>
				<port id="5" precision="FP16">
					<dim>1</dim>
					<dim>16</dim>
					<dim>64</dim>
					<dim>32</dim>
				</port>
			</output>
		</layer>
		<layer id="99" name="617/reduce/Cast_116429_const" type="Const" version="opset1">
			<data element_type="i64" offset="3624" shape="2" size="16"/>
			<output>
				<port id="1" precision="I64">
					<dim>2</dim>
				</port>
			</output>
		</layer>
		<layer id="100" name="617/reduce" type="ReduceMean" version="opset1">
			<data keep_dims="True"/>
			<input>
				<port id="0">
					<dim>1</dim>
					<dim>16</dim>
					<dim>64</dim>
					<dim>32</dim>
				</port>
				<port id="1">
					<dim>2</dim>
				</port>
			</input>
			<output>
				<port id="2" precision="FP16">
					<dim>1</dim>
					<dim>16</dim>
					<dim>1</dim>
					<dim>1</dim>
				</port>
			</output>
		</layer>
		<layer id="101" name="Copy_onnx_initializer_node_conv2.0.gate.fc1.weight/Output_0/Data__const927_const" type="Const" version="opset1">
			<data element_type="f16" offset="3640" shape="1,16,1,1" size="32"/>
			<output>
				<port id="1" precision="FP16">
					<dim>1</dim>
					<dim>16</dim>
					<dim>1</dim>
					<dim>1</dim>
				</port>
			</output>
		</layer>
		<layer id="102" name="618/WithoutBiases" type="Convolution" version="opset1">
			<data dilations="1,1" output_padding="0,0" pads_begin="0,0" pads_end="0,0" strides="1,1"/>
			<input>
				<port id="0">
					<dim>1</dim>
					<dim>16</dim>
					<dim>1</dim>
					<dim>1</dim>
				</port>
				<port id="1">
					<dim>1</dim>
					<dim>16</dim>
					<dim>1</dim>
					<dim>1</dim>
				</port>
			</input>
			<output>
				<port id="2" precision="FP16">
					<dim>1</dim>
					<dim>1</dim>
					<dim>1</dim>
					<dim>1</dim>
				</port>
			</output>
		</layer>
		<layer id="103" name="618/Dims11974/copy_const929_const" type="Const" version="opset1">
			<data element_type="f16" offset="3672" shape="1,1,1,1" size="2"/>
			<output>
				<port id="1" precision="FP16">
					<dim>1</dim>
					<dim>1</dim>
					<dim>1</dim>
					<dim>1</dim>
				</port>
			</output>
		</layer>
		<layer id="104" name="618" type="Add" version="opset1">
			<input>
				<port id="0">
					<dim>1</dim>
					<dim>1</dim>
					<dim>1</dim>
					<dim>1</dim>
				</port>
				<port id="1">
					<dim>1</dim>
					<dim>1</dim>
					<dim>1</dim>
					<dim>1</dim>
				</port>
			</input>
			<output>
				<port id="2" precision="FP16">
					<dim>1</dim>
					<dim>1</dim>
					<dim>1</dim>
					<dim>1</dim>
				</port>
			</output>
		</layer>
		<layer id="105" name="619" type="ReLU" version="opset1">
			<input>
				<port id="0">
					<dim>1</dim>
					<dim>1</dim>
					<dim>1</dim>
					<dim>1</dim>
				</port>
			</input>
			<output>
				<port id="1" precision="FP16">
					<dim>1</dim>
					<dim>1</dim>
					<dim>1</dim>
					<dim>1</dim>
				</port>
			</output>
		</layer>
		<layer id="106" name="Copy_onnx_initializer_node_conv2.0.gate.fc2.weight/Output_0/Data__const932_const" type="Const" version="opset1">
			<data element_type="f16" offset="3674" shape="16,1,1,1" size="32"/>
			<output>
				<port id="1" precision="FP16">
					<dim>16</dim>
					<dim>1</dim>
					<dim>1</dim>
					<dim>1</dim>
				</port>
			</output>
		</layer>
		<layer id="107" name="620/WithoutBiases" type="Convolution" version="opset1">
			<data dilations="1,1" output_padding="0,0" pads_begin="0,0" pads_end="0,0" strides="1,1"/>
			<input>
				<port id="0">
					<dim>1</dim>
					<dim>1</dim>
					<dim>1</dim>
					<dim>1</dim>
				</port>
				<port id="1">
					<dim>16</dim>
					<dim>1</dim>
					<dim>1</dim>
					<dim>1</dim>
				</port>
			</input>
			<output>
				<port id="2" precision="FP16">
					<dim>1</dim>
					<dim>16</dim>
					<dim>1</dim>
					<dim>1</dim>
				</port>
			</output>
		</layer>
		<layer id="108" name="620/Dims12046/copy_const934_const" type="Const" version="opset1">
			<data element_type="f16" offset="3706" shape="1,16,1,1" size="32"/>
			<output>
				<port id="1" precision="FP16">
					<dim>1</dim>
					<dim>16</dim>
					<dim>1</dim>
					<dim>1</dim>
				</port>
			</output>
		</layer>
		<layer id="109" name="620" type="Add" version="opset1">
			<input>
				<port id="0">
					<dim>1</dim>
					<dim>16</dim>
					<dim>1</dim>
					<dim>1</dim>
				</port>
				<port id="1">
					<dim>1</dim>
					<dim>16</dim>
					<dim>1</dim>
					<dim>1</dim>
				</port>
			</input>
			<output>
				<port id="2" precision="FP16">
					<dim>1</dim>
					<dim>16</dim>
					<dim>1</dim>
					<dim>1</dim>
				</port>
			</output>
		</layer>
		<layer id="110" name="621" type="Sigmoid" version="opset1">
			<input>
				<port id="0">
					<dim>1</dim>
					<dim>16</dim>
					<dim>1</dim>
					<dim>1</dim>
				</port>
			</input>
			<output>
				<port id="1" precision="FP16">
					<dim>1</dim>
					<dim>16</dim>
					<dim>1</dim>
					<dim>1</dim>
				</port>
			</output>
		</layer>
		<layer id="111" name="60176021_const" type="Const" version="opset1">
			<data element_type="f16" offset="3620" shape="" size="2"/>
			<output>
				<port id="1" precision="FP16"/>
			</output>
		</layer>
		<layer id="112" name="60186022_const" type="Const" version="opset1">
			<data element_type="f16" offset="3738" shape="" size="2"/>
			<output>
				<port id="1" precision="FP16"/>
			</output>
		</layer>
		<layer id="113" name="60196023_const" type="Const" version="opset1">
			<data element_type="f16" offset="3620" shape="" size="2"/>
			<output>
				<port id="1" precision="FP16"/>
			</output>
		</layer>
		<layer id="114" name="60206024_const" type="Const" version="opset1">
			<data element_type="f16" offset="3738" shape="" size="2"/>
			<output>
				<port id="1" precision="FP16"/>
			</output>
		</layer>
		<layer id="115" name="622/fq_input_1" type="FakeQuantize" version="opset1">
			<data levels="256"/>
			<input>
				<port id="0">
					<dim>1</dim>
					<dim>16</dim>
					<dim>1</dim>
					<dim>1</dim>
				</port>
				<port id="1"/>
				<port id="2"/>
				<port id="3"/>
				<port id="4"/>
			</input>
			<output>
				<port id="5" precision="FP16">
					<dim>1</dim>
					<dim>16</dim>
					<dim>1</dim>
					<dim>1</dim>
				</port>
			</output>
		</layer>
		<layer id="116" name="622" type="Multiply" version="opset1">
			<input>
				<port id="0">
					<dim>1</dim>
					<dim>16</dim>
					<dim>64</dim>
					<dim>32</dim>
				</port>
				<port id="1">
					<dim>1</dim>
					<dim>16</dim>
					<dim>1</dim>
					<dim>1</dim>
				</port>
			</input>
			<output>
				<port id="2" precision="FP16">
					<dim>1</dim>
					<dim>16</dim>
					<dim>64</dim>
					<dim>32</dim>
				</port>
			</output>
		</layer>
		<layer id="117" name="63176321_const" type="Const" version="opset1">
			<data element_type="f16" offset="3620" shape="" size="2"/>
			<output>
				<port id="1" precision="FP16"/>
			</output>
		</layer>
		<layer id="118" name="63186322_const" type="Const" version="opset1">
			<data element_type="f16" offset="3740" shape="" size="2"/>
			<output>
				<port id="1" precision="FP16"/>
			</output>
		</layer>
		<layer id="119" name="63196323_const" type="Const" version="opset1">
			<data element_type="f16" offset="3620" shape="" size="2"/>
			<output>
				<port id="1" precision="FP16"/>
			</output>
		</layer>
		<layer id="120" name="63206324_const" type="Const" version="opset1">
			<data element_type="f16" offset="3740" shape="" size="2"/>
			<output>
				<port id="1" precision="FP16"/>
			</output>
		</layer>
		<layer id="121" name="629/fq_input_0" type="FakeQuantize" version="opset1">
			<data levels="256"/>
			<input>
				<port id="0">
					<dim>1</dim>
					<dim>16</dim>
					<dim>64</dim>
					<dim>32</dim>
				</port>
				<port id="1"/>
				<port id="2"/>
				<port id="3"/>
				<port id="4"/>
			</input>
			<output>
				<port id="5" precision="FP16">
					<dim>1</dim>
					<dim>16</dim>
					<dim>64</dim>
					<dim>32</dim>
				</port>
			</output>
		</layer>
		<layer id="122" name="581/fq_weights_1/Convert_to_float/Cast_016347_const" type="Const" version="opset1">
			<data element_type="u8" offset="3742" shape="16,16,1,1" size="256"/>
			<output>
				<port id="1" precision="U8">
					<dim>16</dim>
					<dim>16</dim>
					<dim>1</dim>
					<dim>1</dim>
				</port>
			</output>
		</layer>
		<layer id="123" name="581/fq_weights_1/Convert_to_float" type="Convert" version="opset1">
			<data destination_type="f16"/>
			<input>
				<port id="0">
					<dim>16</dim>
					<dim>16</dim>
					<dim>1</dim>
					<dim>1</dim>
				</port>
			</input>
			<output>
				<port id="1" precision="FP16">
					<dim>16</dim>
					<dim>16</dim>
					<dim>1</dim>
					<dim>1</dim>
				</port>
			</output>
		</layer>
		<layer id="124" name="581/fq_weights_1/Copy/out_low14300_const" type="Const" version="opset1">
			<data element_type="f16" offset="3998" shape="1" size="2"/>
			<output>
				<port id="1" precision="FP16">
					<dim>1</dim>
				</port>
			</output>
		</layer>
		<layer id="125" name="581/fq_weights_1/Copy/out_high14301_const" type="Const" version="opset1">
			<data element_type="f16" offset="2394" shape="1" size="2"/>
			<output>
				<port id="1" precision="FP16">
					<dim>1</dim>
				</port>
			</output>
		</layer>
		<layer id="126" name="53395343_const" type="Const" version="opset1">
			<data element_type="f16" offset="4000" shape="16,1,1,1" size="32"/>
			<output>
				<port id="1" precision="FP16">
					<dim>16</dim>
					<dim>1</dim>
					<dim>1</dim>
					<dim>1</dim>
				</port>
			</output>
		</layer>
		<layer id="127" name="53405344_const" type="Const" version="opset1">
			<data element_type="f16" offset="4032" shape="16,1,1,1" size="32"/>
			<output>
				<port id="1" precision="FP16">
					<dim>16</dim>
					<dim>1</dim>
					<dim>1</dim>
					<dim>1</dim>
				</port>
			</output>
		</layer>
		<layer id="128" name="581/fq_weights_1" type="FakeQuantize" version="opset1">
			<data levels="255"/>
			<input>
				<port id="0">
					<dim>16</dim>
					<dim>16</dim>
					<dim>1</dim>
					<dim>1</dim>
				</port>
				<port id="1">
					<dim>1</dim>
				</port>
				<port id="2">
					<dim>1</dim>
				</port>
				<port id="3">
					<dim>16</dim>
					<dim>1</dim>
					<dim>1</dim>
					<dim>1</dim>
				</port>
				<port id="4">
					<dim>16</dim>
					<dim>1</dim>
					<dim>1</dim>
					<dim>1</dim>
				</port>
			</input>
			<output>
				<port id="5" precision="FP16">
					<dim>16</dim>
					<dim>16</dim>
					<dim>1</dim>
					<dim>1</dim>
				</port>
			</output>
		</layer>
		<layer id="129" name="581" type="Convolution" version="opset1">
			<data dilations="1,1" output_padding="0,0" pads_begin="0,0" pads_end="0,0" strides="1,1"/>
			<input>
				<port id="0">
					<dim>1</dim>
					<dim>16</dim>
					<dim>64</dim>
					<dim>32</dim>
				</port>
				<port id="1">
					<dim>16</dim>
					<dim>16</dim>
					<dim>1</dim>
					<dim>1</dim>
				</port>
			</input>
			<output>
				<port id="2" precision="FP16">
					<dim>1</dim>
					<dim>16</dim>
					<dim>64</dim>
					<dim>32</dim>
				</port>
			</output>
		</layer>
		<layer id="130" name="21402142_const" type="Const" version="opset1">
			<data element_type="f16" offset="4064" shape="1,16,1,1" size="32"/>
			<output>
				<port id="1" precision="FP16">
					<dim>1</dim>
					<dim>16</dim>
					<dim>1</dim>
					<dim>1</dim>
				</port>
			</output>
		</layer>
		<layer id="131" name="581/add_" type="Add" version="opset1">
			<input>
				<port id="0">
					<dim>1</dim>
					<dim>16</dim>
					<dim>64</dim>
					<dim>32</dim>
				</port>
				<port id="1">
					<dim>1</dim>
					<dim>16</dim>
					<dim>1</dim>
					<dim>1</dim>
				</port>
			</input>
			<output>
				<port id="2" precision="FP16">
					<dim>1</dim>
					<dim>16</dim>
					<dim>64</dim>
					<dim>32</dim>
				</port>
			</output>
		</layer>
		<layer id="132" name="39273931_const" type="Const" version="opset1">
			<data element_type="f16" offset="4096" shape="1,16,1,1" size="32"/>
			<output>
				<port id="1" precision="FP16">
					<dim>1</dim>
					<dim>16</dim>
					<dim>1</dim>
					<dim>1</dim>
				</port>
			</output>
		</layer>
		<layer id="133" name="39283932_const" type="Const" version="opset1">
			<data element_type="f16" offset="4128" shape="1,16,1,1" size="32"/>
			<output>
				<port id="1" precision="FP16">
					<dim>1</dim>
					<dim>16</dim>
					<dim>1</dim>
					<dim>1</dim>
				</port>
			</output>
		</layer>
		<layer id="134" name="39293933_const" type="Const" version="opset1">
			<data element_type="f16" offset="4096" shape="1,16,1,1" size="32"/>
			<output>
				<port id="1" precision="FP16">
					<dim>1</dim>
					<dim>16</dim>
					<dim>1</dim>
					<dim>1</dim>
				</port>
			</output>
		</layer>
		<layer id="135" name="39303934_const" type="Const" version="opset1">
			<data element_type="f16" offset="4128" shape="1,16,1,1" size="32"/>
			<output>
				<port id="1" precision="FP16">
					<dim>1</dim>
					<dim>16</dim>
					<dim>1</dim>
					<dim>1</dim>
				</port>
			</output>
		</layer>
		<layer id="136" name="582/fq_input_0" type="FakeQuantize" version="opset1">
			<data levels="256"/>
			<input>
				<port id="0">
					<dim>1</dim>
					<dim>16</dim>
					<dim>64</dim>
					<dim>32</dim>
				</port>
				<port id="1">
					<dim>1</dim>
					<dim>16</dim>
					<dim>1</dim>
					<dim>1</dim>
				</port>
				<port id="2">
					<dim>1</dim>
					<dim>16</dim>
					<dim>1</dim>
					<dim>1</dim>
				</port>
				<port id="3">
					<dim>1</dim>
					<dim>16</dim>
					<dim>1</dim>
					<dim>1</dim>
				</port>
				<port id="4">
					<dim>1</dim>
					<dim>16</dim>
					<dim>1</dim>
					<dim>1</dim>
				</port>
			</input>
			<output>
				<port id="5" precision="FP16">
					<dim>1</dim>
					<dim>16</dim>
					<dim>64</dim>
					<dim>32</dim>
				</port>
			</output>
		</layer>
		<layer id="137" name="582/fq_weights_1/Convert_to_float/Cast_016373_const" type="Const" version="opset1">
			<data element_type="u8" offset="4160" shape="16,1,3,3" size="144"/>
			<output>
				<port id="1" precision="U8">
					<dim>16</dim>
					<dim>1</dim>
					<dim>3</dim>
					<dim>3</dim>
				</port>
			</output>
		</layer>
		<layer id="138" name="582/fq_weights_1/Convert_to_float" type="Convert" version="opset1">
			<data destination_type="f16"/>
			<input>
				<port id="0">
					<dim>16</dim>
					<dim>1</dim>
					<dim>3</dim>
					<dim>3</dim>
				</port>
			</input>
			<output>
				<port id="1" precision="FP16">
					<dim>16</dim>
					<dim>1</dim>
					<dim>3</dim>
					<dim>3</dim>
				</port>
			</output>
		</layer>
		<layer id="139" name="582/fq_weights_1/Copy/out_low14340_const" type="Const" version="opset1">
			<data element_type="f16" offset="3998" shape="1" size="2"/>
			<output>
				<port id="1" precision="FP16">
					<dim>1</dim>
				</port>
			</output>
		</layer>
		<layer id="140" name="582/fq_weights_1/Copy/out_high14341_const" type="Const" version="opset1">
			<data element_type="f16" offset="2394" shape="1" size="2"/>
			<output>
				<port id="1" precision="FP16">
					<dim>1</dim>
				</port>
			</output>
		</layer>
		<layer id="141" name="39393943_const" type="Const" version="opset1">
			<data element_type="f16" offset="4304" shape="16,1,1,1" size="32"/>
			<output>
				<port id="1" precision="FP16">
					<dim>16</dim>
					<dim>1</dim>
					<dim>1</dim>
					<dim>1</dim>
				</port>
			</output>
		</layer>
		<layer id="142" name="39403944_const" type="Const" version="opset1">
			<data element_type="f16" offset="4336" shape="16,1,1,1" size="32"/>
			<output>
				<port id="1" precision="FP16">
					<dim>16</dim>
					<dim>1</dim>
					<dim>1</dim>
					<dim>1</dim>
				</port>
			</output>
		</layer>
		<layer id="143" name="582/fq_weights_1" type="FakeQuantize" version="opset1">
			<data levels="255"/>
			<input>
				<port id="0">
					<dim>16</dim>
					<dim>1</dim>
					<dim>3</dim>
					<dim>3</dim>
				</port>
				<port id="1">
					<dim>1</dim>
				</port>
				<port id="2">
					<dim>1</dim>
				</port>
				<port id="3">
					<dim>16</dim>
					<dim>1</dim>
					<dim>1</dim>
					<dim>1</dim>
				</port>
				<port id="4">
					<dim>16</dim>
					<dim>1</dim>
					<dim>1</dim>
					<dim>1</dim>
				</port>
			</input>
			<output>
				<port id="5" precision="FP16">
					<dim>16</dim>
					<dim>1</dim>
					<dim>3</dim>
					<dim>3</dim>
				</port>
			</output>
		</layer>
		<layer id="144" name="18423/value18425_const" type="Const" version="opset1">
			<data element_type="i64" offset="3548" shape="5" size="40"/>
			<output>
				<port id="1" precision="I64">
					<dim>5</dim>
				</port>
			</output>
		</layer>
		<layer id="145" name="18423" type="Reshape" version="opset1">
			<data special_zero="True"/>
			<input>
				<port id="0">
					<dim>16</dim>
					<dim>1</dim>
					<dim>3</dim>
					<dim>3</dim>
				</port>
				<port id="1">
					<dim>5</dim>
				</port>
			</input>
			<output>
				<port id="2" precision="FP16">
					<dim>16</dim>
					<dim>1</dim>
					<dim>1</dim>
					<dim>3</dim>
					<dim>3</dim>
				</port>
			</output>
		</layer>
		<layer id="146" name="582" type="GroupConvolution" version="opset1">
			<data dilations="1,1" output_padding="0,0" pads_begin="1,1" pads_end="1,1" strides="1,1"/>
			<input>
				<port id="0">
					<dim>1</dim>
					<dim>16</dim>
					<dim>64</dim>
					<dim>32</dim>
				</port>
				<port id="1">
					<dim>16</dim>
					<dim>1</dim>
					<dim>1</dim>
					<dim>3</dim>
					<dim>3</dim>
				</port>
			</input>
			<output>
				<port id="2" precision="FP16">
					<dim>1</dim>
					<dim>16</dim>
					<dim>64</dim>
					<dim>32</dim>
				</port>
			</output>
		</layer>
		<layer id="147" name="data_add_1973519740/copy_const942_const" type="Const" version="opset1">
			<data element_type="f16" offset="4368" shape="1,16,1,1" size="32"/>
			<output>
				<port id="1" precision="FP16">
					<dim>1</dim>
					<dim>16</dim>
					<dim>1</dim>
					<dim>1</dim>
				</port>
			</output>
		</layer>
		<layer id="148" name="583/variance/Fused_Add_" type="Add" version="opset1">
			<input>
				<port id="0">
					<dim>1</dim>
					<dim>16</dim>
					<dim>64</dim>
					<dim>32</dim>
				</port>
				<port id="1">
					<dim>1</dim>
					<dim>16</dim>
					<dim>1</dim>
					<dim>1</dim>
				</port>
			</input>
			<output>
				<port id="2" precision="FP16">
					<dim>1</dim>
					<dim>16</dim>
					<dim>64</dim>
					<dim>32</dim>
				</port>
			</output>
		</layer>
		<layer id="149" name="584" type="ReLU" version="opset1">
			<input>
				<port id="0">
					<dim>1</dim>
					<dim>16</dim>
					<dim>64</dim>
					<dim>32</dim>
				</port>
			</input>
			<output>
				<port id="1" precision="FP16">
					<dim>1</dim>
					<dim>16</dim>
					<dim>64</dim>
					<dim>32</dim>
				</port>
			</output>
		</layer>
		<layer id="150" name="51275131_const" type="Const" version="opset1">
			<data element_type="f16" offset="4400" shape="" size="2"/>
			<output>
				<port id="1" precision="FP16"/>
			</output>
		</layer>
		<layer id="151" name="51285132_const" type="Const" version="opset1">
			<data element_type="f16" offset="4402" shape="" size="2"/>
			<output>
				<port id="1" precision="FP16"/>
			</output>
		</layer>
		<layer id="152" name="51295133_const" type="Const" version="opset1">
			<data element_type="f16" offset="4400" shape="" size="2"/>
			<output>
				<port id="1" precision="FP16"/>
			</output>
		</layer>
		<layer id="153" name="51305134_const" type="Const" version="opset1">
			<data element_type="f16" offset="4402" shape="" size="2"/>
			<output>
				<port id="1" precision="FP16"/>
			</output>
		</layer>
		<layer id="154" name="585/fq_input_0" type="FakeQuantize" version="opset1">
			<data levels="256"/>
			<input>
				<port id="0">
					<dim>1</dim>
					<dim>16</dim>
					<dim>64</dim>
					<dim>32</dim>
				</port>
				<port id="1"/>
				<port id="2"/>
				<port id="3"/>
				<port id="4"/>
			</input>
			<output>
				<port id="5" precision="FP16">
					<dim>1</dim>
					<dim>16</dim>
					<dim>64</dim>
					<dim>32</dim>
				</port>
			</output>
		</layer>
		<layer id="155" name="585/fq_weights_1/Convert_to_float/Cast_016439_const" type="Const" version="opset1">
			<data element_type="u8" offset="4404" shape="16,16,1,1" size="256"/>
			<output>
				<port id="1" precision="U8">
					<dim>16</dim>
					<dim>16</dim>
					<dim>1</dim>
					<dim>1</dim>
				</port>
			</output>
		</layer>
		<layer id="156" name="585/fq_weights_1/Convert_to_float" type="Convert" version="opset1">
			<data destination_type="f16"/>
			<input>
				<port id="0">
					<dim>16</dim>
					<dim>16</dim>
					<dim>1</dim>
					<dim>1</dim>
				</port>
			</input>
			<output>
				<port id="1" precision="FP16">
					<dim>16</dim>
					<dim>16</dim>
					<dim>1</dim>
					<dim>1</dim>
				</port>
			</output>
		</layer>
		<layer id="157" name="585/fq_weights_1/Copy/out_low14116_const" type="Const" version="opset1">
			<data element_type="f16" offset="4660" shape="1" size="2"/>
			<output>
				<port id="1" precision="FP16">
					<dim>1</dim>
				</port>
			</output>
		</layer>
		<layer id="158" name="585/fq_weights_1/Copy/out_high14117_const" type="Const" version="opset1">
			<data element_type="f16" offset="2394" shape="1" size="2"/>
			<output>
				<port id="1" precision="FP16">
					<dim>1</dim>
				</port>
			</output>
		</layer>
		<layer id="159" name="51395143_const" type="Const" version="opset1">
			<data element_type="f16" offset="4662" shape="16,1,1,1" size="32"/>
			<output>
				<port id="1" precision="FP16">
					<dim>16</dim>
					<dim>1</dim>
					<dim>1</dim>
					<dim>1</dim>
				</port>
			</output>
		</layer>
		<layer id="160" name="51405144_const" type="Const" version="opset1">
			<data element_type="f16" offset="4694" shape="16,1,1,1" size="32"/>
			<output>
				<port id="1" precision="FP16">
					<dim>16</dim>
					<dim>1</dim>
					<dim>1</dim>
					<dim>1</dim>
				</port>
			</output>
		</layer>
		<layer id="161" name="585/fq_weights_1" type="FakeQuantize" version="opset1">
			<data levels="255"/>
			<input>
				<port id="0">
					<dim>16</dim>
					<dim>16</dim>
					<dim>1</dim>
					<dim>1</dim>
				</port>
				<port id="1">
					<dim>1</dim>
				</port>
				<port id="2">
					<dim>1</dim>
				</port>
				<port id="3">
					<dim>16</dim>
					<dim>1</dim>
					<dim>1</dim>
					<dim>1</dim>
				</port>
				<port id="4">
					<dim>16</dim>
					<dim>1</dim>
					<dim>1</dim>
					<dim>1</dim>
				</port>
			</input>
			<output>
				<port id="5" precision="FP16">
					<dim>16</dim>
					<dim>16</dim>
					<dim>1</dim>
					<dim>1</dim>
				</port>
			</output>
		</layer>
		<layer id="162" name="585" type="Convolution" version="opset1">
			<data dilations="1,1" output_padding="0,0" pads_begin="0,0" pads_end="0,0" strides="1,1"/>
			<input>
				<port id="0">
					<dim>1</dim>
					<dim>16</dim>
					<dim>64</dim>
					<dim>32</dim>
				</port>
				<port id="1">
					<dim>16</dim>
					<dim>16</dim>
					<dim>1</dim>
					<dim>1</dim>
				</port>
			</input>
			<output>
				<port id="2" precision="FP16">
					<dim>1</dim>
					<dim>16</dim>
					<dim>64</dim>
					<dim>32</dim>
				</port>
			</output>
		</layer>
		<layer id="163" name="21442146_const" type="Const" version="opset1">
			<data element_type="f16" offset="4726" shape="1,16,1,1" size="32"/>
			<output>
				<port id="1" precision="FP16">
					<dim>1</dim>
					<dim>16</dim>
					<dim>1</dim>
					<dim>1</dim>
				</port>
			</output>
		</layer>
		<layer id="164" name="585/add_" type="Add" version="opset1">
			<input>
				<port id="0">
					<dim>1</dim>
					<dim>16</dim>
					<dim>64</dim>
					<dim>32</dim>
				</port>
				<port id="1">
					<dim>1</dim>
					<dim>16</dim>
					<dim>1</dim>
					<dim>1</dim>
				</port>
			</input>
			<output>
				<port id="2" precision="FP16">
					<dim>1</dim>
					<dim>16</dim>
					<dim>64</dim>
					<dim>32</dim>
				</port>
			</output>
		</layer>
		<layer id="165" name="56975701_const" type="Const" version="opset1">
			<data element_type="f16" offset="4758" shape="1,16,1,1" size="32"/>
			<output>
				<port id="1" precision="FP16">
					<dim>1</dim>
					<dim>16</dim>
					<dim>1</dim>
					<dim>1</dim>
				</port>
			</output>
		</layer>
		<layer id="166" name="56985702_const" type="Const" version="opset1">
			<data element_type="f16" offset="4790" shape="1,16,1,1" size="32"/>
			<output>
				<port id="1" precision="FP16">
					<dim>1</dim>
					<dim>16</dim>
					<dim>1</dim>
					<dim>1</dim>
				</port>
			</output>
		</layer>
		<layer id="167" name="56995703_const" type="Const" version="opset1">
			<data element_type="f16" offset="4758" shape="1,16,1,1" size="32"/>
			<output>
				<port id="1" precision="FP16">
					<dim>1</dim>
					<dim>16</dim>
					<dim>1</dim>
					<dim>1</dim>
				</port>
			</output>
		</layer>
		<layer id="168" name="57005704_const" type="Const" version="opset1">
			<data element_type="f16" offset="4790" shape="1,16,1,1" size="32"/>
			<output>
				<port id="1" precision="FP16">
					<dim>1</dim>
					<dim>16</dim>
					<dim>1</dim>
					<dim>1</dim>
				</port>
			</output>
		</layer>
		<layer id="169" name="586/fq_input_0" type="FakeQuantize" version="opset1">
			<data levels="256"/>
			<input>
				<port id="0">
					<dim>1</dim>
					<dim>16</dim>
					<dim>64</dim>
					<dim>32</dim>
				</port>
				<port id="1">
					<dim>1</dim>
					<dim>16</dim>
					<dim>1</dim>
					<dim>1</dim>
				</port>
				<port id="2">
					<dim>1</dim>
					<dim>16</dim>
					<dim>1</dim>
					<dim>1</dim>
				</port>
				<port id="3">
					<dim>1</dim>
					<dim>16</dim>
					<dim>1</dim>
					<dim>1</dim>
				</port>
				<port id="4">
					<dim>1</dim>
					<dim>16</dim>
					<dim>1</dim>
					<dim>1</dim>
				</port>
			</input>
			<output>
				<port id="5" precision="FP16">
					<dim>1</dim>
					<dim>16</dim>
					<dim>64</dim>
					<dim>32</dim>
				</port>
			</output>
		</layer>
		<layer id="170" name="586/fq_weights_1/Convert_to_float/Cast_016467_const" type="Const" version="opset1">
			<data element_type="u8" offset="4822" shape="16,1,3,3" size="144"/>
			<output>
				<port id="1" precision="U8">
					<dim>16</dim>
					<dim>1</dim>
					<dim>3</dim>
					<dim>3</dim>
				</port>
			</output>
		</layer>
		<layer id="171" name="586/fq_weights_1/Convert_to_float" type="Convert" version="opset1">
			<data destination_type="f16"/>
			<input>
				<port id="0">
					<dim>16</dim>
					<dim>1</dim>
					<dim>3</dim>
					<dim>3</dim>
				</port>
			</input>
			<output>
				<port id="1" precision="FP16">
					<dim>16</dim>
					<dim>1</dim>
					<dim>3</dim>
					<dim>3</dim>
				</port>
			</output>
		</layer>
		<layer id="172" name="586/fq_weights_1/Copy/out_low14020_const" type="Const" version="opset1">
			<data element_type="f16" offset="4660" shape="1" size="2"/>
			<output>
				<port id="1" precision="FP16">
					<dim>1</dim>
				</port>
			</output>
		</layer>
		<layer id="173" name="586/fq_weights_1/Copy/out_high14021_const" type="Const" version="opset1">
			<data element_type="f16" offset="2394" shape="1" size="2"/>
			<output>
				<port id="1" precision="FP16">
					<dim>1</dim>
				</port>
			</output>
		</layer>
		<layer id="174" name="57095713_const" type="Const" version="opset1">
			<data element_type="f16" offset="4966" shape="16,1,1,1" size="32"/>
			<output>
				<port id="1" precision="FP16">
					<dim>16</dim>
					<dim>1</dim>
					<dim>1</dim>
					<dim>1</dim>
				</port>
			</output>
		</layer>
		<layer id="175" name="57105714_const" type="Const" version="opset1">
			<data element_type="f16" offset="4998" shape="16,1,1,1" size="32"/>
			<output>
				<port id="1" precision="FP16">
					<dim>16</dim>
					<dim>1</dim>
					<dim>1</dim>
					<dim>1</dim>
				</port>
			</output>
		</layer>
		<layer id="176" name="586/fq_weights_1" type="FakeQuantize" version="opset1">
			<data levels="255"/>
			<input>
				<port id="0">
					<dim>16</dim>
					<dim>1</dim>
					<dim>3</dim>
					<dim>3</dim>
				</port>
				<port id="1">
					<dim>1</dim>
				</port>
				<port id="2">
					<dim>1</dim>
				</port>
				<port id="3">
					<dim>16</dim>
					<dim>1</dim>
					<dim>1</dim>
					<dim>1</dim>
				</port>
				<port id="4">
					<dim>16</dim>
					<dim>1</dim>
					<dim>1</dim>
					<dim>1</dim>
				</port>
			</input>
			<output>
				<port id="5" precision="FP16">
					<dim>16</dim>
					<dim>1</dim>
					<dim>3</dim>
					<dim>3</dim>
				</port>
			</output>
		</layer>
		<layer id="177" name="18519/value18521_const" type="Const" version="opset1">
			<data element_type="i64" offset="3548" shape="5" size="40"/>
			<output>
				<port id="1" precision="I64">
					<dim>5</dim>
				</port>
			</output>
		</layer>
		<layer id="178" name="18519" type="Reshape" version="opset1">
			<data special_zero="True"/>
			<input>
				<port id="0">
					<dim>16</dim>
					<dim>1</dim>
					<dim>3</dim>
					<dim>3</dim>
				</port>
				<port id="1">
					<dim>5</dim>
				</port>
			</input>
			<output>
				<port id="2" precision="FP16">
					<dim>16</dim>
					<dim>1</dim>
					<dim>1</dim>
					<dim>3</dim>
					<dim>3</dim>
				</port>
			</output>
		</layer>
		<layer id="179" name="586" type="GroupConvolution" version="opset1">
			<data dilations="1,1" output_padding="0,0" pads_begin="1,1" pads_end="1,1" strides="1,1"/>
			<input>
				<port id="0">
					<dim>1</dim>
					<dim>16</dim>
					<dim>64</dim>
					<dim>32</dim>
				</port>
				<port id="1">
					<dim>16</dim>
					<dim>1</dim>
					<dim>1</dim>
					<dim>3</dim>
					<dim>3</dim>
				</port>
			</input>
			<output>
				<port id="2" precision="FP16">
					<dim>1</dim>
					<dim>16</dim>
					<dim>64</dim>
					<dim>32</dim>
				</port>
			</output>
		</layer>
		<layer id="180" name="data_add_1974319748/copy_const949_const" type="Const" version="opset1">
			<data element_type="f16" offset="5030" shape="1,16,1,1" size="32"/>
			<output>
				<port id="1" precision="FP16">
					<dim>1</dim>
					<dim>16</dim>
					<dim>1</dim>
					<dim>1</dim>
				</port>
			</output>
		</layer>
		<layer id="181" name="587/variance/Fused_Add_" type="Add" version="opset1">
			<input>
				<port id="0">
					<dim>1</dim>
					<dim>16</dim>
					<dim>64</dim>
					<dim>32</dim>
				</port>
				<port id="1">
					<dim>1</dim>
					<dim>16</dim>
					<dim>1</dim>
					<dim>1</dim>
				</port>
			</input>
			<output>
				<port id="2" precision="FP16">
					<dim>1</dim>
					<dim>16</dim>
					<dim>64</dim>
					<dim>32</dim>
				</port>
			</output>
		</layer>
		<layer id="182" name="588" type="ReLU" version="opset1">
			<input>
				<port id="0">
					<dim>1</dim>
					<dim>16</dim>
					<dim>64</dim>
					<dim>32</dim>
				</port>
			</input>
			<output>
				<port id="1" precision="FP16">
					<dim>1</dim>
					<dim>16</dim>
					<dim>64</dim>
					<dim>32</dim>
				</port>
			</output>
		</layer>
		<layer id="183" name="48274831_const" type="Const" version="opset1">
			<data element_type="f16" offset="5062" shape="" size="2"/>
			<output>
				<port id="1" precision="FP16"/>
			</output>
		</layer>
		<layer id="184" name="48284832_const" type="Const" version="opset1">
			<data element_type="f16" offset="5064" shape="" size="2"/>
			<output>
				<port id="1" precision="FP16"/>
			</output>
		</layer>
		<layer id="185" name="48294833_const" type="Const" version="opset1">
			<data element_type="f16" offset="5062" shape="" size="2"/>
			<output>
				<port id="1" precision="FP16"/>
			</output>
		</layer>
		<layer id="186" name="48304834_const" type="Const" version="opset1">
			<data element_type="f16" offset="5064" shape="" size="2"/>
			<output>
				<port id="1" precision="FP16"/>
			</output>
		</layer>
		<layer id="187" name="623/reduce/fq_input_0" type="FakeQuantize" version="opset1">
			<data levels="256"/>
			<input>
				<port id="0">
					<dim>1</dim>
					<dim>16</dim>
					<dim>64</dim>
					<dim>32</dim>
				</port>
				<port id="1"/>
				<port id="2"/>
				<port id="3"/>
				<port id="4"/>
			</input>
			<output>
				<port id="5" precision="FP16">
					<dim>1</dim>
					<dim>16</dim>
					<dim>64</dim>
					<dim>32</dim>
				</port>
			</output>
		</layer>
		<layer id="188" name="623/reduce/Cast_116501_const" type="Const" version="opset1">
			<data element_type="i64" offset="3624" shape="2" size="16"/>
			<output>
				<port id="1" precision="I64">
					<dim>2</dim>
				</port>
			</output>
		</layer>
		<layer id="189" name="623/reduce" type="ReduceMean" version="opset1">
			<data keep_dims="True"/>
			<input>
				<port id="0">
					<dim>1</dim>
					<dim>16</dim>
					<dim>64</dim>
					<dim>32</dim>
				</port>
				<port id="1">
					<dim>2</dim>
				</port>
			</input>
			<output>
				<port id="2" precision="FP16">
					<dim>1</dim>
					<dim>16</dim>
					<dim>1</dim>
					<dim>1</dim>
				</port>
			</output>
		</layer>
		<layer id="190" name="Copy_onnx_initializer_node_conv2.0.gate.fc1.weight/Output_0/Data_3548_const954_const" type="Const" version="opset1">
			<data element_type="f16" offset="3640" shape="1,16,1,1" size="32"/>
			<output>
				<port id="1" precision="FP16">
					<dim>1</dim>
					<dim>16</dim>
					<dim>1</dim>
					<dim>1</dim>
				</port>
			</output>
		</layer>
		<layer id="191" name="624/WithoutBiases" type="Convolution" version="opset1">
			<data dilations="1,1" output_padding="0,0" pads_begin="0,0" pads_end="0,0" strides="1,1"/>
			<input>
				<port id="0">
					<dim>1</dim>
					<dim>16</dim>
					<dim>1</dim>
					<dim>1</dim>
				</port>
				<port id="1">
					<dim>1</dim>
					<dim>16</dim>
					<dim>1</dim>
					<dim>1</dim>
				</port>
			</input>
			<output>
				<port id="2" precision="FP16">
					<dim>1</dim>
					<dim>1</dim>
					<dim>1</dim>
					<dim>1</dim>
				</port>
			</output>
		</layer>
		<layer id="192" name="624/Dims12100/copy_const956_const" type="Const" version="opset1">
			<data element_type="f16" offset="3672" shape="1,1,1,1" size="2"/>
			<output>
				<port id="1" precision="FP16">
					<dim>1</dim>
					<dim>1</dim>
					<dim>1</dim>
					<dim>1</dim>
				</port>
			</output>
		</layer>
		<layer id="193" name="624" type="Add" version="opset1">
			<input>
				<port id="0">
					<dim>1</dim>
					<dim>1</dim>
					<dim>1</dim>
					<dim>1</dim>
				</port>
				<port id="1">
					<dim>1</dim>
					<dim>1</dim>
					<dim>1</dim>
					<dim>1</dim>
				</port>
			</input>
			<output>
				<port id="2" precision="FP16">
					<dim>1</dim>
					<dim>1</dim>
					<dim>1</dim>
					<dim>1</dim>
				</port>
			</output>
		</layer>
		<layer id="194" name="625" type="ReLU" version="opset1">
			<input>
				<port id="0">
					<dim>1</dim>
					<dim>1</dim>
					<dim>1</dim>
					<dim>1</dim>
				</port>
			</input>
			<output>
				<port id="1" precision="FP16">
					<dim>1</dim>
					<dim>1</dim>
					<dim>1</dim>
					<dim>1</dim>
				</port>
			</output>
		</layer>
		<layer id="195" name="Copy_onnx_initializer_node_conv2.0.gate.fc2.weight/Output_0/Data_3556_const959_const" type="Const" version="opset1">
			<data element_type="f16" offset="3674" shape="16,1,1,1" size="32"/>
			<output>
				<port id="1" precision="FP16">
					<dim>16</dim>
					<dim>1</dim>
					<dim>1</dim>
					<dim>1</dim>
				</port>
			</output>
		</layer>
		<layer id="196" name="626/WithoutBiases" type="Convolution" version="opset1">
			<data dilations="1,1" output_padding="0,0" pads_begin="0,0" pads_end="0,0" strides="1,1"/>
			<input>
				<port id="0">
					<dim>1</dim>
					<dim>1</dim>
					<dim>1</dim>
					<dim>1</dim>
				</port>
				<port id="1">
					<dim>16</dim>
					<dim>1</dim>
					<dim>1</dim>
					<dim>1</dim>
				</port>
			</input>
			<output>
				<port id="2" precision="FP16">
					<dim>1</dim>
					<dim>16</dim>
					<dim>1</dim>
					<dim>1</dim>
				</port>
			</output>
		</layer>
		<layer id="197" name="626/Dims11950/copy_const961_const" type="Const" version="opset1">
			<data element_type="f16" offset="3706" shape="1,16,1,1" size="32"/>
			<output>
				<port id="1" precision="FP16">
					<dim>1</dim>
					<dim>16</dim>
					<dim>1</dim>
					<dim>1</dim>
				</port>
			</output>
		</layer>
		<layer id="198" name="626" type="Add" version="opset1">
			<input>
				<port id="0">
					<dim>1</dim>
					<dim>16</dim>
					<dim>1</dim>
					<dim>1</dim>
				</port>
				<port id="1">
					<dim>1</dim>
					<dim>16</dim>
					<dim>1</dim>
					<dim>1</dim>
				</port>
			</input>
			<output>
				<port id="2" precision="FP16">
					<dim>1</dim>
					<dim>16</dim>
					<dim>1</dim>
					<dim>1</dim>
				</port>
			</output>
		</layer>
		<layer id="199" name="627" type="Sigmoid" version="opset1">
			<input>
				<port id="0">
					<dim>1</dim>
					<dim>16</dim>
					<dim>1</dim>
					<dim>1</dim>
				</port>
			</input>
			<output>
				<port id="1" precision="FP16">
					<dim>1</dim>
					<dim>16</dim>
					<dim>1</dim>
					<dim>1</dim>
				</port>
			</output>
		</layer>
		<layer id="200" name="50575061_const" type="Const" version="opset1">
			<data element_type="f16" offset="5062" shape="" size="2"/>
			<output>
				<port id="1" precision="FP16"/>
			</output>
		</layer>
		<layer id="201" name="50585062_const" type="Const" version="opset1">
			<data element_type="f16" offset="5066" shape="" size="2"/>
			<output>
				<port id="1" precision="FP16"/>
			</output>
		</layer>
		<layer id="202" name="50595063_const" type="Const" version="opset1">
			<data element_type="f16" offset="5062" shape="" size="2"/>
			<output>
				<port id="1" precision="FP16"/>
			</output>
		</layer>
		<layer id="203" name="50605064_const" type="Const" version="opset1">
			<data element_type="f16" offset="5066" shape="" size="2"/>
			<output>
				<port id="1" precision="FP16"/>
			</output>
		</layer>
		<layer id="204" name="628/fq_input_1" type="FakeQuantize" version="opset1">
			<data levels="256"/>
			<input>
				<port id="0">
					<dim>1</dim>
					<dim>16</dim>
					<dim>1</dim>
					<dim>1</dim>
				</port>
				<port id="1"/>
				<port id="2"/>
				<port id="3"/>
				<port id="4"/>
			</input>
			<output>
				<port id="5" precision="FP16">
					<dim>1</dim>
					<dim>16</dim>
					<dim>1</dim>
					<dim>1</dim>
				</port>
			</output>
		</layer>
		<layer id="205" name="628" type="Multiply" version="opset1">
			<input>
				<port id="0">
					<dim>1</dim>
					<dim>16</dim>
					<dim>64</dim>
					<dim>32</dim>
				</port>
				<port id="1">
					<dim>1</dim>
					<dim>16</dim>
					<dim>1</dim>
					<dim>1</dim>
				</port>
			</input>
			<output>
				<port id="2" precision="FP16">
					<dim>1</dim>
					<dim>16</dim>
					<dim>64</dim>
					<dim>32</dim>
				</port>
			</output>
		</layer>
		<layer id="206" name="63276331_const" type="Const" version="opset1">
			<data element_type="f16" offset="5062" shape="" size="2"/>
			<output>
				<port id="1" precision="FP16"/>
			</output>
		</layer>
		<layer id="207" name="63286332_const" type="Const" version="opset1">
			<data element_type="f16" offset="5068" shape="" size="2"/>
			<output>
				<port id="1" precision="FP16"/>
			</output>
		</layer>
		<layer id="208" name="63296333_const" type="Const" version="opset1">
			<data element_type="f16" offset="5062" shape="" size="2"/>
			<output>
				<port id="1" precision="FP16"/>
			</output>
		</layer>
		<layer id="209" name="63306334_const" type="Const" version="opset1">
			<data element_type="f16" offset="5068" shape="" size="2"/>
			<output>
				<port id="1" precision="FP16"/>
			</output>
		</layer>
		<layer id="210" name="629/fq_input_1" type="FakeQuantize" version="opset1">
			<data levels="256"/>
			<input>
				<port id="0">
					<dim>1</dim>
					<dim>16</dim>
					<dim>64</dim>
					<dim>32</dim>
				</port>
				<port id="1"/>
				<port id="2"/>
				<port id="3"/>
				<port id="4"/>
			</input>
			<output>
				<port id="5" precision="FP16">
					<dim>1</dim>
					<dim>16</dim>
					<dim>64</dim>
					<dim>32</dim>
				</port>
			</output>
		</layer>
		<layer id="211" name="629" type="Add" version="opset1">
			<input>
				<port id="0">
					<dim>1</dim>
					<dim>16</dim>
					<dim>64</dim>
					<dim>32</dim>
				</port>
				<port id="1">
					<dim>1</dim>
					<dim>16</dim>
					<dim>64</dim>
					<dim>32</dim>
				</port>
			</input>
			<output>
				<port id="2" precision="FP16">
					<dim>1</dim>
					<dim>16</dim>
					<dim>64</dim>
					<dim>32</dim>
				</port>
			</output>
		</layer>
		<layer id="212" name="49174921_const" type="Const" version="opset1">
			<data element_type="f16" offset="5062" shape="" size="2"/>
			<output>
				<port id="1" precision="FP16"/>
			</output>
		</layer>
		<layer id="213" name="49184922_const" type="Const" version="opset1">
			<data element_type="f16" offset="5070" shape="" size="2"/>
			<output>
				<port id="1" precision="FP16"/>
			</output>
		</layer>
		<layer id="214" name="49194923_const" type="Const" version="opset1">
			<data element_type="f16" offset="5062" shape="" size="2"/>
			<output>
				<port id="1" precision="FP16"/>
			</output>
		</layer>
		<layer id="215" name="49204924_const" type="Const" version="opset1">
			<data element_type="f16" offset="5070" shape="" size="2"/>
			<output>
				<port id="1" precision="FP16"/>
			</output>
		</layer>
		<layer id="216" name="636/fq_input_0" type="FakeQuantize" version="opset1">
			<data levels="256"/>
			<input>
				<port id="0">
					<dim>1</dim>
					<dim>16</dim>
					<dim>64</dim>
					<dim>32</dim>
				</port>
				<port id="1"/>
				<port id="2"/>
				<port id="3"/>
				<port id="4"/>
			</input>
			<output>
				<port id="5" precision="FP16">
					<dim>1</dim>
					<dim>16</dim>
					<dim>64</dim>
					<dim>32</dim>
				</port>
			</output>
		</layer>
		<layer id="217" name="589/fq_weights_1/Convert_to_float/Cast_016393_const" type="Const" version="opset1">
			<data element_type="u8" offset="5072" shape="16,16,1,1" size="256"/>
			<output>
				<port id="1" precision="U8">
					<dim>16</dim>
					<dim>16</dim>
					<dim>1</dim>
					<dim>1</dim>
				</port>
			</output>
		</layer>
		<layer id="218" name="589/fq_weights_1/Convert_to_float" type="Convert" version="opset1">
			<data destination_type="f16"/>
			<input>
				<port id="0">
					<dim>16</dim>
					<dim>16</dim>
					<dim>1</dim>
					<dim>1</dim>
				</port>
			</input>
			<output>
				<port id="1" precision="FP16">
					<dim>16</dim>
					<dim>16</dim>
					<dim>1</dim>
					<dim>1</dim>
				</port>
			</output>
		</layer>
		<layer id="219" name="589/fq_weights_1/Copy/out_low14284_const" type="Const" version="opset1">
			<data element_type="f16" offset="5328" shape="1" size="2"/>
			<output>
				<port id="1" precision="FP16">
					<dim>1</dim>
				</port>
			</output>
		</layer>
		<layer id="220" name="589/fq_weights_1/Copy/out_high14285_const" type="Const" version="opset1">
			<data element_type="f16" offset="2394" shape="1" size="2"/>
			<output>
				<port id="1" precision="FP16">
					<dim>1</dim>
				</port>
			</output>
		</layer>
		<layer id="221" name="66696673_const" type="Const" version="opset1">
			<data element_type="f16" offset="5330" shape="16,1,1,1" size="32"/>
			<output>
				<port id="1" precision="FP16">
					<dim>16</dim>
					<dim>1</dim>
					<dim>1</dim>
					<dim>1</dim>
				</port>
			</output>
		</layer>
		<layer id="222" name="66706674_const" type="Const" version="opset1">
			<data element_type="f16" offset="5362" shape="16,1,1,1" size="32"/>
			<output>
				<port id="1" precision="FP16">
					<dim>16</dim>
					<dim>1</dim>
					<dim>1</dim>
					<dim>1</dim>
				</port>
			</output>
		</layer>
		<layer id="223" name="589/fq_weights_1" type="FakeQuantize" version="opset1">
			<data levels="255"/>
			<input>
				<port id="0">
					<dim>16</dim>
					<dim>16</dim>
					<dim>1</dim>
					<dim>1</dim>
				</port>
				<port id="1">
					<dim>1</dim>
				</port>
				<port id="2">
					<dim>1</dim>
				</port>
				<port id="3">
					<dim>16</dim>
					<dim>1</dim>
					<dim>1</dim>
					<dim>1</dim>
				</port>
				<port id="4">
					<dim>16</dim>
					<dim>1</dim>
					<dim>1</dim>
					<dim>1</dim>
				</port>
			</input>
			<output>
				<port id="5" precision="FP16">
					<dim>16</dim>
					<dim>16</dim>
					<dim>1</dim>
					<dim>1</dim>
				</port>
			</output>
		</layer>
		<layer id="224" name="589" type="Convolution" version="opset1">
			<data dilations="1,1" output_padding="0,0" pads_begin="0,0" pads_end="0,0" strides="1,1"/>
			<input>
				<port id="0">
					<dim>1</dim>
					<dim>16</dim>
					<dim>64</dim>
					<dim>32</dim>
				</port>
				<port id="1">
					<dim>16</dim>
					<dim>16</dim>
					<dim>1</dim>
					<dim>1</dim>
				</port>
			</input>
			<output>
				<port id="2" precision="FP16">
					<dim>1</dim>
					<dim>16</dim>
					<dim>64</dim>
					<dim>32</dim>
				</port>
			</output>
		</layer>
		<layer id="225" name="21482150_const" type="Const" version="opset1">
			<data element_type="f16" offset="5394" shape="1,16,1,1" size="32"/>
			<output>
				<port id="1" precision="FP16">
					<dim>1</dim>
					<dim>16</dim>
					<dim>1</dim>
					<dim>1</dim>
				</port>
			</output>
		</layer>
		<layer id="226" name="589/add_" type="Add" version="opset1">
			<input>
				<port id="0">
					<dim>1</dim>
					<dim>16</dim>
					<dim>64</dim>
					<dim>32</dim>
				</port>
				<port id="1">
					<dim>1</dim>
					<dim>16</dim>
					<dim>1</dim>
					<dim>1</dim>
				</port>
			</input>
			<output>
				<port id="2" precision="FP16">
					<dim>1</dim>
					<dim>16</dim>
					<dim>64</dim>
					<dim>32</dim>
				</port>
			</output>
		</layer>
		<layer id="227" name="45874591_const" type="Const" version="opset1">
			<data element_type="f16" offset="5426" shape="1,16,1,1" size="32"/>
			<output>
				<port id="1" precision="FP16">
					<dim>1</dim>
					<dim>16</dim>
					<dim>1</dim>
					<dim>1</dim>
				</port>
			</output>
		</layer>
		<layer id="228" name="45884592_const" type="Const" version="opset1">
			<data element_type="f16" offset="5458" shape="1,16,1,1" size="32"/>
			<output>
				<port id="1" precision="FP16">
					<dim>1</dim>
					<dim>16</dim>
					<dim>1</dim>
					<dim>1</dim>
				</port>
			</output>
		</layer>
		<layer id="229" name="45894593_const" type="Const" version="opset1">
			<data element_type="f16" offset="5426" shape="1,16,1,1" size="32"/>
			<output>
				<port id="1" precision="FP16">
					<dim>1</dim>
					<dim>16</dim>
					<dim>1</dim>
					<dim>1</dim>
				</port>
			</output>
		</layer>
		<layer id="230" name="45904594_const" type="Const" version="opset1">
			<data element_type="f16" offset="5458" shape="1,16,1,1" size="32"/>
			<output>
				<port id="1" precision="FP16">
					<dim>1</dim>
					<dim>16</dim>
					<dim>1</dim>
					<dim>1</dim>
				</port>
			</output>
		</layer>
		<layer id="231" name="590/fq_input_0" type="FakeQuantize" version="opset1">
			<data levels="256"/>
			<input>
				<port id="0">
					<dim>1</dim>
					<dim>16</dim>
					<dim>64</dim>
					<dim>32</dim>
				</port>
				<port id="1">
					<dim>1</dim>
					<dim>16</dim>
					<dim>1</dim>
					<dim>1</dim>
				</port>
				<port id="2">
					<dim>1</dim>
					<dim>16</dim>
					<dim>1</dim>
					<dim>1</dim>
				</port>
				<port id="3">
					<dim>1</dim>
					<dim>16</dim>
					<dim>1</dim>
					<dim>1</dim>
				</port>
				<port id="4">
					<dim>1</dim>
					<dim>16</dim>
					<dim>1</dim>
					<dim>1</dim>
				</port>
			</input>
			<output>
				<port id="5" precision="FP16">
					<dim>1</dim>
					<dim>16</dim>
					<dim>64</dim>
					<dim>32</dim>
				</port>
			</output>
		</layer>
		<layer id="232" name="590/fq_weights_1/Convert_to_float/Cast_016255_const" type="Const" version="opset1">
			<data element_type="u8" offset="5490" shape="16,1,3,3" size="144"/>
			<output>
				<port id="1" precision="U8">
					<dim>16</dim>
					<dim>1</dim>
					<dim>3</dim>
					<dim>3</dim>
				</port>
			</output>
		</layer>
		<layer id="233" name="590/fq_weights_1/Convert_to_float" type="Convert" version="opset1">
			<data destination_type="f16"/>
			<input>
				<port id="0">
					<dim>16</dim>
					<dim>1</dim>
					<dim>3</dim>
					<dim>3</dim>
				</port>
			</input>
			<output>
				<port id="1" precision="FP16">
					<dim>16</dim>
					<dim>1</dim>
					<dim>3</dim>
					<dim>3</dim>
				</port>
			</output>
		</layer>
		<layer id="234" name="590/fq_weights_1/Copy/out_low13532_const" type="Const" version="opset1">
			<data element_type="f16" offset="5328" shape="1" size="2"/>
			<output>
				<port id="1" precision="FP16">
					<dim>1</dim>
				</port>
			</output>
		</layer>
		<layer id="235" name="590/fq_weights_1/Copy/out_high13533_const" type="Const" version="opset1">
			<data element_type="f16" offset="2394" shape="1" size="2"/>
			<output>
				<port id="1" precision="FP16">
					<dim>1</dim>
				</port>
			</output>
		</layer>
		<layer id="236" name="45994603_const" type="Const" version="opset1">
			<data element_type="f16" offset="5634" shape="16,1,1,1" size="32"/>
			<output>
				<port id="1" precision="FP16">
					<dim>16</dim>
					<dim>1</dim>
					<dim>1</dim>
					<dim>1</dim>
				</port>
			</output>
		</layer>
		<layer id="237" name="46004604_const" type="Const" version="opset1">
			<data element_type="f16" offset="5666" shape="16,1,1,1" size="32"/>
			<output>
				<port id="1" precision="FP16">
					<dim>16</dim>
					<dim>1</dim>
					<dim>1</dim>
					<dim>1</dim>
				</port>
			</output>
		</layer>
		<layer id="238" name="590/fq_weights_1" type="FakeQuantize" version="opset1">
			<data levels="255"/>
			<input>
				<port id="0">
					<dim>16</dim>
					<dim>1</dim>
					<dim>3</dim>
					<dim>3</dim>
				</port>
				<port id="1">
					<dim>1</dim>
				</port>
				<port id="2">
					<dim>1</dim>
				</port>
				<port id="3">
					<dim>16</dim>
					<dim>1</dim>
					<dim>1</dim>
					<dim>1</dim>
				</port>
				<port id="4">
					<dim>16</dim>
					<dim>1</dim>
					<dim>1</dim>
					<dim>1</dim>
				</port>
			</input>
			<output>
				<port id="5" precision="FP16">
					<dim>16</dim>
					<dim>1</dim>
					<dim>3</dim>
					<dim>3</dim>
				</port>
			</output>
		</layer>
		<layer id="239" name="18607/value18609_const" type="Const" version="opset1">
			<data element_type="i64" offset="3548" shape="5" size="40"/>
			<output>
				<port id="1" precision="I64">
					<dim>5</dim>
				</port>
			</output>
		</layer>
		<layer id="240" name="18607" type="Reshape" version="opset1">
			<data special_zero="True"/>
			<input>
				<port id="0">
					<dim>16</dim>
					<dim>1</dim>
					<dim>3</dim>
					<dim>3</dim>
				</port>
				<port id="1">
					<dim>5</dim>
				</port>
			</input>
			<output>
				<port id="2" precision="FP16">
					<dim>16</dim>
					<dim>1</dim>
					<dim>1</dim>
					<dim>3</dim>
					<dim>3</dim>
				</port>
			</output>
		</layer>
		<layer id="241" name="590" type="GroupConvolution" version="opset1">
			<data dilations="1,1" output_padding="0,0" pads_begin="1,1" pads_end="1,1" strides="1,1"/>
			<input>
				<port id="0">
					<dim>1</dim>
					<dim>16</dim>
					<dim>64</dim>
					<dim>32</dim>
				</port>
				<port id="1">
					<dim>16</dim>
					<dim>1</dim>
					<dim>1</dim>
					<dim>3</dim>
					<dim>3</dim>
				</port>
			</input>
			<output>
				<port id="2" precision="FP16">
					<dim>1</dim>
					<dim>16</dim>
					<dim>64</dim>
					<dim>32</dim>
				</port>
			</output>
		</layer>
		<layer id="242" name="data_add_1971119716/copy_const970_const" type="Const" version="opset1">
			<data element_type="f16" offset="5698" shape="1,16,1,1" size="32"/>
			<output>
				<port id="1" precision="FP16">
					<dim>1</dim>
					<dim>16</dim>
					<dim>1</dim>
					<dim>1</dim>
				</port>
			</output>
		</layer>
		<layer id="243" name="591/variance/Fused_Add_" type="Add" version="opset1">
			<input>
				<port id="0">
					<dim>1</dim>
					<dim>16</dim>
					<dim>64</dim>
					<dim>32</dim>
				</port>
				<port id="1">
					<dim>1</dim>
					<dim>16</dim>
					<dim>1</dim>
					<dim>1</dim>
				</port>
			</input>
			<output>
				<port id="2" precision="FP16">
					<dim>1</dim>
					<dim>16</dim>
					<dim>64</dim>
					<dim>32</dim>
				</port>
			</output>
		</layer>
		<layer id="244" name="592" type="ReLU" version="opset1">
			<input>
				<port id="0">
					<dim>1</dim>
					<dim>16</dim>
					<dim>64</dim>
					<dim>32</dim>
				</port>
			</input>
			<output>
				<port id="1" precision="FP16">
					<dim>1</dim>
					<dim>16</dim>
					<dim>64</dim>
					<dim>32</dim>
				</port>
			</output>
		</layer>
		<layer id="245" name="64576461_const" type="Const" version="opset1">
			<data element_type="f16" offset="5730" shape="" size="2"/>
			<output>
				<port id="1" precision="FP16"/>
			</output>
		</layer>
		<layer id="246" name="64586462_const" type="Const" version="opset1">
			<data element_type="f16" offset="5732" shape="" size="2"/>
			<output>
				<port id="1" precision="FP16"/>
			</output>
		</layer>
		<layer id="247" name="64596463_const" type="Const" version="opset1">
			<data element_type="f16" offset="5730" shape="" size="2"/>
			<output>
				<port id="1" precision="FP16"/>
			</output>
		</layer>
		<layer id="248" name="64606464_const" type="Const" version="opset1">
			<data element_type="f16" offset="5732" shape="" size="2"/>
			<output>
				<port id="1" precision="FP16"/>
			</output>
		</layer>
		<layer id="249" name="593/fq_input_0" type="FakeQuantize" version="opset1">
			<data levels="256"/>
			<input>
				<port id="0">
					<dim>1</dim>
					<dim>16</dim>
					<dim>64</dim>
					<dim>32</dim>
				</port>
				<port id="1"/>
				<port id="2"/>
				<port id="3"/>
				<port id="4"/>
			</input>
			<output>
				<port id="5" precision="FP16">
					<dim>1</dim>
					<dim>16</dim>
					<dim>64</dim>
					<dim>32</dim>
				</port>
			</output>
		</layer>
		<layer id="250" name="593/fq_weights_1/Convert_to_float/Cast_016425_const" type="Const" version="opset1">
			<data element_type="u8" offset="5734" shape="16,16,1,1" size="256"/>
			<output>
				<port id="1" precision="U8">
					<dim>16</dim>
					<dim>16</dim>
					<dim>1</dim>
					<dim>1</dim>
				</port>
			</output>
		</layer>
		<layer id="251" name="593/fq_weights_1/Convert_to_float" type="Convert" version="opset1">
			<data destination_type="f16"/>
			<input>
				<port id="0">
					<dim>16</dim>
					<dim>16</dim>
					<dim>1</dim>
					<dim>1</dim>
				</port>
			</input>
			<output>
				<port id="1" precision="FP16">
					<dim>16</dim>
					<dim>16</dim>
					<dim>1</dim>
					<dim>1</dim>
				</port>
			</output>
		</layer>
		<layer id="252" name="593/fq_weights_1/Copy/out_low14212_const" type="Const" version="opset1">
			<data element_type="f16" offset="5990" shape="1" size="2"/>
			<output>
				<port id="1" precision="FP16">
					<dim>1</dim>
				</port>
			</output>
		</layer>
		<layer id="253" name="593/fq_weights_1/Copy/out_high14213_const" type="Const" version="opset1">
			<data element_type="f16" offset="2394" shape="1" size="2"/>
			<output>
				<port id="1" precision="FP16">
					<dim>1</dim>
				</port>
			</output>
		</layer>
		<layer id="254" name="64696473_const" type="Const" version="opset1">
			<data element_type="f16" offset="5992" shape="16,1,1,1" size="32"/>
			<output>
				<port id="1" precision="FP16">
					<dim>16</dim>
					<dim>1</dim>
					<dim>1</dim>
					<dim>1</dim>
				</port>
			</output>
		</layer>
		<layer id="255" name="64706474_const" type="Const" version="opset1">
			<data element_type="f16" offset="6024" shape="16,1,1,1" size="32"/>
			<output>
				<port id="1" precision="FP16">
					<dim>16</dim>
					<dim>1</dim>
					<dim>1</dim>
					<dim>1</dim>
				</port>
			</output>
		</layer>
		<layer id="256" name="593/fq_weights_1" type="FakeQuantize" version="opset1">
			<data levels="255"/>
			<input>
				<port id="0">
					<dim>16</dim>
					<dim>16</dim>
					<dim>1</dim>
					<dim>1</dim>
				</port>
				<port id="1">
					<dim>1</dim>
				</port>
				<port id="2">
					<dim>1</dim>
				</port>
				<port id="3">
					<dim>16</dim>
					<dim>1</dim>
					<dim>1</dim>
					<dim>1</dim>
				</port>
				<port id="4">
					<dim>16</dim>
					<dim>1</dim>
					<dim>1</dim>
					<dim>1</dim>
				</port>
			</input>
			<output>
				<port id="5" precision="FP16">
					<dim>16</dim>
					<dim>16</dim>
					<dim>1</dim>
					<dim>1</dim>
				</port>
			</output>
		</layer>
		<layer id="257" name="593" type="Convolution" version="opset1">
			<data dilations="1,1" output_padding="0,0" pads_begin="0,0" pads_end="0,0" strides="1,1"/>
			<input>
				<port id="0">
					<dim>1</dim>
					<dim>16</dim>
					<dim>64</dim>
					<dim>32</dim>
				</port>
				<port id="1">
					<dim>16</dim>
					<dim>16</dim>
					<dim>1</dim>
					<dim>1</dim>
				</port>
			</input>
			<output>
				<port id="2" precision="FP16">
					<dim>1</dim>
					<dim>16</dim>
					<dim>64</dim>
					<dim>32</dim>
				</port>
			</output>
		</layer>
		<layer id="258" name="21522154_const" type="Const" version="opset1">
			<data element_type="f16" offset="6056" shape="1,16,1,1" size="32"/>
			<output>
				<port id="1" precision="FP16">
					<dim>1</dim>
					<dim>16</dim>
					<dim>1</dim>
					<dim>1</dim>
				</port>
			</output>
		</layer>
		<layer id="259" name="593/add_" type="Add" version="opset1">
			<input>
				<port id="0">
					<dim>1</dim>
					<dim>16</dim>
					<dim>64</dim>
					<dim>32</dim>
				</port>
				<port id="1">
					<dim>1</dim>
					<dim>16</dim>
					<dim>1</dim>
					<dim>1</dim>
				</port>
			</input>
			<output>
				<port id="2" precision="FP16">
					<dim>1</dim>
					<dim>16</dim>
					<dim>64</dim>
					<dim>32</dim>
				</port>
			</output>
		</layer>
		<layer id="260" name="71277131_const" type="Const" version="opset1">
			<data element_type="f16" offset="6088" shape="1,16,1,1" size="32"/>
			<output>
				<port id="1" precision="FP16">
					<dim>1</dim>
					<dim>16</dim>
					<dim>1</dim>
					<dim>1</dim>
				</port>
			</output>
		</layer>
		<layer id="261" name="71287132_const" type="Const" version="opset1">
			<data element_type="f16" offset="6120" shape="1,16,1,1" size="32"/>
			<output>
				<port id="1" precision="FP16">
					<dim>1</dim>
					<dim>16</dim>
					<dim>1</dim>
					<dim>1</dim>
				</port>
			</output>
		</layer>
		<layer id="262" name="71297133_const" type="Const" version="opset1">
			<data element_type="f16" offset="6088" shape="1,16,1,1" size="32"/>
			<output>
				<port id="1" precision="FP16">
					<dim>1</dim>
					<dim>16</dim>
					<dim>1</dim>
					<dim>1</dim>
				</port>
			</output>
		</layer>
		<layer id="263" name="71307134_const" type="Const" version="opset1">
			<data element_type="f16" offset="6120" shape="1,16,1,1" size="32"/>
			<output>
				<port id="1" precision="FP16">
					<dim>1</dim>
					<dim>16</dim>
					<dim>1</dim>
					<dim>1</dim>
				</port>
			</output>
		</layer>
		<layer id="264" name="594/fq_input_0" type="FakeQuantize" version="opset1">
			<data levels="256"/>
			<input>
				<port id="0">
					<dim>1</dim>
					<dim>16</dim>
					<dim>64</dim>
					<dim>32</dim>
				</port>
				<port id="1">
					<dim>1</dim>
					<dim>16</dim>
					<dim>1</dim>
					<dim>1</dim>
				</port>
				<port id="2">
					<dim>1</dim>
					<dim>16</dim>
					<dim>1</dim>
					<dim>1</dim>
				</port>
				<port id="3">
					<dim>1</dim>
					<dim>16</dim>
					<dim>1</dim>
					<dim>1</dim>
				</port>
				<port id="4">
					<dim>1</dim>
					<dim>16</dim>
					<dim>1</dim>
					<dim>1</dim>
				</port>
			</input>
			<output>
				<port id="5" precision="FP16">
					<dim>1</dim>
					<dim>16</dim>
					<dim>64</dim>
					<dim>32</dim>
				</port>
			</output>
		</layer>
		<layer id="265" name="594/fq_weights_1/Convert_to_float/Cast_016521_const" type="Const" version="opset1">
			<data element_type="u8" offset="6152" shape="16,1,3,3" size="144"/>
			<output>
				<port id="1" precision="U8">
					<dim>16</dim>
					<dim>1</dim>
					<dim>3</dim>
					<dim>3</dim>
				</port>
			</output>
		</layer>
		<layer id="266" name="594/fq_weights_1/Convert_to_float" type="Convert" version="opset1">
			<data destination_type="f16"/>
			<input>
				<port id="0">
					<dim>16</dim>
					<dim>1</dim>
					<dim>3</dim>
					<dim>3</dim>
				</port>
			</input>
			<output>
				<port id="1" precision="FP16">
					<dim>16</dim>
					<dim>1</dim>
					<dim>3</dim>
					<dim>3</dim>
				</port>
			</output>
		</layer>
		<layer id="267" name="594/fq_weights_1/Copy/out_low13452_const" type="Const" version="opset1">
			<data element_type="f16" offset="5990" shape="1" size="2"/>
			<output>
				<port id="1" precision="FP16">
					<dim>1</dim>
				</port>
			</output>
		</layer>
		<layer id="268" name="594/fq_weights_1/Copy/out_high13453_const" type="Const" version="opset1">
			<data element_type="f16" offset="2394" shape="1" size="2"/>
			<output>
				<port id="1" precision="FP16">
					<dim>1</dim>
				</port>
			</output>
		</layer>
		<layer id="269" name="71397143_const" type="Const" version="opset1">
			<data element_type="f16" offset="6296" shape="16,1,1,1" size="32"/>
			<output>
				<port id="1" precision="FP16">
					<dim>16</dim>
					<dim>1</dim>
					<dim>1</dim>
					<dim>1</dim>
				</port>
			</output>
		</layer>
		<layer id="270" name="71407144_const" type="Const" version="opset1">
			<data element_type="f16" offset="6328" shape="16,1,1,1" size="32"/>
			<output>
				<port id="1" precision="FP16">
					<dim>16</dim>
					<dim>1</dim>
					<dim>1</dim>
					<dim>1</dim>
				</port>
			</output>
		</layer>
		<layer id="271" name="594/fq_weights_1" type="FakeQuantize" version="opset1">
			<data levels="255"/>
			<input>
				<port id="0">
					<dim>16</dim>
					<dim>1</dim>
					<dim>3</dim>
					<dim>3</dim>
				</port>
				<port id="1">
					<dim>1</dim>
				</port>
				<port id="2">
					<dim>1</dim>
				</port>
				<port id="3">
					<dim>16</dim>
					<dim>1</dim>
					<dim>1</dim>
					<dim>1</dim>
				</port>
				<port id="4">
					<dim>16</dim>
					<dim>1</dim>
					<dim>1</dim>
					<dim>1</dim>
				</port>
			</input>
			<output>
				<port id="5" precision="FP16">
					<dim>16</dim>
					<dim>1</dim>
					<dim>3</dim>
					<dim>3</dim>
				</port>
			</output>
		</layer>
		<layer id="272" name="18535/value18537_const" type="Const" version="opset1">
			<data element_type="i64" offset="3548" shape="5" size="40"/>
			<output>
				<port id="1" precision="I64">
					<dim>5</dim>
				</port>
			</output>
		</layer>
		<layer id="273" name="18535" type="Reshape" version="opset1">
			<data special_zero="True"/>
			<input>
				<port id="0">
					<dim>16</dim>
					<dim>1</dim>
					<dim>3</dim>
					<dim>3</dim>
				</port>
				<port id="1">
					<dim>5</dim>
				</port>
			</input>
			<output>
				<port id="2" precision="FP16">
					<dim>16</dim>
					<dim>1</dim>
					<dim>1</dim>
					<dim>3</dim>
					<dim>3</dim>
				</port>
			</output>
		</layer>
		<layer id="274" name="594" type="GroupConvolution" version="opset1">
			<data dilations="1,1" output_padding="0,0" pads_begin="1,1" pads_end="1,1" strides="1,1"/>
			<input>
				<port id="0">
					<dim>1</dim>
					<dim>16</dim>
					<dim>64</dim>
					<dim>32</dim>
				</port>
				<port id="1">
					<dim>16</dim>
					<dim>1</dim>
					<dim>1</dim>
					<dim>3</dim>
					<dim>3</dim>
				</port>
			</input>
			<output>
				<port id="2" precision="FP16">
					<dim>1</dim>
					<dim>16</dim>
					<dim>64</dim>
					<dim>32</dim>
				</port>
			</output>
		</layer>
		<layer id="275" name="data_add_1971919724/copy_const977_const" type="Const" version="opset1">
			<data element_type="f16" offset="6360" shape="1,16,1,1" size="32"/>
			<output>
				<port id="1" precision="FP16">
					<dim>1</dim>
					<dim>16</dim>
					<dim>1</dim>
					<dim>1</dim>
				</port>
			</output>
		</layer>
		<layer id="276" name="595/variance/Fused_Add_" type="Add" version="opset1">
			<input>
				<port id="0">
					<dim>1</dim>
					<dim>16</dim>
					<dim>64</dim>
					<dim>32</dim>
				</port>
				<port id="1">
					<dim>1</dim>
					<dim>16</dim>
					<dim>1</dim>
					<dim>1</dim>
				</port>
			</input>
			<output>
				<port id="2" precision="FP16">
					<dim>1</dim>
					<dim>16</dim>
					<dim>64</dim>
					<dim>32</dim>
				</port>
			</output>
		</layer>
		<layer id="277" name="596" type="ReLU" version="opset1">
			<input>
				<port id="0">
					<dim>1</dim>
					<dim>16</dim>
					<dim>64</dim>
					<dim>32</dim>
				</port>
			</input>
			<output>
				<port id="1" precision="FP16">
					<dim>1</dim>
					<dim>16</dim>
					<dim>64</dim>
					<dim>32</dim>
				</port>
			</output>
		</layer>
		<layer id="278" name="60876091_const" type="Const" version="opset1">
			<data element_type="f16" offset="6392" shape="" size="2"/>
			<output>
				<port id="1" precision="FP16"/>
			</output>
		</layer>
		<layer id="279" name="60886092_const" type="Const" version="opset1">
			<data element_type="f16" offset="6394" shape="" size="2"/>
			<output>
				<port id="1" precision="FP16"/>
			</output>
		</layer>
		<layer id="280" name="60896093_const" type="Const" version="opset1">
			<data element_type="f16" offset="6392" shape="" size="2"/>
			<output>
				<port id="1" precision="FP16"/>
			</output>
		</layer>
		<layer id="281" name="60906094_const" type="Const" version="opset1">
			<data element_type="f16" offset="6394" shape="" size="2"/>
			<output>
				<port id="1" precision="FP16"/>
			</output>
		</layer>
		<layer id="282" name="597/fq_input_0" type="FakeQuantize" version="opset1">
			<data levels="256"/>
			<input>
				<port id="0">
					<dim>1</dim>
					<dim>16</dim>
					<dim>64</dim>
					<dim>32</dim>
				</port>
				<port id="1"/>
				<port id="2"/>
				<port id="3"/>
				<port id="4"/>
			</input>
			<output>
				<port id="5" precision="FP16">
					<dim>1</dim>
					<dim>16</dim>
					<dim>64</dim>
					<dim>32</dim>
				</port>
			</output>
		</layer>
		<layer id="283" name="597/fq_weights_1/Convert_to_float/Cast_016465_const" type="Const" version="opset1">
			<data element_type="u8" offset="6396" shape="16,16,1,1" size="256"/>
			<output>
				<port id="1" precision="U8">
					<dim>16</dim>
					<dim>16</dim>
					<dim>1</dim>
					<dim>1</dim>
				</port>
			</output>
		</layer>
		<layer id="284" name="597/fq_weights_1/Convert_to_float" type="Convert" version="opset1">
			<data destination_type="f16"/>
			<input>
				<port id="0">
					<dim>16</dim>
					<dim>16</dim>
					<dim>1</dim>
					<dim>1</dim>
				</port>
			</input>
			<output>
				<port id="1" precision="FP16">
					<dim>16</dim>
					<dim>16</dim>
					<dim>1</dim>
					<dim>1</dim>
				</port>
			</output>
		</layer>
		<layer id="285" name="597/fq_weights_1/Copy/out_low13292_const" type="Const" version="opset1">
			<data element_type="f16" offset="6652" shape="1" size="2"/>
			<output>
				<port id="1" precision="FP16">
					<dim>1</dim>
				</port>
			</output>
		</layer>
		<layer id="286" name="597/fq_weights_1/Copy/out_high13293_const" type="Const" version="opset1">
			<data element_type="f16" offset="2394" shape="1" size="2"/>
			<output>
				<port id="1" precision="FP16">
					<dim>1</dim>
				</port>
			</output>
		</layer>
		<layer id="287" name="60996103_const" type="Const" version="opset1">
			<data element_type="f16" offset="6654" shape="16,1,1,1" size="32"/>
			<output>
				<port id="1" precision="FP16">
					<dim>16</dim>
					<dim>1</dim>
					<dim>1</dim>
					<dim>1</dim>
				</port>
			</output>
		</layer>
		<layer id="288" name="61006104_const" type="Const" version="opset1">
			<data element_type="f16" offset="6686" shape="16,1,1,1" size="32"/>
			<output>
				<port id="1" precision="FP16">
					<dim>16</dim>
					<dim>1</dim>
					<dim>1</dim>
					<dim>1</dim>
				</port>
			</output>
		</layer>
		<layer id="289" name="597/fq_weights_1" type="FakeQuantize" version="opset1">
			<data levels="255"/>
			<input>
				<port id="0">
					<dim>16</dim>
					<dim>16</dim>
					<dim>1</dim>
					<dim>1</dim>
				</port>
				<port id="1">
					<dim>1</dim>
				</port>
				<port id="2">
					<dim>1</dim>
				</port>
				<port id="3">
					<dim>16</dim>
					<dim>1</dim>
					<dim>1</dim>
					<dim>1</dim>
				</port>
				<port id="4">
					<dim>16</dim>
					<dim>1</dim>
					<dim>1</dim>
					<dim>1</dim>
				</port>
			</input>
			<output>
				<port id="5" precision="FP16">
					<dim>16</dim>
					<dim>16</dim>
					<dim>1</dim>
					<dim>1</dim>
				</port>
			</output>
		</layer>
		<layer id="290" name="597" type="Convolution" version="opset1">
			<data dilations="1,1" output_padding="0,0" pads_begin="0,0" pads_end="0,0" strides="1,1"/>
			<input>
				<port id="0">
					<dim>1</dim>
					<dim>16</dim>
					<dim>64</dim>
					<dim>32</dim>
				</port>
				<port id="1">
					<dim>16</dim>
					<dim>16</dim>
					<dim>1</dim>
					<dim>1</dim>
				</port>
			</input>
			<output>
				<port id="2" precision="FP16">
					<dim>1</dim>
					<dim>16</dim>
					<dim>64</dim>
					<dim>32</dim>
				</port>
			</output>
		</layer>
		<layer id="291" name="21562158_const" type="Const" version="opset1">
			<data element_type="f16" offset="6718" shape="1,16,1,1" size="32"/>
			<output>
				<port id="1" precision="FP16">
					<dim>1</dim>
					<dim>16</dim>
					<dim>1</dim>
					<dim>1</dim>
				</port>
			</output>
		</layer>
		<layer id="292" name="597/add_" type="Add" version="opset1">
			<input>
				<port id="0">
					<dim>1</dim>
					<dim>16</dim>
					<dim>64</dim>
					<dim>32</dim>
				</port>
				<port id="1">
					<dim>1</dim>
					<dim>16</dim>
					<dim>1</dim>
					<dim>1</dim>
				</port>
			</input>
			<output>
				<port id="2" precision="FP16">
					<dim>1</dim>
					<dim>16</dim>
					<dim>64</dim>
					<dim>32</dim>
				</port>
			</output>
		</layer>
		<layer id="293" name="49874991_const" type="Const" version="opset1">
			<data element_type="f16" offset="6750" shape="1,16,1,1" size="32"/>
			<output>
				<port id="1" precision="FP16">
					<dim>1</dim>
					<dim>16</dim>
					<dim>1</dim>
					<dim>1</dim>
				</port>
			</output>
		</layer>
		<layer id="294" name="49884992_const" type="Const" version="opset1">
			<data element_type="f16" offset="6782" shape="1,16,1,1" size="32"/>
			<output>
				<port id="1" precision="FP16">
					<dim>1</dim>
					<dim>16</dim>
					<dim>1</dim>
					<dim>1</dim>
				</port>
			</output>
		</layer>
		<layer id="295" name="49894993_const" type="Const" version="opset1">
			<data element_type="f16" offset="6750" shape="1,16,1,1" size="32"/>
			<output>
				<port id="1" precision="FP16">
					<dim>1</dim>
					<dim>16</dim>
					<dim>1</dim>
					<dim>1</dim>
				</port>
			</output>
		</layer>
		<layer id="296" name="49904994_const" type="Const" version="opset1">
			<data element_type="f16" offset="6782" shape="1,16,1,1" size="32"/>
			<output>
				<port id="1" precision="FP16">
					<dim>1</dim>
					<dim>16</dim>
					<dim>1</dim>
					<dim>1</dim>
				</port>
			</output>
		</layer>
		<layer id="297" name="598/fq_input_0" type="FakeQuantize" version="opset1">
			<data levels="256"/>
			<input>
				<port id="0">
					<dim>1</dim>
					<dim>16</dim>
					<dim>64</dim>
					<dim>32</dim>
				</port>
				<port id="1">
					<dim>1</dim>
					<dim>16</dim>
					<dim>1</dim>
					<dim>1</dim>
				</port>
				<port id="2">
					<dim>1</dim>
					<dim>16</dim>
					<dim>1</dim>
					<dim>1</dim>
				</port>
				<port id="3">
					<dim>1</dim>
					<dim>16</dim>
					<dim>1</dim>
					<dim>1</dim>
				</port>
				<port id="4">
					<dim>1</dim>
					<dim>16</dim>
					<dim>1</dim>
					<dim>1</dim>
				</port>
			</input>
			<output>
				<port id="5" precision="FP16">
					<dim>1</dim>
					<dim>16</dim>
					<dim>64</dim>
					<dim>32</dim>
				</port>
			</output>
		</layer>
		<layer id="298" name="598/fq_weights_1/Convert_to_float/Cast_016529_const" type="Const" version="opset1">
			<data element_type="u8" offset="6814" shape="16,1,3,3" size="144"/>
			<output>
				<port id="1" precision="U8">
					<dim>16</dim>
					<dim>1</dim>
					<dim>3</dim>
					<dim>3</dim>
				</port>
			</output>
		</layer>
		<layer id="299" name="598/fq_weights_1/Convert_to_float" type="Convert" version="opset1">
			<data destination_type="f16"/>
			<input>
				<port id="0">
					<dim>16</dim>
					<dim>1</dim>
					<dim>3</dim>
					<dim>3</dim>
				</port>
			</input>
			<output>
				<port id="1" precision="FP16">
					<dim>16</dim>
					<dim>1</dim>
					<dim>3</dim>
					<dim>3</dim>
				</port>
			</output>
		</layer>
		<layer id="300" name="598/fq_weights_1/Copy/out_low13604_const" type="Const" version="opset1">
			<data element_type="f16" offset="6652" shape="1" size="2"/>
			<output>
				<port id="1" precision="FP16">
					<dim>1</dim>
				</port>
			</output>
		</layer>
		<layer id="301" name="598/fq_weights_1/Copy/out_high13605_const" type="Const" version="opset1">
			<data element_type="f16" offset="2394" shape="1" size="2"/>
			<output>
				<port id="1" precision="FP16">
					<dim>1</dim>
				</port>
			</output>
		</layer>
		<layer id="302" name="49995003_const" type="Const" version="opset1">
			<data element_type="f16" offset="6958" shape="16,1,1,1" size="32"/>
			<output>
				<port id="1" precision="FP16">
					<dim>16</dim>
					<dim>1</dim>
					<dim>1</dim>
					<dim>1</dim>
				</port>
			</output>
		</layer>
		<layer id="303" name="50005004_const" type="Const" version="opset1">
			<data element_type="f16" offset="6990" shape="16,1,1,1" size="32"/>
			<output>
				<port id="1" precision="FP16">
					<dim>16</dim>
					<dim>1</dim>
					<dim>1</dim>
					<dim>1</dim>
				</port>
			</output>
		</layer>
		<layer id="304" name="598/fq_weights_1" type="FakeQuantize" version="opset1">
			<data levels="255"/>
			<input>
				<port id="0">
					<dim>16</dim>
					<dim>1</dim>
					<dim>3</dim>
					<dim>3</dim>
				</port>
				<port id="1">
					<dim>1</dim>
				</port>
				<port id="2">
					<dim>1</dim>
				</port>
				<port id="3">
					<dim>16</dim>
					<dim>1</dim>
					<dim>1</dim>
					<dim>1</dim>
				</port>
				<port id="4">
					<dim>16</dim>
					<dim>1</dim>
					<dim>1</dim>
					<dim>1</dim>
				</port>
			</input>
			<output>
				<port id="5" precision="FP16">
					<dim>16</dim>
					<dim>1</dim>
					<dim>3</dim>
					<dim>3</dim>
				</port>
			</output>
		</layer>
		<layer id="305" name="18447/value18449_const" type="Const" version="opset1">
			<data element_type="i64" offset="3548" shape="5" size="40"/>
			<output>
				<port id="1" precision="I64">
					<dim>5</dim>
				</port>
			</output>
		</layer>
		<layer id="306" name="18447" type="Reshape" version="opset1">
			<data special_zero="True"/>
			<input>
				<port id="0">
					<dim>16</dim>
					<dim>1</dim>
					<dim>3</dim>
					<dim>3</dim>
				</port>
				<port id="1">
					<dim>5</dim>
				</port>
			</input>
			<output>
				<port id="2" precision="FP16">
					<dim>16</dim>
					<dim>1</dim>
					<dim>1</dim>
					<dim>3</dim>
					<dim>3</dim>
				</port>
			</output>
		</layer>
		<layer id="307" name="598" type="GroupConvolution" version="opset1">
			<data dilations="1,1" output_padding="0,0" pads_begin="1,1" pads_end="1,1" strides="1,1"/>
			<input>
				<port id="0">
					<dim>1</dim>
					<dim>16</dim>
					<dim>64</dim>
					<dim>32</dim>
				</port>
				<port id="1">
					<dim>16</dim>
					<dim>1</dim>
					<dim>1</dim>
					<dim>3</dim>
					<dim>3</dim>
				</port>
			</input>
			<output>
				<port id="2" precision="FP16">
					<dim>1</dim>
					<dim>16</dim>
					<dim>64</dim>
					<dim>32</dim>
				</port>
			</output>
		</layer>
		<layer id="308" name="data_add_1972719732/copy_const984_const" type="Const" version="opset1">
			<data element_type="f16" offset="7022" shape="1,16,1,1" size="32"/>
			<output>
				<port id="1" precision="FP16">
					<dim>1</dim>
					<dim>16</dim>
					<dim>1</dim>
					<dim>1</dim>
				</port>
			</output>
		</layer>
		<layer id="309" name="599/variance/Fused_Add_" type="Add" version="opset1">
			<input>
				<port id="0">
					<dim>1</dim>
					<dim>16</dim>
					<dim>64</dim>
					<dim>32</dim>
				</port>
				<port id="1">
					<dim>1</dim>
					<dim>16</dim>
					<dim>1</dim>
					<dim>1</dim>
				</port>
			</input>
			<output>
				<port id="2" precision="FP16">
					<dim>1</dim>
					<dim>16</dim>
					<dim>64</dim>
					<dim>32</dim>
				</port>
			</output>
		</layer>
		<layer id="310" name="600" type="ReLU" version="opset1">
			<input>
				<port id="0">
					<dim>1</dim>
					<dim>16</dim>
					<dim>64</dim>
					<dim>32</dim>
				</port>
			</input>
			<output>
				<port id="1" precision="FP16">
					<dim>1</dim>
					<dim>16</dim>
					<dim>64</dim>
					<dim>32</dim>
				</port>
			</output>
		</layer>
		<layer id="311" name="37673771_const" type="Const" version="opset1">
			<data element_type="f16" offset="7054" shape="" size="2"/>
			<output>
				<port id="1" precision="FP16"/>
			</output>
		</layer>
		<layer id="312" name="37683772_const" type="Const" version="opset1">
			<data element_type="f16" offset="7056" shape="" size="2"/>
			<output>
				<port id="1" precision="FP16"/>
			</output>
		</layer>
		<layer id="313" name="37693773_const" type="Const" version="opset1">
			<data element_type="f16" offset="7054" shape="" size="2"/>
			<output>
				<port id="1" precision="FP16"/>
			</output>
		</layer>
		<layer id="314" name="37703774_const" type="Const" version="opset1">
			<data element_type="f16" offset="7056" shape="" size="2"/>
			<output>
				<port id="1" precision="FP16"/>
			</output>
		</layer>
		<layer id="315" name="630/reduce/fq_input_0" type="FakeQuantize" version="opset1">
			<data levels="256"/>
			<input>
				<port id="0">
					<dim>1</dim>
					<dim>16</dim>
					<dim>64</dim>
					<dim>32</dim>
				</port>
				<port id="1"/>
				<port id="2"/>
				<port id="3"/>
				<port id="4"/>
			</input>
			<output>
				<port id="5" precision="FP16">
					<dim>1</dim>
					<dim>16</dim>
					<dim>64</dim>
					<dim>32</dim>
				</port>
			</output>
		</layer>
		<layer id="316" name="630/reduce/Cast_116321_const" type="Const" version="opset1">
			<data element_type="i64" offset="3624" shape="2" size="16"/>
			<output>
				<port id="1" precision="I64">
					<dim>2</dim>
				</port>
			</output>
		</layer>
		<layer id="317" name="630/reduce" type="ReduceMean" version="opset1">
			<data keep_dims="True"/>
			<input>
				<port id="0">
					<dim>1</dim>
					<dim>16</dim>
					<dim>64</dim>
					<dim>32</dim>
				</port>
				<port id="1">
					<dim>2</dim>
				</port>
			</input>
			<output>
				<port id="2" precision="FP16">
					<dim>1</dim>
					<dim>16</dim>
					<dim>1</dim>
					<dim>1</dim>
				</port>
			</output>
		</layer>
		<layer id="318" name="Copy_onnx_initializer_node_conv2.0.gate.fc1.weight/Output_0/Data_3549_const989_const" type="Const" version="opset1">
			<data element_type="f16" offset="3640" shape="1,16,1,1" size="32"/>
			<output>
				<port id="1" precision="FP16">
					<dim>1</dim>
					<dim>16</dim>
					<dim>1</dim>
					<dim>1</dim>
				</port>
			</output>
		</layer>
		<layer id="319" name="631/WithoutBiases" type="Convolution" version="opset1">
			<data dilations="1,1" output_padding="0,0" pads_begin="0,0" pads_end="0,0" strides="1,1"/>
			<input>
				<port id="0">
					<dim>1</dim>
					<dim>16</dim>
					<dim>1</dim>
					<dim>1</dim>
				</port>
				<port id="1">
					<dim>1</dim>
					<dim>16</dim>
					<dim>1</dim>
					<dim>1</dim>
				</port>
			</input>
			<output>
				<port id="2" precision="FP16">
					<dim>1</dim>
					<dim>1</dim>
					<dim>1</dim>
					<dim>1</dim>
				</port>
			</output>
		</layer>
		<layer id="320" name="631/Dims11944/copy_const991_const" type="Const" version="opset1">
			<data element_type="f16" offset="3672" shape="1,1,1,1" size="2"/>
			<output>
				<port id="1" precision="FP16">
					<dim>1</dim>
					<dim>1</dim>
					<dim>1</dim>
					<dim>1</dim>
				</port>
			</output>
		</layer>
		<layer id="321" name="631" type="Add" version="opset1">
			<input>
				<port id="0">
					<dim>1</dim>
					<dim>1</dim>
					<dim>1</dim>
					<dim>1</dim>
				</port>
				<port id="1">
					<dim>1</dim>
					<dim>1</dim>
					<dim>1</dim>
					<dim>1</dim>
				</port>
			</input>
			<output>
				<port id="2" precision="FP16">
					<dim>1</dim>
					<dim>1</dim>
					<dim>1</dim>
					<dim>1</dim>
				</port>
			</output>
		</layer>
		<layer id="322" name="632" type="ReLU" version="opset1">
			<input>
				<port id="0">
					<dim>1</dim>
					<dim>1</dim>
					<dim>1</dim>
					<dim>1</dim>
				</port>
			</input>
			<output>
				<port id="1" precision="FP16">
					<dim>1</dim>
					<dim>1</dim>
					<dim>1</dim>
					<dim>1</dim>
				</port>
			</output>
		</layer>
		<layer id="323" name="Copy_onnx_initializer_node_conv2.0.gate.fc2.weight/Output_0/Data_3557_const994_const" type="Const" version="opset1">
			<data element_type="f16" offset="3674" shape="16,1,1,1" size="32"/>
			<output>
				<port id="1" precision="FP16">
					<dim>16</dim>
					<dim>1</dim>
					<dim>1</dim>
					<dim>1</dim>
				</port>
			</output>
		</layer>
		<layer id="324" name="633/WithoutBiases" type="Convolution" version="opset1">
			<data dilations="1,1" output_padding="0,0" pads_begin="0,0" pads_end="0,0" strides="1,1"/>
			<input>
				<port id="0">
					<dim>1</dim>
					<dim>1</dim>
					<dim>1</dim>
					<dim>1</dim>
				</port>
				<port id="1">
					<dim>16</dim>
					<dim>1</dim>
					<dim>1</dim>
					<dim>1</dim>
				</port>
			</input>
			<output>
				<port id="2" precision="FP16">
					<dim>1</dim>
					<dim>16</dim>
					<dim>1</dim>
					<dim>1</dim>
				</port>
			</output>
		</layer>
		<layer id="325" name="633/Dims12166/copy_const996_const" type="Const" version="opset1">
			<data element_type="f16" offset="3706" shape="1,16,1,1" size="32"/>
			<output>
				<port id="1" precision="FP16">
					<dim>1</dim>
					<dim>16</dim>
					<dim>1</dim>
					<dim>1</dim>
				</port>
			</output>
		</layer>
		<layer id="326" name="633" type="Add" version="opset1">
			<input>
				<port id="0">
					<dim>1</dim>
					<dim>16</dim>
					<dim>1</dim>
					<dim>1</dim>
				</port>
				<port id="1">
					<dim>1</dim>
					<dim>16</dim>
					<dim>1</dim>
					<dim>1</dim>
				</port>
			</input>
			<output>
				<port id="2" precision="FP16">
					<dim>1</dim>
					<dim>16</dim>
					<dim>1</dim>
					<dim>1</dim>
				</port>
			</output>
		</layer>
		<layer id="327" name="634" type="Sigmoid" version="opset1">
			<input>
				<port id="0">
					<dim>1</dim>
					<dim>16</dim>
					<dim>1</dim>
					<dim>1</dim>
				</port>
			</input>
			<output>
				<port id="1" precision="FP16">
					<dim>1</dim>
					<dim>16</dim>
					<dim>1</dim>
					<dim>1</dim>
				</port>
			</output>
		</layer>
		<layer id="328" name="34673471_const" type="Const" version="opset1">
			<data element_type="f16" offset="7054" shape="" size="2"/>
			<output>
				<port id="1" precision="FP16"/>
			</output>
		</layer>
		<layer id="329" name="34683472_const" type="Const" version="opset1">
			<data element_type="f16" offset="7058" shape="" size="2"/>
			<output>
				<port id="1" precision="FP16"/>
			</output>
		</layer>
		<layer id="330" name="34693473_const" type="Const" version="opset1">
			<data element_type="f16" offset="7054" shape="" size="2"/>
			<output>
				<port id="1" precision="FP16"/>
			</output>
		</layer>
		<layer id="331" name="34703474_const" type="Const" version="opset1">
			<data element_type="f16" offset="7058" shape="" size="2"/>
			<output>
				<port id="1" precision="FP16"/>
			</output>
		</layer>
		<layer id="332" name="635/fq_input_1" type="FakeQuantize" version="opset1">
			<data levels="256"/>
			<input>
				<port id="0">
					<dim>1</dim>
					<dim>16</dim>
					<dim>1</dim>
					<dim>1</dim>
				</port>
				<port id="1"/>
				<port id="2"/>
				<port id="3"/>
				<port id="4"/>
			</input>
			<output>
				<port id="5" precision="FP16">
					<dim>1</dim>
					<dim>16</dim>
					<dim>1</dim>
					<dim>1</dim>
				</port>
			</output>
		</layer>
		<layer id="333" name="635" type="Multiply" version="opset1">
			<input>
				<port id="0">
					<dim>1</dim>
					<dim>16</dim>
					<dim>64</dim>
					<dim>32</dim>
				</port>
				<port id="1">
					<dim>1</dim>
					<dim>16</dim>
					<dim>1</dim>
					<dim>1</dim>
				</port>
			</input>
			<output>
				<port id="2" precision="FP16">
					<dim>1</dim>
					<dim>16</dim>
					<dim>64</dim>
					<dim>32</dim>
				</port>
			</output>
		</layer>
		<layer id="334" name="49274931_const" type="Const" version="opset1">
			<data element_type="f16" offset="7054" shape="" size="2"/>
			<output>
				<port id="1" precision="FP16"/>
			</output>
		</layer>
		<layer id="335" name="49284932_const" type="Const" version="opset1">
			<data element_type="f16" offset="7060" shape="" size="2"/>
			<output>
				<port id="1" precision="FP16"/>
			</output>
		</layer>
		<layer id="336" name="49294933_const" type="Const" version="opset1">
			<data element_type="f16" offset="7054" shape="" size="2"/>
			<output>
				<port id="1" precision="FP16"/>
			</output>
		</layer>
		<layer id="337" name="49304934_const" type="Const" version="opset1">
			<data element_type="f16" offset="7060" shape="" size="2"/>
			<output>
				<port id="1" precision="FP16"/>
			</output>
		</layer>
		<layer id="338" name="636/fq_input_1" type="FakeQuantize" version="opset1">
			<data levels="256"/>
			<input>
				<port id="0">
					<dim>1</dim>
					<dim>16</dim>
					<dim>64</dim>
					<dim>32</dim>
				</port>
				<port id="1"/>
				<port id="2"/>
				<port id="3"/>
				<port id="4"/>
			</input>
			<output>
				<port id="5" precision="FP16">
					<dim>1</dim>
					<dim>16</dim>
					<dim>64</dim>
					<dim>32</dim>
				</port>
			</output>
		</layer>
		<layer id="339" name="636" type="Add" version="opset1">
			<input>
				<port id="0">
					<dim>1</dim>
					<dim>16</dim>
					<dim>64</dim>
					<dim>32</dim>
				</port>
				<port id="1">
					<dim>1</dim>
					<dim>16</dim>
					<dim>64</dim>
					<dim>32</dim>
				</port>
			</input>
			<output>
				<port id="2" precision="FP16">
					<dim>1</dim>
					<dim>16</dim>
					<dim>64</dim>
					<dim>32</dim>
				</port>
			</output>
		</layer>
		<layer id="340" name="35673571_const" type="Const" version="opset1">
			<data element_type="f16" offset="7054" shape="" size="2"/>
			<output>
				<port id="1" precision="FP16"/>
			</output>
		</layer>
		<layer id="341" name="35683572_const" type="Const" version="opset1">
			<data element_type="f16" offset="7062" shape="" size="2"/>
			<output>
				<port id="1" precision="FP16"/>
			</output>
		</layer>
		<layer id="342" name="35693573_const" type="Const" version="opset1">
			<data element_type="f16" offset="7054" shape="" size="2"/>
			<output>
				<port id="1" precision="FP16"/>
			</output>
		</layer>
		<layer id="343" name="35703574_const" type="Const" version="opset1">
			<data element_type="f16" offset="7062" shape="" size="2"/>
			<output>
				<port id="1" precision="FP16"/>
			</output>
		</layer>
		<layer id="344" name="643/fq_input_0" type="FakeQuantize" version="opset1">
			<data levels="256"/>
			<input>
				<port id="0">
					<dim>1</dim>
					<dim>16</dim>
					<dim>64</dim>
					<dim>32</dim>
				</port>
				<port id="1"/>
				<port id="2"/>
				<port id="3"/>
				<port id="4"/>
			</input>
			<output>
				<port id="5" precision="FP16">
					<dim>1</dim>
					<dim>16</dim>
					<dim>64</dim>
					<dim>32</dim>
				</port>
			</output>
		</layer>
		<layer id="345" name="601/fq_weights_1/Convert_to_float/Cast_016453_const" type="Const" version="opset1">
			<data element_type="u8" offset="7064" shape="16,16,1,1" size="256"/>
			<output>
				<port id="1" precision="U8">
					<dim>16</dim>
					<dim>16</dim>
					<dim>1</dim>
					<dim>1</dim>
				</port>
			</output>
		</layer>
		<layer id="346" name="601/fq_weights_1/Convert_to_float" type="Convert" version="opset1">
			<data destination_type="f16"/>
			<input>
				<port id="0">
					<dim>16</dim>
					<dim>16</dim>
					<dim>1</dim>
					<dim>1</dim>
				</port>
			</input>
			<output>
				<port id="1" precision="FP16">
					<dim>16</dim>
					<dim>16</dim>
					<dim>1</dim>
					<dim>1</dim>
				</port>
			</output>
		</layer>
		<layer id="347" name="601/fq_weights_1/Copy/out_low14372_const" type="Const" version="opset1">
			<data element_type="f16" offset="7320" shape="1" size="2"/>
			<output>
				<port id="1" precision="FP16">
					<dim>1</dim>
				</port>
			</output>
		</layer>
		<layer id="348" name="601/fq_weights_1/Copy/out_high14373_const" type="Const" version="opset1">
			<data element_type="f16" offset="2394" shape="1" size="2"/>
			<output>
				<port id="1" precision="FP16">
					<dim>1</dim>
				</port>
			</output>
		</layer>
		<layer id="349" name="52495253_const" type="Const" version="opset1">
			<data element_type="f16" offset="7322" shape="16,1,1,1" size="32"/>
			<output>
				<port id="1" precision="FP16">
					<dim>16</dim>
					<dim>1</dim>
					<dim>1</dim>
					<dim>1</dim>
				</port>
			</output>
		</layer>
		<layer id="350" name="52505254_const" type="Const" version="opset1">
			<data element_type="f16" offset="7354" shape="16,1,1,1" size="32"/>
			<output>
				<port id="1" precision="FP16">
					<dim>16</dim>
					<dim>1</dim>
					<dim>1</dim>
					<dim>1</dim>
				</port>
			</output>
		</layer>
		<layer id="351" name="601/fq_weights_1" type="FakeQuantize" version="opset1">
			<data levels="255"/>
			<input>
				<port id="0">
					<dim>16</dim>
					<dim>16</dim>
					<dim>1</dim>
					<dim>1</dim>
				</port>
				<port id="1">
					<dim>1</dim>
				</port>
				<port id="2">
					<dim>1</dim>
				</port>
				<port id="3">
					<dim>16</dim>
					<dim>1</dim>
					<dim>1</dim>
					<dim>1</dim>
				</port>
				<port id="4">
					<dim>16</dim>
					<dim>1</dim>
					<dim>1</dim>
					<dim>1</dim>
				</port>
			</input>
			<output>
				<port id="5" precision="FP16">
					<dim>16</dim>
					<dim>16</dim>
					<dim>1</dim>
					<dim>1</dim>
				</port>
			</output>
		</layer>
		<layer id="352" name="601" type="Convolution" version="opset1">
			<data dilations="1,1" output_padding="0,0" pads_begin="0,0" pads_end="0,0" strides="1,1"/>
			<input>
				<port id="0">
					<dim>1</dim>
					<dim>16</dim>
					<dim>64</dim>
					<dim>32</dim>
				</port>
				<port id="1">
					<dim>16</dim>
					<dim>16</dim>
					<dim>1</dim>
					<dim>1</dim>
				</port>
			</input>
			<output>
				<port id="2" precision="FP16">
					<dim>1</dim>
					<dim>16</dim>
					<dim>64</dim>
					<dim>32</dim>
				</port>
			</output>
		</layer>
		<layer id="353" name="21602162_const" type="Const" version="opset1">
			<data element_type="f16" offset="7386" shape="1,16,1,1" size="32"/>
			<output>
				<port id="1" precision="FP16">
					<dim>1</dim>
					<dim>16</dim>
					<dim>1</dim>
					<dim>1</dim>
				</port>
			</output>
		</layer>
		<layer id="354" name="601/add_" type="Add" version="opset1">
			<input>
				<port id="0">
					<dim>1</dim>
					<dim>16</dim>
					<dim>64</dim>
					<dim>32</dim>
				</port>
				<port id="1">
					<dim>1</dim>
					<dim>16</dim>
					<dim>1</dim>
					<dim>1</dim>
				</port>
			</input>
			<output>
				<port id="2" precision="FP16">
					<dim>1</dim>
					<dim>16</dim>
					<dim>64</dim>
					<dim>32</dim>
				</port>
			</output>
		</layer>
		<layer id="355" name="45474551_const" type="Const" version="opset1">
			<data element_type="f16" offset="7418" shape="1,16,1,1" size="32"/>
			<output>
				<port id="1" precision="FP16">
					<dim>1</dim>
					<dim>16</dim>
					<dim>1</dim>
					<dim>1</dim>
				</port>
			</output>
		</layer>
		<layer id="356" name="45484552_const" type="Const" version="opset1">
			<data element_type="f16" offset="7450" shape="1,16,1,1" size="32"/>
			<output>
				<port id="1" precision="FP16">
					<dim>1</dim>
					<dim>16</dim>
					<dim>1</dim>
					<dim>1</dim>
				</port>
			</output>
		</layer>
		<layer id="357" name="45494553_const" type="Const" version="opset1">
			<data element_type="f16" offset="7418" shape="1,16,1,1" size="32"/>
			<output>
				<port id="1" precision="FP16">
					<dim>1</dim>
					<dim>16</dim>
					<dim>1</dim>
					<dim>1</dim>
				</port>
			</output>
		</layer>
		<layer id="358" name="45504554_const" type="Const" version="opset1">
			<data element_type="f16" offset="7450" shape="1,16,1,1" size="32"/>
			<output>
				<port id="1" precision="FP16">
					<dim>1</dim>
					<dim>16</dim>
					<dim>1</dim>
					<dim>1</dim>
				</port>
			</output>
		</layer>
		<layer id="359" name="602/fq_input_0" type="FakeQuantize" version="opset1">
			<data levels="256"/>
			<input>
				<port id="0">
					<dim>1</dim>
					<dim>16</dim>
					<dim>64</dim>
					<dim>32</dim>
				</port>
				<port id="1">
					<dim>1</dim>
					<dim>16</dim>
					<dim>1</dim>
					<dim>1</dim>
				</port>
				<port id="2">
					<dim>1</dim>
					<dim>16</dim>
					<dim>1</dim>
					<dim>1</dim>
				</port>
				<port id="3">
					<dim>1</dim>
					<dim>16</dim>
					<dim>1</dim>
					<dim>1</dim>
				</port>
				<port id="4">
					<dim>1</dim>
					<dim>16</dim>
					<dim>1</dim>
					<dim>1</dim>
				</port>
			</input>
			<output>
				<port id="5" precision="FP16">
					<dim>1</dim>
					<dim>16</dim>
					<dim>64</dim>
					<dim>32</dim>
				</port>
			</output>
		</layer>
		<layer id="360" name="602/fq_weights_1/Convert_to_float/Cast_016553_const" type="Const" version="opset1">
			<data element_type="u8" offset="7482" shape="16,1,3,3" size="144"/>
			<output>
				<port id="1" precision="U8">
					<dim>16</dim>
					<dim>1</dim>
					<dim>3</dim>
					<dim>3</dim>
				</port>
			</output>
		</layer>
		<layer id="361" name="602/fq_weights_1/Convert_to_float" type="Convert" version="opset1">
			<data destination_type="f16"/>
			<input>
				<port id="0">
					<dim>16</dim>
					<dim>1</dim>
					<dim>3</dim>
					<dim>3</dim>
				</port>
			</input>
			<output>
				<port id="1" precision="FP16">
					<dim>16</dim>
					<dim>1</dim>
					<dim>3</dim>
					<dim>3</dim>
				</port>
			</output>
		</layer>
		<layer id="362" name="602/fq_weights_1/Copy/out_low13812_const" type="Const" version="opset1">
			<data element_type="f16" offset="7320" shape="1" size="2"/>
			<output>
				<port id="1" precision="FP16">
					<dim>1</dim>
				</port>
			</output>
		</layer>
		<layer id="363" name="602/fq_weights_1/Copy/out_high13813_const" type="Const" version="opset1">
			<data element_type="f16" offset="2394" shape="1" size="2"/>
			<output>
				<port id="1" precision="FP16">
					<dim>1</dim>
				</port>
			</output>
		</layer>
		<layer id="364" name="45594563_const" type="Const" version="opset1">
			<data element_type="f16" offset="7626" shape="16,1,1,1" size="32"/>
			<output>
				<port id="1" precision="FP16">
					<dim>16</dim>
					<dim>1</dim>
					<dim>1</dim>
					<dim>1</dim>
				</port>
			</output>
		</layer>
		<layer id="365" name="45604564_const" type="Const" version="opset1">
			<data element_type="f16" offset="7658" shape="16,1,1,1" size="32"/>
			<output>
				<port id="1" precision="FP16">
					<dim>16</dim>
					<dim>1</dim>
					<dim>1</dim>
					<dim>1</dim>
				</port>
			</output>
		</layer>
		<layer id="366" name="602/fq_weights_1" type="FakeQuantize" version="opset1">
			<data levels="255"/>
			<input>
				<port id="0">
					<dim>16</dim>
					<dim>1</dim>
					<dim>3</dim>
					<dim>3</dim>
				</port>
				<port id="1">
					<dim>1</dim>
				</port>
				<port id="2">
					<dim>1</dim>
				</port>
				<port id="3">
					<dim>16</dim>
					<dim>1</dim>
					<dim>1</dim>
					<dim>1</dim>
				</port>
				<port id="4">
					<dim>16</dim>
					<dim>1</dim>
					<dim>1</dim>
					<dim>1</dim>
				</port>
			</input>
			<output>
				<port id="5" precision="FP16">
					<dim>16</dim>
					<dim>1</dim>
					<dim>3</dim>
					<dim>3</dim>
				</port>
			</output>
		</layer>
		<layer id="367" name="18431/value18433_const" type="Const" version="opset1">
			<data element_type="i64" offset="3548" shape="5" size="40"/>
			<output>
				<port id="1" precision="I64">
					<dim>5</dim>
				</port>
			</output>
		</layer>
		<layer id="368" name="18431" type="Reshape" version="opset1">
			<data special_zero="True"/>
			<input>
				<port id="0">
					<dim>16</dim>
					<dim>1</dim>
					<dim>3</dim>
					<dim>3</dim>
				</port>
				<port id="1">
					<dim>5</dim>
				</port>
			</input>
			<output>
				<port id="2" precision="FP16">
					<dim>16</dim>
					<dim>1</dim>
					<dim>1</dim>
					<dim>3</dim>
					<dim>3</dim>
				</port>
			</output>
		</layer>
		<layer id="369" name="602" type="GroupConvolution" version="opset1">
			<data dilations="1,1" output_padding="0,0" pads_begin="1,1" pads_end="1,1" strides="1,1"/>
			<input>
				<port id="0">
					<dim>1</dim>
					<dim>16</dim>
					<dim>64</dim>
					<dim>32</dim>
				</port>
				<port id="1">
					<dim>16</dim>
					<dim>1</dim>
					<dim>1</dim>
					<dim>3</dim>
					<dim>3</dim>
				</port>
			</input>
			<output>
				<port id="2" precision="FP16">
					<dim>1</dim>
					<dim>16</dim>
					<dim>64</dim>
					<dim>32</dim>
				</port>
			</output>
		</layer>
		<layer id="370" name="data_add_1967919684/copy_const1005_const" type="Const" version="opset1">
			<data element_type="f16" offset="7690" shape="1,16,1,1" size="32"/>
			<output>
				<port id="1" precision="FP16">
					<dim>1</dim>
					<dim>16</dim>
					<dim>1</dim>
					<dim>1</dim>
				</port>
			</output>
		</layer>
		<layer id="371" name="603/variance/Fused_Add_" type="Add" version="opset1">
			<input>
				<port id="0">
					<dim>1</dim>
					<dim>16</dim>
					<dim>64</dim>
					<dim>32</dim>
				</port>
				<port id="1">
					<dim>1</dim>
					<dim>16</dim>
					<dim>1</dim>
					<dim>1</dim>
				</port>
			</input>
			<output>
				<port id="2" precision="FP16">
					<dim>1</dim>
					<dim>16</dim>
					<dim>64</dim>
					<dim>32</dim>
				</port>
			</output>
		</layer>
		<layer id="372" name="604" type="ReLU" version="opset1">
			<input>
				<port id="0">
					<dim>1</dim>
					<dim>16</dim>
					<dim>64</dim>
					<dim>32</dim>
				</port>
			</input>
			<output>
				<port id="1" precision="FP16">
					<dim>1</dim>
					<dim>16</dim>
					<dim>64</dim>
					<dim>32</dim>
				</port>
			</output>
		</layer>
		<layer id="373" name="45674571_const" type="Const" version="opset1">
			<data element_type="f16" offset="7722" shape="" size="2"/>
			<output>
				<port id="1" precision="FP16"/>
			</output>
		</layer>
		<layer id="374" name="45684572_const" type="Const" version="opset1">
			<data element_type="f16" offset="7724" shape="" size="2"/>
			<output>
				<port id="1" precision="FP16"/>
			</output>
		</layer>
		<layer id="375" name="45694573_const" type="Const" version="opset1">
			<data element_type="f16" offset="7722" shape="" size="2"/>
			<output>
				<port id="1" precision="FP16"/>
			</output>
		</layer>
		<layer id="376" name="45704574_const" type="Const" version="opset1">
			<data element_type="f16" offset="7724" shape="" size="2"/>
			<output>
				<port id="1" precision="FP16"/>
			</output>
		</layer>
		<layer id="377" name="605/fq_input_0" type="FakeQuantize" version="opset1">
			<data levels="256"/>
			<input>
				<port id="0">
					<dim>1</dim>
					<dim>16</dim>
					<dim>64</dim>
					<dim>32</dim>
				</port>
				<port id="1"/>
				<port id="2"/>
				<port id="3"/>
				<port id="4"/>
			</input>
			<output>
				<port id="5" precision="FP16">
					<dim>1</dim>
					<dim>16</dim>
					<dim>64</dim>
					<dim>32</dim>
				</port>
			</output>
		</layer>
		<layer id="378" name="605/fq_weights_1/Convert_to_float/Cast_016293_const" type="Const" version="opset1">
			<data element_type="u8" offset="7726" shape="16,16,1,1" size="256"/>
			<output>
				<port id="1" precision="U8">
					<dim>16</dim>
					<dim>16</dim>
					<dim>1</dim>
					<dim>1</dim>
				</port>
			</output>
		</layer>
		<layer id="379" name="605/fq_weights_1/Convert_to_float" type="Convert" version="opset1">
			<data destination_type="f16"/>
			<input>
				<port id="0">
					<dim>16</dim>
					<dim>16</dim>
					<dim>1</dim>
					<dim>1</dim>
				</port>
			</input>
			<output>
				<port id="1" precision="FP16">
					<dim>16</dim>
					<dim>16</dim>
					<dim>1</dim>
					<dim>1</dim>
				</port>
			</output>
		</layer>
		<layer id="380" name="605/fq_weights_1/Copy/out_low14124_const" type="Const" version="opset1">
			<data element_type="f16" offset="7982" shape="1" size="2"/>
			<output>
				<port id="1" precision="FP16">
					<dim>1</dim>
				</port>
			</output>
		</layer>
		<layer id="381" name="605/fq_weights_1/Copy/out_high14125_const" type="Const" version="opset1">
			<data element_type="f16" offset="2394" shape="1" size="2"/>
			<output>
				<port id="1" precision="FP16">
					<dim>1</dim>
				</port>
			</output>
		</layer>
		<layer id="382" name="45794583_const" type="Const" version="opset1">
			<data element_type="f16" offset="7984" shape="16,1,1,1" size="32"/>
			<output>
				<port id="1" precision="FP16">
					<dim>16</dim>
					<dim>1</dim>
					<dim>1</dim>
					<dim>1</dim>
				</port>
			</output>
		</layer>
		<layer id="383" name="45804584_const" type="Const" version="opset1">
			<data element_type="f16" offset="8016" shape="16,1,1,1" size="32"/>
			<output>
				<port id="1" precision="FP16">
					<dim>16</dim>
					<dim>1</dim>
					<dim>1</dim>
					<dim>1</dim>
				</port>
			</output>
		</layer>
		<layer id="384" name="605/fq_weights_1" type="FakeQuantize" version="opset1">
			<data levels="255"/>
			<input>
				<port id="0">
					<dim>16</dim>
					<dim>16</dim>
					<dim>1</dim>
					<dim>1</dim>
				</port>
				<port id="1">
					<dim>1</dim>
				</port>
				<port id="2">
					<dim>1</dim>
				</port>
				<port id="3">
					<dim>16</dim>
					<dim>1</dim>
					<dim>1</dim>
					<dim>1</dim>
				</port>
				<port id="4">
					<dim>16</dim>
					<dim>1</dim>
					<dim>1</dim>
					<dim>1</dim>
				</port>
			</input>
			<output>
				<port id="5" precision="FP16">
					<dim>16</dim>
					<dim>16</dim>
					<dim>1</dim>
					<dim>1</dim>
				</port>
			</output>
		</layer>
		<layer id="385" name="605" type="Convolution" version="opset1">
			<data dilations="1,1" output_padding="0,0" pads_begin="0,0" pads_end="0,0" strides="1,1"/>
			<input>
				<port id="0">
					<dim>1</dim>
					<dim>16</dim>
					<dim>64</dim>
					<dim>32</dim>
				</port>
				<port id="1">
					<dim>16</dim>
					<dim>16</dim>
					<dim>1</dim>
					<dim>1</dim>
				</port>
			</input>
			<output>
				<port id="2" precision="FP16">
					<dim>1</dim>
					<dim>16</dim>
					<dim>64</dim>
					<dim>32</dim>
				</port>
			</output>
		</layer>
		<layer id="386" name="21642166_const" type="Const" version="opset1">
			<data element_type="f16" offset="8048" shape="1,16,1,1" size="32"/>
			<output>
				<port id="1" precision="FP16">
					<dim>1</dim>
					<dim>16</dim>
					<dim>1</dim>
					<dim>1</dim>
				</port>
			</output>
		</layer>
		<layer id="387" name="605/add_" type="Add" version="opset1">
			<input>
				<port id="0">
					<dim>1</dim>
					<dim>16</dim>
					<dim>64</dim>
					<dim>32</dim>
				</port>
				<port id="1">
					<dim>1</dim>
					<dim>16</dim>
					<dim>1</dim>
					<dim>1</dim>
				</port>
			</input>
			<output>
				<port id="2" precision="FP16">
					<dim>1</dim>
					<dim>16</dim>
					<dim>64</dim>
					<dim>32</dim>
				</port>
			</output>
		</layer>
		<layer id="388" name="46774681_const" type="Const" version="opset1">
			<data element_type="f16" offset="8080" shape="1,16,1,1" size="32"/>
			<output>
				<port id="1" precision="FP16">
					<dim>1</dim>
					<dim>16</dim>
					<dim>1</dim>
					<dim>1</dim>
				</port>
			</output>
		</layer>
		<layer id="389" name="46784682_const" type="Const" version="opset1">
			<data element_type="f16" offset="8112" shape="1,16,1,1" size="32"/>
			<output>
				<port id="1" precision="FP16">
					<dim>1</dim>
					<dim>16</dim>
					<dim>1</dim>
					<dim>1</dim>
				</port>
			</output>
		</layer>
		<layer id="390" name="46794683_const" type="Const" version="opset1">
			<data element_type="f16" offset="8080" shape="1,16,1,1" size="32"/>
			<output>
				<port id="1" precision="FP16">
					<dim>1</dim>
					<dim>16</dim>
					<dim>1</dim>
					<dim>1</dim>
				</port>
			</output>
		</layer>
		<layer id="391" name="46804684_const" type="Const" version="opset1">
			<data element_type="f16" offset="8112" shape="1,16,1,1" size="32"/>
			<output>
				<port id="1" precision="FP16">
					<dim>1</dim>
					<dim>16</dim>
					<dim>1</dim>
					<dim>1</dim>
				</port>
			</output>
		</layer>
		<layer id="392" name="606/fq_input_0" type="FakeQuantize" version="opset1">
			<data levels="256"/>
			<input>
				<port id="0">
					<dim>1</dim>
					<dim>16</dim>
					<dim>64</dim>
					<dim>32</dim>
				</port>
				<port id="1">
					<dim>1</dim>
					<dim>16</dim>
					<dim>1</dim>
					<dim>1</dim>
				</port>
				<port id="2">
					<dim>1</dim>
					<dim>16</dim>
					<dim>1</dim>
					<dim>1</dim>
				</port>
				<port id="3">
					<dim>1</dim>
					<dim>16</dim>
					<dim>1</dim>
					<dim>1</dim>
				</port>
				<port id="4">
					<dim>1</dim>
					<dim>16</dim>
					<dim>1</dim>
					<dim>1</dim>
				</port>
			</input>
			<output>
				<port id="5" precision="FP16">
					<dim>1</dim>
					<dim>16</dim>
					<dim>64</dim>
					<dim>32</dim>
				</port>
			</output>
		</layer>
		<layer id="393" name="606/fq_weights_1/Convert_to_float/Cast_016409_const" type="Const" version="opset1">
			<data element_type="u8" offset="8144" shape="16,1,3,3" size="144"/>
			<output>
				<port id="1" precision="U8">
					<dim>16</dim>
					<dim>1</dim>
					<dim>3</dim>
					<dim>3</dim>
				</port>
			</output>
		</layer>
		<layer id="394" name="606/fq_weights_1/Convert_to_float" type="Convert" version="opset1">
			<data destination_type="f16"/>
			<input>
				<port id="0">
					<dim>16</dim>
					<dim>1</dim>
					<dim>3</dim>
					<dim>3</dim>
				</port>
			</input>
			<output>
				<port id="1" precision="FP16">
					<dim>16</dim>
					<dim>1</dim>
					<dim>3</dim>
					<dim>3</dim>
				</port>
			</output>
		</layer>
		<layer id="395" name="606/fq_weights_1/Copy/out_low14364_const" type="Const" version="opset1">
			<data element_type="f16" offset="7982" shape="1" size="2"/>
			<output>
				<port id="1" precision="FP16">
					<dim>1</dim>
				</port>
			</output>
		</layer>
		<layer id="396" name="606/fq_weights_1/Copy/out_high14365_const" type="Const" version="opset1">
			<data element_type="f16" offset="2394" shape="1" size="2"/>
			<output>
				<port id="1" precision="FP16">
					<dim>1</dim>
				</port>
			</output>
		</layer>
		<layer id="397" name="46894693_const" type="Const" version="opset1">
			<data element_type="f16" offset="8288" shape="16,1,1,1" size="32"/>
			<output>
				<port id="1" precision="FP16">
					<dim>16</dim>
					<dim>1</dim>
					<dim>1</dim>
					<dim>1</dim>
				</port>
			</output>
		</layer>
		<layer id="398" name="46904694_const" type="Const" version="opset1">
			<data element_type="f16" offset="8320" shape="16,1,1,1" size="32"/>
			<output>
				<port id="1" precision="FP16">
					<dim>16</dim>
					<dim>1</dim>
					<dim>1</dim>
					<dim>1</dim>
				</port>
			</output>
		</layer>
		<layer id="399" name="606/fq_weights_1" type="FakeQuantize" version="opset1">
			<data levels="255"/>
			<input>
				<port id="0">
					<dim>16</dim>
					<dim>1</dim>
					<dim>3</dim>
					<dim>3</dim>
				</port>
				<port id="1">
					<dim>1</dim>
				</port>
				<port id="2">
					<dim>1</dim>
				</port>
				<port id="3">
					<dim>16</dim>
					<dim>1</dim>
					<dim>1</dim>
					<dim>1</dim>
				</port>
				<port id="4">
					<dim>16</dim>
					<dim>1</dim>
					<dim>1</dim>
					<dim>1</dim>
				</port>
			</input>
			<output>
				<port id="5" precision="FP16">
					<dim>16</dim>
					<dim>1</dim>
					<dim>3</dim>
					<dim>3</dim>
				</port>
			</output>
		</layer>
		<layer id="400" name="18435/value18437_const" type="Const" version="opset1">
			<data element_type="i64" offset="3548" shape="5" size="40"/>
			<output>
				<port id="1" precision="I64">
					<dim>5</dim>
				</port>
			</output>
		</layer>
		<layer id="401" name="18435" type="Reshape" version="opset1">
			<data special_zero="True"/>
			<input>
				<port id="0">
					<dim>16</dim>
					<dim>1</dim>
					<dim>3</dim>
					<dim>3</dim>
				</port>
				<port id="1">
					<dim>5</dim>
				</port>
			</input>
			<output>
				<port id="2" precision="FP16">
					<dim>16</dim>
					<dim>1</dim>
					<dim>1</dim>
					<dim>3</dim>
					<dim>3</dim>
				</port>
			</output>
		</layer>
		<layer id="402" name="606" type="GroupConvolution" version="opset1">
			<data dilations="1,1" output_padding="0,0" pads_begin="1,1" pads_end="1,1" strides="1,1"/>
			<input>
				<port id="0">
					<dim>1</dim>
					<dim>16</dim>
					<dim>64</dim>
					<dim>32</dim>
				</port>
				<port id="1">
					<dim>16</dim>
					<dim>1</dim>
					<dim>1</dim>
					<dim>3</dim>
					<dim>3</dim>
				</port>
			</input>
			<output>
				<port id="2" precision="FP16">
					<dim>1</dim>
					<dim>16</dim>
					<dim>64</dim>
					<dim>32</dim>
				</port>
			</output>
		</layer>
		<layer id="403" name="data_add_1968719692/copy_const1012_const" type="Const" version="opset1">
			<data element_type="f16" offset="8352" shape="1,16,1,1" size="32"/>
			<output>
				<port id="1" precision="FP16">
					<dim>1</dim>
					<dim>16</dim>
					<dim>1</dim>
					<dim>1</dim>
				</port>
			</output>
		</layer>
		<layer id="404" name="607/variance/Fused_Add_" type="Add" version="opset1">
			<input>
				<port id="0">
					<dim>1</dim>
					<dim>16</dim>
					<dim>64</dim>
					<dim>32</dim>
				</port>
				<port id="1">
					<dim>1</dim>
					<dim>16</dim>
					<dim>1</dim>
					<dim>1</dim>
				</port>
			</input>
			<output>
				<port id="2" precision="FP16">
					<dim>1</dim>
					<dim>16</dim>
					<dim>64</dim>
					<dim>32</dim>
				</port>
			</output>
		</layer>
		<layer id="405" name="608" type="ReLU" version="opset1">
			<input>
				<port id="0">
					<dim>1</dim>
					<dim>16</dim>
					<dim>64</dim>
					<dim>32</dim>
				</port>
			</input>
			<output>
				<port id="1" precision="FP16">
					<dim>1</dim>
					<dim>16</dim>
					<dim>64</dim>
					<dim>32</dim>
				</port>
			</output>
		</layer>
		<layer id="406" name="45074511_const" type="Const" version="opset1">
			<data element_type="f16" offset="8384" shape="" size="2"/>
			<output>
				<port id="1" precision="FP16"/>
			</output>
		</layer>
		<layer id="407" name="45084512_const" type="Const" version="opset1">
			<data element_type="f16" offset="8386" shape="" size="2"/>
			<output>
				<port id="1" precision="FP16"/>
			</output>
		</layer>
		<layer id="408" name="45094513_const" type="Const" version="opset1">
			<data element_type="f16" offset="8384" shape="" size="2"/>
			<output>
				<port id="1" precision="FP16"/>
			</output>
		</layer>
		<layer id="409" name="45104514_const" type="Const" version="opset1">
			<data element_type="f16" offset="8386" shape="" size="2"/>
			<output>
				<port id="1" precision="FP16"/>
			</output>
		</layer>
		<layer id="410" name="609/fq_input_0" type="FakeQuantize" version="opset1">
			<data levels="256"/>
			<input>
				<port id="0">
					<dim>1</dim>
					<dim>16</dim>
					<dim>64</dim>
					<dim>32</dim>
				</port>
				<port id="1"/>
				<port id="2"/>
				<port id="3"/>
				<port id="4"/>
			</input>
			<output>
				<port id="5" precision="FP16">
					<dim>1</dim>
					<dim>16</dim>
					<dim>64</dim>
					<dim>32</dim>
				</port>
			</output>
		</layer>
		<layer id="411" name="609/fq_weights_1/Convert_to_float/Cast_016385_const" type="Const" version="opset1">
			<data element_type="u8" offset="8388" shape="16,16,1,1" size="256"/>
			<output>
				<port id="1" precision="U8">
					<dim>16</dim>
					<dim>16</dim>
					<dim>1</dim>
					<dim>1</dim>
				</port>
			</output>
		</layer>
		<layer id="412" name="609/fq_weights_1/Convert_to_float" type="Convert" version="opset1">
			<data destination_type="f16"/>
			<input>
				<port id="0">
					<dim>16</dim>
					<dim>16</dim>
					<dim>1</dim>
					<dim>1</dim>
				</port>
			</input>
			<output>
				<port id="1" precision="FP16">
					<dim>16</dim>
					<dim>16</dim>
					<dim>1</dim>
					<dim>1</dim>
				</port>
			</output>
		</layer>
		<layer id="413" name="609/fq_weights_1/Copy/out_low13764_const" type="Const" version="opset1">
			<data element_type="f16" offset="8644" shape="1" size="2"/>
			<output>
				<port id="1" precision="FP16">
					<dim>1</dim>
				</port>
			</output>
		</layer>
		<layer id="414" name="609/fq_weights_1/Copy/out_high13765_const" type="Const" version="opset1">
			<data element_type="f16" offset="2394" shape="1" size="2"/>
			<output>
				<port id="1" precision="FP16">
					<dim>1</dim>
				</port>
			</output>
		</layer>
		<layer id="415" name="45194523_const" type="Const" version="opset1">
			<data element_type="f16" offset="8646" shape="16,1,1,1" size="32"/>
			<output>
				<port id="1" precision="FP16">
					<dim>16</dim>
					<dim>1</dim>
					<dim>1</dim>
					<dim>1</dim>
				</port>
			</output>
		</layer>
		<layer id="416" name="45204524_const" type="Const" version="opset1">
			<data element_type="f16" offset="8678" shape="16,1,1,1" size="32"/>
			<output>
				<port id="1" precision="FP16">
					<dim>16</dim>
					<dim>1</dim>
					<dim>1</dim>
					<dim>1</dim>
				</port>
			</output>
		</layer>
		<layer id="417" name="609/fq_weights_1" type="FakeQuantize" version="opset1">
			<data levels="255"/>
			<input>
				<port id="0">
					<dim>16</dim>
					<dim>16</dim>
					<dim>1</dim>
					<dim>1</dim>
				</port>
				<port id="1">
					<dim>1</dim>
				</port>
				<port id="2">
					<dim>1</dim>
				</port>
				<port id="3">
					<dim>16</dim>
					<dim>1</dim>
					<dim>1</dim>
					<dim>1</dim>
				</port>
				<port id="4">
					<dim>16</dim>
					<dim>1</dim>
					<dim>1</dim>
					<dim>1</dim>
				</port>
			</input>
			<output>
				<port id="5" precision="FP16">
					<dim>16</dim>
					<dim>16</dim>
					<dim>1</dim>
					<dim>1</dim>
				</port>
			</output>
		</layer>
		<layer id="418" name="609" type="Convolution" version="opset1">
			<data dilations="1,1" output_padding="0,0" pads_begin="0,0" pads_end="0,0" strides="1,1"/>
			<input>
				<port id="0">
					<dim>1</dim>
					<dim>16</dim>
					<dim>64</dim>
					<dim>32</dim>
				</port>
				<port id="1">
					<dim>16</dim>
					<dim>16</dim>
					<dim>1</dim>
					<dim>1</dim>
				</port>
			</input>
			<output>
				<port id="2" precision="FP16">
					<dim>1</dim>
					<dim>16</dim>
					<dim>64</dim>
					<dim>32</dim>
				</port>
			</output>
		</layer>
		<layer id="419" name="21682170_const" type="Const" version="opset1">
			<data element_type="f16" offset="8710" shape="1,16,1,1" size="32"/>
			<output>
				<port id="1" precision="FP16">
					<dim>1</dim>
					<dim>16</dim>
					<dim>1</dim>
					<dim>1</dim>
				</port>
			</output>
		</layer>
		<layer id="420" name="609/add_" type="Add" version="opset1">
			<input>
				<port id="0">
					<dim>1</dim>
					<dim>16</dim>
					<dim>64</dim>
					<dim>32</dim>
				</port>
				<port id="1">
					<dim>1</dim>
					<dim>16</dim>
					<dim>1</dim>
					<dim>1</dim>
				</port>
			</input>
			<output>
				<port id="2" precision="FP16">
					<dim>1</dim>
					<dim>16</dim>
…
		<edge from-layer="2460" from-port="1" to-layer="2462" to-port="3"/>
		<edge from-layer="2461" from-port="1" to-layer="2462" to-port="4"/>
		<edge from-layer="2462" from-port="5" to-layer="2464" to-port="0"/>
		<edge from-layer="2463" from-port="1" to-layer="2464" to-port="1"/>
		<edge from-layer="2464" from-port="2" to-layer="2466" to-port="0"/>
		<edge from-layer="2465" from-port="1" to-layer="2466" to-port="1"/>
		<edge from-layer="2466" from-port="2" to-layer="2468" to-port="0"/>
		<edge from-layer="2467" from-port="1" to-layer="2468" to-port="1"/>
		<edge from-layer="2468" from-port="2" to-layer="2469" to-port="0"/>
		<edge from-layer="2469" from-port="1" to-layer="2471" to-port="0"/>
		<edge from-layer="2470" from-port="1" to-layer="2471" to-port="1"/>
		<edge from-layer="2471" from-port="2" to-layer="2473" to-port="0"/>
		<edge from-layer="2472" from-port="1" to-layer="2473" to-port="1"/>
		<edge from-layer="2473" from-port="2" to-layer="2474" to-port="0"/>
		<edge from-layer="2474" from-port="1" to-layer="2479" to-port="0"/>
		<edge from-layer="2475" from-port="1" to-layer="2479" to-port="1"/>
		<edge from-layer="2476" from-port="1" to-layer="2479" to-port="2"/>
		<edge from-layer="2477" from-port="1" to-layer="2479" to-port="3"/>
		<edge from-layer="2478" from-port="1" to-layer="2479" to-port="4"/>
		<edge from-layer="2462" from-port="5" to-layer="2480" to-port="0"/>
		<edge from-layer="2479" from-port="5" to-layer="2480" to-port="1"/>
		<edge from-layer="2480" from-port="2" to-layer="2485" to-port="0"/>
		<edge from-layer="2481" from-port="1" to-layer="2485" to-port="1"/>
		<edge from-layer="2482" from-port="1" to-layer="2485" to-port="2"/>
		<edge from-layer="2483" from-port="1" to-layer="2485" to-port="3"/>
		<edge from-layer="2484" from-port="1" to-layer="2485" to-port="4"/>
		<edge from-layer="2330" from-port="5" to-layer="2486" to-port="0"/>
		<edge from-layer="2485" from-port="5" to-layer="2486" to-port="1"/>
		<edge from-layer="2486" from-port="2" to-layer="2491" to-port="0"/>
		<edge from-layer="2487" from-port="1" to-layer="2491" to-port="1"/>
		<edge from-layer="2488" from-port="1" to-layer="2491" to-port="2"/>
		<edge from-layer="2489" from-port="1" to-layer="2491" to-port="3"/>
		<edge from-layer="2490" from-port="1" to-layer="2491" to-port="4"/>
		<edge from-layer="2492" from-port="1" to-layer="2493" to-port="0"/>
		<edge from-layer="2493" from-port="1" to-layer="2498" to-port="0"/>
		<edge from-layer="2494" from-port="1" to-layer="2498" to-port="1"/>
		<edge from-layer="2495" from-port="1" to-layer="2498" to-port="2"/>
		<edge from-layer="2496" from-port="1" to-layer="2498" to-port="3"/>
		<edge from-layer="2497" from-port="1" to-layer="2498" to-port="4"/>
		<edge from-layer="2491" from-port="5" to-layer="2499" to-port="0"/>
		<edge from-layer="2498" from-port="5" to-layer="2499" to-port="1"/>
		<edge from-layer="2499" from-port="2" to-layer="2501" to-port="0"/>
		<edge from-layer="2500" from-port="1" to-layer="2501" to-port="1"/>
		<edge from-layer="2501" from-port="2" to-layer="2506" to-port="0"/>
		<edge from-layer="2502" from-port="1" to-layer="2506" to-port="1"/>
		<edge from-layer="2503" from-port="1" to-layer="2506" to-port="2"/>
		<edge from-layer="2504" from-port="1" to-layer="2506" to-port="3"/>
		<edge from-layer="2505" from-port="1" to-layer="2506" to-port="4"/>
		<edge from-layer="2507" from-port="1" to-layer="2508" to-port="0"/>
		<edge from-layer="2508" from-port="1" to-layer="2513" to-port="0"/>
		<edge from-layer="2509" from-port="1" to-layer="2513" to-port="1"/>
		<edge from-layer="2510" from-port="1" to-layer="2513" to-port="2"/>
		<edge from-layer="2511" from-port="1" to-layer="2513" to-port="3"/>
		<edge from-layer="2512" from-port="1" to-layer="2513" to-port="4"/>
		<edge from-layer="2035" from-port="5" to-layer="2514" to-port="0"/>
		<edge from-layer="2513" from-port="5" to-layer="2514" to-port="1"/>
		<edge from-layer="2514" from-port="2" to-layer="2516" to-port="0"/>
		<edge from-layer="2515" from-port="1" to-layer="2516" to-port="1"/>
		<edge from-layer="2516" from-port="2" to-layer="2521" to-port="0"/>
		<edge from-layer="2517" from-port="1" to-layer="2521" to-port="1"/>
		<edge from-layer="2518" from-port="1" to-layer="2521" to-port="2"/>
		<edge from-layer="2519" from-port="1" to-layer="2521" to-port="3"/>
		<edge from-layer="2520" from-port="1" to-layer="2521" to-port="4"/>
		<edge from-layer="2506" from-port="5" to-layer="2522" to-port="0"/>
		<edge from-layer="2521" from-port="5" to-layer="2522" to-port="1"/>
		<edge from-layer="2522" from-port="2" to-layer="2523" to-port="0"/>
		<edge from-layer="2523" from-port="1" to-layer="2528" to-port="0"/>
		<edge from-layer="2524" from-port="1" to-layer="2528" to-port="1"/>
		<edge from-layer="2525" from-port="1" to-layer="2528" to-port="2"/>
		<edge from-layer="2526" from-port="1" to-layer="2528" to-port="3"/>
		<edge from-layer="2527" from-port="1" to-layer="2528" to-port="4"/>
		<edge from-layer="2529" from-port="1" to-layer="2530" to-port="0"/>
		<edge from-layer="2530" from-port="1" to-layer="2535" to-port="0"/>
		<edge from-layer="2531" from-port="1" to-layer="2535" to-port="1"/>
		<edge from-layer="2532" from-port="1" to-layer="2535" to-port="2"/>
		<edge from-layer="2533" from-port="1" to-layer="2535" to-port="3"/>
		<edge from-layer="2534" from-port="1" to-layer="2535" to-port="4"/>
		<edge from-layer="2528" from-port="5" to-layer="2536" to-port="0"/>
		<edge from-layer="2535" from-port="5" to-layer="2536" to-port="1"/>
		<edge from-layer="2536" from-port="2" to-layer="2538" to-port="0"/>
		<edge from-layer="2537" from-port="1" to-layer="2538" to-port="1"/>
		<edge from-layer="2538" from-port="2" to-layer="2539" to-port="0"/>
		<edge from-layer="2539" from-port="1" to-layer="2544" to-port="0"/>
		<edge from-layer="2540" from-port="1" to-layer="2544" to-port="1"/>
		<edge from-layer="2541" from-port="1" to-layer="2544" to-port="2"/>
		<edge from-layer="2542" from-port="1" to-layer="2544" to-port="3"/>
		<edge from-layer="2543" from-port="1" to-layer="2544" to-port="4"/>
		<edge from-layer="2545" from-port="1" to-layer="2546" to-port="0"/>
		<edge from-layer="2546" from-port="1" to-layer="2551" to-port="0"/>
		<edge from-layer="2547" from-port="1" to-layer="2551" to-port="1"/>
		<edge from-layer="2548" from-port="1" to-layer="2551" to-port="2"/>
		<edge from-layer="2549" from-port="1" to-layer="2551" to-port="3"/>
		<edge from-layer="2550" from-port="1" to-layer="2551" to-port="4"/>
		<edge from-layer="2544" from-port="5" to-layer="2552" to-port="0"/>
		<edge from-layer="2551" from-port="5" to-layer="2552" to-port="1"/>
		<edge from-layer="2552" from-port="2" to-layer="2554" to-port="0"/>
		<edge from-layer="2553" from-port="1" to-layer="2554" to-port="1"/>
		<edge from-layer="2554" from-port="2" to-layer="2559" to-port="0"/>
		<edge from-layer="2555" from-port="1" to-layer="2559" to-port="1"/>
		<edge from-layer="2556" from-port="1" to-layer="2559" to-port="2"/>
		<edge from-layer="2557" from-port="1" to-layer="2559" to-port="3"/>
		<edge from-layer="2558" from-port="1" to-layer="2559" to-port="4"/>
		<edge from-layer="2560" from-port="1" to-layer="2561" to-port="0"/>
		<edge from-layer="2561" from-port="1" to-layer="2566" to-port="0"/>
		<edge from-layer="2562" from-port="1" to-layer="2566" to-port="1"/>
		<edge from-layer="2563" from-port="1" to-layer="2566" to-port="2"/>
		<edge from-layer="2564" from-port="1" to-layer="2566" to-port="3"/>
		<edge from-layer="2565" from-port="1" to-layer="2566" to-port="4"/>
		<edge from-layer="2566" from-port="5" to-layer="2568" to-port="0"/>
		<edge from-layer="2567" from-port="1" to-layer="2568" to-port="1"/>
		<edge from-layer="2559" from-port="5" to-layer="2569" to-port="0"/>
		<edge from-layer="2568" from-port="2" to-layer="2569" to-port="1"/>
		<edge from-layer="2569" from-port="2" to-layer="2571" to-port="0"/>
		<edge from-layer="2570" from-port="1" to-layer="2571" to-port="1"/>
		<edge from-layer="2571" from-port="2" to-layer="2572" to-port="0"/>
		<edge from-layer="2572" from-port="1" to-layer="2577" to-port="0"/>
		<edge from-layer="2573" from-port="1" to-layer="2577" to-port="1"/>
		<edge from-layer="2574" from-port="1" to-layer="2577" to-port="2"/>
		<edge from-layer="2575" from-port="1" to-layer="2577" to-port="3"/>
		<edge from-layer="2576" from-port="1" to-layer="2577" to-port="4"/>
		<edge from-layer="2577" from-port="5" to-layer="2579" to-port="0"/>
		<edge from-layer="2578" from-port="1" to-layer="2579" to-port="1"/>
		<edge from-layer="2579" from-port="2" to-layer="2581" to-port="0"/>
		<edge from-layer="2580" from-port="1" to-layer="2581" to-port="1"/>
		<edge from-layer="2581" from-port="2" to-layer="2583" to-port="0"/>
		<edge from-layer="2582" from-port="1" to-layer="2583" to-port="1"/>
		<edge from-layer="2583" from-port="2" to-layer="2584" to-port="0"/>
		<edge from-layer="2584" from-port="1" to-layer="2586" to-port="0"/>
		<edge from-layer="2585" from-port="1" to-layer="2586" to-port="1"/>
		<edge from-layer="2586" from-port="2" to-layer="2588" to-port="0"/>
		<edge from-layer="2587" from-port="1" to-layer="2588" to-port="1"/>
		<edge from-layer="2588" from-port="2" to-layer="2589" to-port="0"/>
		<edge from-layer="2589" from-port="1" to-layer="2594" to-port="0"/>
		<edge from-layer="2590" from-port="1" to-layer="2594" to-port="1"/>
		<edge from-layer="2591" from-port="1" to-layer="2594" to-port="2"/>
		<edge from-layer="2592" from-port="1" to-layer="2594" to-port="3"/>
		<edge from-layer="2593" from-port="1" to-layer="2594" to-port="4"/>
		<edge from-layer="2577" from-port="5" to-layer="2595" to-port="0"/>
		<edge from-layer="2594" from-port="5" to-layer="2595" to-port="1"/>
		<edge from-layer="2595" from-port="2" to-layer="2600" to-port="0"/>
		<edge from-layer="2596" from-port="1" to-layer="2600" to-port="1"/>
		<edge from-layer="2597" from-port="1" to-layer="2600" to-port="2"/>
		<edge from-layer="2598" from-port="1" to-layer="2600" to-port="3"/>
		<edge from-layer="2599" from-port="1" to-layer="2600" to-port="4"/>
		<edge from-layer="2601" from-port="1" to-layer="2602" to-port="0"/>
		<edge from-layer="2602" from-port="1" to-layer="2607" to-port="0"/>
		<edge from-layer="2603" from-port="1" to-layer="2607" to-port="1"/>
		<edge from-layer="2604" from-port="1" to-layer="2607" to-port="2"/>
		<edge from-layer="2605" from-port="1" to-layer="2607" to-port="3"/>
		<edge from-layer="2606" from-port="1" to-layer="2607" to-port="4"/>
		<edge from-layer="2544" from-port="5" to-layer="2608" to-port="0"/>
		<edge from-layer="2607" from-port="5" to-layer="2608" to-port="1"/>
		<edge from-layer="2608" from-port="2" to-layer="2610" to-port="0"/>
		<edge from-layer="2609" from-port="1" to-layer="2610" to-port="1"/>
		<edge from-layer="2610" from-port="2" to-layer="2615" to-port="0"/>
		<edge from-layer="2611" from-port="1" to-layer="2615" to-port="1"/>
		<edge from-layer="2612" from-port="1" to-layer="2615" to-port="2"/>
		<edge from-layer="2613" from-port="1" to-layer="2615" to-port="3"/>
		<edge from-layer="2614" from-port="1" to-layer="2615" to-port="4"/>
		<edge from-layer="2616" from-port="1" to-layer="2617" to-port="0"/>
		<edge from-layer="2617" from-port="1" to-layer="2622" to-port="0"/>
		<edge from-layer="2618" from-port="1" to-layer="2622" to-port="1"/>
		<edge from-layer="2619" from-port="1" to-layer="2622" to-port="2"/>
		<edge from-layer="2620" from-port="1" to-layer="2622" to-port="3"/>
		<edge from-layer="2621" from-port="1" to-layer="2622" to-port="4"/>
		<edge from-layer="2622" from-port="5" to-layer="2624" to-port="0"/>
		<edge from-layer="2623" from-port="1" to-layer="2624" to-port="1"/>
		<edge from-layer="2615" from-port="5" to-layer="2625" to-port="0"/>
		<edge from-layer="2624" from-port="2" to-layer="2625" to-port="1"/>
		<edge from-layer="2625" from-port="2" to-layer="2627" to-port="0"/>
		<edge from-layer="2626" from-port="1" to-layer="2627" to-port="1"/>
		<edge from-layer="2627" from-port="2" to-layer="2628" to-port="0"/>
		<edge from-layer="2628" from-port="1" to-layer="2633" to-port="0"/>
		<edge from-layer="2629" from-port="1" to-layer="2633" to-port="1"/>
		<edge from-layer="2630" from-port="1" to-layer="2633" to-port="2"/>
		<edge from-layer="2631" from-port="1" to-layer="2633" to-port="3"/>
		<edge from-layer="2632" from-port="1" to-layer="2633" to-port="4"/>
		<edge from-layer="2634" from-port="1" to-layer="2635" to-port="0"/>
		<edge from-layer="2635" from-port="1" to-layer="2640" to-port="0"/>
		<edge from-layer="2636" from-port="1" to-layer="2640" to-port="1"/>
		<edge from-layer="2637" from-port="1" to-layer="2640" to-port="2"/>
		<edge from-layer="2638" from-port="1" to-layer="2640" to-port="3"/>
		<edge from-layer="2639" from-port="1" to-layer="2640" to-port="4"/>
		<edge from-layer="2633" from-port="5" to-layer="2641" to-port="0"/>
		<edge from-layer="2640" from-port="5" to-layer="2641" to-port="1"/>
		<edge from-layer="2641" from-port="2" to-layer="2643" to-port="0"/>
		<edge from-layer="2642" from-port="1" to-layer="2643" to-port="1"/>
		<edge from-layer="2643" from-port="2" to-layer="2648" to-port="0"/>
		<edge from-layer="2644" from-port="1" to-layer="2648" to-port="1"/>
		<edge from-layer="2645" from-port="1" to-layer="2648" to-port="2"/>
		<edge from-layer="2646" from-port="1" to-layer="2648" to-port="3"/>
		<edge from-layer="2647" from-port="1" to-layer="2648" to-port="4"/>
		<edge from-layer="2649" from-port="1" to-layer="2650" to-port="0"/>
		<edge from-layer="2650" from-port="1" to-layer="2655" to-port="0"/>
		<edge from-layer="2651" from-port="1" to-layer="2655" to-port="1"/>
		<edge from-layer="2652" from-port="1" to-layer="2655" to-port="2"/>
		<edge from-layer="2653" from-port="1" to-layer="2655" to-port="3"/>
		<edge from-layer="2654" from-port="1" to-layer="2655" to-port="4"/>
		<edge from-layer="2655" from-port="5" to-layer="2657" to-port="0"/>
		<edge from-layer="2656" from-port="1" to-layer="2657" to-port="1"/>
		<edge from-layer="2648" from-port="5" to-layer="2658" to-port="0"/>
		<edge from-layer="2657" from-port="2" to-layer="2658" to-port="1"/>
		<edge from-layer="2658" from-port="2" to-layer="2660" to-port="0"/>
		<edge from-layer="2659" from-port="1" to-layer="2660" to-port="1"/>
		<edge from-layer="2660" from-port="2" to-layer="2661" to-port="0"/>
		<edge from-layer="2661" from-port="1" to-layer="2666" to-port="0"/>
		<edge from-layer="2662" from-port="1" to-layer="2666" to-port="1"/>
		<edge from-layer="2663" from-port="1" to-layer="2666" to-port="2"/>
		<edge from-layer="2664" from-port="1" to-layer="2666" to-port="3"/>
		<edge from-layer="2665" from-port="1" to-layer="2666" to-port="4"/>
		<edge from-layer="2666" from-port="5" to-layer="2668" to-port="0"/>
		<edge from-layer="2667" from-port="1" to-layer="2668" to-port="1"/>
		<edge from-layer="2668" from-port="2" to-layer="2670" to-port="0"/>
		<edge from-layer="2669" from-port="1" to-layer="2670" to-port="1"/>
		<edge from-layer="2670" from-port="2" to-layer="2672" to-port="0"/>
		<edge from-layer="2671" from-port="1" to-layer="2672" to-port="1"/>
		<edge from-layer="2672" from-port="2" to-layer="2673" to-port="0"/>
		<edge from-layer="2673" from-port="1" to-layer="2675" to-port="0"/>
		<edge from-layer="2674" from-port="1" to-layer="2675" to-port="1"/>
		<edge from-layer="2675" from-port="2" to-layer="2677" to-port="0"/>
		<edge from-layer="2676" from-port="1" to-layer="2677" to-port="1"/>
		<edge from-layer="2677" from-port="2" to-layer="2678" to-port="0"/>
		<edge from-layer="2678" from-port="1" to-layer="2683" to-port="0"/>
		<edge from-layer="2679" from-port="1" to-layer="2683" to-port="1"/>
		<edge from-layer="2680" from-port="1" to-layer="2683" to-port="2"/>
		<edge from-layer="2681" from-port="1" to-layer="2683" to-port="3"/>
		<edge from-layer="2682" from-port="1" to-layer="2683" to-port="4"/>
		<edge from-layer="2666" from-port="5" to-layer="2684" to-port="0"/>
		<edge from-layer="2683" from-port="5" to-layer="2684" to-port="1"/>
		<edge from-layer="2684" from-port="2" to-layer="2689" to-port="0"/>
		<edge from-layer="2685" from-port="1" to-layer="2689" to-port="1"/>
		<edge from-layer="2686" from-port="1" to-layer="2689" to-port="2"/>
		<edge from-layer="2687" from-port="1" to-layer="2689" to-port="3"/>
		<edge from-layer="2688" from-port="1" to-layer="2689" to-port="4"/>
		<edge from-layer="2600" from-port="5" to-layer="2690" to-port="0"/>
		<edge from-layer="2689" from-port="5" to-layer="2690" to-port="1"/>
		<edge from-layer="2690" from-port="2" to-layer="2695" to-port="0"/>
		<edge from-layer="2691" from-port="1" to-layer="2695" to-port="1"/>
		<edge from-layer="2692" from-port="1" to-layer="2695" to-port="2"/>
		<edge from-layer="2693" from-port="1" to-layer="2695" to-port="3"/>
		<edge from-layer="2694" from-port="1" to-layer="2695" to-port="4"/>
		<edge from-layer="2696" from-port="1" to-layer="2697" to-port="0"/>
		<edge from-layer="2697" from-port="1" to-layer="2702" to-port="0"/>
		<edge from-layer="2698" from-port="1" to-layer="2702" to-port="1"/>
		<edge from-layer="2699" from-port="1" to-layer="2702" to-port="2"/>
		<edge from-layer="2700" from-port="1" to-layer="2702" to-port="3"/>
		<edge from-layer="2701" from-port="1" to-layer="2702" to-port="4"/>
		<edge from-layer="2544" from-port="5" to-layer="2703" to-port="0"/>
		<edge from-layer="2702" from-port="5" to-layer="2703" to-port="1"/>
		<edge from-layer="2703" from-port="2" to-layer="2705" to-port="0"/>
		<edge from-layer="2704" from-port="1" to-layer="2705" to-port="1"/>
		<edge from-layer="2705" from-port="2" to-layer="2710" to-port="0"/>
		<edge from-layer="2706" from-port="1" to-layer="2710" to-port="1"/>
		<edge from-layer="2707" from-port="1" to-layer="2710" to-port="2"/>
		<edge from-layer="2708" from-port="1" to-layer="2710" to-port="3"/>
		<edge from-layer="2709" from-port="1" to-layer="2710" to-port="4"/>
		<edge from-layer="2711" from-port="1" to-layer="2712" to-port="0"/>
		<edge from-layer="2712" from-port="1" to-layer="2717" to-port="0"/>
		<edge from-layer="2713" from-port="1" to-layer="2717" to-port="1"/>
		<edge from-layer="2714" from-port="1" to-layer="2717" to-port="2"/>
		<edge from-layer="2715" from-port="1" to-layer="2717" to-port="3"/>
		<edge from-layer="2716" from-port="1" to-layer="2717" to-port="4"/>
		<edge from-layer="2717" from-port="5" to-layer="2719" to-port="0"/>
		<edge from-layer="2718" from-port="1" to-layer="2719" to-port="1"/>
		<edge from-layer="2710" from-port="5" to-layer="2720" to-port="0"/>
		<edge from-layer="2719" from-port="2" to-layer="2720" to-port="1"/>
		<edge from-layer="2720" from-port="2" to-layer="2722" to-port="0"/>
		<edge from-layer="2721" from-port="1" to-layer="2722" to-port="1"/>
		<edge from-layer="2722" from-port="2" to-layer="2723" to-port="0"/>
		<edge from-layer="2723" from-port="1" to-layer="2728" to-port="0"/>
		<edge from-layer="2724" from-port="1" to-layer="2728" to-port="1"/>
		<edge from-layer="2725" from-port="1" to-layer="2728" to-port="2"/>
		<edge from-layer="2726" from-port="1" to-layer="2728" to-port="3"/>
		<edge from-layer="2727" from-port="1" to-layer="2728" to-port="4"/>
		<edge from-layer="2729" from-port="1" to-layer="2730" to-port="0"/>
		<edge from-layer="2730" from-port="1" to-layer="2735" to-port="0"/>
		<edge from-layer="2731" from-port="1" to-layer="2735" to-port="1"/>
		<edge from-layer="2732" from-port="1" to-layer="2735" to-port="2"/>
		<edge from-layer="2733" from-port="1" to-layer="2735" to-port="3"/>
		<edge from-layer="2734" from-port="1" to-layer="2735" to-port="4"/>
		<edge from-layer="2728" from-port="5" to-layer="2736" to-port="0"/>
		<edge from-layer="2735" from-port="5" to-layer="2736" to-port="1"/>
		<edge from-layer="2736" from-port="2" to-layer="2738" to-port="0"/>
		<edge from-layer="2737" from-port="1" to-layer="2738" to-port="1"/>
		<edge from-layer="2738" from-port="2" to-layer="2743" to-port="0"/>
		<edge from-layer="2739" from-port="1" to-layer="2743" to-port="1"/>
		<edge from-layer="2740" from-port="1" to-layer="2743" to-port="2"/>
		<edge from-layer="2741" from-port="1" to-layer="2743" to-port="3"/>
		<edge from-layer="2742" from-port="1" to-layer="2743" to-port="4"/>
		<edge from-layer="2744" from-port="1" to-layer="2745" to-port="0"/>
		<edge from-layer="2745" from-port="1" to-layer="2750" to-port="0"/>
		<edge from-layer="2746" from-port="1" to-layer="2750" to-port="1"/>
		<edge from-layer="2747" from-port="1" to-layer="2750" to-port="2"/>
		<edge from-layer="2748" from-port="1" to-layer="2750" to-port="3"/>
		<edge from-layer="2749" from-port="1" to-layer="2750" to-port="4"/>
		<edge from-layer="2750" from-port="5" to-layer="2752" to-port="0"/>
		<edge from-layer="2751" from-port="1" to-layer="2752" to-port="1"/>
		<edge from-layer="2743" from-port="5" to-layer="2753" to-port="0"/>
		<edge from-layer="2752" from-port="2" to-layer="2753" to-port="1"/>
		<edge from-layer="2753" from-port="2" to-layer="2755" to-port="0"/>
		<edge from-layer="2754" from-port="1" to-layer="2755" to-port="1"/>
		<edge from-layer="2755" from-port="2" to-layer="2756" to-port="0"/>
		<edge from-layer="2756" from-port="1" to-layer="2761" to-port="0"/>
		<edge from-layer="2757" from-port="1" to-layer="2761" to-port="1"/>
		<edge from-layer="2758" from-port="1" to-layer="2761" to-port="2"/>
		<edge from-layer="2759" from-port="1" to-layer="2761" to-port="3"/>
		<edge from-layer="2760" from-port="1" to-layer="2761" to-port="4"/>
		<edge from-layer="2762" from-port="1" to-layer="2763" to-port="0"/>
		<edge from-layer="2763" from-port="1" to-layer="2768" to-port="0"/>
		<edge from-layer="2764" from-port="1" to-layer="2768" to-port="1"/>
		<edge from-layer="2765" from-port="1" to-layer="2768" to-port="2"/>
		<edge from-layer="2766" from-port="1" to-layer="2768" to-port="3"/>
		<edge from-layer="2767" from-port="1" to-layer="2768" to-port="4"/>
		<edge from-layer="2761" from-port="5" to-layer="2769" to-port="0"/>
		<edge from-layer="2768" from-port="5" to-layer="2769" to-port="1"/>
		<edge from-layer="2769" from-port="2" to-layer="2771" to-port="0"/>
		<edge from-layer="2770" from-port="1" to-layer="2771" to-port="1"/>
		<edge from-layer="2771" from-port="2" to-layer="2776" to-port="0"/>
		<edge from-layer="2772" from-port="1" to-layer="2776" to-port="1"/>
		<edge from-layer="2773" from-port="1" to-layer="2776" to-port="2"/>
		<edge from-layer="2774" from-port="1" to-layer="2776" to-port="3"/>
		<edge from-layer="2775" from-port="1" to-layer="2776" to-port="4"/>
		<edge from-layer="2777" from-port="1" to-layer="2778" to-port="0"/>
		<edge from-layer="2778" from-port="1" to-layer="2783" to-port="0"/>
		<edge from-layer="2779" from-port="1" to-layer="2783" to-port="1"/>
		<edge from-layer="2780" from-port="1" to-layer="2783" to-port="2"/>
		<edge from-layer="2781" from-port="1" to-layer="2783" to-port="3"/>
		<edge from-layer="2782" from-port="1" to-layer="2783" to-port="4"/>
		<edge from-layer="2783" from-port="5" to-layer="2785" to-port="0"/>
		<edge from-layer="2784" from-port="1" to-layer="2785" to-port="1"/>
		<edge from-layer="2776" from-port="5" to-layer="2786" to-port="0"/>
		<edge from-layer="2785" from-port="2" to-layer="2786" to-port="1"/>
		<edge from-layer="2786" from-port="2" to-layer="2788" to-port="0"/>
		<edge from-layer="2787" from-port="1" to-layer="2788" to-port="1"/>
		<edge from-layer="2788" from-port="2" to-layer="2789" to-port="0"/>
		<edge from-layer="2789" from-port="1" to-layer="2794" to-port="0"/>
		<edge from-layer="2790" from-port="1" to-layer="2794" to-port="1"/>
		<edge from-layer="2791" from-port="1" to-layer="2794" to-port="2"/>
		<edge from-layer="2792" from-port="1" to-layer="2794" to-port="3"/>
		<edge from-layer="2793" from-port="1" to-layer="2794" to-port="4"/>
		<edge from-layer="2794" from-port="5" to-layer="2796" to-port="0"/>
		<edge from-layer="2795" from-port="1" to-layer="2796" to-port="1"/>
		<edge from-layer="2796" from-port="2" to-layer="2798" to-port="0"/>
		<edge from-layer="2797" from-port="1" to-layer="2798" to-port="1"/>
		<edge from-layer="2798" from-port="2" to-layer="2800" to-port="0"/>
		<edge from-layer="2799" from-port="1" to-layer="2800" to-port="1"/>
		<edge from-layer="2800" from-port="2" to-layer="2801" to-port="0"/>
		<edge from-layer="2801" from-port="1" to-layer="2803" to-port="0"/>
		<edge from-layer="2802" from-port="1" to-layer="2803" to-port="1"/>
		<edge from-layer="2803" from-port="2" to-layer="2805" to-port="0"/>
		<edge from-layer="2804" from-port="1" to-layer="2805" to-port="1"/>
		<edge from-layer="2805" from-port="2" to-layer="2806" to-port="0"/>
		<edge from-layer="2806" from-port="1" to-layer="2811" to-port="0"/>
		<edge from-layer="2807" from-port="1" to-layer="2811" to-port="1"/>
		<edge from-layer="2808" from-port="1" to-layer="2811" to-port="2"/>
		<edge from-layer="2809" from-port="1" to-layer="2811" to-port="3"/>
		<edge from-layer="2810" from-port="1" to-layer="2811" to-port="4"/>
		<edge from-layer="2794" from-port="5" to-layer="2812" to-port="0"/>
		<edge from-layer="2811" from-port="5" to-layer="2812" to-port="1"/>
		<edge from-layer="2812" from-port="2" to-layer="2817" to-port="0"/>
		<edge from-layer="2813" from-port="1" to-layer="2817" to-port="1"/>
		<edge from-layer="2814" from-port="1" to-layer="2817" to-port="2"/>
		<edge from-layer="2815" from-port="1" to-layer="2817" to-port="3"/>
		<edge from-layer="2816" from-port="1" to-layer="2817" to-port="4"/>
		<edge from-layer="2695" from-port="5" to-layer="2818" to-port="0"/>
		<edge from-layer="2817" from-port="5" to-layer="2818" to-port="1"/>
		<edge from-layer="2818" from-port="2" to-layer="2823" to-port="0"/>
		<edge from-layer="2819" from-port="1" to-layer="2823" to-port="1"/>
		<edge from-layer="2820" from-port="1" to-layer="2823" to-port="2"/>
		<edge from-layer="2821" from-port="1" to-layer="2823" to-port="3"/>
		<edge from-layer="2822" from-port="1" to-layer="2823" to-port="4"/>
		<edge from-layer="2824" from-port="1" to-layer="2825" to-port="0"/>
		<edge from-layer="2825" from-port="1" to-layer="2830" to-port="0"/>
		<edge from-layer="2826" from-port="1" to-layer="2830" to-port="1"/>
		<edge from-layer="2827" from-port="1" to-layer="2830" to-port="2"/>
		<edge from-layer="2828" from-port="1" to-layer="2830" to-port="3"/>
		<edge from-layer="2829" from-port="1" to-layer="2830" to-port="4"/>
		<edge from-layer="2544" from-port="5" to-layer="2831" to-port="0"/>
		<edge from-layer="2830" from-port="5" to-layer="2831" to-port="1"/>
		<edge from-layer="2831" from-port="2" to-layer="2833" to-port="0"/>
		<edge from-layer="2832" from-port="1" to-layer="2833" to-port="1"/>
		<edge from-layer="2833" from-port="2" to-layer="2838" to-port="0"/>
		<edge from-layer="2834" from-port="1" to-layer="2838" to-port="1"/>
		<edge from-layer="2835" from-port="1" to-layer="2838" to-port="2"/>
		<edge from-layer="2836" from-port="1" to-layer="2838" to-port="3"/>
		<edge from-layer="2837" from-port="1" to-layer="2838" to-port="4"/>
		<edge from-layer="2839" from-port="1" to-layer="2840" to-port="0"/>
		<edge from-layer="2840" from-port="1" to-layer="2845" to-port="0"/>
		<edge from-layer="2841" from-port="1" to-layer="2845" to-port="1"/>
		<edge from-layer="2842" from-port="1" to-layer="2845" to-port="2"/>
		<edge from-layer="2843" from-port="1" to-layer="2845" to-port="3"/>
		<edge from-layer="2844" from-port="1" to-layer="2845" to-port="4"/>
		<edge from-layer="2845" from-port="5" to-layer="2847" to-port="0"/>
		<edge from-layer="2846" from-port="1" to-layer="2847" to-port="1"/>
		<edge from-layer="2838" from-port="5" to-layer="2848" to-port="0"/>
		<edge from-layer="2847" from-port="2" to-layer="2848" to-port="1"/>
		<edge from-layer="2848" from-port="2" to-layer="2850" to-port="0"/>
		<edge from-layer="2849" from-port="1" to-layer="2850" to-port="1"/>
		<edge from-layer="2850" from-port="2" to-layer="2851" to-port="0"/>
		<edge from-layer="2851" from-port="1" to-layer="2856" to-port="0"/>
		<edge from-layer="2852" from-port="1" to-layer="2856" to-port="1"/>
		<edge from-layer="2853" from-port="1" to-layer="2856" to-port="2"/>
		<edge from-layer="2854" from-port="1" to-layer="2856" to-port="3"/>
		<edge from-layer="2855" from-port="1" to-layer="2856" to-port="4"/>
		<edge from-layer="2857" from-port="1" to-layer="2858" to-port="0"/>
		<edge from-layer="2858" from-port="1" to-layer="2863" to-port="0"/>
		<edge from-layer="2859" from-port="1" to-layer="2863" to-port="1"/>
		<edge from-layer="2860" from-port="1" to-layer="2863" to-port="2"/>
		<edge from-layer="2861" from-port="1" to-layer="2863" to-port="3"/>
		<edge from-layer="2862" from-port="1" to-layer="2863" to-port="4"/>
		<edge from-layer="2856" from-port="5" to-layer="2864" to-port="0"/>
		<edge from-layer="2863" from-port="5" to-layer="2864" to-port="1"/>
		<edge from-layer="2864" from-port="2" to-layer="2866" to-port="0"/>
		<edge from-layer="2865" from-port="1" to-layer="2866" to-port="1"/>
		<edge from-layer="2866" from-port="2" to-layer="2871" to-port="0"/>
		<edge from-layer="2867" from-port="1" to-layer="2871" to-port="1"/>
		<edge from-layer="2868" from-port="1" to-layer="2871" to-port="2"/>
		<edge from-layer="2869" from-port="1" to-layer="2871" to-port="3"/>
		<edge from-layer="2870" from-port="1" to-layer="2871" to-port="4"/>
		<edge from-layer="2872" from-port="1" to-layer="2873" to-port="0"/>
		<edge from-layer="2873" from-port="1" to-layer="2878" to-port="0"/>
		<edge from-layer="2874" from-port="1" to-layer="2878" to-port="1"/>
		<edge from-layer="2875" from-port="1" to-layer="2878" to-port="2"/>
		<edge from-layer="2876" from-port="1" to-layer="2878" to-port="3"/>
		<edge from-layer="2877" from-port="1" to-layer="2878" to-port="4"/>
		<edge from-layer="2878" from-port="5" to-layer="2880" to-port="0"/>
		<edge from-layer="2879" from-port="1" to-layer="2880" to-port="1"/>
		<edge from-layer="2871" from-port="5" to-layer="2881" to-port="0"/>
		<edge from-layer="2880" from-port="2" to-layer="2881" to-port="1"/>
		<edge from-layer="2881" from-port="2" to-layer="2883" to-port="0"/>
		<edge from-layer="2882" from-port="1" to-layer="2883" to-port="1"/>
		<edge from-layer="2883" from-port="2" to-layer="2884" to-port="0"/>
		<edge from-layer="2884" from-port="1" to-layer="2889" to-port="0"/>
		<edge from-layer="2885" from-port="1" to-layer="2889" to-port="1"/>
		<edge from-layer="2886" from-port="1" to-layer="2889" to-port="2"/>
		<edge from-layer="2887" from-port="1" to-layer="2889" to-port="3"/>
		<edge from-layer="2888" from-port="1" to-layer="2889" to-port="4"/>
		<edge from-layer="2890" from-port="1" to-layer="2891" to-port="0"/>
		<edge from-layer="2891" from-port="1" to-layer="2896" to-port="0"/>
		<edge from-layer="2892" from-port="1" to-layer="2896" to-port="1"/>
		<edge from-layer="2893" from-port="1" to-layer="2896" to-port="2"/>
		<edge from-layer="2894" from-port="1" to-layer="2896" to-port="3"/>
		<edge from-layer="2895" from-port="1" to-layer="2896" to-port="4"/>
		<edge from-layer="2889" from-port="5" to-layer="2897" to-port="0"/>
		<edge from-layer="2896" from-port="5" to-layer="2897" to-port="1"/>
		<edge from-layer="2897" from-port="2" to-layer="2899" to-port="0"/>
		<edge from-layer="2898" from-port="1" to-layer="2899" to-port="1"/>
		<edge from-layer="2899" from-port="2" to-layer="2904" to-port="0"/>
		<edge from-layer="2900" from-port="1" to-layer="2904" to-port="1"/>
		<edge from-layer="2901" from-port="1" to-layer="2904" to-port="2"/>
		<edge from-layer="2902" from-port="1" to-layer="2904" to-port="3"/>
		<edge from-layer="2903" from-port="1" to-layer="2904" to-port="4"/>
		<edge from-layer="2905" from-port="1" to-layer="2906" to-port="0"/>
		<edge from-layer="2906" from-port="1" to-layer="2911" to-port="0"/>
		<edge from-layer="2907" from-port="1" to-layer="2911" to-port="1"/>
		<edge from-layer="2908" from-port="1" to-layer="2911" to-port="2"/>
		<edge from-layer="2909" from-port="1" to-layer="2911" to-port="3"/>
		<edge from-layer="2910" from-port="1" to-layer="2911" to-port="4"/>
		<edge from-layer="2911" from-port="5" to-layer="2913" to-port="0"/>
		<edge from-layer="2912" from-port="1" to-layer="2913" to-port="1"/>
		<edge from-layer="2904" from-port="5" to-layer="2914" to-port="0"/>
		<edge from-layer="2913" from-port="2" to-layer="2914" to-port="1"/>
		<edge from-layer="2914" from-port="2" to-layer="2916" to-port="0"/>
		<edge from-layer="2915" from-port="1" to-layer="2916" to-port="1"/>
		<edge from-layer="2916" from-port="2" to-layer="2917" to-port="0"/>
		<edge from-layer="2917" from-port="1" to-layer="2922" to-port="0"/>
		<edge from-layer="2918" from-port="1" to-layer="2922" to-port="1"/>
		<edge from-layer="2919" from-port="1" to-layer="2922" to-port="2"/>
		<edge from-layer="2920" from-port="1" to-layer="2922" to-port="3"/>
		<edge from-layer="2921" from-port="1" to-layer="2922" to-port="4"/>
		<edge from-layer="2923" from-port="1" to-layer="2924" to-port="0"/>
		<edge from-layer="2924" from-port="1" to-layer="2929" to-port="0"/>
		<edge from-layer="2925" from-port="1" to-layer="2929" to-port="1"/>
		<edge from-layer="2926" from-port="1" to-layer="2929" to-port="2"/>
		<edge from-layer="2927" from-port="1" to-layer="2929" to-port="3"/>
		<edge from-layer="2928" from-port="1" to-layer="2929" to-port="4"/>
		<edge from-layer="2922" from-port="5" to-layer="2930" to-port="0"/>
		<edge from-layer="2929" from-port="5" to-layer="2930" to-port="1"/>
		<edge from-layer="2930" from-port="2" to-layer="2932" to-port="0"/>
		<edge from-layer="2931" from-port="1" to-layer="2932" to-port="1"/>
		<edge from-layer="2932" from-port="2" to-layer="2937" to-port="0"/>
		<edge from-layer="2933" from-port="1" to-layer="2937" to-port="1"/>
		<edge from-layer="2934" from-port="1" to-layer="2937" to-port="2"/>
		<edge from-layer="2935" from-port="1" to-layer="2937" to-port="3"/>
		<edge from-layer="2936" from-port="1" to-layer="2937" to-port="4"/>
		<edge from-layer="2938" from-port="1" to-layer="2939" to-port="0"/>
		<edge from-layer="2939" from-port="1" to-layer="2944" to-port="0"/>
		<edge from-layer="2940" from-port="1" to-layer="2944" to-port="1"/>
		<edge from-layer="2941" from-port="1" to-layer="2944" to-port="2"/>
		<edge from-layer="2942" from-port="1" to-layer="2944" to-port="3"/>
		<edge from-layer="2943" from-port="1" to-layer="2944" to-port="4"/>
		<edge from-layer="2944" from-port="5" to-layer="2946" to-port="0"/>
		<edge from-layer="2945" from-port="1" to-layer="2946" to-port="1"/>
		<edge from-layer="2937" from-port="5" to-layer="2947" to-port="0"/>
		<edge from-layer="2946" from-port="2" to-layer="2947" to-port="1"/>
		<edge from-layer="2947" from-port="2" to-layer="2949" to-port="0"/>
		<edge from-layer="2948" from-port="1" to-layer="2949" to-port="1"/>
		<edge from-layer="2949" from-port="2" to-layer="2950" to-port="0"/>
		<edge from-layer="2950" from-port="1" to-layer="2955" to-port="0"/>
		<edge from-layer="2951" from-port="1" to-layer="2955" to-port="1"/>
		<edge from-layer="2952" from-port="1" to-layer="2955" to-port="2"/>
		<edge from-layer="2953" from-port="1" to-layer="2955" to-port="3"/>
		<edge from-layer="2954" from-port="1" to-layer="2955" to-port="4"/>
		<edge from-layer="2955" from-port="5" to-layer="2957" to-port="0"/>
		<edge from-layer="2956" from-port="1" to-layer="2957" to-port="1"/>
		<edge from-layer="2957" from-port="2" to-layer="2959" to-port="0"/>
		<edge from-layer="2958" from-port="1" to-layer="2959" to-port="1"/>
		<edge from-layer="2959" from-port="2" to-layer="2961" to-port="0"/>
		<edge from-layer="2960" from-port="1" to-layer="2961" to-port="1"/>
		<edge from-layer="2961" from-port="2" to-layer="2962" to-port="0"/>
		<edge from-layer="2962" from-port="1" to-layer="2964" to-port="0"/>
		<edge from-layer="2963" from-port="1" to-layer="2964" to-port="1"/>
		<edge from-layer="2964" from-port="2" to-layer="2966" to-port="0"/>
		<edge from-layer="2965" from-port="1" to-layer="2966" to-port="1"/>
		<edge from-layer="2966" from-port="2" to-layer="2967" to-port="0"/>
		<edge from-layer="2967" from-port="1" to-layer="2972" to-port="0"/>
		<edge from-layer="2968" from-port="1" to-layer="2972" to-port="1"/>
		<edge from-layer="2969" from-port="1" to-layer="2972" to-port="2"/>
		<edge from-layer="2970" from-port="1" to-layer="2972" to-port="3"/>
		<edge from-layer="2971" from-port="1" to-layer="2972" to-port="4"/>
		<edge from-layer="2955" from-port="5" to-layer="2973" to-port="0"/>
		<edge from-layer="2972" from-port="5" to-layer="2973" to-port="1"/>
		<edge from-layer="2973" from-port="2" to-layer="2978" to-port="0"/>
		<edge from-layer="2974" from-port="1" to-layer="2978" to-port="1"/>
		<edge from-layer="2975" from-port="1" to-layer="2978" to-port="2"/>
		<edge from-layer="2976" from-port="1" to-layer="2978" to-port="3"/>
		<edge from-layer="2977" from-port="1" to-layer="2978" to-port="4"/>
		<edge from-layer="2823" from-port="5" to-layer="2979" to-port="0"/>
		<edge from-layer="2978" from-port="5" to-layer="2979" to-port="1"/>
		<edge from-layer="2979" from-port="2" to-layer="2984" to-port="0"/>
		<edge from-layer="2980" from-port="1" to-layer="2984" to-port="1"/>
		<edge from-layer="2981" from-port="1" to-layer="2984" to-port="2"/>
		<edge from-layer="2982" from-port="1" to-layer="2984" to-port="3"/>
		<edge from-layer="2983" from-port="1" to-layer="2984" to-port="4"/>
		<edge from-layer="2985" from-port="1" to-layer="2986" to-port="0"/>
		<edge from-layer="2986" from-port="1" to-layer="2991" to-port="0"/>
		<edge from-layer="2987" from-port="1" to-layer="2991" to-port="1"/>
		<edge from-layer="2988" from-port="1" to-layer="2991" to-port="2"/>
		<edge from-layer="2989" from-port="1" to-layer="2991" to-port="3"/>
		<edge from-layer="2990" from-port="1" to-layer="2991" to-port="4"/>
		<edge from-layer="2984" from-port="5" to-layer="2992" to-port="0"/>
		<edge from-layer="2991" from-port="5" to-layer="2992" to-port="1"/>
		<edge from-layer="2992" from-port="2" to-layer="2994" to-port="0"/>
		<edge from-layer="2993" from-port="1" to-layer="2994" to-port="1"/>
		<edge from-layer="2994" from-port="2" to-layer="2999" to-port="0"/>
		<edge from-layer="2995" from-port="1" to-layer="2999" to-port="1"/>
		<edge from-layer="2996" from-port="1" to-layer="2999" to-port="2"/>
		<edge from-layer="2997" from-port="1" to-layer="2999" to-port="3"/>
		<edge from-layer="2998" from-port="1" to-layer="2999" to-port="4"/>
		<edge from-layer="2999" from-port="5" to-layer="3000" to-port="0"/>
		<edge from-layer="2528" from-port="5" to-layer="3000" to-port="1"/>
		<edge from-layer="3000" from-port="2" to-layer="3001" to-port="0"/>
		<edge from-layer="3001" from-port="1" to-layer="3006" to-port="0"/>
		<edge from-layer="3002" from-port="1" to-layer="3006" to-port="1"/>
		<edge from-layer="3003" from-port="1" to-layer="3006" to-port="2"/>
		<edge from-layer="3004" from-port="1" to-layer="3006" to-port="3"/>
		<edge from-layer="3005" from-port="1" to-layer="3006" to-port="4"/>
		<edge from-layer="3007" from-port="1" to-layer="3008" to-port="0"/>
		<edge from-layer="3008" from-port="1" to-layer="3013" to-port="0"/>
		<edge from-layer="3009" from-port="1" to-layer="3013" to-port="1"/>
		<edge from-layer="3010" from-port="1" to-layer="3013" to-port="2"/>
		<edge from-layer="3011" from-port="1" to-layer="3013" to-port="3"/>
		<edge from-layer="3012" from-port="1" to-layer="3013" to-port="4"/>
		<edge from-layer="3006" from-port="5" to-layer="3014" to-port="0"/>
		<edge from-layer="3013" from-port="5" to-layer="3014" to-port="1"/>
		<edge from-layer="3014" from-port="2" to-layer="3016" to-port="0"/>
		<edge from-layer="3015" from-port="1" to-layer="3016" to-port="1"/>
		<edge from-layer="3016" from-port="2" to-layer="3017" to-port="0"/>
		<edge from-layer="3017" from-port="1" to-layer="3022" to-port="0"/>
		<edge from-layer="3018" from-port="1" to-layer="3022" to-port="1"/>
		<edge from-layer="3019" from-port="1" to-layer="3022" to-port="2"/>
		<edge from-layer="3020" from-port="1" to-layer="3022" to-port="3"/>
		<edge from-layer="3021" from-port="1" to-layer="3022" to-port="4"/>
		<edge from-layer="3023" from-port="1" to-layer="3024" to-port="0"/>
		<edge from-layer="3024" from-port="1" to-layer="3029" to-port="0"/>
		<edge from-layer="3025" from-port="1" to-layer="3029" to-port="1"/>
		<edge from-layer="3026" from-port="1" to-layer="3029" to-port="2"/>
		<edge from-layer="3027" from-port="1" to-layer="3029" to-port="3"/>
		<edge from-layer="3028" from-port="1" to-layer="3029" to-port="4"/>
		<edge from-layer="3029" from-port="5" to-layer="3031" to-port="0"/>
		<edge from-layer="3030" from-port="1" to-layer="3031" to-port="1"/>
		<edge from-layer="3022" from-port="5" to-layer="3032" to-port="0"/>
		<edge from-layer="3031" from-port="2" to-layer="3032" to-port="1"/>
		<edge from-layer="3032" from-port="2" to-layer="3034" to-port="0"/>
		<edge from-layer="3033" from-port="1" to-layer="3034" to-port="1"/>
		<edge from-layer="3034" from-port="2" to-layer="3039" to-port="0"/>
		<edge from-layer="3035" from-port="1" to-layer="3039" to-port="1"/>
		<edge from-layer="3036" from-port="1" to-layer="3039" to-port="2"/>
		<edge from-layer="3037" from-port="1" to-layer="3039" to-port="3"/>
		<edge from-layer="3038" from-port="1" to-layer="3039" to-port="4"/>
		<edge from-layer="3039" from-port="5" to-layer="3041" to-port="0"/>
		<edge from-layer="3040" from-port="1" to-layer="3041" to-port="1"/>
		<edge from-layer="3042" from-port="1" to-layer="3043" to-port="0"/>
		<edge from-layer="3043" from-port="1" to-layer="3048" to-port="0"/>
		<edge from-layer="3044" from-port="1" to-layer="3048" to-port="1"/>
		<edge from-layer="3045" from-port="1" to-layer="3048" to-port="2"/>
		<edge from-layer="3046" from-port="1" to-layer="3048" to-port="3"/>
		<edge from-layer="3047" from-port="1" to-layer="3048" to-port="4"/>
		<edge from-layer="3041" from-port="2" to-layer="3049" to-port="0"/>
		<edge from-layer="3048" from-port="5" to-layer="3049" to-port="1"/>
		<edge from-layer="3049" from-port="2" to-layer="3051" to-port="0"/>
		<edge from-layer="3050" from-port="1" to-layer="3051" to-port="1"/>
		<edge from-layer="3051" from-port="2" to-layer="3056" to-port="0"/>
		<edge from-layer="3052" from-port="1" to-layer="3056" to-port="1"/>
		<edge from-layer="3053" from-port="1" to-layer="3056" to-port="2"/>
		<edge from-layer="3054" from-port="1" to-layer="3056" to-port="3"/>
		<edge from-layer="3055" from-port="1" to-layer="3056" to-port="4"/>
		<edge from-layer="3056" from-port="5" to-layer="3058" to-port="0"/>
		<edge from-layer="3057" from-port="1" to-layer="3058" to-port="1"/>
		<edge from-layer="3058" from-port="2" to-layer="3060" to-port="0"/>
		<edge from-layer="3059" from-port="1" to-layer="3060" to-port="1"/>
		<edge from-layer="3060" from-port="2" to-layer="3062" to-port="0"/>
		<edge from-layer="3061" from-port="1" to-layer="3062" to-port="1"/>
		<edge from-layer="3062" from-port="2" to-layer="3064" to-port="0"/>
		<edge from-layer="3063" from-port="1" to-layer="3064" to-port="1"/>
		<edge from-layer="3064" from-port="2" to-layer="3066" to-port="0"/>
		<edge from-layer="3065" from-port="1" to-layer="3066" to-port="1"/>
		<edge from-layer="3066" from-port="2" to-layer="3067" to-port="0"/>
	</edges>
	<meta_data>
		<MO_version value="unknown version"/>
		<cli_parameters>
			<blobs_as_inputs value="True"/>
			<caffe_parser_path value="DIR"/>
			<data_type value="FP16"/>
			<disable_nhwc_to_nchw value="False"/>
			<disable_omitting_optional value="False"/>
			<disable_resnet_optimization value="False"/>
			<disable_weights_compression value="False"/>
			<enable_concat_optimization value="False"/>
			<enable_flattening_nested_params value="False"/>
			<enable_ssd_gluoncv value="False"/>
			<extensions value="DIR"/>
			<framework value="onnx"/>
			<freeze_placeholder_with_value value="{}"/>
			<generate_deprecated_IR_V2 value="False"/>
			<generate_deprecated_IR_V7 value="False"/>
			<generate_experimental_IR_V10 value="True"/>
			<input value="data"/>
			<input_model value="DIR/person-reidentification-retail-0248.onnx"/>
			<input_model_is_text value="False"/>
			<input_shape value="[1,3,256,128]"/>
			<k value="DIR/CustomLayersMapping.xml"/>
			<keep_quantize_ops_in_IR value="True"/>
			<keep_shape_ops value="False"/>
			<legacy_mxnet_model value="False"/>
			<log_level value="ERROR"/>
			<mean_scale_values value="{'data': {'mean': array([123.675, 116.28 , 103.53 ]), 'scale': array([58.395, 57.12 , 57.375])}}"/>
			<mean_values value="data[123.675,116.28,103.53]"/>
			<model_name value="person-reidentification-retail-0248"/>
			<move_to_preprocess value="False"/>
			<output value="['reid_embedding']"/>
			<output_dir value="DIR"/>
			<placeholder_data_types value="{}"/>
			<placeholder_shapes value="{'data': array([  1,   3, 256, 128])}"/>
			<progress value="False"/>
			<remove_memory value="False"/>
			<remove_output_softmax value="False"/>
			<reverse_input_channels value="True"/>
			<save_params_from_nd value="False"/>
			<scale_values value="data[58.395,57.12,57.375]"/>
			<silent value="False"/>
			<stream_output value="False"/>
			<unset unset_cli_parameters="batch, counts, disable_fusing, disable_gfusing, finegrain_fusing, input_checkpoint, input_meta_graph, input_proto, input_symbol, mean_file, mean_file_offsets, nd_prefix_name, pretrained_model_name, saved_model_dir, saved_model_tags, scale, tensorboard_logdir, tensorflow_custom_layer_libraries, tensorflow_custom_operations_config_update, tensorflow_object_detection_api_pipeline_config, tensorflow_use_custom_operations_config, transformations_config"/>
		</cli_parameters>
	</meta_data>
	<quantization_parameters>
		<config>{
		'compression': {
			'algorithms': [
				{
					'name': 'DefaultQuantization',
					'params': {
						'preset': 'performance',
						'stat_subset_size': 300,
						'use_fast_bias': false
					}
				}
			],
			'target_device': 'CPU'
		},
		'engine': {
			'models': [
				{
					'name': 'person-reidentification-retail-0248',
					'launchers': [
						{
							'framework': 'dlsdk',
							'tags': [
								'FP32'
							],
							'model': 'PATH',
							'weights': 'PATH',
							'adapter': 'reid',
							'device': 'CPU'
						}
					],
					'datasets': [
						{
							'name': 'market1501',
							'data_source': 'PATH',
							'annotation_conversion': {
								'converter': 'market1501_reid',
								'data_dir': 'PATH'
							},
							'annotation': 'market1501_reid.pickle',
							'preprocessing': [
								{
									'type': 'resize',
									'dst_width': 128,
									'dst_height': 256,
									'use_pillow': true,
									'interpolation': 'BILINEAR'
								}
							],
							'metrics': [
								{
									'name': 'rank@1',
									'type': 'cmc',
									'top_k': 1
								},
								{
									'type': 'reid_map'
								}
							]
						}
					]
				},
				{
					'name': 'person-reidentification-retail-0248',
					'launchers': [
						{
							'framework': 'dlsdk',
							'tags': [
								'FP16'
							],
							'model': 'PATH',
							'weights': 'PATH',
							'adapter': 'reid',
							'device': 'CPU'
						}
					],
					'datasets': [
						{
							'name': 'market1501',
							'data_source': 'PATH',
							'annotation_conversion': {
								'converter': 'market1501_reid',
								'data_dir': 'PATH'
							},
							'annotation': 'market1501_reid.pickle',
							'preprocessing': [
								{
									'type': 'resize',
									'dst_width': 128,
									'dst_height': 256,
									'use_pillow': true,
									'interpolation': 'BILINEAR'
								}
							],
							'metrics': [
								{
									'name': 'rank@1',
									'type': 'cmc',
									'top_k': 1
								},
								{
									'type': 'reid_map'
								}
							]
						}
					]
				},
				{
					'name': 'person-reidentification-retail-0248',
					'launchers': [
						{
							'framework': 'dlsdk',
							'tags': [
								'FP32-INT8'
							],
							'model': 'PATH',
							'weights': 'PATH',
							'adapter': 'reid',
							'device': 'CPU'
						}
					],
					'datasets': [
						{
							'name': 'market1501',
							'data_source': 'PATH',
							'annotation_conversion': {
								'converter': 'market1501_reid',
								'data_dir': 'PATH'
							},
							'annotation': 'market1501_reid.pickle',
							'preprocessing': [
								{
									'type': 'resize',
									'dst_width': 128,
									'dst_height': 256,
									'use_pillow': true,
									'interpolation': 'BILINEAR'
								}
							],
							'metrics': [
								{
									'name': 'rank@1',
									'type': 'cmc',
									'top_k': 1
								},
								{
									'type': 'reid_map'
								}
							]
						}
					]
				},
				{
					'name': 'person-reidentification-retail-0248',
					'launchers': [
						{
							'framework': 'dlsdk',
							'tags': [
								'FP16-INT8'
							],
							'model': 'PATH',
							'weights': 'PATH',
							'adapter': 'reid',
							'device': 'CPU'
						}
					],
					'datasets': [
						{
							'name': 'market1501',
							'data_source': 'PATH',
							'annotation_conversion': {
								'converter': 'market1501_reid',
								'data_dir': 'PATH'
							},
							'annotation': 'market1501_reid.pickle',
							'preprocessing': [
								{
									'type': 'resize',
									'dst_width': 128,
									'dst_height': 256,
									'use_pillow': true,
									'interpolation': 'BILINEAR'
								}
							],
							'metrics': [
								{
									'name': 'rank@1',
									'type': 'cmc',
									'top_k': 1
								},
								{
									'type': 'reid_map'
								}
							]
						}
					]
				}
			],
			'global_definitions': '../dataset_definitions.yml',
			'stat_requests_number': null,
			'eval_requests_number': null,
			'type': 'accuracy_checker'
		}
	}</config>
		<version value="1.0"/>
		<cli_params value="{'evaluate': False, 'output_dir': 'PATH', 'direct_dump': True, 'log_level': 'INFO', 'pbar': False, 'keep_uncompressed_weights': False}"/>
	</quantization_parameters>
</net>
