<?xml version="1.0" ?>
<net name="person-reidentification-retail-0265" version="10">
	<layers>
		<layer id="0" name="data" type="Parameter" version="opset1">
			<data element_type="f32" shape="1,3,256,128"/>
			<output>
				<port id="0" precision="FP32">
					<dim>1</dim>
					<dim>3</dim>
					<dim>256</dim>
					<dim>128</dim>
				</port>
			</output>
		</layer>
		<layer id="1" name="data/reverse_input_channels3320533209/Split_input_port_1/value33239_const" type="Const" version="opset1">
			<data element_type="i64" offset="0" shape="" size="8"/>
			<output>
				<port id="1" precision="I64"/>
			</output>
		</layer>
		<layer id="2" name="data/reverse_input_channels3320533209/Split" type="Split" version="opset1">
			<data num_splits="3"/>
			<input>
				<port id="0">
					<dim>1</dim>
					<dim>3</dim>
					<dim>256</dim>
					<dim>128</dim>
				</port>
				<port id="1"/>
			</input>
			<output>
				<port id="2" precision="FP32">
					<dim>1</dim>
					<dim>1</dim>
					<dim>256</dim>
					<dim>128</dim>
				</port>
				<port id="3" precision="FP32">
					<dim>1</dim>
					<dim>1</dim>
					<dim>256</dim>
					<dim>128</dim>
				</port>
				<port id="4" precision="FP32">
					<dim>1</dim>
					<dim>1</dim>
					<dim>256</dim>
					<dim>128</dim>
				</port>
			</output>
		</layer>
		<layer id="3" name="data/reverse_input_channels3320533209/Concat" type="Concat" version="opset1">
			<data axis="1"/>
			<input>
				<port id="0">
					<dim>1</dim>
					<dim>1</dim>
					<dim>256</dim>
					<dim>128</dim>
				</port>
				<port id="1">
					<dim>1</dim>
					<dim>1</dim>
					<dim>256</dim>
					<dim>128</dim>
				</port>
				<port id="2">
					<dim>1</dim>
					<dim>1</dim>
					<dim>256</dim>
					<dim>128</dim>
				</port>
			</input>
			<output>
				<port id="3" precision="FP32">
					<dim>1</dim>
					<dim>3</dim>
					<dim>256</dim>
					<dim>128</dim>
				</port>
			</output>
		</layer>
		<layer id="4" name="data/reverse_input_channels3320533211/Concat33252_const" type="Const" version="opset1">
			<data element_type="f32" offset="8" shape="1,3,1,1" size="12"/>
			<output>
				<port id="1" precision="FP32">
					<dim>1</dim>
					<dim>3</dim>
					<dim>1</dim>
					<dim>1</dim>
				</port>
			</output>
		</layer>
		<layer id="5" name="Mul_/Fused_Mul_" type="Multiply" version="opset1">
			<input>
				<port id="0">
					<dim>1</dim>
					<dim>3</dim>
					<dim>256</dim>
					<dim>128</dim>
				</port>
				<port id="1">
					<dim>1</dim>
					<dim>3</dim>
					<dim>1</dim>
					<dim>1</dim>
				</port>
			</input>
			<output>
				<port id="2" precision="FP32">
					<dim>1</dim>
					<dim>3</dim>
					<dim>256</dim>
					<dim>128</dim>
				</port>
			</output>
		</layer>
		<layer id="6" name="data/reverse_input_channels33207/Concat33236_const" type="Const" version="opset1">
			<data element_type="f32" offset="20" shape="1,3,1,1" size="12"/>
			<output>
				<port id="1" precision="FP32">
					<dim>1</dim>
					<dim>3</dim>
					<dim>1</dim>
					<dim>1</dim>
				</port>
			</output>
		</layer>
		<layer id="7" name="Add_/Fused_Add_" type="Add" version="opset1">
			<input>
				<port id="0">
					<dim>1</dim>
					<dim>3</dim>
					<dim>256</dim>
					<dim>128</dim>
				</port>
				<port id="1">
					<dim>1</dim>
					<dim>3</dim>
					<dim>1</dim>
					<dim>1</dim>
				</port>
			</input>
			<output>
				<port id="2" precision="FP32">
					<dim>1</dim>
					<dim>3</dim>
					<dim>256</dim>
					<dim>128</dim>
				</port>
			</output>
		</layer>
		<layer id="8" name="563/Ins_Norm/MVN_" type="MVN" version="opset2">
			<data across_channels="0" eps="9.999999747378752e-06" normalize_variance="1"/>
			<input>
				<port id="0">
					<dim>1</dim>
					<dim>3</dim>
					<dim>256</dim>
					<dim>128</dim>
				</port>
			</input>
			<output>
				<port id="1" precision="FP32">
					<dim>1</dim>
					<dim>3</dim>
					<dim>256</dim>
					<dim>128</dim>
				</port>
			</output>
		</layer>
		<layer id="9" name="onnx_initializer_node_in_first.weight/Output_0/Data_/copy/copy_const" type="Const" version="opset1">
			<data element_type="f32" offset="32" shape="1,3,1,1" size="12"/>
			<output>
				<port id="1" precision="FP32">
					<dim>1</dim>
					<dim>3</dim>
					<dim>1</dim>
					<dim>1</dim>
				</port>
			</output>
		</layer>
		<layer id="10" name="563/Ins_Norm/mul_" type="Multiply" version="opset1">
			<input>
				<port id="0">
					<dim>1</dim>
					<dim>3</dim>
					<dim>256</dim>
					<dim>128</dim>
				</port>
				<port id="1">
					<dim>1</dim>
					<dim>3</dim>
					<dim>1</dim>
					<dim>1</dim>
				</port>
			</input>
			<output>
				<port id="2" precision="FP32">
					<dim>1</dim>
					<dim>3</dim>
					<dim>256</dim>
					<dim>128</dim>
				</port>
			</output>
		</layer>
		<layer id="11" name="onnx_initializer_node_in_first.bias/Output_0/Data_/copy/copy_const" type="Const" version="opset1">
			<data element_type="f32" offset="44" shape="1,3,1,1" size="12"/>
			<output>
				<port id="1" precision="FP32">
					<dim>1</dim>
					<dim>3</dim>
					<dim>1</dim>
					<dim>1</dim>
				</port>
			</output>
		</layer>
		<layer id="12" name="563/Ins_Norm/add_" type="Add" version="opset1">
			<input>
				<port id="0">
					<dim>1</dim>
					<dim>3</dim>
					<dim>256</dim>
					<dim>128</dim>
				</port>
				<port id="1">
					<dim>1</dim>
					<dim>3</dim>
					<dim>1</dim>
					<dim>1</dim>
				</port>
			</input>
			<output>
				<port id="2" precision="FP32">
					<dim>1</dim>
					<dim>3</dim>
					<dim>256</dim>
					<dim>128</dim>
				</port>
			</output>
		</layer>
		<layer id="13" name="onnx_initializer_node_conv1.conv.weight/Output_0/Data__const" type="Const" version="opset1">
			<data element_type="f32" offset="56" shape="64,3,7,7" size="37632"/>
			<output>
				<port id="1" precision="FP32">
					<dim>64</dim>
					<dim>3</dim>
					<dim>7</dim>
					<dim>7</dim>
				</port>
			</output>
		</layer>
		<layer id="14" name="564" type="Convolution" version="opset1">
			<data dilations="1,1" output_padding="0,0" pads_begin="3,3" pads_end="3,3" strides="2,2"/>
			<input>
				<port id="0">
					<dim>1</dim>
					<dim>3</dim>
					<dim>256</dim>
					<dim>128</dim>
				</port>
				<port id="1">
					<dim>64</dim>
					<dim>3</dim>
					<dim>7</dim>
					<dim>7</dim>
				</port>
			</input>
			<output>
				<port id="2" precision="FP32">
					<dim>1</dim>
					<dim>64</dim>
					<dim>128</dim>
					<dim>64</dim>
				</port>
			</output>
		</layer>
		<layer id="15" name="565/Ins_Norm/MVN_" type="MVN" version="opset2">
			<data across_channels="0" eps="9.999999747378752e-06" normalize_variance="1"/>
			<input>
				<port id="0">
					<dim>1</dim>
					<dim>64</dim>
					<dim>128</dim>
					<dim>64</dim>
				</port>
			</input>
			<output>
				<port id="1" precision="FP32">
					<dim>1</dim>
					<dim>64</dim>
					<dim>128</dim>
					<dim>64</dim>
				</port>
			</output>
		</layer>
		<layer id="16" name="onnx_initializer_node_conv1.bn.weight/Output_0/Data_/copy/copy_const" type="Const" version="opset1">
			<data element_type="f32" offset="37688" shape="1,64,1,1" size="256"/>
			<output>
				<port id="1" precision="FP32">
					<dim>1</dim>
					<dim>64</dim>
					<dim>1</dim>
					<dim>1</dim>
				</port>
			</output>
		</layer>
		<layer id="17" name="565/Ins_Norm/mul_" type="Multiply" version="opset1">
			<input>
				<port id="0">
					<dim>1</dim>
					<dim>64</dim>
					<dim>128</dim>
					<dim>64</dim>
				</port>
				<port id="1">
					<dim>1</dim>
					<dim>64</dim>
					<dim>1</dim>
					<dim>1</dim>
				</port>
			</input>
			<output>
				<port id="2" precision="FP32">
					<dim>1</dim>
					<dim>64</dim>
					<dim>128</dim>
					<dim>64</dim>
				</port>
			</output>
		</layer>
		<layer id="18" name="onnx_initializer_node_conv1.bn.bias/Output_0/Data_/copy/copy_const" type="Const" version="opset1">
			<data element_type="f32" offset="37944" shape="1,64,1,1" size="256"/>
			<output>
				<port id="1" precision="FP32">
					<dim>1</dim>
					<dim>64</dim>
					<dim>1</dim>
					<dim>1</dim>
				</port>
			</output>
		</layer>
		<layer id="19" name="565/Ins_Norm/add_" type="Add" version="opset1">
			<input>
				<port id="0">
					<dim>1</dim>
					<dim>64</dim>
					<dim>128</dim>
					<dim>64</dim>
				</port>
				<port id="1">
					<dim>1</dim>
					<dim>64</dim>
					<dim>1</dim>
					<dim>1</dim>
				</port>
			</input>
			<output>
				<port id="2" precision="FP32">
					<dim>1</dim>
					<dim>64</dim>
					<dim>128</dim>
					<dim>64</dim>
				</port>
			</output>
		</layer>
		<layer id="20" name="566" type="ReLU" version="opset1">
			<input>
				<port id="0">
					<dim>1</dim>
					<dim>64</dim>
					<dim>128</dim>
					<dim>64</dim>
				</port>
			</input>
			<output>
				<port id="1" precision="FP32">
					<dim>1</dim>
					<dim>64</dim>
					<dim>128</dim>
					<dim>64</dim>
				</port>
			</output>
		</layer>
		<layer id="21" name="567" type="MaxPool" version="opset1">
			<data kernel="3,3" pads_begin="1,1" pads_end="1,1" rounding_type="floor" strides="2,2"/>
			<input>
				<port id="0">
					<dim>1</dim>
					<dim>64</dim>
					<dim>128</dim>
					<dim>64</dim>
				</port>
			</input>
			<output>
				<port id="1" precision="FP32">
					<dim>1</dim>
					<dim>64</dim>
					<dim>64</dim>
					<dim>32</dim>
				</port>
			</output>
		</layer>
		<layer id="22" name="569/mean/Fused_Mul_2121221214_const" type="Const" version="opset1">
			<data element_type="f32" offset="38200" shape="64,64,1,1" size="16384"/>
			<output>
				<port id="1" precision="FP32">
					<dim>64</dim>
					<dim>64</dim>
					<dim>1</dim>
					<dim>1</dim>
				</port>
			</output>
		</layer>
		<layer id="23" name="568" type="Convolution" version="opset1">
			<data dilations="1,1" output_padding="0,0" pads_begin="0,0" pads_end="0,0" strides="1,1"/>
			<input>
				<port id="0">
					<dim>1</dim>
					<dim>64</dim>
					<dim>64</dim>
					<dim>32</dim>
				</port>
				<port id="1">
					<dim>64</dim>
					<dim>64</dim>
					<dim>1</dim>
					<dim>1</dim>
				</port>
			</input>
			<output>
				<port id="2" precision="FP32">
					<dim>1</dim>
					<dim>64</dim>
					<dim>64</dim>
					<dim>32</dim>
				</port>
			</output>
		</layer>
		<layer id="24" name="data_add_1950819513/copy_const" type="Const" version="opset1">
			<data element_type="f32" offset="54584" shape="1,64,1,1" size="256"/>
			<output>
				<port id="1" precision="FP32">
					<dim>1</dim>
					<dim>64</dim>
					<dim>1</dim>
					<dim>1</dim>
				</port>
			</output>
		</layer>
		<layer id="25" name="569/variance/Fused_Add_" type="Add" version="opset1">
			<input>
				<port id="0">
					<dim>1</dim>
					<dim>64</dim>
					<dim>64</dim>
					<dim>32</dim>
				</port>
				<port id="1">
					<dim>1</dim>
					<dim>64</dim>
					<dim>1</dim>
					<dim>1</dim>
				</port>
			</input>
			<output>
				<port id="2" precision="FP32">
					<dim>1</dim>
					<dim>64</dim>
					<dim>64</dim>
					<dim>32</dim>
				</port>
			</output>
		</layer>
		<layer id="26" name="570" type="ReLU" version="opset1">
			<input>
				<port id="0">
					<dim>1</dim>
					<dim>64</dim>
					<dim>64</dim>
					<dim>32</dim>
				</port>
			</input>
			<output>
				<port id="1" precision="FP32">
					<dim>1</dim>
					<dim>64</dim>
					<dim>64</dim>
					<dim>32</dim>
				</port>
			</output>
		</layer>
		<layer id="27" name="onnx_initializer_node_conv2.0.conv2a.conv1.weight/Output_0/Data__const" type="Const" version="opset1">
			<data element_type="f32" offset="54840" shape="64,64,1,1" size="16384"/>
			<output>
				<port id="1" precision="FP32">
					<dim>64</dim>
					<dim>64</dim>
					<dim>1</dim>
					<dim>1</dim>
				</port>
			</output>
		</layer>
		<layer id="28" name="571" type="Convolution" version="opset1">
			<data dilations="1,1" output_padding="0,0" pads_begin="0,0" pads_end="0,0" strides="1,1"/>
			<input>
				<port id="0">
					<dim>1</dim>
					<dim>64</dim>
					<dim>64</dim>
					<dim>32</dim>
				</port>
				<port id="1">
					<dim>64</dim>
					<dim>64</dim>
					<dim>1</dim>
					<dim>1</dim>
				</port>
			</input>
			<output>
				<port id="2" precision="FP32">
					<dim>1</dim>
					<dim>64</dim>
					<dim>64</dim>
					<dim>32</dim>
				</port>
			</output>
		</layer>
		<layer id="29" name="3497934982_const" type="Const" version="opset1">
			<data element_type="f32" offset="71224" shape="64,1,1,3,3" size="2304"/>
			<output>
				<port id="1" precision="FP32">
					<dim>64</dim>
					<dim>1</dim>
					<dim>1</dim>
					<dim>3</dim>
					<dim>3</dim>
				</port>
			</output>
		</layer>
		<layer id="30" name="572" type="GroupConvolution" version="opset1">
			<data dilations="1,1" output_padding="0,0" pads_begin="1,1" pads_end="1,1" strides="1,1"/>
			<input>
				<port id="0">
					<dim>1</dim>
					<dim>64</dim>
					<dim>64</dim>
					<dim>32</dim>
				</port>
				<port id="1">
					<dim>64</dim>
					<dim>1</dim>
					<dim>1</dim>
					<dim>3</dim>
					<dim>3</dim>
				</port>
			</input>
			<output>
				<port id="2" precision="FP32">
					<dim>1</dim>
					<dim>64</dim>
					<dim>64</dim>
					<dim>32</dim>
				</port>
			</output>
		</layer>
		<layer id="31" name="data_add_1958819593/copy_const" type="Const" version="opset1">
			<data element_type="f32" offset="73528" shape="1,64,1,1" size="256"/>
			<output>
				<port id="1" precision="FP32">
					<dim>1</dim>
					<dim>64</dim>
					<dim>1</dim>
					<dim>1</dim>
				</port>
			</output>
		</layer>
		<layer id="32" name="573/variance/Fused_Add_" type="Add" version="opset1">
			<input>
				<port id="0">
					<dim>1</dim>
					<dim>64</dim>
					<dim>64</dim>
					<dim>32</dim>
				</port>
				<port id="1">
					<dim>1</dim>
					<dim>64</dim>
					<dim>1</dim>
					<dim>1</dim>
				</port>
			</input>
			<output>
				<port id="2" precision="FP32">
					<dim>1</dim>
					<dim>64</dim>
					<dim>64</dim>
					<dim>32</dim>
				</port>
			</output>
		</layer>
		<layer id="33" name="574" type="ReLU" version="opset1">
			<input>
				<port id="0">
					<dim>1</dim>
					<dim>64</dim>
					<dim>64</dim>
					<dim>32</dim>
				</port>
			</input>
			<output>
				<port id="1" precision="FP32">
					<dim>1</dim>
					<dim>64</dim>
					<dim>64</dim>
					<dim>32</dim>
				</port>
			</output>
		</layer>
		<layer id="34" name="611/reduce/Cast_135878_const" type="Const" version="opset1">
			<data element_type="i64" offset="73784" shape="2" size="16"/>
			<output>
				<port id="1" precision="I64">
					<dim>2</dim>
				</port>
			</output>
		</layer>
		<layer id="35" name="611/reduce" type="ReduceMean" version="opset1">
			<data keep_dims="True"/>
			<input>
				<port id="0">
					<dim>1</dim>
					<dim>64</dim>
					<dim>64</dim>
					<dim>32</dim>
				</port>
				<port id="1">
					<dim>2</dim>
				</port>
			</input>
			<output>
				<port id="2" precision="FP32">
					<dim>1</dim>
					<dim>64</dim>
					<dim>1</dim>
					<dim>1</dim>
				</port>
			</output>
		</layer>
		<layer id="36" name="Copy_onnx_initializer_node_conv2.0.gate.fc1.weight/Output_0/Data__const" type="Const" version="opset1">
			<data element_type="f32" offset="73800" shape="4,64,1,1" size="1024"/>
			<output>
				<port id="1" precision="FP32">
					<dim>4</dim>
					<dim>64</dim>
					<dim>1</dim>
					<dim>1</dim>
				</port>
			</output>
		</layer>
		<layer id="37" name="612/WithoutBiases" type="Convolution" version="opset1">
			<data dilations="1,1" output_padding="0,0" pads_begin="0,0" pads_end="0,0" strides="1,1"/>
			<input>
				<port id="0">
					<dim>1</dim>
					<dim>64</dim>
					<dim>1</dim>
					<dim>1</dim>
				</port>
				<port id="1">
					<dim>4</dim>
					<dim>64</dim>
					<dim>1</dim>
					<dim>1</dim>
				</port>
			</input>
			<output>
				<port id="2" precision="FP32">
					<dim>1</dim>
					<dim>4</dim>
					<dim>1</dim>
					<dim>1</dim>
				</port>
			</output>
		</layer>
		<layer id="38" name="612/Dims11793/copy_const" type="Const" version="opset1">
			<data element_type="f32" offset="74824" shape="1,4,1,1" size="16"/>
			<output>
				<port id="1" precision="FP32">
					<dim>1</dim>
					<dim>4</dim>
					<dim>1</dim>
					<dim>1</dim>
				</port>
			</output>
		</layer>
		<layer id="39" name="612" type="Add" version="opset1">
			<input>
				<port id="0">
					<dim>1</dim>
					<dim>4</dim>
					<dim>1</dim>
					<dim>1</dim>
				</port>
				<port id="1">
					<dim>1</dim>
					<dim>4</dim>
					<dim>1</dim>
					<dim>1</dim>
				</port>
			</input>
			<output>
				<port id="2" precision="FP32">
					<dim>1</dim>
					<dim>4</dim>
					<dim>1</dim>
					<dim>1</dim>
				</port>
			</output>
		</layer>
		<layer id="40" name="613" type="ReLU" version="opset1">
			<input>
				<port id="0">
					<dim>1</dim>
					<dim>4</dim>
					<dim>1</dim>
					<dim>1</dim>
				</port>
			</input>
			<output>
				<port id="1" precision="FP32">
					<dim>1</dim>
					<dim>4</dim>
					<dim>1</dim>
					<dim>1</dim>
				</port>
			</output>
		</layer>
		<layer id="41" name="Copy_onnx_initializer_node_conv2.0.gate.fc2.weight/Output_0/Data__const" type="Const" version="opset1">
			<data element_type="f32" offset="74840" shape="64,4,1,1" size="1024"/>
			<output>
				<port id="1" precision="FP32">
					<dim>64</dim>
					<dim>4</dim>
					<dim>1</dim>
					<dim>1</dim>
				</port>
			</output>
		</layer>
		<layer id="42" name="614/WithoutBiases" type="Convolution" version="opset1">
			<data dilations="1,1" output_padding="0,0" pads_begin="0,0" pads_end="0,0" strides="1,1"/>
			<input>
				<port id="0">
					<dim>1</dim>
					<dim>4</dim>
					<dim>1</dim>
					<dim>1</dim>
				</port>
				<port id="1">
					<dim>64</dim>
					<dim>4</dim>
					<dim>1</dim>
					<dim>1</dim>
				</port>
			</input>
			<output>
				<port id="2" precision="FP32">
					<dim>1</dim>
					<dim>64</dim>
					<dim>1</dim>
					<dim>1</dim>
				</port>
			</output>
		</layer>
		<layer id="43" name="614/Dims11823/copy_const" type="Const" version="opset1">
			<data element_type="f32" offset="75864" shape="1,64,1,1" size="256"/>
			<output>
				<port id="1" precision="FP32">
					<dim>1</dim>
					<dim>64</dim>
					<dim>1</dim>
					<dim>1</dim>
				</port>
			</output>
		</layer>
		<layer id="44" name="614" type="Add" version="opset1">
			<input>
				<port id="0">
					<dim>1</dim>
					<dim>64</dim>
					<dim>1</dim>
					<dim>1</dim>
				</port>
				<port id="1">
					<dim>1</dim>
					<dim>64</dim>
					<dim>1</dim>
					<dim>1</dim>
				</port>
			</input>
			<output>
				<port id="2" precision="FP32">
					<dim>1</dim>
					<dim>64</dim>
					<dim>1</dim>
					<dim>1</dim>
				</port>
			</output>
		</layer>
		<layer id="45" name="615" type="Sigmoid" version="opset1">
			<input>
				<port id="0">
					<dim>1</dim>
					<dim>64</dim>
					<dim>1</dim>
					<dim>1</dim>
				</port>
			</input>
			<output>
				<port id="1" precision="FP32">
					<dim>1</dim>
					<dim>64</dim>
					<dim>1</dim>
					<dim>1</dim>
				</port>
			</output>
		</layer>
		<layer id="46" name="616" type="Multiply" version="opset1">
			<input>
				<port id="0">
					<dim>1</dim>
					<dim>64</dim>
					<dim>64</dim>
					<dim>32</dim>
				</port>
				<port id="1">
					<dim>1</dim>
					<dim>64</dim>
					<dim>1</dim>
					<dim>1</dim>
				</port>
			</input>
			<output>
				<port id="2" precision="FP32">
					<dim>1</dim>
					<dim>64</dim>
					<dim>64</dim>
					<dim>32</dim>
				</port>
			</output>
		</layer>
		<layer id="47" name="onnx_initializer_node_conv2.0.conv2b.0.conv1.weight/Output_0/Data__const" type="Const" version="opset1">
			<data element_type="f32" offset="76120" shape="64,64,1,1" size="16384"/>
			<output>
				<port id="1" precision="FP32">
					<dim>64</dim>
					<dim>64</dim>
					<dim>1</dim>
					<dim>1</dim>
				</port>
			</output>
		</layer>
		<layer id="48" name="575" type="Convolution" version="opset1">
			<data dilations="1,1" output_padding="0,0" pads_begin="0,0" pads_end="0,0" strides="1,1"/>
			<input>
				<port id="0">
					<dim>1</dim>
					<dim>64</dim>
					<dim>64</dim>
					<dim>32</dim>
				</port>
				<port id="1">
					<dim>64</dim>
					<dim>64</dim>
					<dim>1</dim>
					<dim>1</dim>
				</port>
			</input>
			<output>
				<port id="2" precision="FP32">
					<dim>1</dim>
					<dim>64</dim>
					<dim>64</dim>
					<dim>32</dim>
				</port>
			</output>
		</layer>
		<layer id="49" name="3494334946_const" type="Const" version="opset1">
			<data element_type="f32" offset="92504" shape="64,1,1,3,3" size="2304"/>
			<output>
				<port id="1" precision="FP32">
					<dim>64</dim>
					<dim>1</dim>
					<dim>1</dim>
					<dim>3</dim>
					<dim>3</dim>
				</port>
			</output>
		</layer>
		<layer id="50" name="576" type="GroupConvolution" version="opset1">
			<data dilations="1,1" output_padding="0,0" pads_begin="1,1" pads_end="1,1" strides="1,1"/>
			<input>
				<port id="0">
					<dim>1</dim>
					<dim>64</dim>
					<dim>64</dim>
					<dim>32</dim>
				</port>
				<port id="1">
					<dim>64</dim>
					<dim>1</dim>
					<dim>1</dim>
					<dim>3</dim>
					<dim>3</dim>
				</port>
			</input>
			<output>
				<port id="2" precision="FP32">
					<dim>1</dim>
					<dim>64</dim>
					<dim>64</dim>
					<dim>32</dim>
				</port>
			</output>
		</layer>
		<layer id="51" name="data_add_1957219577/copy_const" type="Const" version="opset1">
			<data element_type="f32" offset="94808" shape="1,64,1,1" size="256"/>
			<output>
				<port id="1" precision="FP32">
					<dim>1</dim>
					<dim>64</dim>
					<dim>1</dim>
					<dim>1</dim>
				</port>
			</output>
		</layer>
		<layer id="52" name="577/variance/Fused_Add_" type="Add" version="opset1">
			<input>
				<port id="0">
					<dim>1</dim>
					<dim>64</dim>
					<dim>64</dim>
					<dim>32</dim>
				</port>
				<port id="1">
					<dim>1</dim>
					<dim>64</dim>
					<dim>1</dim>
					<dim>1</dim>
				</port>
			</input>
			<output>
				<port id="2" precision="FP32">
					<dim>1</dim>
					<dim>64</dim>
					<dim>64</dim>
					<dim>32</dim>
				</port>
			</output>
		</layer>
		<layer id="53" name="578" type="ReLU" version="opset1">
			<input>
				<port id="0">
					<dim>1</dim>
					<dim>64</dim>
					<dim>64</dim>
					<dim>32</dim>
				</port>
			</input>
			<output>
				<port id="1" precision="FP32">
					<dim>1</dim>
					<dim>64</dim>
					<dim>64</dim>
					<dim>32</dim>
				</port>
			</output>
		</layer>
		<layer id="54" name="onnx_initializer_node_conv2.0.conv2b.1.conv1.weight/Output_0/Data__const" type="Const" version="opset1">
			<data element_type="f32" offset="95064" shape="64,64,1,1" size="16384"/>
			<output>
				<port id="1" precision="FP32">
					<dim>64</dim>
					<dim>64</dim>
					<dim>1</dim>
					<dim>1</dim>
				</port>
			</output>
		</layer>
		<layer id="55" name="579" type="Convolution" version="opset1">
			<data dilations="1,1" output_padding="0,0" pads_begin="0,0" pads_end="0,0" strides="1,1"/>
			<input>
				<port id="0">
					<dim>1</dim>
					<dim>64</dim>
					<dim>64</dim>
					<dim>32</dim>
				</port>
				<port id="1">
					<dim>64</dim>
					<dim>64</dim>
					<dim>1</dim>
					<dim>1</dim>
				</port>
			</input>
			<output>
				<port id="2" precision="FP32">
					<dim>1</dim>
					<dim>64</dim>
					<dim>64</dim>
					<dim>32</dim>
				</port>
			</output>
		</layer>
		<layer id="56" name="3484334846_const" type="Const" version="opset1">
			<data element_type="f32" offset="111448" shape="64,1,1,3,3" size="2304"/>
			<output>
				<port id="1" precision="FP32">
					<dim>64</dim>
					<dim>1</dim>
					<dim>1</dim>
					<dim>3</dim>
					<dim>3</dim>
				</port>
			</output>
		</layer>
		<layer id="57" name="580" type="GroupConvolution" version="opset1">
			<data dilations="1,1" output_padding="0,0" pads_begin="1,1" pads_end="1,1" strides="1,1"/>
			<input>
				<port id="0">
					<dim>1</dim>
					<dim>64</dim>
					<dim>64</dim>
					<dim>32</dim>
				</port>
				<port id="1">
					<dim>64</dim>
					<dim>1</dim>
					<dim>1</dim>
					<dim>3</dim>
					<dim>3</dim>
				</port>
			</input>
			<output>
				<port id="2" precision="FP32">
					<dim>1</dim>
					<dim>64</dim>
					<dim>64</dim>
					<dim>32</dim>
				</port>
			</output>
		</layer>
		<layer id="58" name="data_add_1958019585/copy_const" type="Const" version="opset1">
			<data element_type="f32" offset="113752" shape="1,64,1,1" size="256"/>
			<output>
				<port id="1" precision="FP32">
					<dim>1</dim>
					<dim>64</dim>
					<dim>1</dim>
					<dim>1</dim>
				</port>
			</output>
		</layer>
		<layer id="59" name="581/variance/Fused_Add_" type="Add" version="opset1">
			<input>
				<port id="0">
					<dim>1</dim>
					<dim>64</dim>
					<dim>64</dim>
					<dim>32</dim>
				</port>
				<port id="1">
					<dim>1</dim>
					<dim>64</dim>
					<dim>1</dim>
					<dim>1</dim>
				</port>
			</input>
			<output>
				<port id="2" precision="FP32">
					<dim>1</dim>
					<dim>64</dim>
					<dim>64</dim>
					<dim>32</dim>
				</port>
			</output>
		</layer>
		<layer id="60" name="582" type="ReLU" version="opset1">
			<input>
				<port id="0">
					<dim>1</dim>
					<dim>64</dim>
					<dim>64</dim>
					<dim>32</dim>
				</port>
			</input>
			<output>
				<port id="1" precision="FP32">
					<dim>1</dim>
					<dim>64</dim>
					<dim>64</dim>
					<dim>32</dim>
				</port>
			</output>
		</layer>
		<layer id="61" name="617/reduce/Cast_135856_const" type="Const" version="opset1">
			<data element_type="i64" offset="73784" shape="2" size="16"/>
			<output>
				<port id="1" precision="I64">
					<dim>2</dim>
				</port>
			</output>
		</layer>
		<layer id="62" name="617/reduce" type="ReduceMean" version="opset1">
			<data keep_dims="True"/>
			<input>
				<port id="0">
					<dim>1</dim>
					<dim>64</dim>
					<dim>64</dim>
					<dim>32</dim>
				</port>
				<port id="1">
					<dim>2</dim>
				</port>
			</input>
			<output>
				<port id="2" precision="FP32">
					<dim>1</dim>
					<dim>64</dim>
					<dim>1</dim>
					<dim>1</dim>
				</port>
			</output>
		</layer>
		<layer id="63" name="Copy_onnx_initializer_node_conv2.0.gate.fc1.weight/Output_0/Data_3872_const" type="Const" version="opset1">
			<data element_type="f32" offset="73800" shape="4,64,1,1" size="1024"/>
			<output>
				<port id="1" precision="FP32">
					<dim>4</dim>
					<dim>64</dim>
					<dim>1</dim>
					<dim>1</dim>
				</port>
			</output>
		</layer>
		<layer id="64" name="618/WithoutBiases" type="Convolution" version="opset1">
			<data dilations="1,1" output_padding="0,0" pads_begin="0,0" pads_end="0,0" strides="1,1"/>
			<input>
				<port id="0">
					<dim>1</dim>
					<dim>64</dim>
					<dim>1</dim>
					<dim>1</dim>
				</port>
				<port id="1">
					<dim>4</dim>
					<dim>64</dim>
					<dim>1</dim>
					<dim>1</dim>
				</port>
			</input>
			<output>
				<port id="2" precision="FP32">
					<dim>1</dim>
					<dim>4</dim>
					<dim>1</dim>
					<dim>1</dim>
				</port>
			</output>
		</layer>
		<layer id="65" name="618/Dims11829/copy_const" type="Const" version="opset1">
			<data element_type="f32" offset="74824" shape="1,4,1,1" size="16"/>
			<output>
				<port id="1" precision="FP32">
					<dim>1</dim>
					<dim>4</dim>
					<dim>1</dim>
					<dim>1</dim>
				</port>
			</output>
		</layer>
		<layer id="66" name="618" type="Add" version="opset1">
			<input>
				<port id="0">
					<dim>1</dim>
					<dim>4</dim>
					<dim>1</dim>
					<dim>1</dim>
				</port>
				<port id="1">
					<dim>1</dim>
					<dim>4</dim>
					<dim>1</dim>
					<dim>1</dim>
				</port>
			</input>
			<output>
				<port id="2" precision="FP32">
					<dim>1</dim>
					<dim>4</dim>
					<dim>1</dim>
					<dim>1</dim>
				</port>
			</output>
		</layer>
		<layer id="67" name="619" type="ReLU" version="opset1">
			<input>
				<port id="0">
					<dim>1</dim>
					<dim>4</dim>
					<dim>1</dim>
					<dim>1</dim>
				</port>
			</input>
			<output>
				<port id="1" precision="FP32">
					<dim>1</dim>
					<dim>4</dim>
					<dim>1</dim>
					<dim>1</dim>
				</port>
			</output>
		</layer>
		<layer id="68" name="Copy_onnx_initializer_node_conv2.0.gate.fc2.weight/Output_0/Data_3880_const" type="Const" version="opset1">
			<data element_type="f32" offset="74840" shape="64,4,1,1" size="1024"/>
			<output>
				<port id="1" precision="FP32">
					<dim>64</dim>
					<dim>4</dim>
					<dim>1</dim>
					<dim>1</dim>
				</port>
			</output>
		</layer>
		<layer id="69" name="620/WithoutBiases" type="Convolution" version="opset1">
			<data dilations="1,1" output_padding="0,0" pads_begin="0,0" pads_end="0,0" strides="1,1"/>
			<input>
				<port id="0">
					<dim>1</dim>
					<dim>4</dim>
					<dim>1</dim>
					<dim>1</dim>
				</port>
				<port id="1">
					<dim>64</dim>
					<dim>4</dim>
					<dim>1</dim>
					<dim>1</dim>
				</port>
			</input>
			<output>
				<port id="2" precision="FP32">
					<dim>1</dim>
					<dim>64</dim>
					<dim>1</dim>
					<dim>1</dim>
				</port>
			</output>
		</layer>
		<layer id="70" name="620/Dims11931/copy_const" type="Const" version="opset1">
			<data element_type="f32" offset="75864" shape="1,64,1,1" size="256"/>
			<output>
				<port id="1" precision="FP32">
					<dim>1</dim>
					<dim>64</dim>
					<dim>1</dim>
					<dim>1</dim>
				</port>
			</output>
		</layer>
		<layer id="71" name="620" type="Add" version="opset1">
			<input>
				<port id="0">
					<dim>1</dim>
					<dim>64</dim>
					<dim>1</dim>
					<dim>1</dim>
				</port>
				<port id="1">
					<dim>1</dim>
					<dim>64</dim>
					<dim>1</dim>
					<dim>1</dim>
				</port>
			</input>
			<output>
				<port id="2" precision="FP32">
					<dim>1</dim>
					<dim>64</dim>
					<dim>1</dim>
					<dim>1</dim>
				</port>
			</output>
		</layer>
		<layer id="72" name="621" type="Sigmoid" version="opset1">
			<input>
				<port id="0">
					<dim>1</dim>
					<dim>64</dim>
					<dim>1</dim>
					<dim>1</dim>
				</port>
			</input>
			<output>
				<port id="1" precision="FP32">
					<dim>1</dim>
					<dim>64</dim>
					<dim>1</dim>
					<dim>1</dim>
				</port>
			</output>
		</layer>
		<layer id="73" name="622" type="Multiply" version="opset1">
			<input>
				<port id="0">
					<dim>1</dim>
					<dim>64</dim>
					<dim>64</dim>
					<dim>32</dim>
				</port>
				<port id="1">
					<dim>1</dim>
					<dim>64</dim>
					<dim>1</dim>
					<dim>1</dim>
				</port>
			</input>
			<output>
				<port id="2" precision="FP32">
					<dim>1</dim>
					<dim>64</dim>
					<dim>64</dim>
					<dim>32</dim>
				</port>
			</output>
		</layer>
		<layer id="74" name="623" type="Add" version="opset1">
			<input>
				<port id="0">
					<dim>1</dim>
					<dim>64</dim>
					<dim>64</dim>
					<dim>32</dim>
				</port>
				<port id="1">
					<dim>1</dim>
					<dim>64</dim>
					<dim>64</dim>
					<dim>32</dim>
				</port>
			</input>
			<output>
				<port id="2" precision="FP32">
					<dim>1</dim>
					<dim>64</dim>
					<dim>64</dim>
					<dim>32</dim>
				</port>
			</output>
		</layer>
		<layer id="75" name="onnx_initializer_node_conv2.0.conv2c.0.conv1.weight/Output_0/Data__const" type="Const" version="opset1">
			<data element_type="f32" offset="114008" shape="64,64,1,1" size="16384"/>
			<output>
				<port id="1" precision="FP32">
					<dim>64</dim>
					<dim>64</dim>
					<dim>1</dim>
					<dim>1</dim>
				</port>
			</output>
		</layer>
		<layer id="76" name="583" type="Convolution" version="opset1">
			<data dilations="1,1" output_padding="0,0" pads_begin="0,0" pads_end="0,0" strides="1,1"/>
			<input>
				<port id="0">
					<dim>1</dim>
					<dim>64</dim>
					<dim>64</dim>
					<dim>32</dim>
				</port>
				<port id="1">
					<dim>64</dim>
					<dim>64</dim>
					<dim>1</dim>
					<dim>1</dim>
				</port>
			</input>
			<output>
				<port id="2" precision="FP32">
					<dim>1</dim>
					<dim>64</dim>
					<dim>64</dim>
					<dim>32</dim>
				</port>
			</output>
		</layer>
		<layer id="77" name="3496334966_const" type="Const" version="opset1">
			<data element_type="f32" offset="130392" shape="64,1,1,3,3" size="2304"/>
			<output>
				<port id="1" precision="FP32">
					<dim>64</dim>
					<dim>1</dim>
					<dim>1</dim>
					<dim>3</dim>
					<dim>3</dim>
				</port>
			</output>
		</layer>
		<layer id="78" name="584" type="GroupConvolution" version="opset1">
			<data dilations="1,1" output_padding="0,0" pads_begin="1,1" pads_end="1,1" strides="1,1"/>
			<input>
				<port id="0">
					<dim>1</dim>
					<dim>64</dim>
					<dim>64</dim>
					<dim>32</dim>
				</port>
				<port id="1">
					<dim>64</dim>
					<dim>1</dim>
					<dim>1</dim>
					<dim>3</dim>
					<dim>3</dim>
				</port>
			</input>
			<output>
				<port id="2" precision="FP32">
					<dim>1</dim>
					<dim>64</dim>
					<dim>64</dim>
					<dim>32</dim>
				</port>
			</output>
		</layer>
		<layer id="79" name="data_add_1954819553/copy_const" type="Const" version="opset1">
			<data element_type="f32" offset="132696" shape="1,64,1,1" size="256"/>
			<output>
				<port id="1" precision="FP32">
					<dim>1</dim>
					<dim>64</dim>
					<dim>1</dim>
					<dim>1</dim>
				</port>
			</output>
		</layer>
		<layer id="80" name="585/variance/Fused_Add_" type="Add" version="opset1">
			<input>
				<port id="0">
					<dim>1</dim>
					<dim>64</dim>
					<dim>64</dim>
					<dim>32</dim>
				</port>
				<port id="1">
					<dim>1</dim>
					<dim>64</dim>
					<dim>1</dim>
					<dim>1</dim>
				</port>
			</input>
			<output>
				<port id="2" precision="FP32">
					<dim>1</dim>
					<dim>64</dim>
					<dim>64</dim>
					<dim>32</dim>
				</port>
			</output>
		</layer>
		<layer id="81" name="586" type="ReLU" version="opset1">
			<input>
				<port id="0">
					<dim>1</dim>
					<dim>64</dim>
					<dim>64</dim>
					<dim>32</dim>
				</port>
			</input>
			<output>
				<port id="1" precision="FP32">
					<dim>1</dim>
					<dim>64</dim>
					<dim>64</dim>
					<dim>32</dim>
				</port>
			</output>
		</layer>
		<layer id="82" name="onnx_initializer_node_conv2.0.conv2c.1.conv1.weight/Output_0/Data__const" type="Const" version="opset1">
			<data element_type="f32" offset="132952" shape="64,64,1,1" size="16384"/>
			<output>
				<port id="1" precision="FP32">
					<dim>64</dim>
					<dim>64</dim>
					<dim>1</dim>
					<dim>1</dim>
				</port>
			</output>
		</layer>
		<layer id="83" name="587" type="Convolution" version="opset1">
			<data dilations="1,1" output_padding="0,0" pads_begin="0,0" pads_end="0,0" strides="1,1"/>
			<input>
				<port id="0">
					<dim>1</dim>
					<dim>64</dim>
					<dim>64</dim>
					<dim>32</dim>
				</port>
				<port id="1">
					<dim>64</dim>
					<dim>64</dim>
					<dim>1</dim>
					<dim>1</dim>
				</port>
			</input>
			<output>
				<port id="2" precision="FP32">
					<dim>1</dim>
					<dim>64</dim>
					<dim>64</dim>
					<dim>32</dim>
				</port>
			</output>
		</layer>
		<layer id="84" name="3493934942_const" type="Const" version="opset1">
			<data element_type="f32" offset="149336" shape="64,1,1,3,3" size="2304"/>
			<output>
				<port id="1" precision="FP32">
					<dim>64</dim>
					<dim>1</dim>
					<dim>1</dim>
					<dim>3</dim>
					<dim>3</dim>
				</port>
			</output>
		</layer>
		<layer id="85" name="588" type="GroupConvolution" version="opset1">
			<data dilations="1,1" output_padding="0,0" pads_begin="1,1" pads_end="1,1" strides="1,1"/>
			<input>
				<port id="0">
					<dim>1</dim>
					<dim>64</dim>
					<dim>64</dim>
					<dim>32</dim>
				</port>
				<port id="1">
					<dim>64</dim>
					<dim>1</dim>
					<dim>1</dim>
					<dim>3</dim>
					<dim>3</dim>
				</port>
			</input>
			<output>
				<port id="2" precision="FP32">
					<dim>1</dim>
					<dim>64</dim>
					<dim>64</dim>
					<dim>32</dim>
				</port>
			</output>
		</layer>
		<layer id="86" name="data_add_1955619561/copy_const" type="Const" version="opset1">
			<data element_type="f32" offset="151640" shape="1,64,1,1" size="256"/>
			<output>
				<port id="1" precision="FP32">
					<dim>1</dim>
					<dim>64</dim>
					<dim>1</dim>
					<dim>1</dim>
				</port>
			</output>
		</layer>
		<layer id="87" name="589/variance/Fused_Add_" type="Add" version="opset1">
			<input>
				<port id="0">
					<dim>1</dim>
					<dim>64</dim>
					<dim>64</dim>
					<dim>32</dim>
				</port>
				<port id="1">
					<dim>1</dim>
					<dim>64</dim>
					<dim>1</dim>
					<dim>1</dim>
				</port>
			</input>
			<output>
				<port id="2" precision="FP32">
					<dim>1</dim>
					<dim>64</dim>
					<dim>64</dim>
					<dim>32</dim>
				</port>
			</output>
		</layer>
		<layer id="88" name="590" type="ReLU" version="opset1">
			<input>
				<port id="0">
					<dim>1</dim>
					<dim>64</dim>
					<dim>64</dim>
					<dim>32</dim>
				</port>
			</input>
			<output>
				<port id="1" precision="FP32">
					<dim>1</dim>
					<dim>64</dim>
					<dim>64</dim>
					<dim>32</dim>
				</port>
			</output>
		</layer>
		<layer id="89" name="onnx_initializer_node_conv2.0.conv2c.2.conv1.weight/Output_0/Data__const" type="Const" version="opset1">
			<data element_type="f32" offset="151896" shape="64,64,1,1" size="16384"/>
			<output>
				<port id="1" precision="FP32">
					<dim>64</dim>
					<dim>64</dim>
					<dim>1</dim>
					<dim>1</dim>
				</port>
			</output>
		</layer>
		<layer id="90" name="591" type="Convolution" version="opset1">
			<data dilations="1,1" output_padding="0,0" pads_begin="0,0" pads_end="0,0" strides="1,1"/>
			<input>
				<port id="0">
					<dim>1</dim>
					<dim>64</dim>
					<dim>64</dim>
					<dim>32</dim>
				</port>
				<port id="1">
					<dim>64</dim>
					<dim>64</dim>
					<dim>1</dim>
					<dim>1</dim>
				</port>
			</input>
			<output>
				<port id="2" precision="FP32">
					<dim>1</dim>
					<dim>64</dim>
					<dim>64</dim>
					<dim>32</dim>
				</port>
			</output>
		</layer>
		<layer id="91" name="3504335046_const" type="Const" version="opset1">
			<data element_type="f32" offset="168280" shape="64,1,1,3,3" size="2304"/>
			<output>
				<port id="1" precision="FP32">
					<dim>64</dim>
					<dim>1</dim>
					<dim>1</dim>
					<dim>3</dim>
					<dim>3</dim>
				</port>
			</output>
		</layer>
		<layer id="92" name="592" type="GroupConvolution" version="opset1">
			<data dilations="1,1" output_padding="0,0" pads_begin="1,1" pads_end="1,1" strides="1,1"/>
			<input>
				<port id="0">
					<dim>1</dim>
					<dim>64</dim>
					<dim>64</dim>
					<dim>32</dim>
				</port>
				<port id="1">
					<dim>64</dim>
					<dim>1</dim>
					<dim>1</dim>
					<dim>3</dim>
					<dim>3</dim>
				</port>
			</input>
			<output>
				<port id="2" precision="FP32">
					<dim>1</dim>
					<dim>64</dim>
					<dim>64</dim>
					<dim>32</dim>
				</port>
			</output>
		</layer>
		<layer id="93" name="data_add_1956419569/copy_const" type="Const" version="opset1">
			<data element_type="f32" offset="170584" shape="1,64,1,1" size="256"/>
			<output>
				<port id="1" precision="FP32">
					<dim>1</dim>
					<dim>64</dim>
					<dim>1</dim>
					<dim>1</dim>
				</port>
			</output>
		</layer>
		<layer id="94" name="593/variance/Fused_Add_" type="Add" version="opset1">
			<input>
				<port id="0">
					<dim>1</dim>
					<dim>64</dim>
					<dim>64</dim>
					<dim>32</dim>
				</port>
				<port id="1">
					<dim>1</dim>
					<dim>64</dim>
					<dim>1</dim>
					<dim>1</dim>
				</port>
			</input>
			<output>
				<port id="2" precision="FP32">
					<dim>1</dim>
					<dim>64</dim>
					<dim>64</dim>
					<dim>32</dim>
				</port>
			</output>
		</layer>
		<layer id="95" name="594" type="ReLU" version="opset1">
			<input>
				<port id="0">
					<dim>1</dim>
					<dim>64</dim>
					<dim>64</dim>
					<dim>32</dim>
				</port>
			</input>
			<output>
				<port id="1" precision="FP32">
					<dim>1</dim>
					<dim>64</dim>
					<dim>64</dim>
					<dim>32</dim>
				</port>
			</output>
		</layer>
		<layer id="96" name="624/reduce/Cast_135842_const" type="Const" version="opset1">
			<data element_type="i64" offset="73784" shape="2" size="16"/>
			<output>
				<port id="1" precision="I64">
					<dim>2</dim>
				</port>
			</output>
		</layer>
		<layer id="97" name="624/reduce" type="ReduceMean" version="opset1">
			<data keep_dims="True"/>
			<input>
				<port id="0">
					<dim>1</dim>
					<dim>64</dim>
					<dim>64</dim>
					<dim>32</dim>
				</port>
				<port id="1">
					<dim>2</dim>
				</port>
			</input>
			<output>
				<port id="2" precision="FP32">
					<dim>1</dim>
					<dim>64</dim>
					<dim>1</dim>
					<dim>1</dim>
				</port>
			</output>
		</layer>
		<layer id="98" name="Copy_onnx_initializer_node_conv2.0.gate.fc1.weight/Output_0/Data_3873_const" type="Const" version="opset1">
			<data element_type="f32" offset="73800" shape="4,64,1,1" size="1024"/>
			<output>
				<port id="1" precision="FP32">
					<dim>4</dim>
					<dim>64</dim>
					<dim>1</dim>
					<dim>1</dim>
				</port>
			</output>
		</layer>
		<layer id="99" name="625/WithoutBiases" type="Convolution" version="opset1">
			<data dilations="1,1" output_padding="0,0" pads_begin="0,0" pads_end="0,0" strides="1,1"/>
			<input>
				<port id="0">
					<dim>1</dim>
					<dim>64</dim>
					<dim>1</dim>
					<dim>1</dim>
				</port>
				<port id="1">
					<dim>4</dim>
					<dim>64</dim>
					<dim>1</dim>
					<dim>1</dim>
				</port>
			</input>
			<output>
				<port id="2" precision="FP32">
					<dim>1</dim>
					<dim>4</dim>
					<dim>1</dim>
					<dim>1</dim>
				</port>
			</output>
		</layer>
		<layer id="100" name="625/Dims11811/copy_const" type="Const" version="opset1">
			<data element_type="f32" offset="74824" shape="1,4,1,1" size="16"/>
			<output>
				<port id="1" precision="FP32">
					<dim>1</dim>
					<dim>4</dim>
					<dim>1</dim>
					<dim>1</dim>
				</port>
			</output>
		</layer>
		<layer id="101" name="625" type="Add" version="opset1">
			<input>
				<port id="0">
					<dim>1</dim>
					<dim>4</dim>
					<dim>1</dim>
					<dim>1</dim>
				</port>
				<port id="1">
					<dim>1</dim>
					<dim>4</dim>
					<dim>1</dim>
					<dim>1</dim>
				</port>
			</input>
			<output>
				<port id="2" precision="FP32">
					<dim>1</dim>
					<dim>4</dim>
					<dim>1</dim>
					<dim>1</dim>
				</port>
			</output>
		</layer>
		<layer id="102" name="626" type="ReLU" version="opset1">
			<input>
				<port id="0">
					<dim>1</dim>
					<dim>4</dim>
					<dim>1</dim>
					<dim>1</dim>
				</port>
			</input>
			<output>
				<port id="1" precision="FP32">
					<dim>1</dim>
					<dim>4</dim>
					<dim>1</dim>
					<dim>1</dim>
				</port>
			</output>
		</layer>
		<layer id="103" name="Copy_onnx_initializer_node_conv2.0.gate.fc2.weight/Output_0/Data_3881_const" type="Const" version="opset1">
			<data element_type="f32" offset="74840" shape="64,4,1,1" size="1024"/>
			<output>
				<port id="1" precision="FP32">
					<dim>64</dim>
					<dim>4</dim>
					<dim>1</dim>
					<dim>1</dim>
				</port>
			</output>
		</layer>
		<layer id="104" name="627/WithoutBiases" type="Convolution" version="opset1">
			<data dilations="1,1" output_padding="0,0" pads_begin="0,0" pads_end="0,0" strides="1,1"/>
			<input>
				<port id="0">
					<dim>1</dim>
					<dim>4</dim>
					<dim>1</dim>
					<dim>1</dim>
				</port>
				<port id="1">
					<dim>64</dim>
					<dim>4</dim>
					<dim>1</dim>
					<dim>1</dim>
				</port>
			</input>
			<output>
				<port id="2" precision="FP32">
					<dim>1</dim>
					<dim>64</dim>
					<dim>1</dim>
					<dim>1</dim>
				</port>
			</output>
		</layer>
		<layer id="105" name="627/Dims11877/copy_const" type="Const" version="opset1">
			<data element_type="f32" offset="75864" shape="1,64,1,1" size="256"/>
			<output>
				<port id="1" precision="FP32">
					<dim>1</dim>
					<dim>64</dim>
					<dim>1</dim>
					<dim>1</dim>
				</port>
			</output>
		</layer>
		<layer id="106" name="627" type="Add" version="opset1">
			<input>
				<port id="0">
					<dim>1</dim>
					<dim>64</dim>
					<dim>1</dim>
					<dim>1</dim>
				</port>
				<port id="1">
					<dim>1</dim>
					<dim>64</dim>
					<dim>1</dim>
					<dim>1</dim>
				</port>
			</input>
			<output>
				<port id="2" precision="FP32">
					<dim>1</dim>
					<dim>64</dim>
					<dim>1</dim>
					<dim>1</dim>
				</port>
			</output>
		</layer>
		<layer id="107" name="628" type="Sigmoid" version="opset1">
			<input>
				<port id="0">
					<dim>1</dim>
					<dim>64</dim>
					<dim>1</dim>
					<dim>1</dim>
				</port>
			</input>
			<output>
				<port id="1" precision="FP32">
					<dim>1</dim>
					<dim>64</dim>
					<dim>1</dim>
					<dim>1</dim>
				</port>
			</output>
		</layer>
		<layer id="108" name="629" type="Multiply" version="opset1">
			<input>
				<port id="0">
					<dim>1</dim>
					<dim>64</dim>
					<dim>64</dim>
					<dim>32</dim>
				</port>
				<port id="1">
					<dim>1</dim>
					<dim>64</dim>
					<dim>1</dim>
					<dim>1</dim>
				</port>
			</input>
			<output>
				<port id="2" precision="FP32">
					<dim>1</dim>
					<dim>64</dim>
					<dim>64</dim>
					<dim>32</dim>
				</port>
			</output>
		</layer>
		<layer id="109" name="630" type="Add" version="opset1">
			<input>
				<port id="0">
					<dim>1</dim>
					<dim>64</dim>
					<dim>64</dim>
					<dim>32</dim>
				</port>
				<port id="1">
					<dim>1</dim>
					<dim>64</dim>
					<dim>64</dim>
					<dim>32</dim>
				</port>
			</input>
			<output>
				<port id="2" precision="FP32">
					<dim>1</dim>
					<dim>64</dim>
					<dim>64</dim>
					<dim>32</dim>
				</port>
			</output>
		</layer>
		<layer id="110" name="onnx_initializer_node_conv2.0.conv2d.0.conv1.weight/Output_0/Data__const" type="Const" version="opset1">
			<data element_type="f32" offset="170840" shape="64,64,1,1" size="16384"/>
			<output>
				<port id="1" precision="FP32">
					<dim>64</dim>
					<dim>64</dim>
					<dim>1</dim>
					<dim>1</dim>
				</port>
			</output>
		</layer>
		<layer id="111" name="595" type="Convolution" version="opset1">
			<data dilations="1,1" output_padding="0,0" pads_begin="0,0" pads_end="0,0" strides="1,1"/>
			<input>
				<port id="0">
					<dim>1</dim>
					<dim>64</dim>
					<dim>64</dim>
					<dim>32</dim>
				</port>
				<port id="1">
					<dim>64</dim>
					<dim>64</dim>
					<dim>1</dim>
					<dim>1</dim>
				</port>
			</input>
			<output>
				<port id="2" precision="FP32">
					<dim>1</dim>
					<dim>64</dim>
					<dim>64</dim>
					<dim>32</dim>
				</port>
			</output>
		</layer>
		<layer id="112" name="3483934842_const" type="Const" version="opset1">
			<data element_type="f32" offset="187224" shape="64,1,1,3,3" size="2304"/>
			<output>
				<port id="1" precision="FP32">
					<dim>64</dim>
					<dim>1</dim>
					<dim>1</dim>
					<dim>3</dim>
					<dim>3</dim>
				</port>
			</output>
		</layer>
		<layer id="113" name="596" type="GroupConvolution" version="opset1">
			<data dilations="1,1" output_padding="0,0" pads_begin="1,1" pads_end="1,1" strides="1,1"/>
			<input>
				<port id="0">
					<dim>1</dim>
					<dim>64</dim>
					<dim>64</dim>
					<dim>32</dim>
				</port>
				<port id="1">
					<dim>64</dim>
					<dim>1</dim>
					<dim>1</dim>
					<dim>3</dim>
					<dim>3</dim>
				</port>
			</input>
			<output>
				<port id="2" precision="FP32">
					<dim>1</dim>
					<dim>64</dim>
					<dim>64</dim>
					<dim>32</dim>
				</port>
			</output>
		</layer>
		<layer id="114" name="data_add_1951619521/copy_const" type="Const" version="opset1">
			<data element_type="f32" offset="189528" shape="1,64,1,1" size="256"/>
			<output>
				<port id="1" precision="FP32">
					<dim>1</dim>
					<dim>64</dim>
					<dim>1</dim>
					<dim>1</dim>
				</port>
			</output>
		</layer>
		<layer id="115" name="597/variance/Fused_Add_" type="Add" version="opset1">
			<input>
				<port id="0">
					<dim>1</dim>
					<dim>64</dim>
					<dim>64</dim>
					<dim>32</dim>
				</port>
				<port id="1">
					<dim>1</dim>
					<dim>64</dim>
					<dim>1</dim>
					<dim>1</dim>
				</port>
			</input>
			<output>
				<port id="2" precision="FP32">
					<dim>1</dim>
					<dim>64</dim>
					<dim>64</dim>
					<dim>32</dim>
				</port>
			</output>
		</layer>
		<layer id="116" name="598" type="ReLU" version="opset1">
			<input>
				<port id="0">
					<dim>1</dim>
					<dim>64</dim>
					<dim>64</dim>
					<dim>32</dim>
				</port>
			</input>
			<output>
				<port id="1" precision="FP32">
					<dim>1</dim>
					<dim>64</dim>
					<dim>64</dim>
					<dim>32</dim>
				</port>
			</output>
		</layer>
		<layer id="117" name="onnx_initializer_node_conv2.0.conv2d.1.conv1.weight/Output_0/Data__const" type="Const" version="opset1">
			<data element_type="f32" offset="189784" shape="64,64,1,1" size="16384"/>
			<output>
				<port id="1" precision="FP32">
					<dim>64</dim>
					<dim>64</dim>
					<dim>1</dim>
					<dim>1</dim>
				</port>
			</output>
		</layer>
		<layer id="118" name="599" type="Convolution" version="opset1">
			<data dilations="1,1" output_padding="0,0" pads_begin="0,0" pads_end="0,0" strides="1,1"/>
			<input>
				<port id="0">
					<dim>1</dim>
					<dim>64</dim>
					<dim>64</dim>
					<dim>32</dim>
				</port>
				<port id="1">
					<dim>64</dim>
					<dim>64</dim>
					<dim>1</dim>
					<dim>1</dim>
				</port>
			</input>
			<output>
				<port id="2" precision="FP32">
					<dim>1</dim>
					<dim>64</dim>
					<dim>64</dim>
					<dim>32</dim>
				</port>
			</output>
		</layer>
		<layer id="119" name="3507135074_const" type="Const" version="opset1">
			<data element_type="f32" offset="206168" shape="64,1,1,3,3" size="2304"/>
			<output>
				<port id="1" precision="FP32">
					<dim>64</dim>
					<dim>1</dim>
					<dim>1</dim>
					<dim>3</dim>
					<dim>3</dim>
				</port>
			</output>
		</layer>
		<layer id="120" name="600" type="GroupConvolution" version="opset1">
			<data dilations="1,1" output_padding="0,0" pads_begin="1,1" pads_end="1,1" strides="1,1"/>
			<input>
				<port id="0">
					<dim>1</dim>
					<dim>64</dim>
					<dim>64</dim>
					<dim>32</dim>
				</port>
				<port id="1">
					<dim>64</dim>
					<dim>1</dim>
					<dim>1</dim>
					<dim>3</dim>
					<dim>3</dim>
				</port>
			</input>
			<output>
				<port id="2" precision="FP32">
					<dim>1</dim>
					<dim>64</dim>
					<dim>64</dim>
					<dim>32</dim>
				</port>
			</output>
		</layer>
		<layer id="121" name="data_add_1952419529/copy_const" type="Const" version="opset1">
			<data element_type="f32" offset="208472" shape="1,64,1,1" size="256"/>
			<output>
				<port id="1" precision="FP32">
					<dim>1</dim>
					<dim>64</dim>
					<dim>1</dim>
					<dim>1</dim>
				</port>
			</output>
		</layer>
		<layer id="122" name="601/variance/Fused_Add_" type="Add" version="opset1">
			<input>
				<port id="0">
					<dim>1</dim>
					<dim>64</dim>
					<dim>64</dim>
					<dim>32</dim>
				</port>
				<port id="1">
					<dim>1</dim>
					<dim>64</dim>
					<dim>1</dim>
					<dim>1</dim>
				</port>
			</input>
			<output>
				<port id="2" precision="FP32">
					<dim>1</dim>
					<dim>64</dim>
					<dim>64</dim>
					<dim>32</dim>
				</port>
			</output>
		</layer>
		<layer id="123" name="602" type="ReLU" version="opset1">
			<input>
				<port id="0">
					<dim>1</dim>
					<dim>64</dim>
					<dim>64</dim>
					<dim>32</dim>
				</port>
			</input>
			<output>
				<port id="1" precision="FP32">
					<dim>1</dim>
					<dim>64</dim>
					<dim>64</dim>
					<dim>32</dim>
				</port>
			</output>
		</layer>
		<layer id="124" name="onnx_initializer_node_conv2.0.conv2d.2.conv1.weight/Output_0/Data__const" type="Const" version="opset1">
			<data element_type="f32" offset="208728" shape="64,64,1,1" size="16384"/>
			<output>
				<port id="1" precision="FP32">
					<dim>64</dim>
					<dim>64</dim>
					<dim>1</dim>
					<dim>1</dim>
				</port>
			</output>
		</layer>
		<layer id="125" name="603" type="Convolution" version="opset1">
			<data dilations="1,1" output_padding="0,0" pads_begin="0,0" pads_end="0,0" strides="1,1"/>
			<input>
				<port id="0">
					<dim>1</dim>
					<dim>64</dim>
					<dim>64</dim>
					<dim>32</dim>
				</port>
				<port id="1">
					<dim>64</dim>
					<dim>64</dim>
					<dim>1</dim>
					<dim>1</dim>
				</port>
			</input>
			<output>
				<port id="2" precision="FP32">
					<dim>1</dim>
					<dim>64</dim>
					<dim>64</dim>
					<dim>32</dim>
				</port>
			</output>
		</layer>
		<layer id="126" name="3506735070_const" type="Const" version="opset1">
			<data element_type="f32" offset="225112" shape="64,1,1,3,3" size="2304"/>
			<output>
				<port id="1" precision="FP32">
					<dim>64</dim>
					<dim>1</dim>
					<dim>1</dim>
					<dim>3</dim>
					<dim>3</dim>
				</port>
			</output>
		</layer>
		<layer id="127" name="604" type="GroupConvolution" version="opset1">
			<data dilations="1,1" output_padding="0,0" pads_begin="1,1" pads_end="1,1" strides="1,1"/>
			<input>
				<port id="0">
					<dim>1</dim>
					<dim>64</dim>
					<dim>64</dim>
					<dim>32</dim>
				</port>
				<port id="1">
					<dim>64</dim>
					<dim>1</dim>
					<dim>1</dim>
					<dim>3</dim>
					<dim>3</dim>
				</port>
			</input>
			<output>
				<port id="2" precision="FP32">
					<dim>1</dim>
					<dim>64</dim>
					<dim>64</dim>
					<dim>32</dim>
				</port>
			</output>
		</layer>
		<layer id="128" name="data_add_1953219537/copy_const" type="Const" version="opset1">
			<data element_type="f32" offset="227416" shape="1,64,1,1" size="256"/>
			<output>
				<port id="1" precision="FP32">
					<dim>1</dim>
					<dim>64</dim>
					<dim>1</dim>
					<dim>1</dim>
				</port>
			</output>
		</layer>
		<layer id="129" name="605/variance/Fused_Add_" type="Add" version="opset1">
			<input>
				<port id="0">
					<dim>1</dim>
					<dim>64</dim>
					<dim>64</dim>
					<dim>32</dim>
				</port>
				<port id="1">
					<dim>1</dim>
					<dim>64</dim>
					<dim>1</dim>
					<dim>1</dim>
				</port>
			</input>
			<output>
				<port id="2" precision="FP32">
					<dim>1</dim>
					<dim>64</dim>
					<dim>64</dim>
					<dim>32</dim>
				</port>
			</output>
		</layer>
		<layer id="130" name="606" type="ReLU" version="opset1">
			<input>
				<port id="0">
					<dim>1</dim>
					<dim>64</dim>
					<dim>64</dim>
					<dim>32</dim>
				</port>
			</input>
			<output>
				<port id="1" precision="FP32">
					<dim>1</dim>
					<dim>64</dim>
					<dim>64</dim>
					<dim>32</dim>
				</port>
			</output>
		</layer>
		<layer id="131" name="onnx_initializer_node_conv2.0.conv2d.3.conv1.weight/Output_0/Data__const" type="Const" version="opset1">
			<data element_type="f32" offset="227672" shape="64,64,1,1" size="16384"/>
			<output>
				<port id="1" precision="FP32">
					<dim>64</dim>
					<dim>64</dim>
					<dim>1</dim>
					<dim>1</dim>
				</port>
			</output>
		</layer>
		<layer id="132" name="607" type="Convolution" version="opset1">
			<data dilations="1,1" output_padding="0,0" pads_begin="0,0" pads_end="0,0" strides="1,1"/>
			<input>
				<port id="0">
					<dim>1</dim>
					<dim>64</dim>
					<dim>64</dim>
					<dim>32</dim>
				</port>
				<port id="1">
					<dim>64</dim>
					<dim>64</dim>
					<dim>1</dim>
					<dim>1</dim>
				</port>
			</input>
			<output>
				<port id="2" precision="FP32">
					<dim>1</dim>
					<dim>64</dim>
					<dim>64</dim>
					<dim>32</dim>
				</port>
			</output>
		</layer>
		<layer id="133" name="3491934922_const" type="Const" version="opset1">
			<data element_type="f32" offset="244056" shape="64,1,1,3,3" size="2304"/>
			<output>
				<port id="1" precision="FP32">
					<dim>64</dim>
					<dim>1</dim>
					<dim>1</dim>
					<dim>3</dim>
					<dim>3</dim>
				</port>
			</output>
		</layer>
		<layer id="134" name="608" type="GroupConvolution" version="opset1">
			<data dilations="1,1" output_padding="0,0" pads_begin="1,1" pads_end="1,1" strides="1,1"/>
			<input>
				<port id="0">
					<dim>1</dim>
					<dim>64</dim>
					<dim>64</dim>
					<dim>32</dim>
				</port>
				<port id="1">
					<dim>64</dim>
					<dim>1</dim>
					<dim>1</dim>
					<dim>3</dim>
					<dim>3</dim>
				</port>
			</input>
			<output>
				<port id="2" precision="FP32">
					<dim>1</dim>
					<dim>64</dim>
					<dim>64</dim>
					<dim>32</dim>
				</port>
			</output>
		</layer>
		<layer id="135" name="data_add_1954019545/copy_const" type="Const" version="opset1">
			<data element_type="f32" offset="246360" shape="1,64,1,1" size="256"/>
			<output>
				<port id="1" precision="FP32">
					<dim>1</dim>
					<dim>64</dim>
					<dim>1</dim>
					<dim>1</dim>
				</port>
			</output>
		</layer>
		<layer id="136" name="609/variance/Fused_Add_" type="Add" version="opset1">
			<input>
				<port id="0">
					<dim>1</dim>
					<dim>64</dim>
					<dim>64</dim>
					<dim>32</dim>
				</port>
				<port id="1">
					<dim>1</dim>
					<dim>64</dim>
					<dim>1</dim>
					<dim>1</dim>
				</port>
			</input>
			<output>
				<port id="2" precision="FP32">
					<dim>1</dim>
					<dim>64</dim>
					<dim>64</dim>
					<dim>32</dim>
				</port>
			</output>
		</layer>
		<layer id="137" name="610" type="ReLU" version="opset1">
			<input>
				<port id="0">
					<dim>1</dim>
					<dim>64</dim>
					<dim>64</dim>
					<dim>32</dim>
				</port>
			</input>
			<output>
				<port id="1" precision="FP32">
					<dim>1</dim>
					<dim>64</dim>
					<dim>64</dim>
					<dim>32</dim>
				</port>
			</output>
		</layer>
		<layer id="138" name="631/reduce/Cast_135900_const" type="Const" version="opset1">
			<data element_type="i64" offset="73784" shape="2" size="16"/>
			<output>
				<port id="1" precision="I64">
					<dim>2</dim>
				</port>
			</output>
		</layer>
		<layer id="139" name="631/reduce" type="ReduceMean" version="opset1">
			<data keep_dims="True"/>
			<input>
				<port id="0">
					<dim>1</dim>
					<dim>64</dim>
					<dim>64</dim>
					<dim>32</dim>
				</port>
				<port id="1">
					<dim>2</dim>
				</port>
			</input>
			<output>
				<port id="2" precision="FP32">
					<dim>1</dim>
					<dim>64</dim>
					<dim>1</dim>
					<dim>1</dim>
				</port>
			</output>
		</layer>
		<layer id="140" name="Copy_onnx_initializer_node_conv2.0.gate.fc1.weight/Output_0/Data_3874_const" type="Const" version="opset1">
			<data element_type="f32" offset="73800" shape="4,64,1,1" size="1024"/>
			<output>
				<port id="1" precision="FP32">
					<dim>4</dim>
					<dim>64</dim>
					<dim>1</dim>
					<dim>1</dim>
				</port>
			</output>
		</layer>
		<layer id="141" name="632/WithoutBiases" type="Convolution" version="opset1">
			<data dilations="1,1" output_padding="0,0" pads_begin="0,0" pads_end="0,0" strides="1,1"/>
			<input>
				<port id="0">
					<dim>1</dim>
					<dim>64</dim>
					<dim>1</dim>
					<dim>1</dim>
				</port>
				<port id="1">
					<dim>4</dim>
					<dim>64</dim>
					<dim>1</dim>
					<dim>1</dim>
				</port>
			</input>
			<output>
				<port id="2" precision="FP32">
					<dim>1</dim>
					<dim>4</dim>
					<dim>1</dim>
					<dim>1</dim>
				</port>
			</output>
		</layer>
		<layer id="142" name="632/Dims11913/copy_const" type="Const" version="opset1">
			<data element_type="f32" offset="74824" shape="1,4,1,1" size="16"/>
			<output>
				<port id="1" precision="FP32">
					<dim>1</dim>
					<dim>4</dim>
					<dim>1</dim>
					<dim>1</dim>
				</port>
			</output>
		</layer>
		<layer id="143" name="632" type="Add" version="opset1">
			<input>
				<port id="0">
					<dim>1</dim>
					<dim>4</dim>
					<dim>1</dim>
					<dim>1</dim>
				</port>
				<port id="1">
					<dim>1</dim>
					<dim>4</dim>
					<dim>1</dim>
					<dim>1</dim>
				</port>
			</input>
			<output>
				<port id="2" precision="FP32">
					<dim>1</dim>
					<dim>4</dim>
					<dim>1</dim>
					<dim>1</dim>
				</port>
			</output>
		</layer>
		<layer id="144" name="633" type="ReLU" version="opset1">
			<input>
				<port id="0">
					<dim>1</dim>
					<dim>4</dim>
					<dim>1</dim>
					<dim>1</dim>
				</port>
			</input>
			<output>
				<port id="1" precision="FP32">
					<dim>1</dim>
					<dim>4</dim>
					<dim>1</dim>
					<dim>1</dim>
				</port>
			</output>
		</layer>
		<layer id="145" name="Copy_onnx_initializer_node_conv2.0.gate.fc2.weight/Output_0/Data_3882_const" type="Const" version="opset1">
			<data element_type="f32" offset="74840" shape="64,4,1,1" size="1024"/>
			<output>
				<port id="1" precision="FP32">
					<dim>64</dim>
					<dim>4</dim>
					<dim>1</dim>
					<dim>1</dim>
				</port>
			</output>
		</layer>
		<layer id="146" name="634/WithoutBiases" type="Convolution" version="opset1">
			<data dilations="1,1" output_padding="0,0" pads_begin="0,0" pads_end="0,0" strides="1,1"/>
			<input>
				<port id="0">
					<dim>1</dim>
					<dim>4</dim>
					<dim>1</dim>
					<dim>1</dim>
				</port>
				<port id="1">
					<dim>64</dim>
					<dim>4</dim>
					<dim>1</dim>
					<dim>1</dim>
				</port>
			</input>
			<output>
				<port id="2" precision="FP32">
					<dim>1</dim>
					<dim>64</dim>
					<dim>1</dim>
					<dim>1</dim>
				</port>
			</output>
		</layer>
		<layer id="147" name="634/Dims11799/copy_const" type="Const" version="opset1">
			<data element_type="f32" offset="75864" shape="1,64,1,1" size="256"/>
			<output>
				<port id="1" precision="FP32">
					<dim>1</dim>
					<dim>64</dim>
					<dim>1</dim>
					<dim>1</dim>
				</port>
			</output>
		</layer>
		<layer id="148" name="634" type="Add" version="opset1">
			<input>
				<port id="0">
					<dim>1</dim>
					<dim>64</dim>
					<dim>1</dim>
					<dim>1</dim>
				</port>
				<port id="1">
					<dim>1</dim>
					<dim>64</dim>
					<dim>1</dim>
					<dim>1</dim>
				</port>
			</input>
			<output>
				<port id="2" precision="FP32">
					<dim>1</dim>
					<dim>64</dim>
					<dim>1</dim>
					<dim>1</dim>
				</port>
			</output>
		</layer>
		<layer id="149" name="635" type="Sigmoid" version="opset1">
			<input>
				<port id="0">
					<dim>1</dim>
					<dim>64</dim>
					<dim>1</dim>
					<dim>1</dim>
				</port>
			</input>
			<output>
				<port id="1" precision="FP32">
					<dim>1</dim>
					<dim>64</dim>
					<dim>1</dim>
					<dim>1</dim>
				</port>
			</output>
		</layer>
		<layer id="150" name="636" type="Multiply" version="opset1">
			<input>
				<port id="0">
					<dim>1</dim>
					<dim>64</dim>
					<dim>64</dim>
					<dim>32</dim>
				</port>
				<port id="1">
					<dim>1</dim>
					<dim>64</dim>
					<dim>1</dim>
					<dim>1</dim>
				</port>
			</input>
			<output>
				<port id="2" precision="FP32">
					<dim>1</dim>
					<dim>64</dim>
					<dim>64</dim>
					<dim>32</dim>
				</port>
			</output>
		</layer>
		<layer id="151" name="637" type="Add" version="opset1">
			<input>
				<port id="0">
					<dim>1</dim>
					<dim>64</dim>
					<dim>64</dim>
					<dim>32</dim>
				</port>
				<port id="1">
					<dim>1</dim>
					<dim>64</dim>
					<dim>64</dim>
					<dim>32</dim>
				</port>
			</input>
			<output>
				<port id="2" precision="FP32">
					<dim>1</dim>
					<dim>64</dim>
					<dim>64</dim>
					<dim>32</dim>
				</port>
			</output>
		</layer>
		<layer id="152" name="639/mean/Fused_Mul_2125621258_const" type="Const" version="opset1">
			<data element_type="f32" offset="246616" shape="256,64,1,1" size="65536"/>
			<output>
				<port id="1" precision="FP32">
					<dim>256</dim>
					<dim>64</dim>
					<dim>1</dim>
					<dim>1</dim>
				</port>
			</output>
		</layer>
		<layer id="153" name="638" type="Convolution" version="opset1">
			<data dilations="1,1" output_padding="0,0" pads_begin="0,0" pads_end="0,0" strides="1,1"/>
			<input>
				<port id="0">
					<dim>1</dim>
					<dim>64</dim>
					<dim>64</dim>
					<dim>32</dim>
				</port>
				<port id="1">
					<dim>256</dim>
					<dim>64</dim>
					<dim>1</dim>
					<dim>1</dim>
				</port>
			</input>
			<output>
				<port id="2" precision="FP32">
					<dim>1</dim>
					<dim>256</dim>
					<dim>64</dim>
					<dim>32</dim>
				</port>
			</output>
		</layer>
		<layer id="154" name="data_add_1959619601/copy_const" type="Const" version="opset1">
			<data element_type="f32" offset="312152" shape="1,256,1,1" size="1024"/>
			<output>
				<port id="1" precision="FP32">
					<dim>1</dim>
					<dim>256</dim>
					<dim>1</dim>
					<dim>1</dim>
				</port>
			</output>
		</layer>
		<layer id="155" name="639/variance/Fused_Add_" type="Add" version="opset1">
			<input>
				<port id="0">
					<dim>1</dim>
					<dim>256</dim>
					<dim>64</dim>
					<dim>32</dim>
				</port>
				<port id="1">
					<dim>1</dim>
					<dim>256</dim>
					<dim>1</dim>
					<dim>1</dim>
				</port>
			</input>
			<output>
				<port id="2" precision="FP32">
					<dim>1</dim>
					<dim>256</dim>
					<dim>64</dim>
					<dim>32</dim>
				</port>
			</output>
		</layer>
		<layer id="156" name="641/mean/Fused_Mul_2120821210_const" type="Const" version="opset1">
			<data element_type="f32" offset="313176" shape="256,64,1,1" size="65536"/>
			<output>
				<port id="1" precision="FP32">
					<dim>256</dim>
					<dim>64</dim>
					<dim>1</dim>
					<dim>1</dim>
				</port>
			</output>
		</layer>
		<layer id="157" name="640" type="Convolution" version="opset1">
			<data dilations="1,1" output_padding="0,0" pads_begin="0,0" pads_end="0,0" strides="1,1"/>
			<input>
				<port id="0">
					<dim>1</dim>
					<dim>64</dim>
					<dim>64</dim>
					<dim>32</dim>
				</port>
				<port id="1">
					<dim>256</dim>
					<dim>64</dim>
					<dim>1</dim>
					<dim>1</dim>
				</port>
			</input>
			<output>
				<port id="2" precision="FP32">
					<dim>1</dim>
					<dim>256</dim>
					<dim>64</dim>
					<dim>32</dim>
				</port>
			</output>
		</layer>
		<layer id="158" name="data_add_1950019505/copy_const" type="Const" version="opset1">
			<data element_type="f32" offset="378712" shape="1,256,1,1" size="1024"/>
			<output>
				<port id="1" precision="FP32">
					<dim>1</dim>
					<dim>256</dim>
					<dim>1</dim>
					<dim>1</dim>
				</port>
			</output>
		</layer>
		<layer id="159" name="641/variance/Fused_Add_" type="Add" version="opset1">
			<input>
				<port id="0">
					<dim>1</dim>
					<dim>256</dim>
					<dim>64</dim>
					<dim>32</dim>
				</port>
				<port id="1">
					<dim>1</dim>
					<dim>256</dim>
					<dim>1</dim>
					<dim>1</dim>
				</port>
			</input>
			<output>
				<port id="2" precision="FP32">
					<dim>1</dim>
					<dim>256</dim>
					<dim>64</dim>
					<dim>32</dim>
				</port>
			</output>
		</layer>
		<layer id="160" name="642" type="Add" version="opset1">
			<input>
				<port id="0">
					<dim>1</dim>
					<dim>256</dim>
					<dim>64</dim>
					<dim>32</dim>
				</port>
				<port id="1">
					<dim>1</dim>
					<dim>256</dim>
					<dim>64</dim>
					<dim>32</dim>
				</port>
			</input>
			<output>
				<port id="2" precision="FP32">
					<dim>1</dim>
					<dim>256</dim>
					<dim>64</dim>
					<dim>32</dim>
				</port>
			</output>
		</layer>
		<layer id="161" name="643" type="ReLU" version="opset1">
			<input>
				<port id="0">
					<dim>1</dim>
					<dim>256</dim>
					<dim>64</dim>
					<dim>32</dim>
				</port>
			</input>
			<output>
				<port id="1" precision="FP32">
					<dim>1</dim>
					<dim>256</dim>
					<dim>64</dim>
					<dim>32</dim>
				</port>
			</output>
		</layer>
		<layer id="162" name="645/mean/Fused_Mul_2126021262_const" type="Const" version="opset1">
			<data element_type="f32" offset="379736" shape="64,256,1,1" size="65536"/>
			<output>
				<port id="1" precision="FP32">
					<dim>64</dim>
					<dim>256</dim>
					<dim>1</dim>
					<dim>1</dim>
				</port>
			</output>
		</layer>
		<layer id="163" name="644" type="Convolution" version="opset1">
			<data dilations="1,1" output_padding="0,0" pads_begin="0,0" pads_end="0,0" strides="1,1"/>
			<input>
				<port id="0">
					<dim>1</dim>
					<dim>256</dim>
					<dim>64</dim>
					<dim>32</dim>
				</port>
				<port id="1">
					<dim>64</dim>
					<dim>256</dim>
					<dim>1</dim>
					<dim>1</dim>
				</port>
			</input>
			<output>
				<port id="2" precision="FP32">
					<dim>1</dim>
					<dim>64</dim>
					<dim>64</dim>
					<dim>32</dim>
				</port>
			</output>
		</layer>
		<layer id="164" name="data_add_1960419609/copy_const" type="Const" version="opset1">
			<data element_type="f32" offset="445272" shape="1,64,1,1" size="256"/>
			<output>
				<port id="1" precision="FP32">
					<dim>1</dim>
					<dim>64</dim>
					<dim>1</dim>
					<dim>1</dim>
				</port>
			</output>
		</layer>
		<layer id="165" name="645/variance/Fused_Add_" type="Add" version="opset1">
			<input>
				<port id="0">
					<dim>1</dim>
					<dim>64</dim>
					<dim>64</dim>
					<dim>32</dim>
				</port>
				<port id="1">
					<dim>1</dim>
					<dim>64</dim>
					<dim>1</dim>
					<dim>1</dim>
				</port>
			</input>
			<output>
				<port id="2" precision="FP32">
					<dim>1</dim>
					<dim>64</dim>
					<dim>64</dim>
					<dim>32</dim>
				</port>
			</output>
		</layer>
		<layer id="166" name="646" type="ReLU" version="opset1">
			<input>
				<port id="0">
					<dim>1</dim>
					<dim>64</dim>
					<dim>64</dim>
					<dim>32</dim>
				</port>
			</input>
			<output>
				<port id="1" precision="FP32">
					<dim>1</dim>
					<dim>64</dim>
					<dim>64</dim>
					<dim>32</dim>
				</port>
			</output>
		</layer>
		<layer id="167" name="onnx_initializer_node_conv2.1.conv2a.conv1.weight/Output_0/Data__const" type="Const" version="opset1">
			<data element_type="f32" offset="445528" shape="64,64,1,1" size="16384"/>
			<output>
				<port id="1" precision="FP32">
					<dim>64</dim>
					<dim>64</dim>
					<dim>1</dim>
					<dim>1</dim>
				</port>
			</output>
		</layer>
		<layer id="168" name="647" type="Convolution" version="opset1">
			<data dilations="1,1" output_padding="0,0" pads_begin="0,0" pads_end="0,0" strides="1,1"/>
			<input>
				<port id="0">
					<dim>1</dim>
					<dim>64</dim>
					<dim>64</dim>
					<dim>32</dim>
				</port>
				<port id="1">
					<dim>64</dim>
					<dim>64</dim>
					<dim>1</dim>
					<dim>1</dim>
				</port>
			</input>
			<output>
				<port id="2" precision="FP32">
					<dim>1</dim>
					<dim>64</dim>
					<dim>64</dim>
					<dim>32</dim>
				</port>
			</output>
		</layer>
		<layer id="169" name="3497134974_const" type="Const" version="opset1">
			<data element_type="f32" offset="461912" shape="64,1,1,3,3" size="2304"/>
			<output>
				<port id="1" precision="FP32">
					<dim>64</dim>
					<dim>1</dim>
					<dim>1</dim>
					<dim>3</dim>
					<dim>3</dim>
				</port>
			</output>
		</layer>
		<layer id="170" name="648" type="GroupConvolution" version="opset1">
			<data dilations="1,1" output_padding="0,0" pads_begin="1,1" pads_end="1,1" strides="1,1"/>
			<input>
				<port id="0">
					<dim>1</dim>
					<dim>64</dim>
					<dim>64</dim>
					<dim>32</dim>
				</port>
				<port id="1">
					<dim>64</dim>
					<dim>1</dim>
					<dim>1</dim>
					<dim>3</dim>
					<dim>3</dim>
				</port>
			</input>
			<output>
				<port id="2" precision="FP32">
					<dim>1</dim>
					<dim>64</dim>
					<dim>64</dim>
					<dim>32</dim>
				</port>
			</output>
		</layer>
		<layer id="171" name="data_add_1968419689/copy_const" type="Const" version="opset1">
			<data element_type="f32" offset="464216" shape="1,64,1,1" size="256"/>
			<output>
				<port id="1" precision="FP32">
					<dim>1</dim>
					<dim>64</dim>
					<dim>1</dim>
					<dim>1</dim>
				</port>
			</output>
		</layer>
		<layer id="172" name="649/variance/Fused_Add_" type="Add" version="opset1">
			<input>
				<port id="0">
					<dim>1</dim>
					<dim>64</dim>
					<dim>64</dim>
					<dim>32</dim>
				</port>
				<port id="1">
					<dim>1</dim>
					<dim>64</dim>
					<dim>1</dim>
					<dim>1</dim>
				</port>
			</input>
			<output>
				<port id="2" precision="FP32">
					<dim>1</dim>
					<dim>64</dim>
					<dim>64</dim>
					<dim>32</dim>
				</port>
			</output>
		</layer>
		<layer id="173" name="650" type="ReLU" version="opset1">
			<input>
				<port id="0">
					<dim>1</dim>
					<dim>64</dim>
					<dim>64</dim>
					<dim>32</dim>
				</port>
			</input>
			<output>
				<port id="1" precision="FP32">
					<dim>1</dim>
					<dim>64</dim>
					<dim>64</dim>
					<dim>32</dim>
				</port>
			</output>
		</layer>
		<layer id="174" name="687/reduce/Cast_135852_const" type="Const" version="opset1">
			<data element_type="i64" offset="73784" shape="2" size="16"/>
			<output>
				<port id="1" precision="I64">
					<dim>2</dim>
				</port>
			</output>
		</layer>
		<layer id="175" name="687/reduce" type="ReduceMean" version="opset1">
			<data keep_dims="True"/>
			<input>
				<port id="0">
					<dim>1</dim>
					<dim>64</dim>
					<dim>64</dim>
					<dim>32</dim>
				</port>
				<port id="1">
					<dim>2</dim>
				</port>
			</input>
			<output>
				<port id="2" precision="FP32">
					<dim>1</dim>
					<dim>64</dim>
					<dim>1</dim>
					<dim>1</dim>
				</port>
			</output>
		</layer>
		<layer id="176" name="689/Cast_135918_const" type="Const" version="opset1">
			<data element_type="i64" offset="464472" shape="4" size="32"/>
			<output>
				<port id="1" precision="I64">
					<dim>4</dim>
				</port>
			</output>
		</layer>
		<layer id="177" name="689" type="Reshape" version="opset1">
			<data special_zero="True"/>
			<input>
				<port id="0">
					<dim>1</dim>
					<dim>64</dim>
					<dim>1</dim>
					<dim>1</dim>
				</port>
				<port id="1">
					<dim>4</dim>
				</port>
			</input>
			<output>
				<port id="2" precision="FP32">
					<dim>1</dim>
					<dim>16</dim>
					<dim>4</dim>
					<dim>1</dim>
				</port>
			</output>
		</layer>
		<layer id="178" name="691/Cast_135834_const" type="Const" version="opset1">
			<data element_type="i64" offset="464504" shape="4" size="32"/>
			<output>
				<port id="1" precision="I64">
					<dim>4</dim>
				</port>
			</output>
		</layer>
		<layer id="179" name="691" type="Reshape" version="opset1">
			<data special_zero="True"/>
			<input>
				<port id="0">
					<dim>1</dim>
					<dim>16</dim>
					<dim>4</dim>
					<dim>1</dim>
				</port>
				<port id="1">
					<dim>4</dim>
				</port>
			</input>
			<output>
				<port id="2" precision="FP32">
					<dim>1</dim>
					<dim>16</dim>
					<dim>4</dim>
					<dim>1</dim>
				</port>
			</output>
		</layer>
		<layer id="180" name="692" type="MVN" version="opset2">
			<data across_channels="0" eps="1e-09" normalize_variance="1"/>
			<input>
				<port id="0">
					<dim>1</dim>
					<dim>16</dim>
					<dim>4</dim>
					<dim>1</dim>
				</port>
			</input>
			<output>
				<port id="1" precision="FP32">
					<dim>1</dim>
					<dim>16</dim>
					<dim>4</dim>
					<dim>1</dim>
				</port>
			</output>
		</layer>
		<layer id="181" name="694/Cast_135906_const" type="Const" version="opset1">
			<data element_type="i64" offset="464536" shape="4" size="32"/>
			<output>
				<port id="1" precision="I64">
					<dim>4</dim>
				</port>
			</output>
		</layer>
		<layer id="182" name="694" type="Reshape" version="opset1">
			<data special_zero="True"/>
			<input>
				<port id="0">
					<dim>1</dim>
					<dim>16</dim>
					<dim>4</dim>
					<dim>1</dim>
				</port>
				<port id="1">
					<dim>4</dim>
				</port>
			</input>
			<output>
				<port id="2" precision="FP32">
					<dim>1</dim>
					<dim>64</dim>
					<dim>1</dim>
					<dim>1</dim>
				</port>
			</output>
		</layer>
		<layer id="183" name="696/Output_0/Data__const" type="Const" version="opset1">
			<data element_type="f32" offset="464568" shape="1,64,1,1" size="256"/>
			<output>
				<port id="1" precision="FP32">
					<dim>1</dim>
					<dim>64</dim>
					<dim>1</dim>
					<dim>1</dim>
				</port>
			</output>
		</layer>
		<layer id="184" name="697" type="Multiply" version="opset1">
			<input>
				<port id="0">
					<dim>1</dim>
					<dim>64</dim>
					<dim>1</dim>
					<dim>1</dim>
				</port>
				<port id="1">
					<dim>1</dim>
					<dim>64</dim>
					<dim>1</dim>
					<dim>1</dim>
				</port>
			</input>
			<output>
				<port id="2" precision="FP32">
					<dim>1</dim>
					<dim>64</dim>
					<dim>1</dim>
					<dim>1</dim>
				</port>
			</output>
		</layer>
		<layer id="185" name="699/Output_0/Data__const" type="Const" version="opset1">
			<data element_type="f32" offset="464824" shape="1,64,1,1" size="256"/>
			<output>
				<port id="1" precision="FP32">
					<dim>1</dim>
					<dim>64</dim>
					<dim>1</dim>
					<dim>1</dim>
				</port>
			</output>
		</layer>
		<layer id="186" name="700" type="Add" version="opset1">
			<input>
				<port id="0">
					<dim>1</dim>
					<dim>64</dim>
					<dim>1</dim>
					<dim>1</dim>
				</port>
				<port id="1">
					<dim>1</dim>
					<dim>64</dim>
					<dim>1</dim>
					<dim>1</dim>
				</port>
			</input>
			<output>
				<port id="2" precision="FP32">
					<dim>1</dim>
					<dim>64</dim>
					<dim>1</dim>
					<dim>1</dim>
				</port>
			</output>
		</layer>
		<layer id="187" name="701" type="Sigmoid" version="opset1">
			<input>
				<port id="0">
					<dim>1</dim>
					<dim>64</dim>
					<dim>1</dim>
					<dim>1</dim>
				</port>
			</input>
			<output>
				<port id="1" precision="FP32">
					<dim>1</dim>
					<dim>64</dim>
					<dim>1</dim>
					<dim>1</dim>
				</port>
			</output>
		</layer>
		<layer id="188" name="702" type="Multiply" version="opset1">
			<input>
				<port id="0">
					<dim>1</dim>
					<dim>64</dim>
					<dim>64</dim>
					<dim>32</dim>
				</port>
				<port id="1">
					<dim>1</dim>
					<dim>64</dim>
					<dim>1</dim>
					<dim>1</dim>
				</port>
			</input>
			<output>
				<port id="2" precision="FP32">
					<dim>1</dim>
					<dim>64</dim>
					<dim>64</dim>
					<dim>32</dim>
				</port>
			</output>
		</layer>
		<layer id="189" name="onnx_initializer_node_conv2.1.conv2b.0.conv1.weight/Output_0/Data__const" type="Const" version="opset1">
			<data element_type="f32" offset="465080" shape="64,64,1,1" size="16384"/>
			<output>
				<port id="1" precision="FP32">
					<dim>64</dim>
					<dim>64</dim>
					<dim>1</dim>
					<dim>1</dim>
				</port>
			</output>
		</layer>
		<layer id="190" name="651" type="Convolution" version="opset1">
			<data dilations="1,1" output_padding="0,0" pads_begin="0,0" pads_end="0,0" strides="1,1"/>
			<input>
				<port id="0">
					<dim>1</dim>
					<dim>64</dim>
					<dim>64</dim>
					<dim>32</dim>
				</port>
				<port id="1">
					<dim>64</dim>
					<dim>64</dim>
					<dim>1</dim>
					<dim>1</dim>
				</port>
			</input>
			<output>
				<port id="2" precision="FP32">
					<dim>1</dim>
					<dim>64</dim>
					<dim>64</dim>
					<dim>32</dim>
				</port>
			</output>
		</layer>
		<layer id="191" name="3495534958_const" type="Const" version="opset1">
			<data element_type="f32" offset="481464" shape="64,1,1,3,3" size="2304"/>
			<output>
				<port id="1" precision="FP32">
					<dim>64</dim>
					<dim>1</dim>
					<dim>1</dim>
					<dim>3</dim>
					<dim>3</dim>
				</port>
			</output>
		</layer>
		<layer id="192" name="652" type="GroupConvolution" version="opset1">
			<data dilations="1,1" output_padding="0,0" pads_begin="1,1" pads_end="1,1" strides="1,1"/>
			<input>
				<port id="0">
					<dim>1</dim>
					<dim>64</dim>
					<dim>64</dim>
					<dim>32</dim>
				</port>
				<port id="1">
					<dim>64</dim>
					<dim>1</dim>
					<dim>1</dim>
					<dim>3</dim>
					<dim>3</dim>
				</port>
			</input>
			<output>
				<port id="2" precision="FP32">
					<dim>1</dim>
					<dim>64</dim>
					<dim>64</dim>
					<dim>32</dim>
				</port>
			</output>
		</layer>
		<layer id="193" name="data_add_1966819673/copy_const" type="Const" version="opset1">
			<data element_type="f32" offset="483768" shape="1,64,1,1" size="256"/>
			<output>
				<port id="1" precision="FP32">
					<dim>1</dim>
					<dim>64</dim>
					<dim>1</dim>
					<dim>1</dim>
				</port>
			</output>
		</layer>
		<layer id="194" name="653/variance/Fused_Add_" type="Add" version="opset1">
			<input>
				<port id="0">
					<dim>1</dim>
					<dim>64</dim>
					<dim>64</dim>
					<dim>32</dim>
				</port>
				<port id="1">
					<dim>1</dim>
					<dim>64</dim>
					<dim>1</dim>
					<dim>1</dim>
				</port>
			</input>
			<output>
				<port id="2" precision="FP32">
					<dim>1</dim>
					<dim>64</dim>
					<dim>64</dim>
					<dim>32</dim>
				</port>
			</output>
		</layer>
		<layer id="195" name="654" type="ReLU" version="opset1">
			<input>
				<port id="0">
					<dim>1</dim>
					<dim>64</dim>
					<dim>64</dim>
					<dim>32</dim>
				</port>
			</input>
			<output>
				<port id="1" precision="FP32">
					<dim>1</dim>
					<dim>64</dim>
					<dim>64</dim>
					<dim>32</dim>
				</port>
			</output>
		</layer>
		<layer id="196" name="onnx_initializer_node_conv2.1.conv2b.1.conv1.weight/Output_0/Data__const" type="Const" version="opset1">
			<data element_type="f32" offset="484024" shape="64,64,1,1" size="16384"/>
			<output>
				<port id="1" precision="FP32">
					<dim>64</dim>
					<dim>64</dim>
					<dim>1</dim>
					<dim>1</dim>
				</port>
			</output>
		</layer>
		<layer id="197" name="655" type="Convolution" version="opset1">
			<data dilations="1,1" output_padding="0,0" pads_begin="0,0" pads_end="0,0" strides="1,1"/>
			<input>
				<port id="0">
					<dim>1</dim>
					<dim>64</dim>
					<dim>64</dim>
					<dim>32</dim>
				</port>
				<port id="1">
					<dim>64</dim>
					<dim>64</dim>
					<dim>1</dim>
					<dim>1</dim>
				</port>
			</input>
			<output>
				<port id="2" precision="FP32">
					<dim>1</dim>
					<dim>64</dim>
					<dim>64</dim>
					<dim>32</dim>
				</port>
			</output>
		</layer>
		<layer id="198" name="3504735050_const" type="Const" version="opset1">
			<data element_type="f32" offset="500408" shape="64,1,1,3,3" size="2304"/>
			<output>
				<port id="1" precision="FP32">
					<dim>64</dim>
					<dim>1</dim>
					<dim>1</dim>
					<dim>3</dim>
					<dim>3</dim>
				</port>
			</output>
		</layer>
		<layer id="199" name="656" type="GroupConvolution" version="opset1">
			<data dilations="1,1" output_padding="0,0" pads_begin="1,1" pads_end="1,1" strides="1,1"/>
			<input>
				<port id="0">
					<dim>1</dim>
					<dim>64</dim>
					<dim>64</dim>
					<dim>32</dim>
				</port>
				<port id="1">
					<dim>64</dim>
					<dim>1</dim>
					<dim>1</dim>
					<dim>3</dim>
					<dim>3</dim>
				</port>
			</input>
			<output>
				<port id="2" precision="FP32">
					<dim>1</dim>
					<dim>64</dim>
					<dim>64</dim>
					<dim>32</dim>
				</port>
			</output>
		</layer>
		<layer id="200" name="data_add_1967619681/copy_const" type="Const" version="opset1">
			<data element_type="f32" offset="502712" shape="1,64,1,1" size="256"/>
			<output>
				<port id="1" precision="FP32">
					<dim>1</dim>
					<dim>64</dim>
					<dim>1</dim>
					<dim>1</dim>
				</port>
			</output>
		</layer>
		<layer id="201" name="657/variance/Fused_Add_" type="Add" version="opset1">
			<input>
				<port id="0">
					<dim>1</dim>
					<dim>64</dim>
					<dim>64</dim>
					<dim>32</dim>
				</port>
				<port id="1">
					<dim>1</dim>
					<dim>64</dim>
					<dim>1</dim>
					<dim>1</dim>
				</port>
			</input>
			<output>
				<port id="2" precision="FP32">
					<dim>1</dim>
					<dim>64</dim>
					<dim>64</dim>
					<dim>32</dim>
				</port>
			</output>
		</layer>
		<layer id="202" name="658" type="ReLU" version="opset1">
			<input>
				<port id="0">
					<dim>1</dim>
					<dim>64</dim>
					<dim>64</dim>
					<dim>32</dim>
				</port>
			</input>
			<output>
				<port id="1" precision="FP32">
					<dim>1</dim>
					<dim>64</dim>
					<dim>64</dim>
					<dim>32</dim>
				</port>
			</output>
		</layer>
		<layer id="203" name="703/reduce/Cast_135924_const" type="Const" version="opset1">
			<data element_type="i64" offset="73784" shape="2" size="16"/>
			<output>
				<port id="1" precision="I64">
					<dim>2</dim>
				</port>
			</output>
		</layer>
		<layer id="204" name="703/reduce" type="ReduceMean" version="opset1">
			<data keep_dims="True"/>
			<input>
				<port id="0">
					<dim>1</dim>
					<dim>64</dim>
					<dim>64</dim>
					<dim>32</dim>
				</port>
				<port id="1">
					<dim>2</dim>
				</port>
			</input>
			<output>
				<port id="2" precision="FP32">
					<dim>1</dim>
					<dim>64</dim>
					<dim>1</dim>
					<dim>1</dim>
				</port>
			</output>
		</layer>
		<layer id="205" name="705/Cast_135928_const" type="Const" version="opset1">
			<data element_type="i64" offset="464472" shape="4" size="32"/>
			<output>
				<port id="1" precision="I64">
					<dim>4</dim>
				</port>
			</output>
		</layer>
		<layer id="206" name="705" type="Reshape" version="opset1">
			<data special_zero="True"/>
			<input>
				<port id="0">
					<dim>1</dim>
					<dim>64</dim>
					<dim>1</dim>
					<dim>1</dim>
				</port>
				<port id="1">
					<dim>4</dim>
				</port>
			</input>
			<output>
				<port id="2" precision="FP32">
					<dim>1</dim>
					<dim>16</dim>
					<dim>4</dim>
					<dim>1</dim>
				</port>
			</output>
		</layer>
		<layer id="207" name="707/Cast_135912_const" type="Const" version="opset1">
			<data element_type="i64" offset="464504" shape="4" size="32"/>
			<output>
				<port id="1" precision="I64">
					<dim>4</dim>
				</port>
			</output>
		</layer>
		<layer id="208" name="707" type="Reshape" version="opset1">
			<data special_zero="True"/>
			<input>
				<port id="0">
					<dim>1</dim>
					<dim>16</dim>
					<dim>4</dim>
					<dim>1</dim>
				</port>
				<port id="1">
					<dim>4</dim>
				</port>
			</input>
			<output>
				<port id="2" precision="FP32">
					<dim>1</dim>
					<dim>16</dim>
					<dim>4</dim>
					<dim>1</dim>
				</port>
			</output>
		</layer>
		<layer id="209" name="708" type="MVN" version="opset2">
			<data across_channels="0" eps="1e-09" normalize_variance="1"/>
			<input>
				<port id="0">
					<dim>1</dim>
					<dim>16</dim>
					<dim>4</dim>
					<dim>1</dim>
				</port>
			</input>
			<output>
				<port id="1" precision="FP32">
					<dim>1</dim>
					<dim>16</dim>
					<dim>4</dim>
					<dim>1</dim>
				</port>
			</output>
		</layer>
		<layer id="210" name="710/Cast_135908_const" type="Const" version="opset1">
			<data element_type="i64" offset="464536" shape="4" size="32"/>
			<output>
				<port id="1" precision="I64">
					<dim>4</dim>
				</port>
			</output>
		</layer>
		<layer id="211" name="710" type="Reshape" version="opset1">
			<data special_zero="True"/>
			<input>
				<port id="0">
					<dim>1</dim>
					<dim>16</dim>
					<dim>4</dim>
					<dim>1</dim>
				</port>
				<port id="1">
					<dim>4</dim>
				</port>
			</input>
			<output>
				<port id="2" precision="FP32">
					<dim>1</dim>
					<dim>64</dim>
					<dim>1</dim>
					<dim>1</dim>
				</port>
			</output>
		</layer>
		<layer id="212" name="712/Output_0/Data__const" type="Const" version="opset1">
			<data element_type="f32" offset="464568" shape="1,64,1,1" size="256"/>
			<output>
				<port id="1" precision="FP32">
					<dim>1</dim>
					<dim>64</dim>
					<dim>1</dim>
					<dim>1</dim>
				</port>
			</output>
		</layer>
		<layer id="213" name="713" type="Multiply" version="opset1">
			<input>
				<port id="0">
					<dim>1</dim>
					<dim>64</dim>
					<dim>1</dim>
					<dim>1</dim>
				</port>
				<port id="1">
					<dim>1</dim>
					<dim>64</dim>
					<dim>1</dim>
					<dim>1</dim>
				</port>
			</input>
			<output>
				<port id="2" precision="FP32">
					<dim>1</dim>
					<dim>64</dim>
					<dim>1</dim>
					<dim>1</dim>
				</port>
			</output>
		</layer>
		<layer id="214" name="715/Output_0/Data__const" type="Const" version="opset1">
			<data element_type="f32" offset="464824" shape="1,64,1,1" size="256"/>
			<output>
				<port id="1" precision="FP32">
					<dim>1</dim>
					<dim>64</dim>
					<dim>1</dim>
					<dim>1</dim>
				</port>
			</output>
		</layer>
		<layer id="215" name="716" type="Add" version="opset1">
			<input>
				<port id="0">
					<dim>1</dim>
					<dim>64</dim>
					<dim>1</dim>
					<dim>1</dim>
				</port>
				<port id="1">
					<dim>1</dim>
					<dim>64</dim>
					<dim>1</dim>
					<dim>1</dim>
				</port>
			</input>
			<output>
				<port id="2" precision="FP32">
					<dim>1</dim>
					<dim>64</dim>
					<dim>1</dim>
					<dim>1</dim>
				</port>
			</output>
		</layer>
		<layer id="216" name="717" type="Sigmoid" version="opset1">
			<input>
				<port id="0">
					<dim>1</dim>
					<dim>64</dim>
					<dim>1</dim>
					<dim>1</dim>
				</port>
			</input>
			<output>
				<port id="1" precision="FP32">
					<dim>1</dim>
					<dim>64</dim>
					<dim>1</dim>
					<dim>1</dim>
				</port>
			</output>
		</layer>
		<layer id="217" name="718" type="Multiply" version="opset1">
			<input>
				<port id="0">
					<dim>1</dim>
					<dim>64</dim>
					<dim>64</dim>
					<dim>32</dim>
				</port>
				<port id="1">
					<dim>1</dim>
					<dim>64</dim>
					<dim>1</dim>
					<dim>1</dim>
				</port>
			</input>
			<output>
				<port id="2" precision="FP32">
					<dim>1</dim>
					<dim>64</dim>
					<dim>64</dim>
					<dim>32</dim>
				</port>
			</output>
		</layer>
		<layer id="218" name="719" type="Add" version="opset1">
			<input>
				<port id="0">
					<dim>1</dim>
					<dim>64</dim>
					<dim>64</dim>
					<dim>32</dim>
				</port>
				<port id="1">
					<dim>1</dim>
					<dim>64</dim>
					<dim>64</dim>
					<dim>32</dim>
				</port>
			</input>
			<output>
				<port id="2" precision="FP32">
					<dim>1</dim>
					<dim>64</dim>
					<dim>64</dim>
					<dim>32</dim>
				</port>
			</output>
		</layer>
		<layer id="219" name="onnx_initializer_node_conv2.1.conv2c.0.conv1.weight/Output_0/Data__const" type="Const" version="opset1">
			<data element_type="f32" offset="502968" shape="64,64,1,1" size="16384"/>
			<output>
				<port id="1" precision="FP32">
					<dim>64</dim>
					<dim>64</dim>
					<dim>1</dim>
					<dim>1</dim>
				</port>
			</output>
		</layer>
		<layer id="220" name="659" type="Convolution" version="opset1">
			<data dilations="1,1" output_padding="0,0" pads_begin="0,0" pads_end="0,0" strides="1,1"/>
			<input>
				<port id="0">
					<dim>1</dim>
					<dim>64</dim>
					<dim>64</dim>
					<dim>32</dim>
				</port>
				<port id="1">
					<dim>64</dim>
					<dim>64</dim>
					<dim>1</dim>
					<dim>1</dim>
				</port>
			</input>
			<output>
				<port id="2" precision="FP32">
					<dim>1</dim>
					<dim>64</dim>
					<dim>64</dim>
					<dim>32</dim>
				</port>
			</output>
		</layer>
		<layer id="221" name="3493134934_const" type="Const" version="opset1">
			<data element_type="f32" offset="519352" shape="64,1,1,3,3" size="2304"/>
			<output>
				<port id="1" precision="FP32">
					<dim>64</dim>
					<dim>1</dim>
					<dim>1</dim>
					<dim>3</dim>
					<dim>3</dim>
				</port>
			</output>
		</layer>
		<layer id="222" name="660" type="GroupConvolution" version="opset1">
			<data dilations="1,1" output_padding="0,0" pads_begin="1,1" pads_end="1,1" strides="1,1"/>
			<input>
				<port id="0">
					<dim>1</dim>
					<dim>64</dim>
					<dim>64</dim>
					<dim>32</dim>
				</port>
				<port id="1">
					<dim>64</dim>
					<dim>1</dim>
					<dim>1</dim>
					<dim>3</dim>
					<dim>3</dim>
				</port>
			</input>
			<output>
				<port id="2" precision="FP32">
					<dim>1</dim>
					<dim>64</dim>
					<dim>64</dim>
					<dim>32</dim>
				</port>
			</output>
		</layer>
		<layer id="223" name="data_add_1964419649/copy_const" type="Const" version="opset1">
			<data element_type="f32" offset="521656" shape="1,64,1,1" size="256"/>
			<output>
				<port id="1" precision="FP32">
					<dim>1</dim>
					<dim>64</dim>
					<dim>1</dim>
					<dim>1</dim>
				</port>
			</output>
		</layer>
		<layer id="224" name="661/variance/Fused_Add_" type="Add" version="opset1">
			<input>
				<port id="0">
					<dim>1</dim>
					<dim>64</dim>
					<dim>64</dim>
					<dim>32</dim>
				</port>
				<port id="1">
					<dim>1</dim>
					<dim>64</dim>
					<dim>1</dim>
					<dim>1</dim>
				</port>
			</input>
			<output>
				<port id="2" precision="FP32">
					<dim>1</dim>
					<dim>64</dim>
					<dim>64</dim>
					<dim>32</dim>
				</port>
			</output>
		</layer>
		<layer id="225" name="662" type="ReLU" version="opset1">
			<input>
				<port id="0">
					<dim>1</dim>
					<dim>64</dim>
					<dim>64</dim>
					<dim>32</dim>
				</port>
			</input>
			<output>
				<port id="1" precision="FP32">
					<dim>1</dim>
					<dim>64</dim>
					<dim>64</dim>
					<dim>32</dim>
				</port>
			</output>
		</layer>
		<layer id="226" name="onnx_initializer_node_conv2.1.conv2c.1.conv1.weight/Output_0/Data__const" type="Const" version="opset1">
			<data element_type="f32" offset="521912" shape="64,64,1,1" size="16384"/>
			<output>
				<port id="1" precision="FP32">
					<dim>64</dim>
					<dim>64</dim>
					<dim>1</dim>
					<dim>1</dim>
				</port>
			</output>
		</layer>
		<layer id="227" name="663" type="Convolution" version="opset1">
			<data dilations="1,1" output_padding="0,0" pads_begin="0,0" pads_end="0,0" strides="1,1"/>
			<input>
				<port id="0">
					<dim>1</dim>
					<dim>64</dim>
					<dim>64</dim>
					<dim>32</dim>
				</port>
				<port id="1">
					<dim>64</dim>
					<dim>64</dim>
					<dim>1</dim>
					<dim>1</dim>
				</port>
			</input>
			<output>
				<port id="2" precision="FP32">
					<dim>1</dim>
					<dim>64</dim>
					<dim>64</dim>
					<dim>32</dim>
				</port>
			</output>
		</layer>
		<layer id="228" name="3505935062_const" type="Const" version="opset1">
			<data element_type="f32" offset="538296" shape="64,1,1,3,3" size="2304"/>
			<output>
				<port id="1" precision="FP32">
					<dim>64</dim>
					<dim>1</dim>
					<dim>1</dim>
					<dim>3</dim>
					<dim>3</dim>
				</port>
			</output>
		</layer>
		<layer id="229" name="664" type="GroupConvolution" version="opset1">
			<data dilations="1,1" output_padding="0,0" pads_begin="1,1" pads_end="1,1" strides="1,1"/>
			<input>
				<port id="0">
					<dim>1</dim>
					<dim>64</dim>
					<dim>64</dim>
					<dim>32</dim>
				</port>
				<port id="1">
					<dim>64</dim>
					<dim>1</dim>
					<dim>1</dim>
					<dim>3</dim>
					<dim>3</dim>
				</port>
			</input>
			<output>
				<port id="2" precision="FP32">
					<dim>1</dim>
					<dim>64</dim>
					<dim>64</dim>
					<dim>32</dim>
				</port>
			</output>
		</layer>
		<layer id="230" name="data_add_1965219657/copy_const" type="Const" version="opset1">
			<data element_type="f32" offset="540600" shape="1,64,1,1" size="256"/>
			<output>
				<port id="1" precision="FP32">
					<dim>1</dim>
					<dim>64</dim>
					<dim>1</dim>
					<dim>1</dim>
				</port>
			</output>
		</layer>
		<layer id="231" name="665/variance/Fused_Add_" type="Add" version="opset1">
			<input>
				<port id="0">
					<dim>1</dim>
					<dim>64</dim>
					<dim>64</dim>
					<dim>32</dim>
				</port>
				<port id="1">
					<dim>1</dim>
					<dim>64</dim>
					<dim>1</dim>
					<dim>1</dim>
				</port>
			</input>
			<output>
				<port id="2" precision="FP32">
					<dim>1</dim>
					<dim>64</dim>
					<dim>64</dim>
					<dim>32</dim>
				</port>
			</output>
		</layer>
		<layer id="232" name="666" type="ReLU" version="opset1">
			<input>
				<port id="0">
					<dim>1</dim>
					<dim>64</dim>
					<dim>64</dim>
					<dim>32</dim>
				</port>
			</input>
			<output>
				<port id="1" precision="FP32">
					<dim>1</dim>
					<dim>64</dim>
					<dim>64</dim>
					<dim>32</dim>
				</port>
			</output>
		</layer>
		<layer id="233" name="onnx_initializer_node_conv2.1.conv2c.2.conv1.weight/Output_0/Data__const" type="Const" version="opset1">
			<data element_type="f32" offset="540856" shape="64,64,1,1" size="16384"/>
			<output>
				<port id="1" precision="FP32">
					<dim>64</dim>
					<dim>64</dim>
					<dim>1</dim>
					<dim>1</dim>
				</port>
			</output>
		</layer>
		<layer id="234" name="667" type="Convolution" version="opset1">
			<data dilations="1,1" output_padding="0,0" pads_begin="0,0" pads_end="0,0" strides="1,1"/>
			<input>
				<port id="0">
					<dim>1</dim>
					<dim>64</dim>
					<dim>64</dim>
					<dim>32</dim>
				</port>
				<port id="1">
					<dim>64</dim>
					<dim>64</dim>
					<dim>1</dim>
					<dim>1</dim>
				</port>
			</input>
			<output>
				<port id="2" precision="FP32">
					<dim>1</dim>
					<dim>64</dim>
					<dim>64</dim>
					<dim>32</dim>
				</port>
			</output>
		</layer>
		<layer id="235" name="3500335006_const" type="Const" version="opset1">
			<data element_type="f32" offset="557240" shape="64,1,1,3,3" size="2304"/>
			<output>
				<port id="1" precision="FP32">
					<dim>64</dim>
					<dim>1</dim>
					<dim>1</dim>
					<dim>3</dim>
					<dim>3</dim>
				</port>
			</output>
		</layer>
		<layer id="236" name="668" type="GroupConvolution" version="opset1">
			<data dilations="1,1" output_padding="0,0" pads_begin="1,1" pads_end="1,1" strides="1,1"/>
			<input>
				<port id="0">
					<dim>1</dim>
					<dim>64</dim>
					<dim>64</dim>
					<dim>32</dim>
				</port>
				<port id="1">
					<dim>64</dim>
					<dim>1</dim>
					<dim>1</dim>
					<dim>3</dim>
					<dim>3</dim>
				</port>
			</input>
			<output>
				<port id="2" precision="FP32">
					<dim>1</dim>
					<dim>64</dim>
					<dim>64</dim>
					<dim>32</dim>
				</port>
			</output>
		</layer>
		<layer id="237" name="data_add_1966019665/copy_const" type="Const" version="opset1">
			<data element_type="f32" offset="559544" shape="1,64,1,1" size="256"/>
			<output>
				<port id="1" precision="FP32">
					<dim>1</dim>
					<dim>64</dim>
					<dim>1</dim>
					<dim>1</dim>
				</port>
			</output>
		</layer>
		<layer id="238" name="669/variance/Fused_Add_" type="Add" version="opset1">
			<input>
				<port id="0">
					<dim>1</dim>
					<dim>64</dim>
					<dim>64</dim>
					<dim>32</dim>
				</port>
				<port id="1">
					<dim>1</dim>
					<dim>64</dim>
					<dim>1</dim>
					<dim>1</dim>
				</port>
			</input>
			<output>
				<port id="2" precision="FP32">
					<dim>1</dim>
					<dim>64</dim>
					<dim>64</dim>
					<dim>32</dim>
				</port>
			</output>
		</layer>
		<layer id="239" name="670" type="ReLU" version="opset1">
			<input>
				<port id="0">
					<dim>1</dim>
					<dim>64</dim>
					<dim>64</dim>
					<dim>32</dim>
				</port>
			</input>
			<output>
				<port id="1" precision="FP32">
					<dim>1</dim>
					<dim>64</dim>
					<dim>64</dim>
					<dim>32</dim>
				</port>
			</output>
		</layer>
		<layer id="240" name="720/reduce/Cast_135876_const" type="Const" version="opset1">
			<data element_type="i64" offset="73784" shape="2" size="16"/>
			<output>
				<port id="1" precision="I64">
					<dim>2</dim>
				</port>
			</output>
		</layer>
		<layer id="241" name="720/reduce" type="ReduceMean" version="opset1">
			<data keep_dims="True"/>
			<input>
				<port id="0">
					<dim>1</dim>
					<dim>64</dim>
					<dim>64</dim>
					<dim>32</dim>
				</port>
				<port id="1">
					<dim>2</dim>
				</port>
			</input>
			<output>
				<port id="2" precision="FP32">
					<dim>1</dim>
					<dim>64</dim>
					<dim>1</dim>
					<dim>1</dim>
				</port>
			</output>
		</layer>
		<layer id="242" name="722/Cast_135828_const" type="Const" version="opset1">
			<data element_type="i64" offset="464472" shape="4" size="32"/>
			<output>
				<port id="1" precision="I64">
					<dim>4</dim>
				</port>
			</output>
		</layer>
		<layer id="243" name="722" type="Reshape" version="opset1">
			<data special_zero="True"/>
			<input>
				<port id="0">
					<dim>1</dim>
					<dim>64</dim>
					<dim>1</dim>
					<dim>1</dim>
				</port>
				<port id="1">
					<dim>4</dim>
				</port>
			</input>
			<output>
				<port id="2" precision="FP32">
					<dim>1</dim>
					<dim>16</dim>
					<dim>4</dim>
					<dim>1</dim>
				</port>
			</output>
		</layer>
		<layer id="244" name="724/Cast_135892_const" type="Const" version="opset1">
			<data element_type="i64" offset="464504" shape="4" size="32"/>
			<output>
				<port id="1" precision="I64">
					<dim>4</dim>
				</port>
			</output>
		</layer>
		<layer id="245" name="724" type="Reshape" version="opset1">
			<data special_zero="True"/>
			<input>
				<port id="0">
					<dim>1</dim>
					<dim>16</dim>
					<dim>4</dim>
					<dim>1</dim>
				</port>
				<port id="1">
					<dim>4</dim>
				</port>
			</input>
			<output>
				<port id="2" precision="FP32">
					<dim>1</dim>
					<dim>16</dim>
					<dim>4</dim>
					<dim>1</dim>
				</port>
			</output>
		</layer>
		<layer id="246" name="725" type="MVN" version="opset2">
			<data across_channels="0" eps="1e-09" normalize_variance="1"/>
			<input>
				<port id="0">
					<dim>1</dim>
					<dim>16</dim>
					<dim>4</dim>
					<dim>1</dim>
				</port>
			</input>
			<output>
				<port id="1" precision="FP32">
					<dim>1</dim>
					<dim>16</dim>
					<dim>4</dim>
					<dim>1</dim>
				</port>
			</output>
		</layer>
		<layer id="247" name="727/Cast_135940_const" type="Const" version="opset1">
			<data element_type="i64" offset="464536" shape="4" size="32"/>
			<output>
				<port id="1" precision="I64">
					<dim>4</dim>
				</port>
			</output>
		</layer>
		<layer id="248" name="727" type="Reshape" version="opset1">
			<data special_zero="True"/>
			<input>
				<port id="0">
					<dim>1</dim>
					<dim>16</dim>
					<dim>4</dim>
					<dim>1</dim>
				</port>
				<port id="1">
					<dim>4</dim>
				</port>
			</input>
			<output>
				<port id="2" precision="FP32">
					<dim>1</dim>
					<dim>64</dim>
					<dim>1</dim>
					<dim>1</dim>
				</port>
			</output>
		</layer>
		<layer id="249" name="729/Output_0/Data__const" type="Const" version="opset1">
			<data element_type="f32" offset="464568" shape="1,64,1,1" size="256"/>
			<output>
				<port id="1" precision="FP32">
					<dim>1</dim>
					<dim>64</dim>
					<dim>1</dim>
					<dim>1</dim>
				</port>
			</output>
		</layer>
		<layer id="250" name="730" type="Multiply" version="opset1">
			<input>
				<port id="0">
					<dim>1</dim>
					<dim>64</dim>
					<dim>1</dim>
					<dim>1</dim>
				</port>
				<port id="1">
					<dim>1</dim>
					<dim>64</dim>
					<dim>1</dim>
					<dim>1</dim>
				</port>
			</input>
			<output>
				<port id="2" precision="FP32">
					<dim>1</dim>
					<dim>64</dim>
					<dim>1</dim>
					<dim>1</dim>
				</port>
			</output>
		</layer>
		<layer id="251" name="732/Output_0/Data__const" type="Const" version="opset1">
			<data element_type="f32" offset="464824" shape="1,64,1,1" size="256"/>
			<output>
				<port id="1" precision="FP32">
					<dim>1</dim>
					<dim>64</dim>
					<dim>1</dim>
					<dim>1</dim>
				</port>
			</output>
		</layer>
		<layer id="252" name="733" type="Add" version="opset1">
			<input>
				<port id="0">
					<dim>1</dim>
					<dim>64</dim>
					<dim>1</dim>
					<dim>1</dim>
				</port>
				<port id="1">
					<dim>1</dim>
					<dim>64</dim>
					<dim>1</dim>
					<dim>1</dim>
				</port>
			</input>
			<output>
				<port id="2" precision="FP32">
					<dim>1</dim>
					<dim>64</dim>
					<dim>1</dim>
					<dim>1</dim>
				</port>
			</output>
		</layer>
		<layer id="253" name="734" type="Sigmoid" version="opset1">
			<input>
				<port id="0">
					<dim>1</dim>
					<dim>64</dim>
					<dim>1</dim>
					<dim>1</dim>
				</port>
			</input>
			<output>
				<port id="1" precision="FP32">
					<dim>1</dim>
					<dim>64</dim>
					<dim>1</dim>
					<dim>1</dim>
				</port>
			</output>
		</layer>
		<layer id="254" name="735" type="Multiply" version="opset1">
			<input>
				<port id="0">
					<dim>1</dim>
					<dim>64</dim>
					<dim>64</dim>
					<dim>32</dim>
				</port>
				<port id="1">
					<dim>1</dim>
					<dim>64</dim>
					<dim>1</dim>
					<dim>1</dim>
				</port>
			</input>
			<output>
				<port id="2" precision="FP32">
					<dim>1</dim>
					<dim>64</dim>
					<dim>64</dim>
					<dim>32</dim>
				</port>
			</output>
		</layer>
		<layer id="255" name="736" type="Add" version="opset1">
			<input>
				<port id="0">
					<dim>1</dim>
					<dim>64</dim>
					<dim>64</dim>
					<dim>32</dim>
				</port>
				<port id="1">
					<dim>1</dim>
					<dim>64</dim>
					<dim>64</dim>
					<dim>32</dim>
				</port>
			</input>
			<output>
				<port id="2" precision="FP32">
					<dim>1</dim>
					<dim>64</dim>
					<dim>64</dim>
					<dim>32</dim>
				</port>
			</output>
		</layer>
		<layer id="256" name="onnx_initializer_node_conv2.1.conv2d.0.conv1.weight/Output_0/Data__const" type="Const" version="opset1">
			<data element_type="f32" offset="559800" shape="64,64,1,1" size="16384"/>
			<output>
				<port id="1" precision="FP32">
					<dim>64</dim>
					<dim>64</dim>
					<dim>1</dim>
					<dim>1</dim>
				</port>
			</output>
		</layer>
		<layer id="257" name="671" type="Convolution" version="opset1">
			<data dilations="1,1" output_padding="0,0" pads_begin="0,0" pads_end="0,0" strides="1,1"/>
			<input>
				<port id="0">
					<dim>1</dim>
					<dim>64</dim>
					<dim>64</dim>
					<dim>32</dim>
				</port>
				<port id="1">
					<dim>64</dim>
					<dim>64</dim>
					<dim>1</dim>
					<dim>1</dim>
				</port>
			</input>
			<output>
				<port id="2" precision="FP32">
					<dim>1</dim>
					<dim>64</dim>
					<dim>64</dim>
					<dim>32</dim>
				</port>
			</output>
		</layer>
		<layer id="258" name="3489534898_const" type="Const" version="opset1">
			<data element_type="f32" offset="576184" shape="64,1,1,3,3" size="2304"/>
			<output>
				<port id="1" precision="FP32">
					<dim>64</dim>
					<dim>1</dim>
					<dim>1</dim>
					<dim>3</dim>
					<dim>3</dim>
				</port>
			</output>
		</layer>
		<layer id="259" name="672" type="GroupConvolution" version="opset1">
			<data dilations="1,1" output_padding="0,0" pads_begin="1,1" pads_end="1,1" strides="1,1"/>
			<input>
				<port id="0">
					<dim>1</dim>
					<dim>64</dim>
					<dim>64</dim>
					<dim>32</dim>
				</port>
				<port id="1">
					<dim>64</dim>
					<dim>1</dim>
					<dim>1</dim>
					<dim>3</dim>
					<dim>3</dim>
				</port>
			</input>
			<output>
				<port id="2" precision="FP32">
					<dim>1</dim>
					<dim>64</dim>
					<dim>64</dim>
					<dim>32</dim>
				</port>
			</output>
		</layer>
		<layer id="260" name="data_add_1961219617/copy_const" type="Const" version="opset1">
			<data element_type="f32" offset="578488" shape="1,64,1,1" size="256"/>
			<output>
				<port id="1" precision="FP32">
					<dim>1</dim>
					<dim>64</dim>
					<dim>1</dim>
					<dim>1</dim>
				</port>
			</output>
		</layer>
		<layer id="261" name="673/variance/Fused_Add_" type="Add" version="opset1">
			<input>
				<port id="0">
					<dim>1</dim>
					<dim>64</dim>
					<dim>64</dim>
					<dim>32</dim>
				</port>
				<port id="1">
					<dim>1</dim>
					<dim>64</dim>
					<dim>1</dim>
					<dim>1</dim>
				</port>
			</input>
			<output>
				<port id="2" precision="FP32">
					<dim>1</dim>
					<dim>64</dim>
					<dim>64</dim>
					<dim>32</dim>
				</port>
			</output>
		</layer>
		<layer id="262" name="674" type="ReLU" version="opset1">
			<input>
				<port id="0">
					<dim>1</dim>
					<dim>64</dim>
					<dim>64</dim>
					<dim>32</dim>
				</port>
			</input>
			<output>
				<port id="1" precision="FP32">
					<dim>1</dim>
					<dim>64</dim>
					<dim>64</dim>
					<dim>32</dim>
				</port>
			</output>
		</layer>
		<layer id="263" name="onnx_initializer_node_conv2.1.conv2d.1.conv1.weight/Output_0/Data__const" type="Const" version="opset1">
			<data element_type="f32" offset="578744" shape="64,64,1,1" size="16384"/>
			<output>
				<port id="1" precision="FP32">
					<dim>64</dim>
					<dim>64</dim>
					<dim>1</dim>
					<dim>1</dim>
				</port>
			</output>
		</layer>
		<layer id="264" name="675" type="Convolution" version="opset1">
			<data dilations="1,1" output_padding="0,0" pads_begin="0,0" pads_end="0,0" strides="1,1"/>
			<input>
				<port id="0">
					<dim>1</dim>
					<dim>64</dim>
					<dim>64</dim>
					<dim>32</dim>
				</port>
				<port id="1">
					<dim>64</dim>
					<dim>64</dim>
					<dim>1</dim>
					<dim>1</dim>
				</port>
			</input>
			<output>
				<port id="2" precision="FP32">
					<dim>1</dim>
					<dim>64</dim>
					<dim>64</dim>
					<dim>32</dim>
				</port>
			</output>
		</layer>
		<layer id="265" name="3489934902_const" type="Const" version="opset1">
			<data element_type="f32" offset="595128" shape="64,1,1,3,3" size="2304"/>
			<output>
				<port id="1" precision="FP32">
					<dim>64</dim>
					<dim>1</dim>
					<dim>1</dim>
					<dim>3</dim>
					<dim>3</dim>
				</port>
			</output>
		</layer>
		<layer id="266" name="676" type="GroupConvolution" version="opset1">
			<data dilations="1,1" output_padding="0,0" pads_begin="1,1" pads_end="1,1" strides="1,1"/>
			<input>
				<port id="0">
					<dim>1</dim>
					<dim>64</dim>
					<dim>64</dim>
					<dim>32</dim>
				</port>
				<port id="1">
					<dim>64</dim>
					<dim>1</dim>
					<dim>1</dim>
					<dim>3</dim>
					<dim>3</dim>
				</port>
			</input>
			<output>
				<port id="2" precision="FP32">
					<dim>1</dim>
					<dim>64</dim>
					<dim>64</dim>
					<dim>32</dim>
				</port>
			</output>
		</layer>
		<layer id="267" name="data_add_1962019625/copy_const" type="Const" version="opset1">
			<data element_type="f32" offset="597432" shape="1,64,1,1" size="256"/>
			<output>
				<port id="1" precision="FP32">
					<dim>1</dim>
					<dim>64</dim>
					<dim>1</dim>
					<dim>1</dim>
				</port>
			</output>
		</layer>
		<layer id="268" name="677/variance/Fused_Add_" type="Add" version="opset1">
			<input>
				<port id="0">
					<dim>1</dim>
					<dim>64</dim>
					<dim>64</dim>
					<dim>32</dim>
				</port>
				<port id="1">
					<dim>1</dim>
					<dim>64</dim>
					<dim>1</dim>
					<dim>1</dim>
				</port>
			</input>
			<output>
				<port id="2" precision="FP32">
					<dim>1</dim>
					<dim>64</dim>
					<dim>64</dim>
					<dim>32</dim>
				</port>
			</output>
		</layer>
		<layer id="269" name="678" type="ReLU" version="opset1">
			<input>
				<port id="0">
					<dim>1</dim>
					<dim>64</dim>
					<dim>64</dim>
					<dim>32</dim>
				</port>
			</input>
			<output>
				<port id="1" precision="FP32">
					<dim>1</dim>
					<dim>64</dim>
					<dim>64</dim>
					<dim>32</dim>
				</port>
			</output>
		</layer>
		<layer id="270" name="onnx_initializer_node_conv2.1.conv2d.2.conv1.weight/Output_0/Data__const" type="Const" version="opset1">
			<data element_type="f32" offset="597688" shape="64,64,1,1" size="16384"/>
			<output>
				<port id="1" precision="FP32">
					<dim>64</dim>
					<dim>64</dim>
					<dim>1</dim>
					<dim>1</dim>
				</port>
			</output>
		</layer>
		<layer id="271" name="679" type="Convolution" version="opset1">
			<data dilations="1,1" output_padding="0,0" pads_begin="0,0" pads_end="0,0" strides="1,1"/>
			<input>
				<port id="0">
					<dim>1</dim>
					<dim>64</dim>
					<dim>64</dim>
					<dim>32</dim>
				</port>
				<port id="1">
					<dim>64</dim>
					<dim>64</dim>
					<dim>1</dim>
					<dim>1</dim>
				</port>
			</input>
			<output>
				<port id="2" precision="FP32">
					<dim>1</dim>
					<dim>64</dim>
					<dim>64</dim>
					<dim>32</dim>
				</port>
			</output>
		</layer>
		<layer id="272" name="3486734870_const" type="Const" version="opset1">
			<data element_type="f32" offset="614072" shape="64,1,1,3,3" size="2304"/>
			<output>
				<port id="1" precision="FP32">
					<dim>64</dim>
					<dim>1</dim>
					<dim>1</dim>
					<dim>3</dim>
					<dim>3</dim>
				</port>
			</output>
		</layer>
		<layer id="273" name="680" type="GroupConvolution" version="opset1">
			<data dilations="1,1" output_padding="0,0" pads_begin="1,1" pads_end="1,1" strides="1,1"/>
			<input>
				<port id="0">
					<dim>1</dim>
					<dim>64</dim>
					<dim>64</dim>
					<dim>32</dim>
				</port>
				<port id="1">
					<dim>64</dim>
					<dim>1</dim>
					<dim>1</dim>
					<dim>3</dim>
					<dim>3</dim>
				</port>
			</input>
			<output>
				<port id="2" precision="FP32">
					<dim>1</dim>
					<dim>64</dim>
					<dim>64</dim>
					<dim>32</dim>
				</port>
			</output>
		</layer>
		<layer id="274" name="data_add_1962819633/copy_const" type="Const" version="opset1">
			<data element_type="f32" offset="616376" shape="1,64,1,1" size="256"/>
			<output>
				<port id="1" precision="FP32">
					<dim>1</dim>
					<dim>64</dim>
					<dim>1</dim>
					<dim>1</dim>
				</port>
			</output>
		</layer>
		<layer id="275" name="681/variance/Fused_Add_" type="Add" version="opset1">
			<input>
				<port id="0">
					<dim>1</dim>
					<dim>64</dim>
					<dim>64</dim>
					<dim>32</dim>
				</port>
				<port id="1">
					<dim>1</dim>
					<dim>64</dim>
					<dim>1</dim>
					<dim>1</dim>
				</port>
			</input>
			<output>
				<port id="2" precision="FP32">
					<dim>1</dim>
					<dim>64</dim>
					<dim>64</dim>
					<dim>32</dim>
				</port>
			</output>
		</layer>
		<layer id="276" name="682" type="ReLU" version="opset1">
			<input>
				<port id="0">
					<dim>1</dim>
					<dim>64</dim>
					<dim>64</dim>
					<dim>32</dim>
				</port>
			</input>
			<output>
				<port id="1" precision="FP32">
					<dim>1</dim>
					<dim>64</dim>
					<dim>64</dim>
					<dim>32</dim>
				</port>
			</output>
		</layer>
		<layer id="277" name="onnx_initializer_node_conv2.1.conv2d.3.conv1.weight/Output_0/Data__const" type="Const" version="opset1">
			<data element_type="f32" offset="616632" shape="64,64,1,1" size="16384"/>
			<output>
				<port id="1" precision="FP32">
					<dim>64</dim>
					<dim>64</dim>
					<dim>1</dim>
					<dim>1</dim>
				</port>
			</output>
		</layer>
		<layer id="278" name="683" type="Convolution" version="opset1">
			<data dilations="1,1" output_padding="0,0" pads_begin="0,0" pads_end="0,0" strides="1,1"/>
			<input>
				<port id="0">
					<dim>1</dim>
					<dim>64</dim>
					<dim>64</dim>
					<dim>32</dim>
				</port>
				<port id="1">
					<dim>64</dim>
					<dim>64</dim>
					<dim>1</dim>
					<dim>1</dim>
				</port>
			</input>
			<output>
				<port id="2" precision="FP32">
					<dim>1</dim>
					<dim>64</dim>
					<dim>64</dim>
					<dim>32</dim>
				</port>
			</output>
		</layer>
		<layer id="279" name="3507535078_const" type="Const" version="opset1">
			<data element_type="f32" offset="633016" shape="64,1,1,3,3" size="2304"/>
			<output>
				<port id="1" precision="FP32">
					<dim>64</dim>
					<dim>1</dim>
					<dim>1</dim>
					<dim>3</dim>
					<dim>3</dim>
				</port>
			</output>
		</layer>
		<layer id="280" name="684" type="GroupConvolution" version="opset1">
			<data dilations="1,1" output_padding="0,0" pads_begin="1,1" pads_end="1,1" strides="1,1"/>
			<input>
				<port id="0">
					<dim>1</dim>
					<dim>64</dim>
					<dim>64</dim>
					<dim>32</dim>
				</port>
				<port id="1">
					<dim>64</dim>
					<dim>1</dim>
					<dim>1</dim>
					<dim>3</dim>
					<dim>3</dim>
				</port>
			</input>
			<output>
				<port id="2" precision="FP32">
					<dim>1</dim>
					<dim>64</dim>
					<dim>64</dim>
					<dim>32</dim>
				</port>
			</output>
		</layer>
		<layer id="281" name="data_add_1963619641/copy_const" type="Const" version="opset1">
			<data element_type="f32" offset="635320" shape="1,64,1,1" size="256"/>
			<output>
				<port id="1" precision="FP32">
					<dim>1</dim>
					<dim>64</dim>
					<dim>1</dim>
					<dim>1</dim>
				</port>
			</output>
		</layer>
		<layer id="282" name="685/variance/Fused_Add_" type="Add" version="opset1">
			<input>
				<port id="0">
					<dim>1</dim>
					<dim>64</dim>
					<dim>64</dim>
					<dim>32</dim>
				</port>
				<port id="1">
					<dim>1</dim>
					<dim>64</dim>
					<dim>1</dim>
					<dim>1</dim>
				</port>
			</input>
			<output>
				<port id="2" precision="FP32">
					<dim>1</dim>
					<dim>64</dim>
					<dim>64</dim>
					<dim>32</dim>
				</port>
			</output>
		</layer>
		<layer id="283" name="686" type="ReLU" version="opset1">
			<input>
				<port id="0">
					<dim>1</dim>
					<dim>64</dim>
					<dim>64</dim>
					<dim>32</dim>
				</port>
			</input>
			<output>
				<port id="1" precision="FP32">
					<dim>1</dim>
					<dim>64</dim>
					<dim>64</dim>
					<dim>32</dim>
				</port>
			</output>
		</layer>
		<layer id="284" name="737/reduce/Cast_135920_const" type="Const" version="opset1">
			<data element_type="i64" offset="73784" shape="2" size="16"/>
			<output>
				<port id="1" precision="I64">
					<dim>2</dim>
				</port>
			</output>
		</layer>
		<layer id="285" name="737/reduce" type="ReduceMean" version="opset1">
			<data keep_dims="True"/>
			<input>
				<port id="0">
					<dim>1</dim>
					<dim>64</dim>
					<dim>64</dim>
					<dim>32</dim>
				</port>
				<port id="1">
					<dim>2</dim>
				</port>
			</input>
			<output>
				<port id="2" precision="FP32">
					<dim>1</dim>
					<dim>64</dim>
					<dim>1</dim>
					<dim>1</dim>
				</port>
			</output>
		</layer>
		<layer id="286" name="739/Cast_135862_const" type="Const" version="opset1">
			<data element_type="i64" offset="464472" shape="4" size="32"/>
			<output>
				<port id="1" precision="I64">
					<dim>4</dim>
				</port>
			</output>
		</layer>
		<layer id="287" name="739" type="Reshape" version="opset1">
			<data special_zero="True"/>
			<input>
				<port id="0">
					<dim>1</dim>
					<dim>64</dim>
					<dim>1</dim>
					<dim>1</dim>
				</port>
				<port id="1">
					<dim>4</dim>
				</port>
			</input>
			<output>
				<port id="2" precision="FP32">
					<dim>1</dim>
					<dim>16</dim>
					<dim>4</dim>
					<dim>1</dim>
				</port>
			</output>
		</layer>
		<layer id="288" name="741/Cast_135872_const" type="Const" version="opset1">
			<data element_type="i64" offset="464504" shape="4" size="32"/>
			<output>
				<port id="1" precision="I64">
					<dim>4</dim>
				</port>
			</output>
		</layer>
		<layer id="289" name="741" type="Reshape" version="opset1">
			<data special_zero="True"/>
			<input>
				<port id="0">
					<dim>1</dim>
					<dim>16</dim>
					<dim>4</dim>
					<dim>1</dim>
				</port>
				<port id="1">
					<dim>4</dim>
				</port>
			</input>
			<output>
				<port id="2" precision="FP32">
					<dim>1</dim>
					<dim>16</dim>
					<dim>4</dim>
					<dim>1</dim>
				</port>
			</output>
		</layer>
		<layer id="290" name="742" type="MVN" version="opset2">
			<data across_channels="0" eps="1e-09" normalize_variance="1"/>
			<input>
				<port id="0">
					<dim>1</dim>
					<dim>16</dim>
					<dim>4</dim>
					<dim>1</dim>
				</port>
			</input>
			<output>
				<port id="1" precision="FP32">
					<dim>1</dim>
					<dim>16</dim>
					<dim>4</dim>
					<dim>1</dim>
				</port>
			</output>
		</layer>
		<layer id="291" name="744/Cast_135930_const" type="Const" version="opset1">
			<data element_type="i64" offset="464536" shape="4" size="32"/>
			<output>
				<port id="1" precision="I64">
					<dim>4</dim>
				</port>
			</output>
		</layer>
		<layer id="292" name="744" type="Reshape" version="opset1">
			<data special_zero="True"/>
			<input>
				<port id="0">
					<dim>1</dim>
					<dim>16</dim>
					<dim>4</dim>
					<dim>1</dim>
				</port>
				<port id="1">
					<dim>4</dim>
				</port>
			</input>
			<output>
				<port id="2" precision="FP32">
					<dim>1</dim>
					<dim>64</dim>
					<dim>1</dim>
					<dim>1</dim>
				</port>
			</output>
		</layer>
		<layer id="293" name="746/Output_0/Data__const" type="Const" version="opset1">
			<data element_type="f32" offset="464568" shape="1,64,1,1" size="256"/>
			<output>
				<port id="1" precision="FP32">
					<dim>1</dim>
					<dim>64</dim>
					<dim>1</dim>
					<dim>1</dim>
				</port>
			</output>
		</layer>
		<layer id="294" name="747" type="Multiply" version="opset1">
			<input>
				<port id="0">
					<dim>1</dim>
					<dim>64</dim>
					<dim>1</dim>
					<dim>1</dim>
				</port>
				<port id="1">
					<dim>1</dim>
					<dim>64</dim>
					<dim>1</dim>
					<dim>1</dim>
				</port>
			</input>
			<output>
				<port id="2" precision="FP32">
					<dim>1</dim>
					<dim>64</dim>
					<dim>1</dim>
					<dim>1</dim>
				</port>
			</output>
		</layer>
		<layer id="295" name="749/Output_0/Data__const" type="Const" version="opset1">
			<data element_type="f32" offset="464824" shape="1,64,1,1" size="256"/>
			<output>
				<port id="1" precision="FP32">
					<dim>1</dim>
					<dim>64</dim>
					<dim>1</dim>
					<dim>1</dim>
				</port>
			</output>
		</layer>
		<layer id="296" name="750" type="Add" version="opset1">
			<input>
				<port id="0">
					<dim>1</dim>
					<dim>64</dim>
					<dim>1</dim>
					<dim>1</dim>
				</port>
				<port id="1">
					<dim>1</dim>
					<dim>64</dim>
					<dim>1</dim>
					<dim>1</dim>
				</port>
			</input>
			<output>
				<port id="2" precision="FP32">
					<dim>1</dim>
					<dim>64</dim>
					<dim>1</dim>
					<dim>1</dim>
				</port>
			</output>
		</layer>
		<layer id="297" name="751" type="Sigmoid" version="opset1">
			<input>
				<port id="0">
					<dim>1</dim>
					<dim>64</dim>
					<dim>1</dim>
					<dim>1</dim>
				</port>
			</input>
			<output>
				<port id="1" precision="FP32">
					<dim>1</dim>
					<dim>64</dim>
					<dim>1</dim>
					<dim>1</dim>
				</port>
			</output>
		</layer>
		<layer id="298" name="752" type="Multiply" version="opset1">
			<input>
				<port id="0">
					<dim>1</dim>
					<dim>64</dim>
					<dim>64</dim>
					<dim>32</dim>
				</port>
				<port id="1">
					<dim>1</dim>
					<dim>64</dim>
					<dim>1</dim>
					<dim>1</dim>
				</port>
			</input>
			<output>
				<port id="2" precision="FP32">
					<dim>1</dim>
					<dim>64</dim>
					<dim>64</dim>
					<dim>32</dim>
				</port>
			</output>
		</layer>
		<layer id="299" name="753" type="Add" version="opset1">
			<input>
				<port id="0">
					<dim>1</dim>
					<dim>64</dim>
					<dim>64</dim>
					<dim>32</dim>
				</port>
				<port id="1">
					<dim>1</dim>
					<dim>64</dim>
					<dim>64</dim>
					<dim>32</dim>
				</port>
			</input>
			<output>
				<port id="2" precision="FP32">
					<dim>1</dim>
					<dim>64</dim>
					<dim>64</dim>
					<dim>32</dim>
				</port>
			</output>
		</layer>
		<layer id="300" name="755/mean/Fused_Mul_2130421306_const" type="Const" version="opset1">
			<data element_type="f32" offset="635576" shape="256,64,1,1" size="65536"/>
			<output>
				<port id="1" precision="FP32">
					<dim>256</dim>
					<dim>64</dim>
					<dim>1</dim>
					<dim>1</dim>
				</port>
			</output>
		</layer>
		<layer id="301" name="754" type="Convolution" version="opset1">
			<data dilations="1,1" output_padding="0,0" pads_begin="0,0" pads_end="0,0" strides="1,1"/>
			<input>
				<port id="0">
					<dim>1</dim>
					<dim>64</dim>
					<dim>64</dim>
					<dim>32</dim>
				</port>
				<port id="1">
					<dim>256</dim>
					<dim>64</dim>
					<dim>1</dim>
					<dim>1</dim>
				</port>
			</input>
			<output>
				<port id="2" precision="FP32">
					<dim>1</dim>
					<dim>256</dim>
					<dim>64</dim>
					<dim>32</dim>
				</port>
			</output>
		</layer>
		<layer id="302" name="data_add_1969219697/copy_const" type="Const" version="opset1">
			<data element_type="f32" offset="701112" shape="1,256,1,1" size="1024"/>
			<output>
				<port id="1" precision="FP32">
					<dim>1</dim>
					<dim>256</dim>
					<dim>1</dim>
					<dim>1</dim>
				</port>
			</output>
		</layer>
		<layer id="303" name="755/variance/Fused_Add_" type="Add" version="opset1">
			<input>
				<port id="0">
					<dim>1</dim>
					<dim>256</dim>
					<dim>64</dim>
					<dim>32</dim>
				</port>
				<port id="1">
					<dim>1</dim>
					<dim>256</dim>
					<dim>1</dim>
					<dim>1</dim>
				</port>
			</input>
			<output>
				<port id="2" precision="FP32">
					<dim>1</dim>
					<dim>256</dim>
					<dim>64</dim>
					<dim>32</dim>
				</port>
			</output>
		</layer>
		<layer id="304" name="756" type="Add" version="opset1">
			<input>
				<port id="0">
					<dim>1</dim>
					<dim>256</dim>
					<dim>64</dim>
					<dim>32</dim>
				</port>
				<port id="1">
					<dim>1</dim>
					<dim>256</dim>
					<dim>64</dim>
					<dim>32</dim>
				</port>
			</input>
			<output>
				<port id="2" precision="FP32">
					<dim>1</dim>
					<dim>256</dim>
					<dim>64</dim>
					<dim>32</dim>
				</port>
			</output>
		</layer>
		<layer id="305" name="757" type="ReLU" version="opset1">
			<input>
				<port id="0">
					<dim>1</dim>
					<dim>256</dim>
					<dim>64</dim>
					<dim>32</dim>
				</port>
			</input>
			<output>
				<port id="1" precision="FP32">
					<dim>1</dim>
					<dim>256</dim>
					<dim>64</dim>
					<dim>32</dim>
				</port>
			</output>
		</layer>
		<layer id="306" name="759/mean/Fused_Mul_2130821310_const" type="Const" version="opset1">
			<data element_type="f32" offset="702136" shape="256,256,1,1" size="262144"/>
			<output>
				<port id="1" precision="FP32">
					<dim>256</dim>
					<dim>256</dim>
					<dim>1</dim>
					<dim>1</dim>
				</port>
			</output>
		</layer>
		<layer id="307" name="758" type="Convolution" version="opset1">
			<data dilations="1,1" output_padding="0,0" pads_begin="0,0" pads_end="0,0" strides="1,1"/>
			<input>
				<port id="0">
					<dim>1</dim>
					<dim>256</dim>
					<dim>64</dim>
					<dim>32</dim>
				</port>
				<port id="1">
					<dim>256</dim>
					<dim>256</dim>
					<dim>1</dim>
					<dim>1</dim>
				</port>
			</input>
			<output>
				<port id="2" precision="FP32">
					<dim>1</dim>
					<dim>256</dim>
					<dim>64</dim>
					<dim>32</dim>
				</port>
			</output>
		</layer>
		<layer id="308" name="data_add_1970019705/copy_const" type="Const" version="opset1">
			<data element_type="f32" offset="964280" shape="1,256,1,1" size="1024"/>
			<output>
				<port id="1" precision="FP32">
					<dim>1</dim>
					<dim>256</dim>
					<dim>1</dim>
					<dim>1</dim>
				</port>
			</output>
		</layer>
		<layer id="309" name="759/variance/Fused_Add_" type="Add" version="opset1">
			<input>
				<port id="0">
					<dim>1</dim>
					<dim>256</dim>
					<dim>64</dim>
					<dim>32</dim>
				</port>
				<port id="1">
					<dim>1</dim>
					<dim>256</dim>
					<dim>1</dim>
					<dim>1</dim>
				</port>
			</input>
			<output>
				<port id="2" precision="FP32">
					<dim>1</dim>
					<dim>256</dim>
					<dim>64</dim>
					<dim>32</dim>
				</port>
			</output>
		</layer>
		<layer id="310" name="760" type="ReLU" version="opset1">
			<input>
				<port id="0">
					<dim>1</dim>
					<dim>256</dim>
					<dim>64</dim>
					<dim>32</dim>
				</port>
			</input>
			<output>
				<port id="1" precision="FP32">
					<dim>1</dim>
					<dim>256</dim>
					<dim>64</dim>
					<dim>32</dim>
				</port>
			</output>
		</layer>
		<layer id="311" name="762" type="AvgPool" version="opset1">
			<data exclude-pad="true" kernel="2,2" pads_begin="0,0" pads_end="0,0" rounding_type="floor" strides="2,2"/>
			<input>
				<port id="0">
					<dim>1</dim>
					<dim>256</dim>
					<dim>64</dim>
					<dim>32</dim>
				</port>
			</input>
			<output>
				<port id="1" precision="FP32">
					<dim>1</dim>
					<dim>256</dim>
					<dim>32</dim>
					<dim>16</dim>
				</port>
			</output>
		</layer>
		<layer id="312" name="764/mean/Fused_Mul_2131621318_const" type="Const" version="opset1">
			<data element_type="f32" offset="965304" shape="96,256,1,1" size="98304"/>
			<output>
				<port id="1" precision="FP32">
					<dim>96</dim>
					<dim>256</dim>
					<dim>1</dim>
					<dim>1</dim>
				</port>
			</output>
		</layer>
		<layer id="313" name="763" type="Convolution" version="opset1">
			<data dilations="1,1" output_padding="0,0" pads_begin="0,0" pads_end="0,0" strides="1,1"/>
			<input>
				<port id="0">
					<dim>1</dim>
					<dim>256</dim>
					<dim>32</dim>
					<dim>16</dim>
				</port>
				<port id="1">
					<dim>96</dim>
					<dim>256</dim>
					<dim>1</dim>
					<dim>1</dim>
				</port>
			</input>
			<output>
				<port id="2" precision="FP32">
					<dim>1</dim>
					<dim>96</dim>
					<dim>32</dim>
					<dim>16</dim>
				</port>
			</output>
		</layer>
		<layer id="314" name="data_add_1971619721/copy_const" type="Const" version="opset1">
			<data element_type="f32" offset="1063608" shape="1,96,1,1" size="384"/>
			<output>
				<port id="1" precision="FP32">
					<dim>1</dim>
					<dim>96</dim>
					<dim>1</dim>
					<dim>1</dim>
				</port>
			</output>
		</layer>
		<layer id="315" name="764/variance/Fused_Add_" type="Add" version="opset1">
			<input>
				<port id="0">
					<dim>1</dim>
					<dim>96</dim>
					<dim>32</dim>
					<dim>16</dim>
				</port>
				<port id="1">
					<dim>1</dim>
					<dim>96</dim>
					<dim>1</dim>
					<dim>1</dim>
				</port>
			</input>
			<output>
				<port id="2" precision="FP32">
					<dim>1</dim>
					<dim>96</dim>
					<dim>32</dim>
					<dim>16</dim>
				</port>
			</output>
		</layer>
		<layer id="316" name="765" type="ReLU" version="opset1">
			<input>
				<port id="0">
					<dim>1</dim>
					<dim>96</dim>
					<dim>32</dim>
					<dim>16</dim>
				</port>
			</input>
			<output>
				<port id="1" precision="FP32">
					<dim>1</dim>
					<dim>96</dim>
					<dim>32</dim>
					<dim>16</dim>
				</port>
			</output>
		</layer>
		<layer id="317" name="onnx_initializer_node_conv3.0.conv2a.conv1.weight/Output_0/Data__const" type="Const" version="opset1">
			<data element_type="f32" offset="1063992" shape="96,96,1,1" size="36864"/>
			<output>
				<port id="1" precision="FP32">
					<dim>96</dim>
					<dim>96</dim>
					<dim>1</dim>
					<dim>1</dim>
				</port>
			</output>
		</layer>
		<layer id="318" name="766" type="Convolution" version="opset1">
			<data dilations="1,1" output_padding="0,0" pads_begin="0,0" pads_end="0,0" strides="1,1"/>
			<input>
				<port id="0">
					<dim>1</dim>
					<dim>96</dim>
					<dim>32</dim>
					<dim>16</dim>
				</port>
				<port id="1">
					<dim>96</dim>
					<dim>96</dim>
					<dim>1</dim>
					<dim>1</dim>
				</port>
			</input>
			<output>
				<port id="2" precision="FP32">
					<dim>1</dim>
					<dim>96</dim>
					<dim>32</dim>
					<dim>16</dim>
				</port>
			</output>
		</layer>
		<layer id="319" name="3485934862_const" type="Const" version="opset1">
			<data element_type="f32" offset="1100856" shape="96,1,1,3,3" size="3456"/>
			<output>
				<port id="1" precision="FP32">
					<dim>96</dim>
					<dim>1</dim>
					<dim>1</dim>
					<dim>3</dim>
					<dim>3</dim>
				</port>
			</output>
		</layer>
		<layer id="320" name="767" type="GroupConvolution" version="opset1">
			<data dilations="1,1" output_padding="0,0" pads_begin="1,1" pads_end="1,1" strides="1,1"/>
			<input>
				<port id="0">
					<dim>1</dim>
					<dim>96</dim>
					<dim>32</dim>
					<dim>16</dim>
				</port>
				<port id="1">
					<dim>96</dim>
					<dim>1</dim>
					<dim>1</dim>
					<dim>3</dim>
					<dim>3</dim>
				</port>
			</input>
			<output>
				<port id="2" precision="FP32">
					<dim>1</dim>
					<dim>96</dim>
					<dim>32</dim>
					<dim>16</dim>
				</port>
			</output>
		</layer>
		<layer id="321" name="data_add_1979619801/copy_const" type="Const" version="opset1">
			<data element_type="f32" offset="1104312" shape="1,96,1,1" size="384"/>
			<output>
				<port id="1" precision="FP32">
					<dim>1</dim>
					<dim>96</dim>
					<dim>1</dim>
					<dim>1</dim>
				</port>
			</output>
		</layer>
		<layer id="322" name="768/variance/Fused_Add_" type="Add" version="opset1">
			<input>
				<port id="0">
					<dim>1</dim>
					<dim>96</dim>
					<dim>32</dim>
					<dim>16</dim>
				</port>
				<port id="1">
					<dim>1</dim>
					<dim>96</dim>
					<dim>1</dim>
					<dim>1</dim>
				</port>
			</input>
			<output>
				<port id="2" precision="FP32">
					<dim>1</dim>
					<dim>96</dim>
					<dim>32</dim>
					<dim>16</dim>
				</port>
			</output>
		</layer>
		<layer id="323" name="769" type="ReLU" version="opset1">
			<input>
				<port id="0">
					<dim>1</dim>
					<dim>96</dim>
					<dim>32</dim>
					<dim>16</dim>
				</port>
			</input>
			<output>
				<port id="1" precision="FP32">
					<dim>1</dim>
					<dim>96</dim>
					<dim>32</dim>
					<dim>16</dim>
				</port>
			</output>
		</layer>
		<layer id="324" name="806/reduce/Cast_135846_const" type="Const" version="opset1">
			<data element_type="i64" offset="73784" shape="2" size="16"/>
			<output>
				<port id="1" precision="I64">
					<dim>2</dim>
				</port>
			</output>
		</layer>
		<layer id="325" name="806/reduce" type="ReduceMean" version="opset1">
			<data keep_dims="True"/>
			<input>
				<port id="0">
					<dim>1</dim>
					<dim>96</dim>
					<dim>32</dim>
					<dim>16</dim>
				</port>
				<port id="1">
					<dim>2</dim>
				</port>
			</input>
			<output>
				<port id="2" precision="FP32">
					<dim>1</dim>
					<dim>96</dim>
					<dim>1</dim>
					<dim>1</dim>
				</port>
			</output>
		</layer>
		<layer id="326" name="Copy_onnx_initializer_node_conv3.0.gate.fc1.weight/Output_0/Data__const" type="Const" version="opset1">
			<data element_type="f32" offset="1104696" shape="6,96,1,1" size="2304"/>
			<output>
				<port id="1" precision="FP32">
					<dim>6</dim>
					<dim>96</dim>
					<dim>1</dim>
					<dim>1</dim>
				</port>
			</output>
		</layer>
		<layer id="327" name="807/WithoutBiases" type="Convolution" version="opset1">
			<data dilations="1,1" output_padding="0,0" pads_begin="0,0" pads_end="0,0" strides="1,1"/>
			<input>
				<port id="0">
					<dim>1</dim>
					<dim>96</dim>
					<dim>1</dim>
					<dim>1</dim>
				</port>
				<port id="1">
					<dim>6</dim>
					<dim>96</dim>
					<dim>1</dim>
					<dim>1</dim>
				</port>
			</input>
			<output>
				<port id="2" precision="FP32">
					<dim>1</dim>
					<dim>6</dim>
					<dim>1</dim>
					<dim>1</dim>
				</port>
			</output>
		</layer>
		<layer id="328" name="807/Dims11853/copy_const" type="Const" version="opset1">
			<data element_type="f32" offset="1107000" shape="1,6,1,1" size="24"/>
			<output>
				<port id="1" precision="FP32">
					<dim>1</dim>
					<dim>6</dim>
					<dim>1</dim>
					<dim>1</dim>
				</port>
			</output>
		</layer>
		<layer id="329" name="807" type="Add" version="opset1">
			<input>
				<port id="0">
					<dim>1</dim>
					<dim>6</dim>
					<dim>1</dim>
					<dim>1</dim>
				</port>
				<port id="1">
					<dim>1</dim>
					<dim>6</dim>
					<dim>1</dim>
					<dim>1</dim>
				</port>
			</input>
			<output>
				<port id="2" precision="FP32">
					<dim>1</dim>
					<dim>6</dim>
					<dim>1</dim>
					<dim>1</dim>
				</port>
			</output>
		</layer>
		<layer id="330" name="808" type="ReLU" version="opset1">
			<input>
				<port id="0">
					<dim>1</dim>
					<dim>6</dim>
					<dim>1</dim>
					<dim>1</dim>
				</port>
			</input>
			<output>
				<port id="1" precision="FP32">
					<dim>1</dim>
					<dim>6</dim>
					<dim>1</dim>
					<dim>1</dim>
				</port>
			</output>
		</layer>
		<layer id="331" name="Copy_onnx_initializer_node_conv3.0.gate.fc2.weight/Output_0/Data__const" type="Const" version="opset1">
			<data element_type="f32" offset="1107024" shape="96,6,1,1" size="2304"/>
			<output>
				<port id="1" precision="FP32">
					<dim>96</dim>
					<dim>6</dim>
					<dim>1</dim>
					<dim>1</dim>
				</port>
			</output>
		</layer>
		<layer id="332" name="809/WithoutBiases" type="Convolution" version="opset1">
			<data dilations="1,1" output_padding="0,0" pads_begin="0,0" pads_end="0,0" strides="1,1"/>
			<input>
				<port id="0">
					<dim>1</dim>
					<dim>6</dim>
					<dim>1</dim>
					<dim>1</dim>
				</port>
				<port id="1">
					<dim>96</dim>
					<dim>6</dim>
					<dim>1</dim>
					<dim>1</dim>
				</port>
			</input>
			<output>
				<port id="2" precision="FP32">
					<dim>1</dim>
					<dim>96</dim>
					<dim>1</dim>
					<dim>1</dim>
				</port>
			</output>
		</layer>
		<layer id="333" name="809/Dims11787/copy_const" type="Const" version="opset1">
			<data element_type="f32" offset="1109328" shape="1,96,1,1" size="384"/>
			<output>
				<port id="1" precision="FP32">
					<dim>1</dim>
					<dim>96</dim>
					<dim>1</dim>
					<dim>1</dim>
				</port>
			</output>
		</layer>
		<layer id="334" name="809" type="Add" version="opset1">
			<input>
				<port id="0">
					<dim>1</dim>
					<dim>96</dim>
					<dim>1</dim>
					<dim>1</dim>
				</port>
				<port id="1">
					<dim>1</dim>
					<dim>96</dim>
					<dim>1</dim>
					<dim>1</dim>
				</port>
			</input>
			<output>
				<port id="2" precision="FP32">
					<dim>1</dim>
					<dim>96</dim>
					<dim>1</dim>
					<dim>1</dim>
				</port>
			</output>
		</layer>
		<layer id="335" name="810" type="Sigmoid" version="opset1">
			<input>
				<port id="0">
					<dim>1</dim>
					<dim>96</dim>
					<dim>1</dim>
					<dim>1</dim>
				</port>
			</input>
			<output>
				<port id="1" precision="FP32">
					<dim>1</dim>
					<dim>96</dim>
					<dim>1</dim>
					<dim>1</dim>
				</port>
			</output>
		</layer>
		<layer id="336" name="811" type="Multiply" version="opset1">
			<input>
				<port id="0">
					<dim>1</dim>
					<dim>96</dim>
					<dim>32</dim>
					<dim>16</dim>
				</port>
				<port id="1">
					<dim>1</dim>
					<dim>96</dim>
					<dim>1</dim>
					<dim>1</dim>
				</port>
			</input>
			<output>
				<port id="2" precision="FP32">
					<dim>1</dim>
					<dim>96</dim>
					<dim>32</dim>
					<dim>16</dim>
				</port>
			</output>
		</layer>
		<layer id="337" name="onnx_initializer_node_conv3.0.conv2b.0.conv1.weight/Output_0/Data__const" type="Const" version="opset1">
			<data element_type="f32" offset="1109712" shape="96,96,1,1" size="36864"/>
			<output>
				<port id="1" precision="FP32">
					<dim>96</dim>
					<dim>96</dim>
					<dim>1</dim>
					<dim>1</dim>
				</port>
			</output>
		</layer>
		<layer id="338" name="770" type="Convolution" version="opset1">
			<data dilations="1,1" output_padding="0,0" pads_begin="0,0" pads_end="0,0" strides="1,1"/>
			<input>
				<port id="0">
					<dim>1</dim>
					<dim>96</dim>
					<dim>32</dim>
					<dim>16</dim>
				</port>
				<port id="1">
					<dim>96</dim>
					<dim>96</dim>
					<dim>1</dim>
					<dim>1</dim>
				</port>
			</input>
			<output>
				<port id="2" precision="FP32">
					<dim>1</dim>
					<dim>96</dim>
					<dim>32</dim>
					<dim>16</dim>
				</port>
			</output>
		</layer>
		<layer id="339" name="3499134994_const" type="Const" version="opset1">
			<data element_type="f32" offset="1146576" shape="96,1,1,3,3" size="3456"/>
			<output>
				<port id="1" precision="FP32">
					<dim>96</dim>
					<dim>1</dim>
					<dim>1</dim>
					<dim>3</dim>
					<dim>3</dim>
				</port>
			</output>
		</layer>
		<layer id="340" name="771" type="GroupConvolution" version="opset1">
			<data dilations="1,1" output_padding="0,0" pads_begin="1,1" pads_end="1,1" strides="1,1"/>
			<input>
				<port id="0">
					<dim>1</dim>
					<dim>96</dim>
					<dim>32</dim>
					<dim>16</dim>
				</port>
				<port id="1">
					<dim>96</dim>
					<dim>1</dim>
					<dim>1</dim>
					<dim>3</dim>
					<dim>3</dim>
				</port>
			</input>
			<output>
				<port id="2" precision="FP32">
					<dim>1</dim>
					<dim>96</dim>
					<dim>32</dim>
					<dim>16</dim>
				</port>
			</output>
		</layer>
		<layer id="341" name="data_add_1978019785/copy_const" type="Const" version="opset1">
			<data element_type="f32" offset="1150032" shape="1,96,1,1" size="384"/>
			<output>
				<port id="1" precision="FP32">
					<dim>1</dim>
					<dim>96</dim>
					<dim>1</dim>
					<dim>1</dim>
				</port>
			</output>
		</layer>
		<layer id="342" name="772/variance/Fused_Add_" type="Add" version="opset1">
			<input>
				<port id="0">
					<dim>1</dim>
					<dim>96</dim>
					<dim>32</dim>
					<dim>16</dim>
				</port>
				<port id="1">
					<dim>1</dim>
					<dim>96</dim>
					<dim>1</dim>
					<dim>1</dim>
				</port>
			</input>
			<output>
				<port id="2" precision="FP32">
					<dim>1</dim>
					<dim>96</dim>
					<dim>32</dim>
					<dim>16</dim>
				</port>
			</output>
		</layer>
		<layer id="343" name="773" type="ReLU" version="opset1">
			<input>
				<port id="0">
					<dim>1</dim>
					<dim>96</dim>
					<dim>32</dim>
					<dim>16</dim>
				</port>
			</input>
			<output>
				<port id="1" precision="FP32">
					<dim>1</dim>
					<dim>96</dim>
					<dim>32</dim>
					<dim>16</dim>
				</port>
			</output>
		</layer>
		<layer id="344" name="onnx_initializer_node_conv3.0.conv2b.1.conv1.weight/Output_0/Data__const" type="Const" version="opset1">
			<data element_type="f32" offset="1150416" shape="96,96,1,1" size="36864"/>
			<output>
				<port id="1" precision="FP32">
					<dim>96</dim>
					<dim>96</dim>
					<dim>1</dim>
					<dim>1</dim>
				</port>
			</output>
		</layer>
		<layer id="345" name="774" type="Convolution" version="opset1">
			<data dilations="1,1" output_padding="0,0" pads_begin="0,0" pads_end="0,0" strides="1,1"/>
			<input>
				<port id="0">
					<dim>1</dim>
					<dim>96</dim>
					<dim>32</dim>
					<dim>16</dim>
				</port>
				<port id="1">
					<dim>96</dim>
					<dim>96</dim>
					<dim>1</dim>
					<dim>1</dim>
				</port>
			</input>
			<output>
				<port id="2" precision="FP32">
					<dim>1</dim>
					<dim>96</dim>
					<dim>32</dim>
					<dim>16</dim>
				</port>
			</output>
		</layer>
		<layer id="346" name="3501935022_const" type="Const" version="opset1">
			<data element_type="f32" offset="1187280" shape="96,1,1,3,3" size="3456"/>
			<output>
				<port id="1" precision="FP32">
					<dim>96</dim>
					<dim>1</dim>
					<dim>1</dim>
					<dim>3</dim>
					<dim>3</dim>
				</port>
			</output>
		</layer>
		<layer id="347" name="775" type="GroupConvolution" version="opset1">
			<data dilations="1,1" output_padding="0,0" pads_begin="1,1" pads_end="1,1" strides="1,1"/>
			<input>
				<port id="0">
					<dim>1</dim>
					<dim>96</dim>
					<dim>32</dim>
					<dim>16</dim>
				</port>
				<port id="1">
					<dim>96</dim>
					<dim>1</dim>
					<dim>1</dim>
					<dim>3</dim>
					<dim>3</dim>
				</port>
			</input>
			<output>
				<port id="2" precision="FP32">
					<dim>1</dim>
					<dim>96</dim>
					<dim>32</dim>
					<dim>16</dim>
				</port>
			</output>
		</layer>
		<layer id="348" name="data_add_1978819793/copy_const" type="Const" version="opset1">
			<data element_type="f32" offset="1190736" shape="1,96,1,1" size="384"/>
			<output>
				<port id="1" precision="FP32">
					<dim>1</dim>
					<dim>96</dim>
					<dim>1</dim>
					<dim>1</dim>
				</port>
			</output>
		</layer>
		<layer id="349" name="776/variance/Fused_Add_" type="Add" version="opset1">
			<input>
				<port id="0">
					<dim>1</dim>
					<dim>96</dim>
					<dim>32</dim>
					<dim>16</dim>
				</port>
				<port id="1">
					<dim>1</dim>
					<dim>96</dim>
					<dim>1</dim>
					<dim>1</dim>
				</port>
			</input>
			<output>
				<port id="2" precision="FP32">
					<dim>1</dim>
					<dim>96</dim>
					<dim>32</dim>
					<dim>16</dim>
				</port>
			</output>
		</layer>
		<layer id="350" name="777" type="ReLU" version="opset1">
			<input>
				<port id="0">
					<dim>1</dim>
					<dim>96</dim>
					<dim>32</dim>
					<dim>16</dim>
				</port>
			</input>
			<output>
				<port id="1" precision="FP32">
					<dim>1</dim>
					<dim>96</dim>
					<dim>32</dim>
					<dim>16</dim>
				</port>
			</output>
		</layer>
		<layer id="351" name="812/reduce/Cast_135910_const" type="Const" version="opset1">
			<data element_type="i64" offset="73784" shape="2" size="16"/>
			<output>
				<port id="1" precision="I64">
					<dim>2</dim>
				</port>
			</output>
		</layer>
		<layer id="352" name="812/reduce" type="ReduceMean" version="opset1">
			<data keep_dims="True"/>
			<input>
				<port id="0">
					<dim>1</dim>
					<dim>96</dim>
					<dim>32</dim>
					<dim>16</dim>
				</port>
				<port id="1">
					<dim>2</dim>
				</port>
			</input>
			<output>
				<port id="2" precision="FP32">
					<dim>1</dim>
					<dim>96</dim>
					<dim>1</dim>
					<dim>1</dim>
				</port>
			</output>
		</layer>
		<layer id="353" name="Copy_onnx_initializer_node_conv3.0.gate.fc1.weight/Output_0/Data_3888_const" type="Const" version="opset1">
			<data element_type="f32" offset="1104696" shape="6,96,1,1" size="2304"/>
			<output>
				<port id="1" precision="FP32">
					<dim>6</dim>
					<dim>96</dim>
					<dim>1</dim>
					<dim>1</dim>
				</port>
			</output>
		</layer>
		<layer id="354" name="813/WithoutBiases" type="Convolution" version="opset1">
			<data dilations="1,1" output_padding="0,0" pads_begin="0,0" pads_end="0,0" strides="1,1"/>
			<input>
				<port id="0">
					<dim>1</dim>
					<dim>96</dim>
					<dim>1</dim>
					<dim>1</dim>
				</port>
				<port id="1">
					<dim>6</dim>
					<dim>96</dim>
					<dim>1</dim>
					<dim>1</dim>
				</port>
			</input>
			<output>
				<port id="2" precision="FP32">
					<dim>1</dim>
					<dim>6</dim>
					<dim>1</dim>
					<dim>1</dim>
				</port>
			</output>
		</layer>
		<layer id="355" name="813/Dims11889/copy_const" type="Const" version="opset1">
			<data element_type="f32" offset="1107000" shape="1,6,1,1" size="24"/>
			<output>
				<port id="1" precision="FP32">
					<dim>1</dim>
					<dim>6</dim>
					<dim>1</dim>
					<dim>1</dim>
				</port>
			</output>
		</layer>
		<layer id="356" name="813" type="Add" version="opset1">
			<input>
				<port id="0">
					<dim>1</dim>
					<dim>6</dim>
					<dim>1</dim>
					<dim>1</dim>
				</port>
				<port id="1">
					<dim>1</dim>
					<dim>6</dim>
					<dim>1</dim>
					<dim>1</dim>
				</port>
			</input>
			<output>
				<port id="2" precision="FP32">
					<dim>1</dim>
					<dim>6</dim>
					<dim>1</dim>
					<dim>1</dim>
				</port>
			</output>
		</layer>
		<layer id="357" name="814" type="ReLU" version="opset1">
			<input>
				<port id="0">
					<dim>1</dim>
					<dim>6</dim>
					<dim>1</dim>
					<dim>1</dim>
				</port>
			</input>
			<output>
				<port id="1" precision="FP32">
					<dim>1</dim>
					<dim>6</dim>
					<dim>1</dim>
					<dim>1</dim>
				</port>
			</output>
		</layer>
		<layer id="358" name="Copy_onnx_initializer_node_conv3.0.gate.fc2.weight/Output_0/Data_3896_const" type="Const" version="opset1">
			<data element_type="f32" offset="1107024" shape="96,6,1,1" size="2304"/>
			<output>
				<port id="1" precision="FP32">
					<dim>96</dim>
					<dim>6</dim>
					<dim>1</dim>
					<dim>1</dim>
				</port>
			</output>
		</layer>
		<layer id="359" name="815/WithoutBiases" type="Convolution" version="opset1">
			<data dilations="1,1" output_padding="0,0" pads_begin="0,0" pads_end="0,0" strides="1,1"/>
			<input>
				<port id="0">
					<dim>1</dim>
					<dim>6</dim>
					<dim>1</dim>
					<dim>1</dim>
				</port>
				<port id="1">
					<dim>96</dim>
					<dim>6</dim>
					<dim>1</dim>
					<dim>1</dim>
				</port>
			</input>
			<output>
				<port id="2" precision="FP32">
					<dim>1</dim>
					<dim>96</dim>
					<dim>1</dim>
					<dim>1</dim>
				</port>
			</output>
		</layer>
		<layer id="360" name="815/Dims11901/copy_const" type="Const" version="opset1">
			<data element_type="f32" offset="1109328" shape="1,96,1,1" size="384"/>
			<output>
				<port id="1" precision="FP32">
					<dim>1</dim>
					<dim>96</dim>
					<dim>1</dim>
					<dim>1</dim>
				</port>
			</output>
		</layer>
		<layer id="361" name="815" type="Add" version="opset1">
			<input>
				<port id="0">
					<dim>1</dim>
					<dim>96</dim>
					<dim>1</dim>
					<dim>1</dim>
				</port>
				<port id="1">
					<dim>1</dim>
					<dim>96</dim>
					<dim>1</dim>
					<dim>1</dim>
				</port>
			</input>
			<output>
				<port id="2" precision="FP32">
					<dim>1</dim>
					<dim>96</dim>
					<dim>1</dim>
					<dim>1</dim>
				</port>
			</output>
		</layer>
		<layer id="362" name="816" type="Sigmoid" version="opset1">
			<input>
				<port id="0">
					<dim>1</dim>
					<dim>96</dim>
					<dim>1</dim>
					<dim>1</dim>
				</port>
			</input>
			<output>
				<port id="1" precision="FP32">
					<dim>1</dim>
					<dim>96</dim>
					<dim>1</dim>
					<dim>1</dim>
				</port>
			</output>
		</layer>
		<layer id="363" name="817" type="Multiply" version="opset1">
			<input>
				<port id="0">
					<dim>1</dim>
					<dim>96</dim>
					<dim>32</dim>
					<dim>16</dim>
				</port>
				<port id="1">
					<dim>1</dim>
					<dim>96</dim>
					<dim>1</dim>
					<dim>1</dim>
				</port>
			</input>
			<output>
				<port id="2" precision="FP32">
					<dim>1</dim>
					<dim>96</dim>
					<dim>32</dim>
					<dim>16</dim>
				</port>
			</output>
		</layer>
		<layer id="364" name="818" type="Add" version="opset1">
			<input>
				<port id="0">
					<dim>1</dim>
					<dim>96</dim>
					<dim>32</dim>
					<dim>16</dim>
				</port>
				<port id="1">
					<dim>1</dim>
					<dim>96</dim>
					<dim>32</dim>
					<dim>16</dim>
				</port>
			</input>
			<output>
				<port id="2" precision="FP32">
					<dim>1</dim>
					<dim>96</dim>
					<dim>32</dim>
					<dim>16</dim>
				</port>
			</output>
		</layer>
		<layer id="365" name="onnx_initializer_node_conv3.0.conv2c.0.conv1.weight/Output_0/Data__const" type="Const" version="opset1">
			<data element_type="f32" offset="1191120" shape="96,96,1,1" size="36864"/>
			<output>
				<port id="1" precision="FP32">
					<dim>96</dim>
					<dim>96</dim>
					<dim>1</dim>
					<dim>1</dim>
				</port>
			</output>
		</layer>
		<layer id="366" name="778" type="Convolution" version="opset1">
			<data dilations="1,1" output_padding="0,0" pads_begin="0,0" pads_end="0,0" strides="1,1"/>
			<input>
				<port id="0">
					<dim>1</dim>
					<dim>96</dim>
					<dim>32</dim>
					<dim>16</dim>
				</port>
				<port id="1">
					<dim>96</dim>
					<dim>96</dim>
					<dim>1</dim>
					<dim>1</dim>
				</port>
			</input>
			<output>
				<port id="2" precision="FP32">
					<dim>1</dim>
					<dim>96</dim>
					<dim>32</dim>
					<dim>16</dim>
				</port>
			</output>
		</layer>
		<layer id="367" name="3507935082_const" type="Const" version="opset1">
			<data element_type="f32" offset="1227984" shape="96,1,1,3,3" size="3456"/>
			<output>
				<port id="1" precision="FP32">
					<dim>96</dim>
					<dim>1</dim>
					<dim>1</dim>
					<dim>3</dim>
					<dim>3</dim>
				</port>
			</output>
		</layer>
		<layer id="368" name="779" type="GroupConvolution" version="opset1">
			<data dilations="1,1" output_padding="0,0" pads_begin="1,1" pads_end="1,1" strides="1,1"/>
			<input>
				<port id="0">
					<dim>1</dim>
					<dim>96</dim>
					<dim>32</dim>
					<dim>16</dim>
				</port>
				<port id="1">
					<dim>96</dim>
					<dim>1</dim>
					<dim>1</dim>
					<dim>3</dim>
					<dim>3</dim>
				</port>
			</input>
			<output>
				<port id="2" precision="FP32">
					<dim>1</dim>
					<dim>96</dim>
					<dim>32</dim>
					<dim>16</dim>
				</port>
			</output>
		</layer>
		<layer id="369" name="data_add_1975619761/copy_const" type="Const" version="opset1">
			<data element_type="f32" offset="1231440" shape="1,96,1,1" size="384"/>
			<output>
				<port id="1" precision="FP32">
					<dim>1</dim>
					<dim>96</dim>
					<dim>1</dim>
					<dim>1</dim>
				</port>
			</output>
		</layer>
		<layer id="370" name="780/variance/Fused_Add_" type="Add" version="opset1">
			<input>
				<port id="0">
					<dim>1</dim>
					<dim>96</dim>
					<dim>32</dim>
					<dim>16</dim>
				</port>
				<port id="1">
					<dim>1</dim>
					<dim>96</dim>
					<dim>1</dim>
…
		<edge from-layer="247" from-port="1" to-layer="248" to-port="1"/>
		<edge from-layer="248" from-port="2" to-layer="250" to-port="0"/>
		<edge from-layer="249" from-port="1" to-layer="250" to-port="1"/>
		<edge from-layer="250" from-port="2" to-layer="252" to-port="0"/>
		<edge from-layer="251" from-port="1" to-layer="252" to-port="1"/>
		<edge from-layer="252" from-port="2" to-layer="253" to-port="0"/>
		<edge from-layer="239" from-port="1" to-layer="254" to-port="0"/>
		<edge from-layer="253" from-port="1" to-layer="254" to-port="1"/>
		<edge from-layer="218" from-port="2" to-layer="255" to-port="0"/>
		<edge from-layer="254" from-port="2" to-layer="255" to-port="1"/>
		<edge from-layer="166" from-port="1" to-layer="257" to-port="0"/>
		<edge from-layer="256" from-port="1" to-layer="257" to-port="1"/>
		<edge from-layer="257" from-port="2" to-layer="259" to-port="0"/>
		<edge from-layer="258" from-port="1" to-layer="259" to-port="1"/>
		<edge from-layer="259" from-port="2" to-layer="261" to-port="0"/>
		<edge from-layer="260" from-port="1" to-layer="261" to-port="1"/>
		<edge from-layer="261" from-port="2" to-layer="262" to-port="0"/>
		<edge from-layer="262" from-port="1" to-layer="264" to-port="0"/>
		<edge from-layer="263" from-port="1" to-layer="264" to-port="1"/>
		<edge from-layer="264" from-port="2" to-layer="266" to-port="0"/>
		<edge from-layer="265" from-port="1" to-layer="266" to-port="1"/>
		<edge from-layer="266" from-port="2" to-layer="268" to-port="0"/>
		<edge from-layer="267" from-port="1" to-layer="268" to-port="1"/>
		<edge from-layer="268" from-port="2" to-layer="269" to-port="0"/>
		<edge from-layer="269" from-port="1" to-layer="271" to-port="0"/>
		<edge from-layer="270" from-port="1" to-layer="271" to-port="1"/>
		<edge from-layer="271" from-port="2" to-layer="273" to-port="0"/>
		<edge from-layer="272" from-port="1" to-layer="273" to-port="1"/>
		<edge from-layer="273" from-port="2" to-layer="275" to-port="0"/>
		<edge from-layer="274" from-port="1" to-layer="275" to-port="1"/>
		<edge from-layer="275" from-port="2" to-layer="276" to-port="0"/>
		<edge from-layer="276" from-port="1" to-layer="278" to-port="0"/>
		<edge from-layer="277" from-port="1" to-layer="278" to-port="1"/>
		<edge from-layer="278" from-port="2" to-layer="280" to-port="0"/>
		<edge from-layer="279" from-port="1" to-layer="280" to-port="1"/>
		<edge from-layer="280" from-port="2" to-layer="282" to-port="0"/>
		<edge from-layer="281" from-port="1" to-layer="282" to-port="1"/>
		<edge from-layer="282" from-port="2" to-layer="283" to-port="0"/>
		<edge from-layer="283" from-port="1" to-layer="285" to-port="0"/>
		<edge from-layer="284" from-port="1" to-layer="285" to-port="1"/>
		<edge from-layer="285" from-port="2" to-layer="287" to-port="0"/>
		<edge from-layer="286" from-port="1" to-layer="287" to-port="1"/>
		<edge from-layer="287" from-port="2" to-layer="289" to-port="0"/>
		<edge from-layer="288" from-port="1" to-layer="289" to-port="1"/>
		<edge from-layer="289" from-port="2" to-layer="290" to-port="0"/>
		<edge from-layer="290" from-port="1" to-layer="292" to-port="0"/>
		<edge from-layer="291" from-port="1" to-layer="292" to-port="1"/>
		<edge from-layer="292" from-port="2" to-layer="294" to-port="0"/>
		<edge from-layer="293" from-port="1" to-layer="294" to-port="1"/>
		<edge from-layer="294" from-port="2" to-layer="296" to-port="0"/>
		<edge from-layer="295" from-port="1" to-layer="296" to-port="1"/>
		<edge from-layer="296" from-port="2" to-layer="297" to-port="0"/>
		<edge from-layer="283" from-port="1" to-layer="298" to-port="0"/>
		<edge from-layer="297" from-port="1" to-layer="298" to-port="1"/>
		<edge from-layer="255" from-port="2" to-layer="299" to-port="0"/>
		<edge from-layer="298" from-port="2" to-layer="299" to-port="1"/>
		<edge from-layer="299" from-port="2" to-layer="301" to-port="0"/>
		<edge from-layer="300" from-port="1" to-layer="301" to-port="1"/>
		<edge from-layer="301" from-port="2" to-layer="303" to-port="0"/>
		<edge from-layer="302" from-port="1" to-layer="303" to-port="1"/>
		<edge from-layer="303" from-port="2" to-layer="304" to-port="0"/>
		<edge from-layer="161" from-port="1" to-layer="304" to-port="1"/>
		<edge from-layer="304" from-port="2" to-layer="305" to-port="0"/>
		<edge from-layer="305" from-port="1" to-layer="307" to-port="0"/>
		<edge from-layer="306" from-port="1" to-layer="307" to-port="1"/>
		<edge from-layer="307" from-port="2" to-layer="309" to-port="0"/>
		<edge from-layer="308" from-port="1" to-layer="309" to-port="1"/>
		<edge from-layer="309" from-port="2" to-layer="310" to-port="0"/>
		<edge from-layer="310" from-port="1" to-layer="311" to-port="0"/>
		<edge from-layer="311" from-port="1" to-layer="313" to-port="0"/>
		<edge from-layer="312" from-port="1" to-layer="313" to-port="1"/>
		<edge from-layer="313" from-port="2" to-layer="315" to-port="0"/>
		<edge from-layer="314" from-port="1" to-layer="315" to-port="1"/>
		<edge from-layer="315" from-port="2" to-layer="316" to-port="0"/>
		<edge from-layer="316" from-port="1" to-layer="318" to-port="0"/>
		<edge from-layer="317" from-port="1" to-layer="318" to-port="1"/>
		<edge from-layer="318" from-port="2" to-layer="320" to-port="0"/>
		<edge from-layer="319" from-port="1" to-layer="320" to-port="1"/>
		<edge from-layer="320" from-port="2" to-layer="322" to-port="0"/>
		<edge from-layer="321" from-port="1" to-layer="322" to-port="1"/>
		<edge from-layer="322" from-port="2" to-layer="323" to-port="0"/>
		<edge from-layer="323" from-port="1" to-layer="325" to-port="0"/>
		<edge from-layer="324" from-port="1" to-layer="325" to-port="1"/>
		<edge from-layer="325" from-port="2" to-layer="327" to-port="0"/>
		<edge from-layer="326" from-port="1" to-layer="327" to-port="1"/>
		<edge from-layer="327" from-port="2" to-layer="329" to-port="0"/>
		<edge from-layer="328" from-port="1" to-layer="329" to-port="1"/>
		<edge from-layer="329" from-port="2" to-layer="330" to-port="0"/>
		<edge from-layer="330" from-port="1" to-layer="332" to-port="0"/>
		<edge from-layer="331" from-port="1" to-layer="332" to-port="1"/>
		<edge from-layer="332" from-port="2" to-layer="334" to-port="0"/>
		<edge from-layer="333" from-port="1" to-layer="334" to-port="1"/>
		<edge from-layer="334" from-port="2" to-layer="335" to-port="0"/>
		<edge from-layer="323" from-port="1" to-layer="336" to-port="0"/>
		<edge from-layer="335" from-port="1" to-layer="336" to-port="1"/>
		<edge from-layer="316" from-port="1" to-layer="338" to-port="0"/>
		<edge from-layer="337" from-port="1" to-layer="338" to-port="1"/>
		<edge from-layer="338" from-port="2" to-layer="340" to-port="0"/>
		<edge from-layer="339" from-port="1" to-layer="340" to-port="1"/>
		<edge from-layer="340" from-port="2" to-layer="342" to-port="0"/>
		<edge from-layer="341" from-port="1" to-layer="342" to-port="1"/>
		<edge from-layer="342" from-port="2" to-layer="343" to-port="0"/>
		<edge from-layer="343" from-port="1" to-layer="345" to-port="0"/>
		<edge from-layer="344" from-port="1" to-layer="345" to-port="1"/>
		<edge from-layer="345" from-port="2" to-layer="347" to-port="0"/>
		<edge from-layer="346" from-port="1" to-layer="347" to-port="1"/>
		<edge from-layer="347" from-port="2" to-layer="349" to-port="0"/>
		<edge from-layer="348" from-port="1" to-layer="349" to-port="1"/>
		<edge from-layer="349" from-port="2" to-layer="350" to-port="0"/>
		<edge from-layer="350" from-port="1" to-layer="352" to-port="0"/>
		<edge from-layer="351" from-port="1" to-layer="352" to-port="1"/>
		<edge from-layer="352" from-port="2" to-layer="354" to-port="0"/>
		<edge from-layer="353" from-port="1" to-layer="354" to-port="1"/>
		<edge from-layer="354" from-port="2" to-layer="356" to-port="0"/>
		<edge from-layer="355" from-port="1" to-layer="356" to-port="1"/>
		<edge from-layer="356" from-port="2" to-layer="357" to-port="0"/>
		<edge from-layer="357" from-port="1" to-layer="359" to-port="0"/>
		<edge from-layer="358" from-port="1" to-layer="359" to-port="1"/>
		<edge from-layer="359" from-port="2" to-layer="361" to-port="0"/>
		<edge from-layer="360" from-port="1" to-layer="361" to-port="1"/>
		<edge from-layer="361" from-port="2" to-layer="362" to-port="0"/>
		<edge from-layer="350" from-port="1" to-layer="363" to-port="0"/>
		<edge from-layer="362" from-port="1" to-layer="363" to-port="1"/>
		<edge from-layer="336" from-port="2" to-layer="364" to-port="0"/>
		<edge from-layer="363" from-port="2" to-layer="364" to-port="1"/>
		<edge from-layer="316" from-port="1" to-layer="366" to-port="0"/>
		<edge from-layer="365" from-port="1" to-layer="366" to-port="1"/>
		<edge from-layer="366" from-port="2" to-layer="368" to-port="0"/>
		<edge from-layer="367" from-port="1" to-layer="368" to-port="1"/>
		<edge from-layer="368" from-port="2" to-layer="370" to-port="0"/>
		<edge from-layer="369" from-port="1" to-layer="370" to-port="1"/>
		<edge from-layer="370" from-port="2" to-layer="371" to-port="0"/>
		<edge from-layer="371" from-port="1" to-layer="373" to-port="0"/>
		<edge from-layer="372" from-port="1" to-layer="373" to-port="1"/>
		<edge from-layer="373" from-port="2" to-layer="375" to-port="0"/>
		<edge from-layer="374" from-port="1" to-layer="375" to-port="1"/>
		<edge from-layer="375" from-port="2" to-layer="377" to-port="0"/>
		<edge from-layer="376" from-port="1" to-layer="377" to-port="1"/>
		<edge from-layer="377" from-port="2" to-layer="378" to-port="0"/>
		<edge from-layer="378" from-port="1" to-layer="380" to-port="0"/>
		<edge from-layer="379" from-port="1" to-layer="380" to-port="1"/>
		<edge from-layer="380" from-port="2" to-layer="382" to-port="0"/>
		<edge from-layer="381" from-port="1" to-layer="382" to-port="1"/>
		<edge from-layer="382" from-port="2" to-layer="384" to-port="0"/>
		<edge from-layer="383" from-port="1" to-layer="384" to-port="1"/>
		<edge from-layer="384" from-port="2" to-layer="385" to-port="0"/>
		<edge from-layer="385" from-port="1" to-layer="387" to-port="0"/>
		<edge from-layer="386" from-port="1" to-layer="387" to-port="1"/>
		<edge from-layer="387" from-port="2" to-layer="389" to-port="0"/>
		<edge from-layer="388" from-port="1" to-layer="389" to-port="1"/>
		<edge from-layer="389" from-port="2" to-layer="391" to-port="0"/>
		<edge from-layer="390" from-port="1" to-layer="391" to-port="1"/>
		<edge from-layer="391" from-port="2" to-layer="392" to-port="0"/>
		<edge from-layer="392" from-port="1" to-layer="394" to-port="0"/>
		<edge from-layer="393" from-port="1" to-layer="394" to-port="1"/>
		<edge from-layer="394" from-port="2" to-layer="396" to-port="0"/>
		<edge from-layer="395" from-port="1" to-layer="396" to-port="1"/>
		<edge from-layer="396" from-port="2" to-layer="397" to-port="0"/>
		<edge from-layer="385" from-port="1" to-layer="398" to-port="0"/>
		<edge from-layer="397" from-port="1" to-layer="398" to-port="1"/>
		<edge from-layer="364" from-port="2" to-layer="399" to-port="0"/>
		<edge from-layer="398" from-port="2" to-layer="399" to-port="1"/>
		<edge from-layer="316" from-port="1" to-layer="401" to-port="0"/>
		<edge from-layer="400" from-port="1" to-layer="401" to-port="1"/>
		<edge from-layer="401" from-port="2" to-layer="403" to-port="0"/>
		<edge from-layer="402" from-port="1" to-layer="403" to-port="1"/>
		<edge from-layer="403" from-port="2" to-layer="405" to-port="0"/>
		<edge from-layer="404" from-port="1" to-layer="405" to-port="1"/>
		<edge from-layer="405" from-port="2" to-layer="406" to-port="0"/>
		<edge from-layer="406" from-port="1" to-layer="408" to-port="0"/>
		<edge from-layer="407" from-port="1" to-layer="408" to-port="1"/>
		<edge from-layer="408" from-port="2" to-layer="410" to-port="0"/>
		<edge from-layer="409" from-port="1" to-layer="410" to-port="1"/>
		<edge from-layer="410" from-port="2" to-layer="412" to-port="0"/>
		<edge from-layer="411" from-port="1" to-layer="412" to-port="1"/>
		<edge from-layer="412" from-port="2" to-layer="413" to-port="0"/>
		<edge from-layer="413" from-port="1" to-layer="415" to-port="0"/>
		<edge from-layer="414" from-port="1" to-layer="415" to-port="1"/>
		<edge from-layer="415" from-port="2" to-layer="417" to-port="0"/>
		<edge from-layer="416" from-port="1" to-layer="417" to-port="1"/>
		<edge from-layer="417" from-port="2" to-layer="419" to-port="0"/>
		<edge from-layer="418" from-port="1" to-layer="419" to-port="1"/>
		<edge from-layer="419" from-port="2" to-layer="420" to-port="0"/>
		<edge from-layer="420" from-port="1" to-layer="422" to-port="0"/>
		<edge from-layer="421" from-port="1" to-layer="422" to-port="1"/>
		<edge from-layer="422" from-port="2" to-layer="424" to-port="0"/>
		<edge from-layer="423" from-port="1" to-layer="424" to-port="1"/>
		<edge from-layer="424" from-port="2" to-layer="426" to-port="0"/>
		<edge from-layer="425" from-port="1" to-layer="426" to-port="1"/>
		<edge from-layer="426" from-port="2" to-layer="427" to-port="0"/>
		<edge from-layer="427" from-port="1" to-layer="429" to-port="0"/>
		<edge from-layer="428" from-port="1" to-layer="429" to-port="1"/>
		<edge from-layer="429" from-port="2" to-layer="431" to-port="0"/>
		<edge from-layer="430" from-port="1" to-layer="431" to-port="1"/>
		<edge from-layer="431" from-port="2" to-layer="433" to-port="0"/>
		<edge from-layer="432" from-port="1" to-layer="433" to-port="1"/>
		<edge from-layer="433" from-port="2" to-layer="434" to-port="0"/>
		<edge from-layer="434" from-port="1" to-layer="436" to-port="0"/>
		<edge from-layer="435" from-port="1" to-layer="436" to-port="1"/>
		<edge from-layer="436" from-port="2" to-layer="438" to-port="0"/>
		<edge from-layer="437" from-port="1" to-layer="438" to-port="1"/>
		<edge from-layer="438" from-port="2" to-layer="439" to-port="0"/>
		<edge from-layer="427" from-port="1" to-layer="440" to-port="0"/>
		<edge from-layer="439" from-port="1" to-layer="440" to-port="1"/>
		<edge from-layer="399" from-port="2" to-layer="441" to-port="0"/>
		<edge from-layer="440" from-port="2" to-layer="441" to-port="1"/>
		<edge from-layer="441" from-port="2" to-layer="443" to-port="0"/>
		<edge from-layer="442" from-port="1" to-layer="443" to-port="1"/>
		<edge from-layer="443" from-port="2" to-layer="445" to-port="0"/>
		<edge from-layer="444" from-port="1" to-layer="445" to-port="1"/>
		<edge from-layer="311" from-port="1" to-layer="447" to-port="0"/>
		<edge from-layer="446" from-port="1" to-layer="447" to-port="1"/>
		<edge from-layer="447" from-port="2" to-layer="449" to-port="0"/>
		<edge from-layer="448" from-port="1" to-layer="449" to-port="1"/>
		<edge from-layer="445" from-port="2" to-layer="450" to-port="0"/>
		<edge from-layer="449" from-port="2" to-layer="450" to-port="1"/>
		<edge from-layer="450" from-port="2" to-layer="451" to-port="0"/>
		<edge from-layer="451" from-port="1" to-layer="453" to-port="0"/>
		<edge from-layer="452" from-port="1" to-layer="453" to-port="1"/>
		<edge from-layer="453" from-port="2" to-layer="455" to-port="0"/>
		<edge from-layer="454" from-port="1" to-layer="455" to-port="1"/>
		<edge from-layer="455" from-port="2" to-layer="456" to-port="0"/>
		<edge from-layer="456" from-port="1" to-layer="458" to-port="0"/>
		<edge from-layer="457" from-port="1" to-layer="458" to-port="1"/>
		<edge from-layer="458" from-port="2" to-layer="460" to-port="0"/>
		<edge from-layer="459" from-port="1" to-layer="460" to-port="1"/>
		<edge from-layer="460" from-port="2" to-layer="462" to-port="0"/>
		<edge from-layer="461" from-port="1" to-layer="462" to-port="1"/>
		<edge from-layer="462" from-port="2" to-layer="463" to-port="0"/>
		<edge from-layer="463" from-port="1" to-layer="465" to-port="0"/>
		<edge from-layer="464" from-port="1" to-layer="465" to-port="1"/>
		<edge from-layer="465" from-port="2" to-layer="467" to-port="0"/>
		<edge from-layer="466" from-port="1" to-layer="467" to-port="1"/>
		<edge from-layer="467" from-port="2" to-layer="469" to-port="0"/>
		<edge from-layer="468" from-port="1" to-layer="469" to-port="1"/>
		<edge from-layer="469" from-port="2" to-layer="470" to-port="0"/>
		<edge from-layer="470" from-port="1" to-layer="472" to-port="0"/>
		<edge from-layer="471" from-port="1" to-layer="472" to-port="1"/>
		<edge from-layer="472" from-port="2" to-layer="474" to-port="0"/>
		<edge from-layer="473" from-port="1" to-layer="474" to-port="1"/>
		<edge from-layer="474" from-port="2" to-layer="476" to-port="0"/>
		<edge from-layer="475" from-port="1" to-layer="476" to-port="1"/>
		<edge from-layer="476" from-port="2" to-layer="477" to-port="0"/>
		<edge from-layer="463" from-port="1" to-layer="478" to-port="0"/>
		<edge from-layer="477" from-port="1" to-layer="478" to-port="1"/>
		<edge from-layer="456" from-port="1" to-layer="480" to-port="0"/>
		<edge from-layer="479" from-port="1" to-layer="480" to-port="1"/>
		<edge from-layer="480" from-port="2" to-layer="482" to-port="0"/>
		<edge from-layer="481" from-port="1" to-layer="482" to-port="1"/>
		<edge from-layer="482" from-port="2" to-layer="484" to-port="0"/>
		<edge from-layer="483" from-port="1" to-layer="484" to-port="1"/>
		<edge from-layer="484" from-port="2" to-layer="485" to-port="0"/>
		<edge from-layer="485" from-port="1" to-layer="487" to-port="0"/>
		<edge from-layer="486" from-port="1" to-layer="487" to-port="1"/>
		<edge from-layer="487" from-port="2" to-layer="489" to-port="0"/>
		<edge from-layer="488" from-port="1" to-layer="489" to-port="1"/>
		<edge from-layer="489" from-port="2" to-layer="491" to-port="0"/>
		<edge from-layer="490" from-port="1" to-layer="491" to-port="1"/>
		<edge from-layer="491" from-port="2" to-layer="492" to-port="0"/>
		<edge from-layer="492" from-port="1" to-layer="494" to-port="0"/>
		<edge from-layer="493" from-port="1" to-layer="494" to-port="1"/>
		<edge from-layer="494" from-port="2" to-layer="496" to-port="0"/>
		<edge from-layer="495" from-port="1" to-layer="496" to-port="1"/>
		<edge from-layer="496" from-port="2" to-layer="498" to-port="0"/>
		<edge from-layer="497" from-port="1" to-layer="498" to-port="1"/>
		<edge from-layer="498" from-port="2" to-layer="499" to-port="0"/>
		<edge from-layer="499" from-port="1" to-layer="501" to-port="0"/>
		<edge from-layer="500" from-port="1" to-layer="501" to-port="1"/>
		<edge from-layer="501" from-port="2" to-layer="503" to-port="0"/>
		<edge from-layer="502" from-port="1" to-layer="503" to-port="1"/>
		<edge from-layer="503" from-port="2" to-layer="505" to-port="0"/>
		<edge from-layer="504" from-port="1" to-layer="505" to-port="1"/>
		<edge from-layer="505" from-port="2" to-layer="506" to-port="0"/>
		<edge from-layer="492" from-port="1" to-layer="507" to-port="0"/>
		<edge from-layer="506" from-port="1" to-layer="507" to-port="1"/>
		<edge from-layer="478" from-port="2" to-layer="508" to-port="0"/>
		<edge from-layer="507" from-port="2" to-layer="508" to-port="1"/>
		<edge from-layer="456" from-port="1" to-layer="510" to-port="0"/>
		<edge from-layer="509" from-port="1" to-layer="510" to-port="1"/>
		<edge from-layer="510" from-port="2" to-layer="512" to-port="0"/>
		<edge from-layer="511" from-port="1" to-layer="512" to-port="1"/>
		<edge from-layer="512" from-port="2" to-layer="514" to-port="0"/>
		<edge from-layer="513" from-port="1" to-layer="514" to-port="1"/>
		<edge from-layer="514" from-port="2" to-layer="515" to-port="0"/>
		<edge from-layer="515" from-port="1" to-layer="517" to-port="0"/>
		<edge from-layer="516" from-port="1" to-layer="517" to-port="1"/>
		<edge from-layer="517" from-port="2" to-layer="519" to-port="0"/>
		<edge from-layer="518" from-port="1" to-layer="519" to-port="1"/>
		<edge from-layer="519" from-port="2" to-layer="521" to-port="0"/>
		<edge from-layer="520" from-port="1" to-layer="521" to-port="1"/>
		<edge from-layer="521" from-port="2" to-layer="522" to-port="0"/>
		<edge from-layer="522" from-port="1" to-layer="524" to-port="0"/>
		<edge from-layer="523" from-port="1" to-layer="524" to-port="1"/>
		<edge from-layer="524" from-port="2" to-layer="526" to-port="0"/>
		<edge from-layer="525" from-port="1" to-layer="526" to-port="1"/>
		<edge from-layer="526" from-port="2" to-layer="528" to-port="0"/>
		<edge from-layer="527" from-port="1" to-layer="528" to-port="1"/>
		<edge from-layer="528" from-port="2" to-layer="529" to-port="0"/>
		<edge from-layer="529" from-port="1" to-layer="531" to-port="0"/>
		<edge from-layer="530" from-port="1" to-layer="531" to-port="1"/>
		<edge from-layer="531" from-port="2" to-layer="533" to-port="0"/>
		<edge from-layer="532" from-port="1" to-layer="533" to-port="1"/>
		<edge from-layer="533" from-port="2" to-layer="535" to-port="0"/>
		<edge from-layer="534" from-port="1" to-layer="535" to-port="1"/>
		<edge from-layer="535" from-port="2" to-layer="536" to-port="0"/>
		<edge from-layer="536" from-port="1" to-layer="538" to-port="0"/>
		<edge from-layer="537" from-port="1" to-layer="538" to-port="1"/>
		<edge from-layer="538" from-port="2" to-layer="540" to-port="0"/>
		<edge from-layer="539" from-port="1" to-layer="540" to-port="1"/>
		<edge from-layer="540" from-port="2" to-layer="542" to-port="0"/>
		<edge from-layer="541" from-port="1" to-layer="542" to-port="1"/>
		<edge from-layer="542" from-port="2" to-layer="543" to-port="0"/>
		<edge from-layer="529" from-port="1" to-layer="544" to-port="0"/>
		<edge from-layer="543" from-port="1" to-layer="544" to-port="1"/>
		<edge from-layer="508" from-port="2" to-layer="545" to-port="0"/>
		<edge from-layer="544" from-port="2" to-layer="545" to-port="1"/>
		<edge from-layer="456" from-port="1" to-layer="547" to-port="0"/>
		<edge from-layer="546" from-port="1" to-layer="547" to-port="1"/>
		<edge from-layer="547" from-port="2" to-layer="549" to-port="0"/>
		<edge from-layer="548" from-port="1" to-layer="549" to-port="1"/>
		<edge from-layer="549" from-port="2" to-layer="551" to-port="0"/>
		<edge from-layer="550" from-port="1" to-layer="551" to-port="1"/>
		<edge from-layer="551" from-port="2" to-layer="552" to-port="0"/>
		<edge from-layer="552" from-port="1" to-layer="554" to-port="0"/>
		<edge from-layer="553" from-port="1" to-layer="554" to-port="1"/>
		<edge from-layer="554" from-port="2" to-layer="556" to-port="0"/>
		<edge from-layer="555" from-port="1" to-layer="556" to-port="1"/>
		<edge from-layer="556" from-port="2" to-layer="558" to-port="0"/>
		<edge from-layer="557" from-port="1" to-layer="558" to-port="1"/>
		<edge from-layer="558" from-port="2" to-layer="559" to-port="0"/>
		<edge from-layer="559" from-port="1" to-layer="561" to-port="0"/>
		<edge from-layer="560" from-port="1" to-layer="561" to-port="1"/>
		<edge from-layer="561" from-port="2" to-layer="563" to-port="0"/>
		<edge from-layer="562" from-port="1" to-layer="563" to-port="1"/>
		<edge from-layer="563" from-port="2" to-layer="565" to-port="0"/>
		<edge from-layer="564" from-port="1" to-layer="565" to-port="1"/>
		<edge from-layer="565" from-port="2" to-layer="566" to-port="0"/>
		<edge from-layer="566" from-port="1" to-layer="568" to-port="0"/>
		<edge from-layer="567" from-port="1" to-layer="568" to-port="1"/>
		<edge from-layer="568" from-port="2" to-layer="570" to-port="0"/>
		<edge from-layer="569" from-port="1" to-layer="570" to-port="1"/>
		<edge from-layer="570" from-port="2" to-layer="572" to-port="0"/>
		<edge from-layer="571" from-port="1" to-layer="572" to-port="1"/>
		<edge from-layer="572" from-port="2" to-layer="573" to-port="0"/>
		<edge from-layer="573" from-port="1" to-layer="575" to-port="0"/>
		<edge from-layer="574" from-port="1" to-layer="575" to-port="1"/>
		<edge from-layer="575" from-port="2" to-layer="577" to-port="0"/>
		<edge from-layer="576" from-port="1" to-layer="577" to-port="1"/>
		<edge from-layer="577" from-port="2" to-layer="579" to-port="0"/>
		<edge from-layer="578" from-port="1" to-layer="579" to-port="1"/>
		<edge from-layer="579" from-port="2" to-layer="580" to-port="0"/>
		<edge from-layer="580" from-port="1" to-layer="582" to-port="0"/>
		<edge from-layer="581" from-port="1" to-layer="582" to-port="1"/>
		<edge from-layer="582" from-port="2" to-layer="584" to-port="0"/>
		<edge from-layer="583" from-port="1" to-layer="584" to-port="1"/>
		<edge from-layer="584" from-port="2" to-layer="586" to-port="0"/>
		<edge from-layer="585" from-port="1" to-layer="586" to-port="1"/>
		<edge from-layer="586" from-port="2" to-layer="587" to-port="0"/>
		<edge from-layer="573" from-port="1" to-layer="588" to-port="0"/>
		<edge from-layer="587" from-port="1" to-layer="588" to-port="1"/>
		<edge from-layer="545" from-port="2" to-layer="589" to-port="0"/>
		<edge from-layer="588" from-port="2" to-layer="589" to-port="1"/>
		<edge from-layer="589" from-port="2" to-layer="591" to-port="0"/>
		<edge from-layer="590" from-port="1" to-layer="591" to-port="1"/>
		<edge from-layer="591" from-port="2" to-layer="593" to-port="0"/>
		<edge from-layer="592" from-port="1" to-layer="593" to-port="1"/>
		<edge from-layer="593" from-port="2" to-layer="594" to-port="0"/>
		<edge from-layer="451" from-port="1" to-layer="594" to-port="1"/>
		<edge from-layer="594" from-port="2" to-layer="595" to-port="0"/>
		<edge from-layer="595" from-port="1" to-layer="597" to-port="0"/>
		<edge from-layer="596" from-port="1" to-layer="597" to-port="1"/>
		<edge from-layer="597" from-port="2" to-layer="599" to-port="0"/>
		<edge from-layer="598" from-port="1" to-layer="599" to-port="1"/>
		<edge from-layer="599" from-port="2" to-layer="600" to-port="0"/>
		<edge from-layer="600" from-port="1" to-layer="601" to-port="0"/>
		<edge from-layer="601" from-port="1" to-layer="603" to-port="0"/>
		<edge from-layer="602" from-port="1" to-layer="603" to-port="1"/>
		<edge from-layer="603" from-port="2" to-layer="605" to-port="0"/>
		<edge from-layer="604" from-port="1" to-layer="605" to-port="1"/>
		<edge from-layer="605" from-port="2" to-layer="606" to-port="0"/>
		<edge from-layer="606" from-port="1" to-layer="608" to-port="0"/>
		<edge from-layer="607" from-port="1" to-layer="608" to-port="1"/>
		<edge from-layer="608" from-port="2" to-layer="610" to-port="0"/>
		<edge from-layer="609" from-port="1" to-layer="610" to-port="1"/>
		<edge from-layer="610" from-port="2" to-layer="612" to-port="0"/>
		<edge from-layer="611" from-port="1" to-layer="612" to-port="1"/>
		<edge from-layer="612" from-port="2" to-layer="613" to-port="0"/>
		<edge from-layer="613" from-port="1" to-layer="615" to-port="0"/>
		<edge from-layer="614" from-port="1" to-layer="615" to-port="1"/>
		<edge from-layer="615" from-port="2" to-layer="617" to-port="0"/>
		<edge from-layer="616" from-port="1" to-layer="617" to-port="1"/>
		<edge from-layer="617" from-port="2" to-layer="619" to-port="0"/>
		<edge from-layer="618" from-port="1" to-layer="619" to-port="1"/>
		<edge from-layer="619" from-port="2" to-layer="620" to-port="0"/>
		<edge from-layer="620" from-port="1" to-layer="622" to-port="0"/>
		<edge from-layer="621" from-port="1" to-layer="622" to-port="1"/>
		<edge from-layer="622" from-port="2" to-layer="624" to-port="0"/>
		<edge from-layer="623" from-port="1" to-layer="624" to-port="1"/>
		<edge from-layer="624" from-port="2" to-layer="625" to-port="0"/>
		<edge from-layer="613" from-port="1" to-layer="626" to-port="0"/>
		<edge from-layer="625" from-port="1" to-layer="626" to-port="1"/>
		<edge from-layer="606" from-port="1" to-layer="628" to-port="0"/>
		<edge from-layer="627" from-port="1" to-layer="628" to-port="1"/>
		<edge from-layer="628" from-port="2" to-layer="630" to-port="0"/>
		<edge from-layer="629" from-port="1" to-layer="630" to-port="1"/>
		<edge from-layer="630" from-port="2" to-layer="632" to-port="0"/>
		<edge from-layer="631" from-port="1" to-layer="632" to-port="1"/>
		<edge from-layer="632" from-port="2" to-layer="633" to-port="0"/>
		<edge from-layer="633" from-port="1" to-layer="635" to-port="0"/>
		<edge from-layer="634" from-port="1" to-layer="635" to-port="1"/>
		<edge from-layer="635" from-port="2" to-layer="637" to-port="0"/>
		<edge from-layer="636" from-port="1" to-layer="637" to-port="1"/>
		<edge from-layer="637" from-port="2" to-layer="639" to-port="0"/>
		<edge from-layer="638" from-port="1" to-layer="639" to-port="1"/>
		<edge from-layer="639" from-port="2" to-layer="640" to-port="0"/>
		<edge from-layer="640" from-port="1" to-layer="642" to-port="0"/>
		<edge from-layer="641" from-port="1" to-layer="642" to-port="1"/>
		<edge from-layer="642" from-port="2" to-layer="644" to-port="0"/>
		<edge from-layer="643" from-port="1" to-layer="644" to-port="1"/>
		<edge from-layer="644" from-port="2" to-layer="646" to-port="0"/>
		<edge from-layer="645" from-port="1" to-layer="646" to-port="1"/>
		<edge from-layer="646" from-port="2" to-layer="647" to-port="0"/>
		<edge from-layer="647" from-port="1" to-layer="649" to-port="0"/>
		<edge from-layer="648" from-port="1" to-layer="649" to-port="1"/>
		<edge from-layer="649" from-port="2" to-layer="651" to-port="0"/>
		<edge from-layer="650" from-port="1" to-layer="651" to-port="1"/>
		<edge from-layer="651" from-port="2" to-layer="652" to-port="0"/>
		<edge from-layer="640" from-port="1" to-layer="653" to-port="0"/>
		<edge from-layer="652" from-port="1" to-layer="653" to-port="1"/>
		<edge from-layer="626" from-port="2" to-layer="654" to-port="0"/>
		<edge from-layer="653" from-port="2" to-layer="654" to-port="1"/>
		<edge from-layer="606" from-port="1" to-layer="656" to-port="0"/>
		<edge from-layer="655" from-port="1" to-layer="656" to-port="1"/>
		<edge from-layer="656" from-port="2" to-layer="658" to-port="0"/>
		<edge from-layer="657" from-port="1" to-layer="658" to-port="1"/>
		<edge from-layer="658" from-port="2" to-layer="660" to-port="0"/>
		<edge from-layer="659" from-port="1" to-layer="660" to-port="1"/>
		<edge from-layer="660" from-port="2" to-layer="661" to-port="0"/>
		<edge from-layer="661" from-port="1" to-layer="663" to-port="0"/>
		<edge from-layer="662" from-port="1" to-layer="663" to-port="1"/>
		<edge from-layer="663" from-port="2" to-layer="665" to-port="0"/>
		<edge from-layer="664" from-port="1" to-layer="665" to-port="1"/>
		<edge from-layer="665" from-port="2" to-layer="667" to-port="0"/>
		<edge from-layer="666" from-port="1" to-layer="667" to-port="1"/>
		<edge from-layer="667" from-port="2" to-layer="668" to-port="0"/>
		<edge from-layer="668" from-port="1" to-layer="670" to-port="0"/>
		<edge from-layer="669" from-port="1" to-layer="670" to-port="1"/>
		<edge from-layer="670" from-port="2" to-layer="672" to-port="0"/>
		<edge from-layer="671" from-port="1" to-layer="672" to-port="1"/>
		<edge from-layer="672" from-port="2" to-layer="674" to-port="0"/>
		<edge from-layer="673" from-port="1" to-layer="674" to-port="1"/>
		<edge from-layer="674" from-port="2" to-layer="675" to-port="0"/>
		<edge from-layer="675" from-port="1" to-layer="677" to-port="0"/>
		<edge from-layer="676" from-port="1" to-layer="677" to-port="1"/>
		<edge from-layer="677" from-port="2" to-layer="679" to-port="0"/>
		<edge from-layer="678" from-port="1" to-layer="679" to-port="1"/>
		<edge from-layer="679" from-port="2" to-layer="681" to-port="0"/>
		<edge from-layer="680" from-port="1" to-layer="681" to-port="1"/>
		<edge from-layer="681" from-port="2" to-layer="682" to-port="0"/>
		<edge from-layer="682" from-port="1" to-layer="684" to-port="0"/>
		<edge from-layer="683" from-port="1" to-layer="684" to-port="1"/>
		<edge from-layer="684" from-port="2" to-layer="686" to-port="0"/>
		<edge from-layer="685" from-port="1" to-layer="686" to-port="1"/>
		<edge from-layer="686" from-port="2" to-layer="687" to-port="0"/>
		<edge from-layer="675" from-port="1" to-layer="688" to-port="0"/>
		<edge from-layer="687" from-port="1" to-layer="688" to-port="1"/>
		<edge from-layer="654" from-port="2" to-layer="689" to-port="0"/>
		<edge from-layer="688" from-port="2" to-layer="689" to-port="1"/>
		<edge from-layer="606" from-port="1" to-layer="691" to-port="0"/>
		<edge from-layer="690" from-port="1" to-layer="691" to-port="1"/>
		<edge from-layer="691" from-port="2" to-layer="693" to-port="0"/>
		<edge from-layer="692" from-port="1" to-layer="693" to-port="1"/>
		<edge from-layer="693" from-port="2" to-layer="695" to-port="0"/>
		<edge from-layer="694" from-port="1" to-layer="695" to-port="1"/>
		<edge from-layer="695" from-port="2" to-layer="696" to-port="0"/>
		<edge from-layer="696" from-port="1" to-layer="698" to-port="0"/>
		<edge from-layer="697" from-port="1" to-layer="698" to-port="1"/>
		<edge from-layer="698" from-port="2" to-layer="700" to-port="0"/>
		<edge from-layer="699" from-port="1" to-layer="700" to-port="1"/>
		<edge from-layer="700" from-port="2" to-layer="702" to-port="0"/>
		<edge from-layer="701" from-port="1" to-layer="702" to-port="1"/>
		<edge from-layer="702" from-port="2" to-layer="703" to-port="0"/>
		<edge from-layer="703" from-port="1" to-layer="705" to-port="0"/>
		<edge from-layer="704" from-port="1" to-layer="705" to-port="1"/>
		<edge from-layer="705" from-port="2" to-layer="707" to-port="0"/>
		<edge from-layer="706" from-port="1" to-layer="707" to-port="1"/>
		<edge from-layer="707" from-port="2" to-layer="709" to-port="0"/>
		<edge from-layer="708" from-port="1" to-layer="709" to-port="1"/>
		<edge from-layer="709" from-port="2" to-layer="710" to-port="0"/>
		<edge from-layer="710" from-port="1" to-layer="712" to-port="0"/>
		<edge from-layer="711" from-port="1" to-layer="712" to-port="1"/>
		<edge from-layer="712" from-port="2" to-layer="714" to-port="0"/>
		<edge from-layer="713" from-port="1" to-layer="714" to-port="1"/>
		<edge from-layer="714" from-port="2" to-layer="716" to-port="0"/>
		<edge from-layer="715" from-port="1" to-layer="716" to-port="1"/>
		<edge from-layer="716" from-port="2" to-layer="717" to-port="0"/>
		<edge from-layer="717" from-port="1" to-layer="719" to-port="0"/>
		<edge from-layer="718" from-port="1" to-layer="719" to-port="1"/>
		<edge from-layer="719" from-port="2" to-layer="721" to-port="0"/>
		<edge from-layer="720" from-port="1" to-layer="721" to-port="1"/>
		<edge from-layer="721" from-port="2" to-layer="723" to-port="0"/>
		<edge from-layer="722" from-port="1" to-layer="723" to-port="1"/>
		<edge from-layer="723" from-port="2" to-layer="724" to-port="0"/>
		<edge from-layer="724" from-port="1" to-layer="726" to-port="0"/>
		<edge from-layer="725" from-port="1" to-layer="726" to-port="1"/>
		<edge from-layer="726" from-port="2" to-layer="728" to-port="0"/>
		<edge from-layer="727" from-port="1" to-layer="728" to-port="1"/>
		<edge from-layer="728" from-port="2" to-layer="729" to-port="0"/>
		<edge from-layer="717" from-port="1" to-layer="730" to-port="0"/>
		<edge from-layer="729" from-port="1" to-layer="730" to-port="1"/>
		<edge from-layer="689" from-port="2" to-layer="731" to-port="0"/>
		<edge from-layer="730" from-port="2" to-layer="731" to-port="1"/>
		<edge from-layer="731" from-port="2" to-layer="733" to-port="0"/>
		<edge from-layer="732" from-port="1" to-layer="733" to-port="1"/>
		<edge from-layer="733" from-port="2" to-layer="735" to-port="0"/>
		<edge from-layer="734" from-port="1" to-layer="735" to-port="1"/>
		<edge from-layer="601" from-port="1" to-layer="737" to-port="0"/>
		<edge from-layer="736" from-port="1" to-layer="737" to-port="1"/>
		<edge from-layer="737" from-port="2" to-layer="739" to-port="0"/>
		<edge from-layer="738" from-port="1" to-layer="739" to-port="1"/>
		<edge from-layer="735" from-port="2" to-layer="740" to-port="0"/>
		<edge from-layer="739" from-port="2" to-layer="740" to-port="1"/>
		<edge from-layer="740" from-port="2" to-layer="741" to-port="0"/>
		<edge from-layer="741" from-port="1" to-layer="743" to-port="0"/>
		<edge from-layer="742" from-port="1" to-layer="743" to-port="1"/>
		<edge from-layer="743" from-port="2" to-layer="745" to-port="0"/>
		<edge from-layer="744" from-port="1" to-layer="745" to-port="1"/>
		<edge from-layer="745" from-port="2" to-layer="746" to-port="0"/>
		<edge from-layer="746" from-port="1" to-layer="748" to-port="0"/>
		<edge from-layer="747" from-port="1" to-layer="748" to-port="1"/>
		<edge from-layer="748" from-port="2" to-layer="750" to-port="0"/>
		<edge from-layer="749" from-port="1" to-layer="750" to-port="1"/>
		<edge from-layer="750" from-port="2" to-layer="752" to-port="0"/>
		<edge from-layer="751" from-port="1" to-layer="752" to-port="1"/>
		<edge from-layer="752" from-port="2" to-layer="753" to-port="0"/>
		<edge from-layer="753" from-port="1" to-layer="755" to-port="0"/>
		<edge from-layer="754" from-port="1" to-layer="755" to-port="1"/>
		<edge from-layer="755" from-port="2" to-layer="757" to-port="0"/>
		<edge from-layer="756" from-port="1" to-layer="757" to-port="1"/>
		<edge from-layer="757" from-port="2" to-layer="759" to-port="0"/>
		<edge from-layer="758" from-port="1" to-layer="759" to-port="1"/>
		<edge from-layer="759" from-port="2" to-layer="760" to-port="0"/>
		<edge from-layer="760" from-port="1" to-layer="762" to-port="0"/>
		<edge from-layer="761" from-port="1" to-layer="762" to-port="1"/>
		<edge from-layer="762" from-port="2" to-layer="764" to-port="0"/>
		<edge from-layer="763" from-port="1" to-layer="764" to-port="1"/>
		<edge from-layer="764" from-port="2" to-layer="766" to-port="0"/>
		<edge from-layer="765" from-port="1" to-layer="766" to-port="1"/>
		<edge from-layer="766" from-port="2" to-layer="767" to-port="0"/>
		<edge from-layer="753" from-port="1" to-layer="768" to-port="0"/>
		<edge from-layer="767" from-port="1" to-layer="768" to-port="1"/>
		<edge from-layer="746" from-port="1" to-layer="770" to-port="0"/>
		<edge from-layer="769" from-port="1" to-layer="770" to-port="1"/>
		<edge from-layer="770" from-port="2" to-layer="772" to-port="0"/>
		<edge from-layer="771" from-port="1" to-layer="772" to-port="1"/>
		<edge from-layer="772" from-port="2" to-layer="774" to-port="0"/>
		<edge from-layer="773" from-port="1" to-layer="774" to-port="1"/>
		<edge from-layer="774" from-port="2" to-layer="775" to-port="0"/>
		<edge from-layer="775" from-port="1" to-layer="777" to-port="0"/>
		<edge from-layer="776" from-port="1" to-layer="777" to-port="1"/>
		<edge from-layer="777" from-port="2" to-layer="779" to-port="0"/>
		<edge from-layer="778" from-port="1" to-layer="779" to-port="1"/>
		<edge from-layer="779" from-port="2" to-layer="781" to-port="0"/>
		<edge from-layer="780" from-port="1" to-layer="781" to-port="1"/>
		<edge from-layer="781" from-port="2" to-layer="782" to-port="0"/>
		<edge from-layer="782" from-port="1" to-layer="784" to-port="0"/>
		<edge from-layer="783" from-port="1" to-layer="784" to-port="1"/>
		<edge from-layer="784" from-port="2" to-layer="786" to-port="0"/>
		<edge from-layer="785" from-port="1" to-layer="786" to-port="1"/>
		<edge from-layer="786" from-port="2" to-layer="788" to-port="0"/>
		<edge from-layer="787" from-port="1" to-layer="788" to-port="1"/>
		<edge from-layer="788" from-port="2" to-layer="789" to-port="0"/>
		<edge from-layer="789" from-port="1" to-layer="791" to-port="0"/>
		<edge from-layer="790" from-port="1" to-layer="791" to-port="1"/>
		<edge from-layer="791" from-port="2" to-layer="793" to-port="0"/>
		<edge from-layer="792" from-port="1" to-layer="793" to-port="1"/>
		<edge from-layer="793" from-port="2" to-layer="795" to-port="0"/>
		<edge from-layer="794" from-port="1" to-layer="795" to-port="1"/>
		<edge from-layer="795" from-port="2" to-layer="796" to-port="0"/>
		<edge from-layer="782" from-port="1" to-layer="797" to-port="0"/>
		<edge from-layer="796" from-port="1" to-layer="797" to-port="1"/>
		<edge from-layer="768" from-port="2" to-layer="798" to-port="0"/>
		<edge from-layer="797" from-port="2" to-layer="798" to-port="1"/>
		<edge from-layer="746" from-port="1" to-layer="800" to-port="0"/>
		<edge from-layer="799" from-port="1" to-layer="800" to-port="1"/>
		<edge from-layer="800" from-port="2" to-layer="802" to-port="0"/>
		<edge from-layer="801" from-port="1" to-layer="802" to-port="1"/>
		<edge from-layer="802" from-port="2" to-layer="804" to-port="0"/>
		<edge from-layer="803" from-port="1" to-layer="804" to-port="1"/>
		<edge from-layer="804" from-port="2" to-layer="805" to-port="0"/>
		<edge from-layer="805" from-port="1" to-layer="807" to-port="0"/>
		<edge from-layer="806" from-port="1" to-layer="807" to-port="1"/>
		<edge from-layer="807" from-port="2" to-layer="809" to-port="0"/>
		<edge from-layer="808" from-port="1" to-layer="809" to-port="1"/>
		<edge from-layer="809" from-port="2" to-layer="811" to-port="0"/>
		<edge from-layer="810" from-port="1" to-layer="811" to-port="1"/>
		<edge from-layer="811" from-port="2" to-layer="812" to-port="0"/>
		<edge from-layer="812" from-port="1" to-layer="814" to-port="0"/>
		<edge from-layer="813" from-port="1" to-layer="814" to-port="1"/>
		<edge from-layer="814" from-port="2" to-layer="816" to-port="0"/>
		<edge from-layer="815" from-port="1" to-layer="816" to-port="1"/>
		<edge from-layer="816" from-port="2" to-layer="818" to-port="0"/>
		<edge from-layer="817" from-port="1" to-layer="818" to-port="1"/>
		<edge from-layer="818" from-port="2" to-layer="819" to-port="0"/>
		<edge from-layer="819" from-port="1" to-layer="821" to-port="0"/>
		<edge from-layer="820" from-port="1" to-layer="821" to-port="1"/>
		<edge from-layer="821" from-port="2" to-layer="823" to-port="0"/>
		<edge from-layer="822" from-port="1" to-layer="823" to-port="1"/>
		<edge from-layer="823" from-port="2" to-layer="825" to-port="0"/>
		<edge from-layer="824" from-port="1" to-layer="825" to-port="1"/>
		<edge from-layer="825" from-port="2" to-layer="826" to-port="0"/>
		<edge from-layer="826" from-port="1" to-layer="828" to-port="0"/>
		<edge from-layer="827" from-port="1" to-layer="828" to-port="1"/>
		<edge from-layer="828" from-port="2" to-layer="830" to-port="0"/>
		<edge from-layer="829" from-port="1" to-layer="830" to-port="1"/>
		<edge from-layer="830" from-port="2" to-layer="832" to-port="0"/>
		<edge from-layer="831" from-port="1" to-layer="832" to-port="1"/>
		<edge from-layer="832" from-port="2" to-layer="833" to-port="0"/>
		<edge from-layer="819" from-port="1" to-layer="834" to-port="0"/>
		<edge from-layer="833" from-port="1" to-layer="834" to-port="1"/>
		<edge from-layer="798" from-port="2" to-layer="835" to-port="0"/>
		<edge from-layer="834" from-port="2" to-layer="835" to-port="1"/>
		<edge from-layer="746" from-port="1" to-layer="837" to-port="0"/>
		<edge from-layer="836" from-port="1" to-layer="837" to-port="1"/>
		<edge from-layer="837" from-port="2" to-layer="839" to-port="0"/>
		<edge from-layer="838" from-port="1" to-layer="839" to-port="1"/>
		<edge from-layer="839" from-port="2" to-layer="841" to-port="0"/>
		<edge from-layer="840" from-port="1" to-layer="841" to-port="1"/>
		<edge from-layer="841" from-port="2" to-layer="842" to-port="0"/>
		<edge from-layer="842" from-port="1" to-layer="844" to-port="0"/>
		<edge from-layer="843" from-port="1" to-layer="844" to-port="1"/>
		<edge from-layer="844" from-port="2" to-layer="846" to-port="0"/>
		<edge from-layer="845" from-port="1" to-layer="846" to-port="1"/>
		<edge from-layer="846" from-port="2" to-layer="848" to-port="0"/>
		<edge from-layer="847" from-port="1" to-layer="848" to-port="1"/>
		<edge from-layer="848" from-port="2" to-layer="849" to-port="0"/>
		<edge from-layer="849" from-port="1" to-layer="851" to-port="0"/>
		<edge from-layer="850" from-port="1" to-layer="851" to-port="1"/>
		<edge from-layer="851" from-port="2" to-layer="853" to-port="0"/>
		<edge from-layer="852" from-port="1" to-layer="853" to-port="1"/>
		<edge from-layer="853" from-port="2" to-layer="855" to-port="0"/>
		<edge from-layer="854" from-port="1" to-layer="855" to-port="1"/>
		<edge from-layer="855" from-port="2" to-layer="856" to-port="0"/>
		<edge from-layer="856" from-port="1" to-layer="858" to-port="0"/>
		<edge from-layer="857" from-port="1" to-layer="858" to-port="1"/>
		<edge from-layer="858" from-port="2" to-layer="860" to-port="0"/>
		<edge from-layer="859" from-port="1" to-layer="860" to-port="1"/>
		<edge from-layer="860" from-port="2" to-layer="862" to-port="0"/>
		<edge from-layer="861" from-port="1" to-layer="862" to-port="1"/>
		<edge from-layer="862" from-port="2" to-layer="863" to-port="0"/>
		<edge from-layer="863" from-port="1" to-layer="865" to-port="0"/>
		<edge from-layer="864" from-port="1" to-layer="865" to-port="1"/>
		<edge from-layer="865" from-port="2" to-layer="867" to-port="0"/>
		<edge from-layer="866" from-port="1" to-layer="867" to-port="1"/>
		<edge from-layer="867" from-port="2" to-layer="869" to-port="0"/>
		<edge from-layer="868" from-port="1" to-layer="869" to-port="1"/>
		<edge from-layer="869" from-port="2" to-layer="870" to-port="0"/>
		<edge from-layer="870" from-port="1" to-layer="872" to-port="0"/>
		<edge from-layer="871" from-port="1" to-layer="872" to-port="1"/>
		<edge from-layer="872" from-port="2" to-layer="874" to-port="0"/>
		<edge from-layer="873" from-port="1" to-layer="874" to-port="1"/>
		<edge from-layer="874" from-port="2" to-layer="876" to-port="0"/>
		<edge from-layer="875" from-port="1" to-layer="876" to-port="1"/>
		<edge from-layer="876" from-port="2" to-layer="877" to-port="0"/>
		<edge from-layer="863" from-port="1" to-layer="878" to-port="0"/>
		<edge from-layer="877" from-port="1" to-layer="878" to-port="1"/>
		<edge from-layer="835" from-port="2" to-layer="879" to-port="0"/>
		<edge from-layer="878" from-port="2" to-layer="879" to-port="1"/>
		<edge from-layer="879" from-port="2" to-layer="881" to-port="0"/>
		<edge from-layer="880" from-port="1" to-layer="881" to-port="1"/>
		<edge from-layer="881" from-port="2" to-layer="883" to-port="0"/>
		<edge from-layer="882" from-port="1" to-layer="883" to-port="1"/>
		<edge from-layer="883" from-port="2" to-layer="884" to-port="0"/>
		<edge from-layer="741" from-port="1" to-layer="884" to-port="1"/>
		<edge from-layer="884" from-port="2" to-layer="885" to-port="0"/>
		<edge from-layer="885" from-port="1" to-layer="887" to-port="0"/>
		<edge from-layer="886" from-port="1" to-layer="887" to-port="1"/>
		<edge from-layer="887" from-port="2" to-layer="889" to-port="0"/>
		<edge from-layer="888" from-port="1" to-layer="889" to-port="1"/>
		<edge from-layer="889" from-port="2" to-layer="890" to-port="0"/>
		<edge from-layer="890" from-port="1" to-layer="892" to-port="0"/>
		<edge from-layer="891" from-port="1" to-layer="892" to-port="1"/>
		<edge from-layer="892" from-port="2" to-layer="894" to-port="0"/>
		<edge from-layer="893" from-port="1" to-layer="894" to-port="1"/>
		<edge from-layer="894" from-port="2" to-layer="896" to-port="0"/>
		<edge from-layer="895" from-port="1" to-layer="896" to-port="1"/>
		<edge from-layer="896" from-port="2" to-layer="898" to-port="0"/>
		<edge from-layer="897" from-port="1" to-layer="898" to-port="1"/>
		<edge from-layer="898" from-port="2" to-layer="900" to-port="0"/>
		<edge from-layer="899" from-port="1" to-layer="900" to-port="1"/>
		<edge from-layer="900" from-port="2" to-layer="902" to-port="0"/>
		<edge from-layer="901" from-port="1" to-layer="902" to-port="1"/>
		<edge from-layer="902" from-port="2" to-layer="904" to-port="0"/>
		<edge from-layer="903" from-port="1" to-layer="904" to-port="1"/>
		<edge from-layer="904" from-port="2" to-layer="906" to-port="0"/>
		<edge from-layer="905" from-port="1" to-layer="906" to-port="1"/>
		<edge from-layer="906" from-port="2" to-layer="908" to-port="0"/>
		<edge from-layer="907" from-port="1" to-layer="908" to-port="1"/>
		<edge from-layer="908" from-port="2" to-layer="910" to-port="0"/>
		<edge from-layer="909" from-port="1" to-layer="910" to-port="1"/>
		<edge from-layer="910" from-port="2" to-layer="911" to-port="0"/>
	</edges>
	<meta_data>
		<MO_version value=""/>
		<cli_parameters>
			<blobs_as_inputs value="True"/>
			<caffe_parser_path value="DIR"/>
			<data_type value="FP32"/>
			<disable_nhwc_to_nchw value="False"/>
			<disable_omitting_optional value="False"/>
			<disable_resnet_optimization value="False"/>
			<disable_weights_compression value="False"/>
			<enable_concat_optimization value="False"/>
			<enable_flattening_nested_params value="False"/>
			<enable_ssd_gluoncv value="False"/>
			<extensions value="DIR"/>
			<framework value="onnx"/>
			<freeze_placeholder_with_value value="{}"/>
			<generate_deprecated_IR_V2 value="False"/>
			<generate_deprecated_IR_V7 value="False"/>
			<generate_experimental_IR_V10 value="True"/>
			<input value="data"/>
			<input_model value="DIR/person-reidentification-retail-0265.onnx"/>
			<input_model_is_text value="False"/>
			<input_shape value="[1,3,256,128]"/>
			<k value="DIR/CustomLayersMapping.xml"/>
			<keep_quantize_ops_in_IR value="True"/>
			<keep_shape_ops value="False"/>
			<legacy_mxnet_model value="False"/>
			<log_level value="ERROR"/>
			<mean_scale_values value="{'data': {'mean': array([123.675, 116.28 , 103.53 ]), 'scale': array([58.395, 57.12 , 57.375])}}"/>
			<mean_values value="data[123.675,116.28,103.53]"/>
			<model_name value="person-reidentification-retail-0265"/>
			<move_to_preprocess value="False"/>
			<output value="['reid_embedding']"/>
			<output_dir value="DIR"/>
			<placeholder_data_types value="{}"/>
			<placeholder_shapes value="{'data': array([  1,   3, 256, 128])}"/>
			<progress value="False"/>
			<remove_memory value="False"/>
			<remove_output_softmax value="False"/>
			<reverse_input_channels value="True"/>
			<save_params_from_nd value="False"/>
			<scale_values value="data[58.395,57.12,57.375]"/>
			<silent value="False"/>
			<stream_output value="False"/>
			<unset unset_cli_parameters="batch, counts, disable_fusing, disable_gfusing, finegrain_fusing, input_checkpoint, input_meta_graph, input_proto, input_symbol, mean_file, mean_file_offsets, nd_prefix_name, pretrained_model_name, saved_model_dir, saved_model_tags, scale, tensorboard_logdir, tensorflow_custom_layer_libraries, tensorflow_custom_operations_config_update, tensorflow_object_detection_api_pipeline_config, tensorflow_use_custom_operations_config, transformations_config"/>
		</cli_parameters>
	</meta_data>
</net>
