<?xml version="1.0" ?>
<net name="person-reidentification-retail-0265" version="10">
	<layers>
		<layer id="0" name="data" type="Parameter" version="opset1">
			<data element_type="f16" shape="1,3,256,128"/>
			<output>
				<port id="0" precision="FP16">
					<dim>1</dim>
					<dim>3</dim>
					<dim>256</dim>
					<dim>128</dim>
				</port>
			</output>
		</layer>
		<layer id="1" name="data/reverse_input_channels3320533209/Split_input_port_1/value33239_const914_const" type="Const" version="opset1">
			<data element_type="i64" offset="0" shape="" size="8"/>
			<output>
				<port id="1" precision="I64"/>
			</output>
		</layer>
		<layer id="2" name="data/reverse_input_channels3320533209/Split" type="Split" version="opset1">
			<data num_splits="3"/>
			<input>
				<port id="0">
					<dim>1</dim>
					<dim>3</dim>
					<dim>256</dim>
					<dim>128</dim>
				</port>
				<port id="1"/>
			</input>
			<output>
				<port id="2" precision="FP16">
					<dim>1</dim>
					<dim>1</dim>
					<dim>256</dim>
					<dim>128</dim>
				</port>
				<port id="3" precision="FP16">
					<dim>1</dim>
					<dim>1</dim>
					<dim>256</dim>
					<dim>128</dim>
				</port>
				<port id="4" precision="FP16">
					<dim>1</dim>
					<dim>1</dim>
					<dim>256</dim>
					<dim>128</dim>
				</port>
			</output>
		</layer>
		<layer id="3" name="data/reverse_input_channels3320533209/Concat" type="Concat" version="opset1">
			<data axis="1"/>
			<input>
				<port id="0">
					<dim>1</dim>
					<dim>1</dim>
					<dim>256</dim>
					<dim>128</dim>
				</port>
				<port id="1">
					<dim>1</dim>
					<dim>1</dim>
					<dim>256</dim>
					<dim>128</dim>
				</port>
				<port id="2">
					<dim>1</dim>
					<dim>1</dim>
					<dim>256</dim>
					<dim>128</dim>
				</port>
			</input>
			<output>
				<port id="3" precision="FP16">
					<dim>1</dim>
					<dim>3</dim>
					<dim>256</dim>
					<dim>128</dim>
				</port>
			</output>
		</layer>
		<layer id="4" name="data/reverse_input_channels3320533211/Concat33252_const919_const" type="Const" version="opset1">
			<data element_type="f16" offset="8" shape="1,3,1,1" size="6"/>
			<output>
				<port id="1" precision="FP16">
					<dim>1</dim>
					<dim>3</dim>
					<dim>1</dim>
					<dim>1</dim>
				</port>
			</output>
		</layer>
		<layer id="5" name="Mul_/Fused_Mul_" type="Multiply" version="opset1">
			<input>
				<port id="0">
					<dim>1</dim>
					<dim>3</dim>
					<dim>256</dim>
					<dim>128</dim>
				</port>
				<port id="1">
					<dim>1</dim>
					<dim>3</dim>
					<dim>1</dim>
					<dim>1</dim>
				</port>
			</input>
			<output>
				<port id="2" precision="FP16">
					<dim>1</dim>
					<dim>3</dim>
					<dim>256</dim>
					<dim>128</dim>
				</port>
			</output>
		</layer>
		<layer id="6" name="data/reverse_input_channels33207/Concat33236_const921_const" type="Const" version="opset1">
			<data element_type="f16" offset="14" shape="1,3,1,1" size="6"/>
			<output>
				<port id="1" precision="FP16">
					<dim>1</dim>
					<dim>3</dim>
					<dim>1</dim>
					<dim>1</dim>
				</port>
			</output>
		</layer>
		<layer id="7" name="Add_/Fused_Add_" type="Add" version="opset1">
			<input>
				<port id="0">
					<dim>1</dim>
					<dim>3</dim>
					<dim>256</dim>
					<dim>128</dim>
				</port>
				<port id="1">
					<dim>1</dim>
					<dim>3</dim>
					<dim>1</dim>
					<dim>1</dim>
				</port>
			</input>
			<output>
				<port id="2" precision="FP16">
					<dim>1</dim>
					<dim>3</dim>
					<dim>256</dim>
					<dim>128</dim>
				</port>
			</output>
		</layer>
		<layer id="8" name="35913595_const" type="Const" version="opset1">
			<data element_type="f16" offset="20" shape="" size="2"/>
			<output>
				<port id="1" precision="FP16"/>
			</output>
		</layer>
		<layer id="9" name="35923596_const" type="Const" version="opset1">
			<data element_type="f16" offset="22" shape="" size="2"/>
			<output>
				<port id="1" precision="FP16"/>
			</output>
		</layer>
		<layer id="10" name="35933597_const" type="Const" version="opset1">
			<data element_type="f16" offset="20" shape="" size="2"/>
			<output>
				<port id="1" precision="FP16"/>
			</output>
		</layer>
		<layer id="11" name="35943598_const" type="Const" version="opset1">
			<data element_type="f16" offset="22" shape="" size="2"/>
			<output>
				<port id="1" precision="FP16"/>
			</output>
		</layer>
		<layer id="12" name="563/Ins_Norm/MVN_/fq_input_0" type="FakeQuantize" version="opset1">
			<data levels="256"/>
			<input>
				<port id="0">
					<dim>1</dim>
					<dim>3</dim>
					<dim>256</dim>
					<dim>128</dim>
				</port>
				<port id="1"/>
				<port id="2"/>
				<port id="3"/>
				<port id="4"/>
			</input>
			<output>
				<port id="5" precision="FP16">
					<dim>1</dim>
					<dim>3</dim>
					<dim>256</dim>
					<dim>128</dim>
				</port>
			</output>
		</layer>
		<layer id="13" name="563/Ins_Norm/MVN_" type="MVN" version="opset2">
			<data across_channels="0" eps="9.999999747378752e-06" normalize_variance="1"/>
			<input>
				<port id="0">
					<dim>1</dim>
					<dim>3</dim>
					<dim>256</dim>
					<dim>128</dim>
				</port>
			</input>
			<output>
				<port id="1" precision="FP16">
					<dim>1</dim>
					<dim>3</dim>
					<dim>256</dim>
					<dim>128</dim>
				</port>
			</output>
		</layer>
		<layer id="14" name="onnx_initializer_node_in_first.weight/Output_0/Data_/copy/copy_const924_const" type="Const" version="opset1">
			<data element_type="f16" offset="24" shape="1,3,1,1" size="6"/>
			<output>
				<port id="1" precision="FP16">
					<dim>1</dim>
					<dim>3</dim>
					<dim>1</dim>
					<dim>1</dim>
				</port>
			</output>
		</layer>
		<layer id="15" name="563/Ins_Norm/mul_" type="Multiply" version="opset1">
			<input>
				<port id="0">
					<dim>1</dim>
					<dim>3</dim>
					<dim>256</dim>
					<dim>128</dim>
				</port>
				<port id="1">
					<dim>1</dim>
					<dim>3</dim>
					<dim>1</dim>
					<dim>1</dim>
				</port>
			</input>
			<output>
				<port id="2" precision="FP16">
					<dim>1</dim>
					<dim>3</dim>
					<dim>256</dim>
					<dim>128</dim>
				</port>
			</output>
		</layer>
		<layer id="16" name="onnx_initializer_node_in_first.bias/Output_0/Data_/copy/copy_const926_const" type="Const" version="opset1">
			<data element_type="f16" offset="30" shape="1,3,1,1" size="6"/>
			<output>
				<port id="1" precision="FP16">
					<dim>1</dim>
					<dim>3</dim>
					<dim>1</dim>
					<dim>1</dim>
				</port>
			</output>
		</layer>
		<layer id="17" name="563/Ins_Norm/add_" type="Add" version="opset1">
			<input>
				<port id="0">
					<dim>1</dim>
					<dim>3</dim>
					<dim>256</dim>
					<dim>128</dim>
				</port>
				<port id="1">
					<dim>1</dim>
					<dim>3</dim>
					<dim>1</dim>
					<dim>1</dim>
				</port>
			</input>
			<output>
				<port id="2" precision="FP16">
					<dim>1</dim>
					<dim>3</dim>
					<dim>256</dim>
					<dim>128</dim>
				</port>
			</output>
		</layer>
		<layer id="18" name="35113515_const" type="Const" version="opset1">
			<data element_type="f16" offset="36" shape="" size="2"/>
			<output>
				<port id="1" precision="FP16"/>
			</output>
		</layer>
		<layer id="19" name="35123516_const" type="Const" version="opset1">
			<data element_type="f16" offset="38" shape="" size="2"/>
			<output>
				<port id="1" precision="FP16"/>
			</output>
		</layer>
		<layer id="20" name="35133517_const" type="Const" version="opset1">
			<data element_type="f16" offset="36" shape="" size="2"/>
			<output>
				<port id="1" precision="FP16"/>
			</output>
		</layer>
		<layer id="21" name="35143518_const" type="Const" version="opset1">
			<data element_type="f16" offset="38" shape="" size="2"/>
			<output>
				<port id="1" precision="FP16"/>
			</output>
		</layer>
		<layer id="22" name="564/fq_input_0" type="FakeQuantize" version="opset1">
			<data levels="256"/>
			<input>
				<port id="0">
					<dim>1</dim>
					<dim>3</dim>
					<dim>256</dim>
					<dim>128</dim>
				</port>
				<port id="1"/>
				<port id="2"/>
				<port id="3"/>
				<port id="4"/>
			</input>
			<output>
				<port id="5" precision="FP16">
					<dim>1</dim>
					<dim>3</dim>
					<dim>256</dim>
					<dim>128</dim>
				</port>
			</output>
		</layer>
		<layer id="23" name="564/fq_weights_1/Convert_to_float/Cast_017661_const" type="Const" version="opset1">
			<data element_type="u8" offset="40" shape="64,3,7,7" size="9408"/>
			<output>
				<port id="1" precision="U8">
					<dim>64</dim>
					<dim>3</dim>
					<dim>7</dim>
					<dim>7</dim>
				</port>
			</output>
		</layer>
		<layer id="24" name="564/fq_weights_1/Convert_to_float" type="Convert" version="opset1">
			<data destination_type="f16"/>
			<input>
				<port id="0">
					<dim>64</dim>
					<dim>3</dim>
					<dim>7</dim>
					<dim>7</dim>
				</port>
			</input>
			<output>
				<port id="1" precision="FP16">
					<dim>64</dim>
					<dim>3</dim>
					<dim>7</dim>
					<dim>7</dim>
				</port>
			</output>
		</layer>
		<layer id="25" name="564/fq_weights_1/Copy/out_low14380_const" type="Const" version="opset1">
			<data element_type="f16" offset="9448" shape="1" size="2"/>
			<output>
				<port id="1" precision="FP16">
					<dim>1</dim>
				</port>
			</output>
		</layer>
		<layer id="26" name="564/fq_weights_1/Copy/out_high14381_const" type="Const" version="opset1">
			<data element_type="f16" offset="9450" shape="1" size="2"/>
			<output>
				<port id="1" precision="FP16">
					<dim>1</dim>
				</port>
			</output>
		</layer>
		<layer id="27" name="35233527_const" type="Const" version="opset1">
			<data element_type="f16" offset="9452" shape="64,1,1,1" size="128"/>
			<output>
				<port id="1" precision="FP16">
					<dim>64</dim>
					<dim>1</dim>
					<dim>1</dim>
					<dim>1</dim>
				</port>
			</output>
		</layer>
		<layer id="28" name="35243528_const" type="Const" version="opset1">
			<data element_type="f16" offset="9580" shape="64,1,1,1" size="128"/>
			<output>
				<port id="1" precision="FP16">
					<dim>64</dim>
					<dim>1</dim>
					<dim>1</dim>
					<dim>1</dim>
				</port>
			</output>
		</layer>
		<layer id="29" name="564/fq_weights_1" type="FakeQuantize" version="opset1">
			<data levels="255"/>
			<input>
				<port id="0">
					<dim>64</dim>
					<dim>3</dim>
					<dim>7</dim>
					<dim>7</dim>
				</port>
				<port id="1">
					<dim>1</dim>
				</port>
				<port id="2">
					<dim>1</dim>
				</port>
				<port id="3">
					<dim>64</dim>
					<dim>1</dim>
					<dim>1</dim>
					<dim>1</dim>
				</port>
				<port id="4">
					<dim>64</dim>
					<dim>1</dim>
					<dim>1</dim>
					<dim>1</dim>
				</port>
			</input>
			<output>
				<port id="5" precision="FP16">
					<dim>64</dim>
					<dim>3</dim>
					<dim>7</dim>
					<dim>7</dim>
				</port>
			</output>
		</layer>
		<layer id="30" name="564" type="Convolution" version="opset1">
			<data dilations="1,1" output_padding="0,0" pads_begin="3,3" pads_end="3,3" strides="2,2"/>
			<input>
				<port id="0">
					<dim>1</dim>
					<dim>3</dim>
					<dim>256</dim>
					<dim>128</dim>
				</port>
				<port id="1">
					<dim>64</dim>
					<dim>3</dim>
					<dim>7</dim>
					<dim>7</dim>
				</port>
			</input>
			<output>
				<port id="2" precision="FP16">
					<dim>1</dim>
					<dim>64</dim>
					<dim>128</dim>
					<dim>64</dim>
				</port>
			</output>
		</layer>
		<layer id="31" name="21922194_const" type="Const" version="opset1">
			<data element_type="f16" offset="9708" shape="1,64,1,1" size="128"/>
			<output>
				<port id="1" precision="FP16">
					<dim>1</dim>
					<dim>64</dim>
					<dim>1</dim>
					<dim>1</dim>
				</port>
			</output>
		</layer>
		<layer id="32" name="564/add_" type="Add" version="opset1">
			<input>
				<port id="0">
					<dim>1</dim>
					<dim>64</dim>
					<dim>128</dim>
					<dim>64</dim>
				</port>
				<port id="1">
					<dim>1</dim>
					<dim>64</dim>
					<dim>1</dim>
					<dim>1</dim>
				</port>
			</input>
			<output>
				<port id="2" precision="FP16">
					<dim>1</dim>
					<dim>64</dim>
					<dim>128</dim>
					<dim>64</dim>
				</port>
			</output>
		</layer>
		<layer id="33" name="47914795_const" type="Const" version="opset1">
			<data element_type="f16" offset="9836" shape="" size="2"/>
			<output>
				<port id="1" precision="FP16"/>
			</output>
		</layer>
		<layer id="34" name="47924796_const" type="Const" version="opset1">
			<data element_type="f16" offset="9838" shape="" size="2"/>
			<output>
				<port id="1" precision="FP16"/>
			</output>
		</layer>
		<layer id="35" name="47934797_const" type="Const" version="opset1">
			<data element_type="f16" offset="9836" shape="" size="2"/>
			<output>
				<port id="1" precision="FP16"/>
			</output>
		</layer>
		<layer id="36" name="47944798_const" type="Const" version="opset1">
			<data element_type="f16" offset="9838" shape="" size="2"/>
			<output>
				<port id="1" precision="FP16"/>
			</output>
		</layer>
		<layer id="37" name="565/Ins_Norm/MVN_/fq_input_0" type="FakeQuantize" version="opset1">
			<data levels="256"/>
			<input>
				<port id="0">
					<dim>1</dim>
					<dim>64</dim>
					<dim>128</dim>
					<dim>64</dim>
				</port>
				<port id="1"/>
				<port id="2"/>
				<port id="3"/>
				<port id="4"/>
			</input>
			<output>
				<port id="5" precision="FP16">
					<dim>1</dim>
					<dim>64</dim>
					<dim>128</dim>
					<dim>64</dim>
				</port>
			</output>
		</layer>
		<layer id="38" name="565/Ins_Norm/MVN_" type="MVN" version="opset2">
			<data across_channels="0" eps="9.999999747378752e-06" normalize_variance="1"/>
			<input>
				<port id="0">
					<dim>1</dim>
					<dim>64</dim>
					<dim>128</dim>
					<dim>64</dim>
				</port>
			</input>
			<output>
				<port id="1" precision="FP16">
					<dim>1</dim>
					<dim>64</dim>
					<dim>128</dim>
					<dim>64</dim>
				</port>
			</output>
		</layer>
		<layer id="39" name="onnx_initializer_node_conv1.bn.weight/Output_0/Data_/copy/copy_const931_const" type="Const" version="opset1">
			<data element_type="f16" offset="9840" shape="1,64,1,1" size="128"/>
			<output>
				<port id="1" precision="FP16">
					<dim>1</dim>
					<dim>64</dim>
					<dim>1</dim>
					<dim>1</dim>
				</port>
			</output>
		</layer>
		<layer id="40" name="565/Ins_Norm/mul_" type="Multiply" version="opset1">
			<input>
				<port id="0">
					<dim>1</dim>
					<dim>64</dim>
					<dim>128</dim>
					<dim>64</dim>
				</port>
				<port id="1">
					<dim>1</dim>
					<dim>64</dim>
					<dim>1</dim>
					<dim>1</dim>
				</port>
			</input>
			<output>
				<port id="2" precision="FP16">
					<dim>1</dim>
					<dim>64</dim>
					<dim>128</dim>
					<dim>64</dim>
				</port>
			</output>
		</layer>
		<layer id="41" name="onnx_initializer_node_conv1.bn.bias/Output_0/Data_/copy/copy_const933_const" type="Const" version="opset1">
			<data element_type="f16" offset="9968" shape="1,64,1,1" size="128"/>
			<output>
				<port id="1" precision="FP16">
					<dim>1</dim>
					<dim>64</dim>
					<dim>1</dim>
					<dim>1</dim>
				</port>
			</output>
		</layer>
		<layer id="42" name="565/Ins_Norm/add_" type="Add" version="opset1">
			<input>
				<port id="0">
					<dim>1</dim>
					<dim>64</dim>
					<dim>128</dim>
					<dim>64</dim>
				</port>
				<port id="1">
					<dim>1</dim>
					<dim>64</dim>
					<dim>1</dim>
					<dim>1</dim>
				</port>
			</input>
			<output>
				<port id="2" precision="FP16">
					<dim>1</dim>
					<dim>64</dim>
					<dim>128</dim>
					<dim>64</dim>
				</port>
			</output>
		</layer>
		<layer id="43" name="566" type="ReLU" version="opset1">
			<input>
				<port id="0">
					<dim>1</dim>
					<dim>64</dim>
					<dim>128</dim>
					<dim>64</dim>
				</port>
			</input>
			<output>
				<port id="1" precision="FP16">
					<dim>1</dim>
					<dim>64</dim>
					<dim>128</dim>
					<dim>64</dim>
				</port>
			</output>
		</layer>
		<layer id="44" name="98929896_const" type="Const" version="opset1">
			<data element_type="f16" offset="9448" shape="" size="2"/>
			<output>
				<port id="1" precision="FP16"/>
			</output>
		</layer>
		<layer id="45" name="98939897_const" type="Const" version="opset1">
			<data element_type="f16" offset="10096" shape="" size="2"/>
			<output>
				<port id="1" precision="FP16"/>
			</output>
		</layer>
		<layer id="46" name="98949898_const" type="Const" version="opset1">
			<data element_type="f16" offset="9448" shape="" size="2"/>
			<output>
				<port id="1" precision="FP16"/>
			</output>
		</layer>
		<layer id="47" name="98959899_const" type="Const" version="opset1">
			<data element_type="f16" offset="10096" shape="" size="2"/>
			<output>
				<port id="1" precision="FP16"/>
			</output>
		</layer>
		<layer id="48" name="567/fq_input_0" type="FakeQuantize" version="opset1">
			<data levels="256"/>
			<input>
				<port id="0">
					<dim>1</dim>
					<dim>64</dim>
					<dim>128</dim>
					<dim>64</dim>
				</port>
				<port id="1"/>
				<port id="2"/>
				<port id="3"/>
				<port id="4"/>
			</input>
			<output>
				<port id="5" precision="FP16">
					<dim>1</dim>
					<dim>64</dim>
					<dim>128</dim>
					<dim>64</dim>
				</port>
			</output>
		</layer>
		<layer id="49" name="567" type="MaxPool" version="opset1">
			<data kernel="3,3" pads_begin="1,1" pads_end="1,1" rounding_type="floor" strides="2,2"/>
			<input>
				<port id="0">
					<dim>1</dim>
					<dim>64</dim>
					<dim>128</dim>
					<dim>64</dim>
				</port>
			</input>
			<output>
				<port id="1" precision="FP16">
					<dim>1</dim>
					<dim>64</dim>
					<dim>64</dim>
					<dim>32</dim>
				</port>
			</output>
		</layer>
		<layer id="50" name="568/fq_weights_1/Convert_to_float/Cast_017597_const" type="Const" version="opset1">
			<data element_type="u8" offset="10098" shape="64,64,1,1" size="4096"/>
			<output>
				<port id="1" precision="U8">
					<dim>64</dim>
					<dim>64</dim>
					<dim>1</dim>
					<dim>1</dim>
				</port>
			</output>
		</layer>
		<layer id="51" name="568/fq_weights_1/Convert_to_float" type="Convert" version="opset1">
			<data destination_type="f16"/>
			<input>
				<port id="0">
					<dim>64</dim>
					<dim>64</dim>
					<dim>1</dim>
					<dim>1</dim>
				</port>
			</input>
			<output>
				<port id="1" precision="FP16">
					<dim>64</dim>
					<dim>64</dim>
					<dim>1</dim>
					<dim>1</dim>
				</port>
			</output>
		</layer>
		<layer id="52" name="568/fq_weights_1/Copy/out_low14500_const" type="Const" version="opset1">
			<data element_type="f16" offset="9448" shape="1" size="2"/>
			<output>
				<port id="1" precision="FP16">
					<dim>1</dim>
				</port>
			</output>
		</layer>
		<layer id="53" name="568/fq_weights_1/Copy/out_high14501_const" type="Const" version="opset1">
			<data element_type="f16" offset="9450" shape="1" size="2"/>
			<output>
				<port id="1" precision="FP16">
					<dim>1</dim>
				</port>
			</output>
		</layer>
		<layer id="54" name="41734177_const" type="Const" version="opset1">
			<data element_type="f16" offset="14194" shape="64,1,1,1" size="128"/>
			<output>
				<port id="1" precision="FP16">
					<dim>64</dim>
					<dim>1</dim>
					<dim>1</dim>
					<dim>1</dim>
				</port>
			</output>
		</layer>
		<layer id="55" name="41744178_const" type="Const" version="opset1">
			<data element_type="f16" offset="14322" shape="64,1,1,1" size="128"/>
			<output>
				<port id="1" precision="FP16">
					<dim>64</dim>
					<dim>1</dim>
					<dim>1</dim>
					<dim>1</dim>
				</port>
			</output>
		</layer>
		<layer id="56" name="568/fq_weights_1" type="FakeQuantize" version="opset1">
			<data levels="255"/>
			<input>
				<port id="0">
					<dim>64</dim>
					<dim>64</dim>
					<dim>1</dim>
					<dim>1</dim>
				</port>
				<port id="1">
					<dim>1</dim>
				</port>
				<port id="2">
					<dim>1</dim>
				</port>
				<port id="3">
					<dim>64</dim>
					<dim>1</dim>
					<dim>1</dim>
					<dim>1</dim>
				</port>
				<port id="4">
					<dim>64</dim>
					<dim>1</dim>
					<dim>1</dim>
					<dim>1</dim>
				</port>
			</input>
			<output>
				<port id="5" precision="FP16">
					<dim>64</dim>
					<dim>64</dim>
					<dim>1</dim>
					<dim>1</dim>
				</port>
			</output>
		</layer>
		<layer id="57" name="568" type="Convolution" version="opset1">
			<data dilations="1,1" output_padding="0,0" pads_begin="0,0" pads_end="0,0" strides="1,1"/>
			<input>
				<port id="0">
					<dim>1</dim>
					<dim>64</dim>
					<dim>64</dim>
					<dim>32</dim>
				</port>
				<port id="1">
					<dim>64</dim>
					<dim>64</dim>
					<dim>1</dim>
					<dim>1</dim>
				</port>
			</input>
			<output>
				<port id="2" precision="FP16">
					<dim>1</dim>
					<dim>64</dim>
					<dim>64</dim>
					<dim>32</dim>
				</port>
			</output>
		</layer>
		<layer id="58" name="data_add_1950819513/copy_const939_const" type="Const" version="opset1">
			<data element_type="f16" offset="14450" shape="1,64,1,1" size="128"/>
			<output>
				<port id="1" precision="FP16">
					<dim>1</dim>
					<dim>64</dim>
					<dim>1</dim>
					<dim>1</dim>
				</port>
			</output>
		</layer>
		<layer id="59" name="569/variance/Fused_Add_" type="Add" version="opset1">
			<input>
				<port id="0">
					<dim>1</dim>
					<dim>64</dim>
					<dim>64</dim>
					<dim>32</dim>
				</port>
				<port id="1">
					<dim>1</dim>
					<dim>64</dim>
					<dim>1</dim>
					<dim>1</dim>
				</port>
			</input>
			<output>
				<port id="2" precision="FP16">
					<dim>1</dim>
					<dim>64</dim>
					<dim>64</dim>
					<dim>32</dim>
				</port>
			</output>
		</layer>
		<layer id="60" name="570" type="ReLU" version="opset1">
			<input>
				<port id="0">
					<dim>1</dim>
					<dim>64</dim>
					<dim>64</dim>
					<dim>32</dim>
				</port>
			</input>
			<output>
				<port id="1" precision="FP16">
					<dim>1</dim>
					<dim>64</dim>
					<dim>64</dim>
					<dim>32</dim>
				</port>
			</output>
		</layer>
		<layer id="61" name="54715475_const" type="Const" version="opset1">
			<data element_type="f16" offset="9448" shape="" size="2"/>
			<output>
				<port id="1" precision="FP16"/>
			</output>
		</layer>
		<layer id="62" name="54725476_const" type="Const" version="opset1">
			<data element_type="f16" offset="14578" shape="" size="2"/>
			<output>
				<port id="1" precision="FP16"/>
			</output>
		</layer>
		<layer id="63" name="54735477_const" type="Const" version="opset1">
			<data element_type="f16" offset="9448" shape="" size="2"/>
			<output>
				<port id="1" precision="FP16"/>
			</output>
		</layer>
		<layer id="64" name="54745478_const" type="Const" version="opset1">
			<data element_type="f16" offset="14578" shape="" size="2"/>
			<output>
				<port id="1" precision="FP16"/>
			</output>
		</layer>
		<layer id="65" name="571/fq_input_0" type="FakeQuantize" version="opset1">
			<data levels="256"/>
			<input>
				<port id="0">
					<dim>1</dim>
					<dim>64</dim>
					<dim>64</dim>
					<dim>32</dim>
				</port>
				<port id="1"/>
				<port id="2"/>
				<port id="3"/>
				<port id="4"/>
			</input>
			<output>
				<port id="5" precision="FP16">
					<dim>1</dim>
					<dim>64</dim>
					<dim>64</dim>
					<dim>32</dim>
				</port>
			</output>
		</layer>
		<layer id="66" name="571/fq_weights_1/Convert_to_float/Cast_017419_const" type="Const" version="opset1">
			<data element_type="u8" offset="14580" shape="64,64,1,1" size="4096"/>
			<output>
				<port id="1" precision="U8">
					<dim>64</dim>
					<dim>64</dim>
					<dim>1</dim>
					<dim>1</dim>
				</port>
			</output>
		</layer>
		<layer id="67" name="571/fq_weights_1/Convert_to_float" type="Convert" version="opset1">
			<data destination_type="f16"/>
			<input>
				<port id="0">
					<dim>64</dim>
					<dim>64</dim>
					<dim>1</dim>
					<dim>1</dim>
				</port>
			</input>
			<output>
				<port id="1" precision="FP16">
					<dim>64</dim>
					<dim>64</dim>
					<dim>1</dim>
					<dim>1</dim>
				</port>
			</output>
		</layer>
		<layer id="68" name="571/fq_weights_1/Copy/out_low14580_const" type="Const" version="opset1">
			<data element_type="f16" offset="9448" shape="1" size="2"/>
			<output>
				<port id="1" precision="FP16">
					<dim>1</dim>
				</port>
			</output>
		</layer>
		<layer id="69" name="571/fq_weights_1/Copy/out_high14581_const" type="Const" version="opset1">
			<data element_type="f16" offset="9450" shape="1" size="2"/>
			<output>
				<port id="1" precision="FP16">
					<dim>1</dim>
				</port>
			</output>
		</layer>
		<layer id="70" name="54835487_const" type="Const" version="opset1">
			<data element_type="f16" offset="18676" shape="64,1,1,1" size="128"/>
			<output>
				<port id="1" precision="FP16">
					<dim>64</dim>
					<dim>1</dim>
					<dim>1</dim>
					<dim>1</dim>
				</port>
			</output>
		</layer>
		<layer id="71" name="54845488_const" type="Const" version="opset1">
			<data element_type="f16" offset="18804" shape="64,1,1,1" size="128"/>
			<output>
				<port id="1" precision="FP16">
					<dim>64</dim>
					<dim>1</dim>
					<dim>1</dim>
					<dim>1</dim>
				</port>
			</output>
		</layer>
		<layer id="72" name="571/fq_weights_1" type="FakeQuantize" version="opset1">
			<data levels="255"/>
			<input>
				<port id="0">
					<dim>64</dim>
					<dim>64</dim>
					<dim>1</dim>
					<dim>1</dim>
				</port>
				<port id="1">
					<dim>1</dim>
				</port>
				<port id="2">
					<dim>1</dim>
				</port>
				<port id="3">
					<dim>64</dim>
					<dim>1</dim>
					<dim>1</dim>
					<dim>1</dim>
				</port>
				<port id="4">
					<dim>64</dim>
					<dim>1</dim>
					<dim>1</dim>
					<dim>1</dim>
				</port>
			</input>
			<output>
				<port id="5" precision="FP16">
					<dim>64</dim>
					<dim>64</dim>
					<dim>1</dim>
					<dim>1</dim>
				</port>
			</output>
		</layer>
		<layer id="73" name="571" type="Convolution" version="opset1">
			<data dilations="1,1" output_padding="0,0" pads_begin="0,0" pads_end="0,0" strides="1,1"/>
			<input>
				<port id="0">
					<dim>1</dim>
					<dim>64</dim>
					<dim>64</dim>
					<dim>32</dim>
				</port>
				<port id="1">
					<dim>64</dim>
					<dim>64</dim>
					<dim>1</dim>
					<dim>1</dim>
				</port>
			</input>
			<output>
				<port id="2" precision="FP16">
					<dim>1</dim>
					<dim>64</dim>
					<dim>64</dim>
					<dim>32</dim>
				</port>
			</output>
		</layer>
		<layer id="74" name="21962198_const" type="Const" version="opset1">
			<data element_type="f16" offset="9708" shape="1,64,1,1" size="128"/>
			<output>
				<port id="1" precision="FP16">
					<dim>1</dim>
					<dim>64</dim>
					<dim>1</dim>
					<dim>1</dim>
				</port>
			</output>
		</layer>
		<layer id="75" name="571/add_" type="Add" version="opset1">
			<input>
				<port id="0">
					<dim>1</dim>
					<dim>64</dim>
					<dim>64</dim>
					<dim>32</dim>
				</port>
				<port id="1">
					<dim>1</dim>
					<dim>64</dim>
					<dim>1</dim>
					<dim>1</dim>
				</port>
			</input>
			<output>
				<port id="2" precision="FP16">
					<dim>1</dim>
					<dim>64</dim>
					<dim>64</dim>
					<dim>32</dim>
				</port>
			</output>
		</layer>
		<layer id="76" name="68716875_const" type="Const" version="opset1">
			<data element_type="f16" offset="18932" shape="1,64,1,1" size="128"/>
			<output>
				<port id="1" precision="FP16">
					<dim>1</dim>
					<dim>64</dim>
					<dim>1</dim>
					<dim>1</dim>
				</port>
			</output>
		</layer>
		<layer id="77" name="68726876_const" type="Const" version="opset1">
			<data element_type="f16" offset="19060" shape="1,64,1,1" size="128"/>
			<output>
				<port id="1" precision="FP16">
					<dim>1</dim>
					<dim>64</dim>
					<dim>1</dim>
					<dim>1</dim>
				</port>
			</output>
		</layer>
		<layer id="78" name="68736877_const" type="Const" version="opset1">
			<data element_type="f16" offset="18932" shape="1,64,1,1" size="128"/>
			<output>
				<port id="1" precision="FP16">
					<dim>1</dim>
					<dim>64</dim>
					<dim>1</dim>
					<dim>1</dim>
				</port>
			</output>
		</layer>
		<layer id="79" name="68746878_const" type="Const" version="opset1">
			<data element_type="f16" offset="19060" shape="1,64,1,1" size="128"/>
			<output>
				<port id="1" precision="FP16">
					<dim>1</dim>
					<dim>64</dim>
					<dim>1</dim>
					<dim>1</dim>
				</port>
			</output>
		</layer>
		<layer id="80" name="572/fq_input_0" type="FakeQuantize" version="opset1">
			<data levels="256"/>
			<input>
				<port id="0">
					<dim>1</dim>
					<dim>64</dim>
					<dim>64</dim>
					<dim>32</dim>
				</port>
				<port id="1">
					<dim>1</dim>
					<dim>64</dim>
					<dim>1</dim>
					<dim>1</dim>
				</port>
				<port id="2">
					<dim>1</dim>
					<dim>64</dim>
					<dim>1</dim>
					<dim>1</dim>
				</port>
				<port id="3">
					<dim>1</dim>
					<dim>64</dim>
					<dim>1</dim>
					<dim>1</dim>
				</port>
				<port id="4">
					<dim>1</dim>
					<dim>64</dim>
					<dim>1</dim>
					<dim>1</dim>
				</port>
			</input>
			<output>
				<port id="5" precision="FP16">
					<dim>1</dim>
					<dim>64</dim>
					<dim>64</dim>
					<dim>32</dim>
				</port>
			</output>
		</layer>
		<layer id="81" name="572/fq_weights_1/Convert_to_float/Cast_017541_const" type="Const" version="opset1">
			<data element_type="u8" offset="19188" shape="64,1,3,3" size="576"/>
			<output>
				<port id="1" precision="U8">
					<dim>64</dim>
					<dim>1</dim>
					<dim>3</dim>
					<dim>3</dim>
				</port>
			</output>
		</layer>
		<layer id="82" name="572/fq_weights_1/Convert_to_float" type="Convert" version="opset1">
			<data destination_type="f16"/>
			<input>
				<port id="0">
					<dim>64</dim>
					<dim>1</dim>
					<dim>3</dim>
					<dim>3</dim>
				</port>
			</input>
			<output>
				<port id="1" precision="FP16">
					<dim>64</dim>
					<dim>1</dim>
					<dim>3</dim>
					<dim>3</dim>
				</port>
			</output>
		</layer>
		<layer id="83" name="572/fq_weights_1/Copy/out_low14484_const" type="Const" version="opset1">
			<data element_type="f16" offset="9448" shape="1" size="2"/>
			<output>
				<port id="1" precision="FP16">
					<dim>1</dim>
				</port>
			</output>
		</layer>
		<layer id="84" name="572/fq_weights_1/Copy/out_high14485_const" type="Const" version="opset1">
			<data element_type="f16" offset="9450" shape="1" size="2"/>
			<output>
				<port id="1" precision="FP16">
					<dim>1</dim>
				</port>
			</output>
		</layer>
		<layer id="85" name="68836887_const" type="Const" version="opset1">
			<data element_type="f16" offset="19764" shape="64,1,1,1" size="128"/>
			<output>
				<port id="1" precision="FP16">
					<dim>64</dim>
					<dim>1</dim>
					<dim>1</dim>
					<dim>1</dim>
				</port>
			</output>
		</layer>
		<layer id="86" name="68846888_const" type="Const" version="opset1">
			<data element_type="f16" offset="19892" shape="64,1,1,1" size="128"/>
			<output>
				<port id="1" precision="FP16">
					<dim>64</dim>
					<dim>1</dim>
					<dim>1</dim>
					<dim>1</dim>
				</port>
			</output>
		</layer>
		<layer id="87" name="572/fq_weights_1" type="FakeQuantize" version="opset1">
			<data levels="255"/>
			<input>
				<port id="0">
					<dim>64</dim>
					<dim>1</dim>
					<dim>3</dim>
					<dim>3</dim>
				</port>
				<port id="1">
					<dim>1</dim>
				</port>
				<port id="2">
					<dim>1</dim>
				</port>
				<port id="3">
					<dim>64</dim>
					<dim>1</dim>
					<dim>1</dim>
					<dim>1</dim>
				</port>
				<port id="4">
					<dim>64</dim>
					<dim>1</dim>
					<dim>1</dim>
					<dim>1</dim>
				</port>
			</input>
			<output>
				<port id="5" precision="FP16">
					<dim>64</dim>
					<dim>1</dim>
					<dim>3</dim>
					<dim>3</dim>
				</port>
			</output>
		</layer>
		<layer id="88" name="19791/value19793_const" type="Const" version="opset1">
			<data element_type="i64" offset="20020" shape="5" size="40"/>
			<output>
				<port id="1" precision="I64">
					<dim>5</dim>
				</port>
			</output>
		</layer>
		<layer id="89" name="19791" type="Reshape" version="opset1">
			<data special_zero="True"/>
			<input>
				<port id="0">
					<dim>64</dim>
					<dim>1</dim>
					<dim>3</dim>
					<dim>3</dim>
				</port>
				<port id="1">
					<dim>5</dim>
				</port>
			</input>
			<output>
				<port id="2" precision="FP16">
					<dim>64</dim>
					<dim>1</dim>
					<dim>1</dim>
					<dim>3</dim>
					<dim>3</dim>
				</port>
			</output>
		</layer>
		<layer id="90" name="572" type="GroupConvolution" version="opset1">
			<data dilations="1,1" output_padding="0,0" pads_begin="1,1" pads_end="1,1" strides="1,1"/>
			<input>
				<port id="0">
					<dim>1</dim>
					<dim>64</dim>
					<dim>64</dim>
					<dim>32</dim>
				</port>
				<port id="1">
					<dim>64</dim>
					<dim>1</dim>
					<dim>1</dim>
					<dim>3</dim>
					<dim>3</dim>
				</port>
			</input>
			<output>
				<port id="2" precision="FP16">
					<dim>1</dim>
					<dim>64</dim>
					<dim>64</dim>
					<dim>32</dim>
				</port>
			</output>
		</layer>
		<layer id="91" name="data_add_1958819593/copy_const946_const" type="Const" version="opset1">
			<data element_type="f16" offset="20060" shape="1,64,1,1" size="128"/>
			<output>
				<port id="1" precision="FP16">
					<dim>1</dim>
					<dim>64</dim>
					<dim>1</dim>
					<dim>1</dim>
				</port>
			</output>
		</layer>
		<layer id="92" name="573/variance/Fused_Add_" type="Add" version="opset1">
			<input>
				<port id="0">
					<dim>1</dim>
					<dim>64</dim>
					<dim>64</dim>
					<dim>32</dim>
				</port>
				<port id="1">
					<dim>1</dim>
					<dim>64</dim>
					<dim>1</dim>
					<dim>1</dim>
				</port>
			</input>
			<output>
				<port id="2" precision="FP16">
					<dim>1</dim>
					<dim>64</dim>
					<dim>64</dim>
					<dim>32</dim>
				</port>
			</output>
		</layer>
		<layer id="93" name="574" type="ReLU" version="opset1">
			<input>
				<port id="0">
					<dim>1</dim>
					<dim>64</dim>
					<dim>64</dim>
					<dim>32</dim>
				</port>
			</input>
			<output>
				<port id="1" precision="FP16">
					<dim>1</dim>
					<dim>64</dim>
					<dim>64</dim>
					<dim>32</dim>
				</port>
			</output>
		</layer>
		<layer id="94" name="67916795_const" type="Const" version="opset1">
			<data element_type="f16" offset="9448" shape="" size="2"/>
			<output>
				<port id="1" precision="FP16"/>
			</output>
		</layer>
		<layer id="95" name="67926796_const" type="Const" version="opset1">
			<data element_type="f16" offset="20188" shape="" size="2"/>
			<output>
				<port id="1" precision="FP16"/>
			</output>
		</layer>
		<layer id="96" name="67936797_const" type="Const" version="opset1">
			<data element_type="f16" offset="9448" shape="" size="2"/>
			<output>
				<port id="1" precision="FP16"/>
			</output>
		</layer>
		<layer id="97" name="67946798_const" type="Const" version="opset1">
			<data element_type="f16" offset="20188" shape="" size="2"/>
			<output>
				<port id="1" precision="FP16"/>
			</output>
		</layer>
		<layer id="98" name="611/reduce/fq_input_0" type="FakeQuantize" version="opset1">
			<data levels="256"/>
			<input>
				<port id="0">
					<dim>1</dim>
					<dim>64</dim>
					<dim>64</dim>
					<dim>32</dim>
				</port>
				<port id="1"/>
				<port id="2"/>
				<port id="3"/>
				<port id="4"/>
			</input>
			<output>
				<port id="5" precision="FP16">
					<dim>1</dim>
					<dim>64</dim>
					<dim>64</dim>
					<dim>32</dim>
				</port>
			</output>
		</layer>
		<layer id="99" name="611/reduce/Cast_117569_const" type="Const" version="opset1">
			<data element_type="i64" offset="20190" shape="2" size="16"/>
			<output>
				<port id="1" precision="I64">
					<dim>2</dim>
				</port>
			</output>
		</layer>
		<layer id="100" name="611/reduce" type="ReduceMean" version="opset1">
			<data keep_dims="True"/>
			<input>
				<port id="0">
					<dim>1</dim>
					<dim>64</dim>
					<dim>64</dim>
					<dim>32</dim>
				</port>
				<port id="1">
					<dim>2</dim>
				</port>
			</input>
			<output>
				<port id="2" precision="FP16">
					<dim>1</dim>
					<dim>64</dim>
					<dim>1</dim>
					<dim>1</dim>
				</port>
			</output>
		</layer>
		<layer id="101" name="Copy_onnx_initializer_node_conv2.0.gate.fc1.weight/Output_0/Data__const951_const" type="Const" version="opset1">
			<data element_type="f16" offset="20206" shape="4,64,1,1" size="512"/>
			<output>
				<port id="1" precision="FP16">
					<dim>4</dim>
					<dim>64</dim>
					<dim>1</dim>
					<dim>1</dim>
				</port>
			</output>
		</layer>
		<layer id="102" name="612/WithoutBiases" type="Convolution" version="opset1">
			<data dilations="1,1" output_padding="0,0" pads_begin="0,0" pads_end="0,0" strides="1,1"/>
			<input>
				<port id="0">
					<dim>1</dim>
					<dim>64</dim>
					<dim>1</dim>
					<dim>1</dim>
				</port>
				<port id="1">
					<dim>4</dim>
					<dim>64</dim>
					<dim>1</dim>
					<dim>1</dim>
				</port>
			</input>
			<output>
				<port id="2" precision="FP16">
					<dim>1</dim>
					<dim>4</dim>
					<dim>1</dim>
					<dim>1</dim>
				</port>
			</output>
		</layer>
		<layer id="103" name="612/Dims11865/copy_const953_const" type="Const" version="opset1">
			<data element_type="f16" offset="20718" shape="1,4,1,1" size="8"/>
			<output>
				<port id="1" precision="FP16">
					<dim>1</dim>
					<dim>4</dim>
					<dim>1</dim>
					<dim>1</dim>
				</port>
			</output>
		</layer>
		<layer id="104" name="612" type="Add" version="opset1">
			<input>
				<port id="0">
					<dim>1</dim>
					<dim>4</dim>
					<dim>1</dim>
					<dim>1</dim>
				</port>
				<port id="1">
					<dim>1</dim>
					<dim>4</dim>
					<dim>1</dim>
					<dim>1</dim>
				</port>
			</input>
			<output>
				<port id="2" precision="FP16">
					<dim>1</dim>
					<dim>4</dim>
					<dim>1</dim>
					<dim>1</dim>
				</port>
			</output>
		</layer>
		<layer id="105" name="613" type="ReLU" version="opset1">
			<input>
				<port id="0">
					<dim>1</dim>
					<dim>4</dim>
					<dim>1</dim>
					<dim>1</dim>
				</port>
			</input>
			<output>
				<port id="1" precision="FP16">
					<dim>1</dim>
					<dim>4</dim>
					<dim>1</dim>
					<dim>1</dim>
				</port>
			</output>
		</layer>
		<layer id="106" name="Copy_onnx_initializer_node_conv2.0.gate.fc2.weight/Output_0/Data__const956_const" type="Const" version="opset1">
			<data element_type="f16" offset="20726" shape="64,4,1,1" size="512"/>
			<output>
				<port id="1" precision="FP16">
					<dim>64</dim>
					<dim>4</dim>
					<dim>1</dim>
					<dim>1</dim>
				</port>
			</output>
		</layer>
		<layer id="107" name="614/WithoutBiases" type="Convolution" version="opset1">
			<data dilations="1,1" output_padding="0,0" pads_begin="0,0" pads_end="0,0" strides="1,1"/>
			<input>
				<port id="0">
					<dim>1</dim>
					<dim>4</dim>
					<dim>1</dim>
					<dim>1</dim>
				</port>
				<port id="1">
					<dim>64</dim>
					<dim>4</dim>
					<dim>1</dim>
					<dim>1</dim>
				</port>
			</input>
			<output>
				<port id="2" precision="FP16">
					<dim>1</dim>
					<dim>64</dim>
					<dim>1</dim>
					<dim>1</dim>
				</port>
			</output>
		</layer>
		<layer id="108" name="614/Dims11811/copy_const958_const" type="Const" version="opset1">
			<data element_type="f16" offset="21238" shape="1,64,1,1" size="128"/>
			<output>
				<port id="1" precision="FP16">
					<dim>1</dim>
					<dim>64</dim>
					<dim>1</dim>
					<dim>1</dim>
				</port>
			</output>
		</layer>
		<layer id="109" name="614" type="Add" version="opset1">
			<input>
				<port id="0">
					<dim>1</dim>
					<dim>64</dim>
					<dim>1</dim>
					<dim>1</dim>
				</port>
				<port id="1">
					<dim>1</dim>
					<dim>64</dim>
					<dim>1</dim>
					<dim>1</dim>
				</port>
			</input>
			<output>
				<port id="2" precision="FP16">
					<dim>1</dim>
					<dim>64</dim>
					<dim>1</dim>
					<dim>1</dim>
				</port>
			</output>
		</layer>
		<layer id="110" name="615" type="Sigmoid" version="opset1">
			<input>
				<port id="0">
					<dim>1</dim>
					<dim>64</dim>
					<dim>1</dim>
					<dim>1</dim>
				</port>
			</input>
			<output>
				<port id="1" precision="FP16">
					<dim>1</dim>
					<dim>64</dim>
					<dim>1</dim>
					<dim>1</dim>
				</port>
			</output>
		</layer>
		<layer id="111" name="75317535_const" type="Const" version="opset1">
			<data element_type="f16" offset="9448" shape="" size="2"/>
			<output>
				<port id="1" precision="FP16"/>
			</output>
		</layer>
		<layer id="112" name="75327536_const" type="Const" version="opset1">
			<data element_type="f16" offset="21366" shape="" size="2"/>
			<output>
				<port id="1" precision="FP16"/>
			</output>
		</layer>
		<layer id="113" name="75337537_const" type="Const" version="opset1">
			<data element_type="f16" offset="9448" shape="" size="2"/>
			<output>
				<port id="1" precision="FP16"/>
			</output>
		</layer>
		<layer id="114" name="75347538_const" type="Const" version="opset1">
			<data element_type="f16" offset="21366" shape="" size="2"/>
			<output>
				<port id="1" precision="FP16"/>
			</output>
		</layer>
		<layer id="115" name="616/fq_input_1" type="FakeQuantize" version="opset1">
			<data levels="256"/>
			<input>
				<port id="0">
					<dim>1</dim>
					<dim>64</dim>
					<dim>1</dim>
					<dim>1</dim>
				</port>
				<port id="1"/>
				<port id="2"/>
				<port id="3"/>
				<port id="4"/>
			</input>
			<output>
				<port id="5" precision="FP16">
					<dim>1</dim>
					<dim>64</dim>
					<dim>1</dim>
					<dim>1</dim>
				</port>
			</output>
		</layer>
		<layer id="116" name="616" type="Multiply" version="opset1">
			<input>
				<port id="0">
					<dim>1</dim>
					<dim>64</dim>
					<dim>64</dim>
					<dim>32</dim>
				</port>
				<port id="1">
					<dim>1</dim>
					<dim>64</dim>
					<dim>1</dim>
					<dim>1</dim>
				</port>
			</input>
			<output>
				<port id="2" precision="FP16">
					<dim>1</dim>
					<dim>64</dim>
					<dim>64</dim>
					<dim>32</dim>
				</port>
			</output>
		</layer>
		<layer id="117" name="50915095_const" type="Const" version="opset1">
			<data element_type="f16" offset="9448" shape="" size="2"/>
			<output>
				<port id="1" precision="FP16"/>
			</output>
		</layer>
		<layer id="118" name="50925096_const" type="Const" version="opset1">
			<data element_type="f16" offset="21368" shape="" size="2"/>
			<output>
				<port id="1" precision="FP16"/>
			</output>
		</layer>
		<layer id="119" name="50935097_const" type="Const" version="opset1">
			<data element_type="f16" offset="9448" shape="" size="2"/>
			<output>
				<port id="1" precision="FP16"/>
			</output>
		</layer>
		<layer id="120" name="50945098_const" type="Const" version="opset1">
			<data element_type="f16" offset="21368" shape="" size="2"/>
			<output>
				<port id="1" precision="FP16"/>
			</output>
		</layer>
		<layer id="121" name="623/fq_input_0" type="FakeQuantize" version="opset1">
			<data levels="256"/>
			<input>
				<port id="0">
					<dim>1</dim>
					<dim>64</dim>
					<dim>64</dim>
					<dim>32</dim>
				</port>
				<port id="1"/>
				<port id="2"/>
				<port id="3"/>
				<port id="4"/>
			</input>
			<output>
				<port id="5" precision="FP16">
					<dim>1</dim>
					<dim>64</dim>
					<dim>64</dim>
					<dim>32</dim>
				</port>
			</output>
		</layer>
		<layer id="122" name="575/fq_weights_1/Convert_to_float/Cast_017365_const" type="Const" version="opset1">
			<data element_type="u8" offset="21370" shape="64,64,1,1" size="4096"/>
			<output>
				<port id="1" precision="U8">
					<dim>64</dim>
					<dim>64</dim>
					<dim>1</dim>
					<dim>1</dim>
				</port>
			</output>
		</layer>
		<layer id="123" name="575/fq_weights_1/Convert_to_float" type="Convert" version="opset1">
			<data destination_type="f16"/>
			<input>
				<port id="0">
					<dim>64</dim>
					<dim>64</dim>
					<dim>1</dim>
					<dim>1</dim>
				</port>
			</input>
			<output>
				<port id="1" precision="FP16">
					<dim>64</dim>
					<dim>64</dim>
					<dim>1</dim>
					<dim>1</dim>
				</port>
			</output>
		</layer>
		<layer id="124" name="575/fq_weights_1/Copy/out_low15012_const" type="Const" version="opset1">
			<data element_type="f16" offset="9448" shape="1" size="2"/>
			<output>
				<port id="1" precision="FP16">
					<dim>1</dim>
				</port>
			</output>
		</layer>
		<layer id="125" name="575/fq_weights_1/Copy/out_high15013_const" type="Const" version="opset1">
			<data element_type="f16" offset="9450" shape="1" size="2"/>
			<output>
				<port id="1" precision="FP16">
					<dim>1</dim>
				</port>
			</output>
		</layer>
		<layer id="126" name="72337237_const" type="Const" version="opset1">
			<data element_type="f16" offset="25466" shape="64,1,1,1" size="128"/>
			<output>
				<port id="1" precision="FP16">
					<dim>64</dim>
					<dim>1</dim>
					<dim>1</dim>
					<dim>1</dim>
				</port>
			</output>
		</layer>
		<layer id="127" name="72347238_const" type="Const" version="opset1">
			<data element_type="f16" offset="25594" shape="64,1,1,1" size="128"/>
			<output>
				<port id="1" precision="FP16">
					<dim>64</dim>
					<dim>1</dim>
					<dim>1</dim>
					<dim>1</dim>
				</port>
			</output>
		</layer>
		<layer id="128" name="575/fq_weights_1" type="FakeQuantize" version="opset1">
			<data levels="255"/>
			<input>
				<port id="0">
					<dim>64</dim>
					<dim>64</dim>
					<dim>1</dim>
					<dim>1</dim>
				</port>
				<port id="1">
					<dim>1</dim>
				</port>
				<port id="2">
					<dim>1</dim>
				</port>
				<port id="3">
					<dim>64</dim>
					<dim>1</dim>
					<dim>1</dim>
					<dim>1</dim>
				</port>
				<port id="4">
					<dim>64</dim>
					<dim>1</dim>
					<dim>1</dim>
					<dim>1</dim>
				</port>
			</input>
			<output>
				<port id="5" precision="FP16">
					<dim>64</dim>
					<dim>64</dim>
					<dim>1</dim>
					<dim>1</dim>
				</port>
			</output>
		</layer>
		<layer id="129" name="575" type="Convolution" version="opset1">
			<data dilations="1,1" output_padding="0,0" pads_begin="0,0" pads_end="0,0" strides="1,1"/>
			<input>
				<port id="0">
					<dim>1</dim>
					<dim>64</dim>
					<dim>64</dim>
					<dim>32</dim>
				</port>
				<port id="1">
					<dim>64</dim>
					<dim>64</dim>
					<dim>1</dim>
					<dim>1</dim>
				</port>
			</input>
			<output>
				<port id="2" precision="FP16">
					<dim>1</dim>
					<dim>64</dim>
					<dim>64</dim>
					<dim>32</dim>
				</port>
			</output>
		</layer>
		<layer id="130" name="22002202_const" type="Const" version="opset1">
			<data element_type="f16" offset="9708" shape="1,64,1,1" size="128"/>
			<output>
				<port id="1" precision="FP16">
					<dim>1</dim>
					<dim>64</dim>
					<dim>1</dim>
					<dim>1</dim>
				</port>
			</output>
		</layer>
		<layer id="131" name="575/add_" type="Add" version="opset1">
			<input>
				<port id="0">
					<dim>1</dim>
					<dim>64</dim>
					<dim>64</dim>
					<dim>32</dim>
				</port>
				<port id="1">
					<dim>1</dim>
					<dim>64</dim>
					<dim>1</dim>
					<dim>1</dim>
				</port>
			</input>
			<output>
				<port id="2" precision="FP16">
					<dim>1</dim>
					<dim>64</dim>
					<dim>64</dim>
					<dim>32</dim>
				</port>
			</output>
		</layer>
		<layer id="132" name="36113615_const" type="Const" version="opset1">
			<data element_type="f16" offset="25722" shape="1,64,1,1" size="128"/>
			<output>
				<port id="1" precision="FP16">
					<dim>1</dim>
					<dim>64</dim>
					<dim>1</dim>
					<dim>1</dim>
				</port>
			</output>
		</layer>
		<layer id="133" name="36123616_const" type="Const" version="opset1">
			<data element_type="f16" offset="25850" shape="1,64,1,1" size="128"/>
			<output>
				<port id="1" precision="FP16">
					<dim>1</dim>
					<dim>64</dim>
					<dim>1</dim>
					<dim>1</dim>
				</port>
			</output>
		</layer>
		<layer id="134" name="36133617_const" type="Const" version="opset1">
			<data element_type="f16" offset="25722" shape="1,64,1,1" size="128"/>
			<output>
				<port id="1" precision="FP16">
					<dim>1</dim>
					<dim>64</dim>
					<dim>1</dim>
					<dim>1</dim>
				</port>
			</output>
		</layer>
		<layer id="135" name="36143618_const" type="Const" version="opset1">
			<data element_type="f16" offset="25850" shape="1,64,1,1" size="128"/>
			<output>
				<port id="1" precision="FP16">
					<dim>1</dim>
					<dim>64</dim>
					<dim>1</dim>
					<dim>1</dim>
				</port>
			</output>
		</layer>
		<layer id="136" name="576/fq_input_0" type="FakeQuantize" version="opset1">
			<data levels="256"/>
			<input>
				<port id="0">
					<dim>1</dim>
					<dim>64</dim>
					<dim>64</dim>
					<dim>32</dim>
				</port>
				<port id="1">
					<dim>1</dim>
					<dim>64</dim>
					<dim>1</dim>
					<dim>1</dim>
				</port>
				<port id="2">
					<dim>1</dim>
					<dim>64</dim>
					<dim>1</dim>
					<dim>1</dim>
				</port>
				<port id="3">
					<dim>1</dim>
					<dim>64</dim>
					<dim>1</dim>
					<dim>1</dim>
				</port>
				<port id="4">
					<dim>1</dim>
					<dim>64</dim>
					<dim>1</dim>
					<dim>1</dim>
				</port>
			</input>
			<output>
				<port id="5" precision="FP16">
					<dim>1</dim>
					<dim>64</dim>
					<dim>64</dim>
					<dim>32</dim>
				</port>
			</output>
		</layer>
		<layer id="137" name="576/fq_weights_1/Convert_to_float/Cast_017551_const" type="Const" version="opset1">
			<data element_type="u8" offset="25978" shape="64,1,3,3" size="576"/>
			<output>
				<port id="1" precision="U8">
					<dim>64</dim>
					<dim>1</dim>
					<dim>3</dim>
					<dim>3</dim>
				</port>
			</output>
		</layer>
		<layer id="138" name="576/fq_weights_1/Convert_to_float" type="Convert" version="opset1">
			<data destination_type="f16"/>
			<input>
				<port id="0">
					<dim>64</dim>
					<dim>1</dim>
					<dim>3</dim>
					<dim>3</dim>
				</port>
			</input>
			<output>
				<port id="1" precision="FP16">
					<dim>64</dim>
					<dim>1</dim>
					<dim>3</dim>
					<dim>3</dim>
				</port>
			</output>
		</layer>
		<layer id="139" name="576/fq_weights_1/Copy/out_low14572_const" type="Const" version="opset1">
			<data element_type="f16" offset="9448" shape="1" size="2"/>
			<output>
				<port id="1" precision="FP16">
					<dim>1</dim>
				</port>
			</output>
		</layer>
		<layer id="140" name="576/fq_weights_1/Copy/out_high14573_const" type="Const" version="opset1">
			<data element_type="f16" offset="9450" shape="1" size="2"/>
			<output>
				<port id="1" precision="FP16">
					<dim>1</dim>
				</port>
			</output>
		</layer>
		<layer id="141" name="36233627_const" type="Const" version="opset1">
			<data element_type="f16" offset="26554" shape="64,1,1,1" size="128"/>
			<output>
				<port id="1" precision="FP16">
					<dim>64</dim>
					<dim>1</dim>
					<dim>1</dim>
					<dim>1</dim>
				</port>
			</output>
		</layer>
		<layer id="142" name="36243628_const" type="Const" version="opset1">
			<data element_type="f16" offset="26682" shape="64,1,1,1" size="128"/>
			<output>
				<port id="1" precision="FP16">
					<dim>64</dim>
					<dim>1</dim>
					<dim>1</dim>
					<dim>1</dim>
				</port>
			</output>
		</layer>
		<layer id="143" name="576/fq_weights_1" type="FakeQuantize" version="opset1">
			<data levels="255"/>
			<input>
				<port id="0">
					<dim>64</dim>
					<dim>1</dim>
					<dim>3</dim>
					<dim>3</dim>
				</port>
				<port id="1">
					<dim>1</dim>
				</port>
				<port id="2">
					<dim>1</dim>
				</port>
				<port id="3">
					<dim>64</dim>
					<dim>1</dim>
					<dim>1</dim>
					<dim>1</dim>
				</port>
				<port id="4">
					<dim>64</dim>
					<dim>1</dim>
					<dim>1</dim>
					<dim>1</dim>
				</port>
			</input>
			<output>
				<port id="5" precision="FP16">
					<dim>64</dim>
					<dim>1</dim>
					<dim>3</dim>
					<dim>3</dim>
				</port>
			</output>
		</layer>
		<layer id="144" name="19811/value19813_const" type="Const" version="opset1">
			<data element_type="i64" offset="20020" shape="5" size="40"/>
			<output>
				<port id="1" precision="I64">
					<dim>5</dim>
				</port>
			</output>
		</layer>
		<layer id="145" name="19811" type="Reshape" version="opset1">
			<data special_zero="True"/>
			<input>
				<port id="0">
					<dim>64</dim>
					<dim>1</dim>
					<dim>3</dim>
					<dim>3</dim>
				</port>
				<port id="1">
					<dim>5</dim>
				</port>
			</input>
			<output>
				<port id="2" precision="FP16">
					<dim>64</dim>
					<dim>1</dim>
					<dim>1</dim>
					<dim>3</dim>
					<dim>3</dim>
				</port>
			</output>
		</layer>
		<layer id="146" name="576" type="GroupConvolution" version="opset1">
			<data dilations="1,1" output_padding="0,0" pads_begin="1,1" pads_end="1,1" strides="1,1"/>
			<input>
				<port id="0">
					<dim>1</dim>
					<dim>64</dim>
					<dim>64</dim>
					<dim>32</dim>
				</port>
				<port id="1">
					<dim>64</dim>
					<dim>1</dim>
					<dim>1</dim>
					<dim>3</dim>
					<dim>3</dim>
				</port>
			</input>
			<output>
				<port id="2" precision="FP16">
					<dim>1</dim>
					<dim>64</dim>
					<dim>64</dim>
					<dim>32</dim>
				</port>
			</output>
		</layer>
		<layer id="147" name="data_add_1957219577/copy_const966_const" type="Const" version="opset1">
			<data element_type="f16" offset="26810" shape="1,64,1,1" size="128"/>
			<output>
				<port id="1" precision="FP16">
					<dim>1</dim>
					<dim>64</dim>
					<dim>1</dim>
					<dim>1</dim>
				</port>
			</output>
		</layer>
		<layer id="148" name="577/variance/Fused_Add_" type="Add" version="opset1">
			<input>
				<port id="0">
					<dim>1</dim>
					<dim>64</dim>
					<dim>64</dim>
					<dim>32</dim>
				</port>
				<port id="1">
					<dim>1</dim>
					<dim>64</dim>
					<dim>1</dim>
					<dim>1</dim>
				</port>
			</input>
			<output>
				<port id="2" precision="FP16">
					<dim>1</dim>
					<dim>64</dim>
					<dim>64</dim>
					<dim>32</dim>
				</port>
			</output>
		</layer>
		<layer id="149" name="578" type="ReLU" version="opset1">
			<input>
				<port id="0">
					<dim>1</dim>
					<dim>64</dim>
					<dim>64</dim>
					<dim>32</dim>
				</port>
			</input>
			<output>
				<port id="1" precision="FP16">
					<dim>1</dim>
					<dim>64</dim>
					<dim>64</dim>
					<dim>32</dim>
				</port>
			</output>
		</layer>
		<layer id="150" name="66316635_const" type="Const" version="opset1">
			<data element_type="f16" offset="9448" shape="" size="2"/>
			<output>
				<port id="1" precision="FP16"/>
			</output>
		</layer>
		<layer id="151" name="66326636_const" type="Const" version="opset1">
			<data element_type="f16" offset="26938" shape="" size="2"/>
			<output>
				<port id="1" precision="FP16"/>
			</output>
		</layer>
		<layer id="152" name="66336637_const" type="Const" version="opset1">
			<data element_type="f16" offset="9448" shape="" size="2"/>
			<output>
				<port id="1" precision="FP16"/>
			</output>
		</layer>
		<layer id="153" name="66346638_const" type="Const" version="opset1">
			<data element_type="f16" offset="26938" shape="" size="2"/>
			<output>
				<port id="1" precision="FP16"/>
			</output>
		</layer>
		<layer id="154" name="579/fq_input_0" type="FakeQuantize" version="opset1">
			<data levels="256"/>
			<input>
				<port id="0">
					<dim>1</dim>
					<dim>64</dim>
					<dim>64</dim>
					<dim>32</dim>
				</port>
				<port id="1"/>
				<port id="2"/>
				<port id="3"/>
				<port id="4"/>
			</input>
			<output>
				<port id="5" precision="FP16">
					<dim>1</dim>
					<dim>64</dim>
					<dim>64</dim>
					<dim>32</dim>
				</port>
			</output>
		</layer>
		<layer id="155" name="579/fq_weights_1/Convert_to_float/Cast_017533_const" type="Const" version="opset1">
			<data element_type="u8" offset="26940" shape="64,64,1,1" size="4096"/>
			<output>
				<port id="1" precision="U8">
					<dim>64</dim>
					<dim>64</dim>
					<dim>1</dim>
					<dim>1</dim>
				</port>
			</output>
		</layer>
		<layer id="156" name="579/fq_weights_1/Convert_to_float" type="Convert" version="opset1">
			<data destination_type="f16"/>
			<input>
				<port id="0">
					<dim>64</dim>
					<dim>64</dim>
					<dim>1</dim>
					<dim>1</dim>
				</port>
			</input>
			<output>
				<port id="1" precision="FP16">
					<dim>64</dim>
					<dim>64</dim>
					<dim>1</dim>
					<dim>1</dim>
				</port>
			</output>
		</layer>
		<layer id="157" name="579/fq_weights_1/Copy/out_low14420_const" type="Const" version="opset1">
			<data element_type="f16" offset="9448" shape="1" size="2"/>
			<output>
				<port id="1" precision="FP16">
					<dim>1</dim>
				</port>
			</output>
		</layer>
		<layer id="158" name="579/fq_weights_1/Copy/out_high14421_const" type="Const" version="opset1">
			<data element_type="f16" offset="9450" shape="1" size="2"/>
			<output>
				<port id="1" precision="FP16">
					<dim>1</dim>
				</port>
			</output>
		</layer>
		<layer id="159" name="66436647_const" type="Const" version="opset1">
			<data element_type="f16" offset="31036" shape="64,1,1,1" size="128"/>
			<output>
				<port id="1" precision="FP16">
					<dim>64</dim>
					<dim>1</dim>
					<dim>1</dim>
					<dim>1</dim>
				</port>
			</output>
		</layer>
		<layer id="160" name="66446648_const" type="Const" version="opset1">
			<data element_type="f16" offset="31164" shape="64,1,1,1" size="128"/>
			<output>
				<port id="1" precision="FP16">
					<dim>64</dim>
					<dim>1</dim>
					<dim>1</dim>
					<dim>1</dim>
				</port>
			</output>
		</layer>
		<layer id="161" name="579/fq_weights_1" type="FakeQuantize" version="opset1">
			<data levels="255"/>
			<input>
				<port id="0">
					<dim>64</dim>
					<dim>64</dim>
					<dim>1</dim>
					<dim>1</dim>
				</port>
				<port id="1">
					<dim>1</dim>
				</port>
				<port id="2">
					<dim>1</dim>
				</port>
				<port id="3">
					<dim>64</dim>
					<dim>1</dim>
					<dim>1</dim>
					<dim>1</dim>
				</port>
				<port id="4">
					<dim>64</dim>
					<dim>1</dim>
					<dim>1</dim>
					<dim>1</dim>
				</port>
			</input>
			<output>
				<port id="5" precision="FP16">
					<dim>64</dim>
					<dim>64</dim>
					<dim>1</dim>
					<dim>1</dim>
				</port>
			</output>
		</layer>
		<layer id="162" name="579" type="Convolution" version="opset1">
			<data dilations="1,1" output_padding="0,0" pads_begin="0,0" pads_end="0,0" strides="1,1"/>
			<input>
				<port id="0">
					<dim>1</dim>
					<dim>64</dim>
					<dim>64</dim>
					<dim>32</dim>
				</port>
				<port id="1">
					<dim>64</dim>
					<dim>64</dim>
					<dim>1</dim>
					<dim>1</dim>
				</port>
			</input>
			<output>
				<port id="2" precision="FP16">
					<dim>1</dim>
					<dim>64</dim>
					<dim>64</dim>
					<dim>32</dim>
				</port>
			</output>
		</layer>
		<layer id="163" name="22042206_const" type="Const" version="opset1">
			<data element_type="f16" offset="9708" shape="1,64,1,1" size="128"/>
			<output>
				<port id="1" precision="FP16">
					<dim>1</dim>
					<dim>64</dim>
					<dim>1</dim>
					<dim>1</dim>
				</port>
			</output>
		</layer>
		<layer id="164" name="579/add_" type="Add" version="opset1">
			<input>
				<port id="0">
					<dim>1</dim>
					<dim>64</dim>
					<dim>64</dim>
					<dim>32</dim>
				</port>
				<port id="1">
					<dim>1</dim>
					<dim>64</dim>
					<dim>1</dim>
					<dim>1</dim>
				</port>
			</input>
			<output>
				<port id="2" precision="FP16">
					<dim>1</dim>
					<dim>64</dim>
					<dim>64</dim>
					<dim>32</dim>
				</port>
			</output>
		</layer>
		<layer id="165" name="55715575_const" type="Const" version="opset1">
			<data element_type="f16" offset="31292" shape="1,64,1,1" size="128"/>
			<output>
				<port id="1" precision="FP16">
					<dim>1</dim>
					<dim>64</dim>
					<dim>1</dim>
					<dim>1</dim>
				</port>
			</output>
		</layer>
		<layer id="166" name="55725576_const" type="Const" version="opset1">
			<data element_type="f16" offset="31420" shape="1,64,1,1" size="128"/>
			<output>
				<port id="1" precision="FP16">
					<dim>1</dim>
					<dim>64</dim>
					<dim>1</dim>
					<dim>1</dim>
				</port>
			</output>
		</layer>
		<layer id="167" name="55735577_const" type="Const" version="opset1">
			<data element_type="f16" offset="31292" shape="1,64,1,1" size="128"/>
			<output>
				<port id="1" precision="FP16">
					<dim>1</dim>
					<dim>64</dim>
					<dim>1</dim>
					<dim>1</dim>
				</port>
			</output>
		</layer>
		<layer id="168" name="55745578_const" type="Const" version="opset1">
			<data element_type="f16" offset="31420" shape="1,64,1,1" size="128"/>
			<output>
				<port id="1" precision="FP16">
					<dim>1</dim>
					<dim>64</dim>
					<dim>1</dim>
					<dim>1</dim>
				</port>
			</output>
		</layer>
		<layer id="169" name="580/fq_input_0" type="FakeQuantize" version="opset1">
			<data levels="256"/>
			<input>
				<port id="0">
					<dim>1</dim>
					<dim>64</dim>
					<dim>64</dim>
					<dim>32</dim>
				</port>
				<port id="1">
					<dim>1</dim>
					<dim>64</dim>
					<dim>1</dim>
					<dim>1</dim>
				</port>
				<port id="2">
					<dim>1</dim>
					<dim>64</dim>
					<dim>1</dim>
					<dim>1</dim>
				</port>
				<port id="3">
					<dim>1</dim>
					<dim>64</dim>
					<dim>1</dim>
					<dim>1</dim>
				</port>
				<port id="4">
					<dim>1</dim>
					<dim>64</dim>
					<dim>1</dim>
					<dim>1</dim>
				</port>
			</input>
			<output>
				<port id="5" precision="FP16">
					<dim>1</dim>
					<dim>64</dim>
					<dim>64</dim>
					<dim>32</dim>
				</port>
			</output>
		</layer>
		<layer id="170" name="580/fq_weights_1/Convert_to_float/Cast_017475_const" type="Const" version="opset1">
			<data element_type="u8" offset="31548" shape="64,1,3,3" size="576"/>
			<output>
				<port id="1" precision="U8">
					<dim>64</dim>
					<dim>1</dim>
					<dim>3</dim>
					<dim>3</dim>
				</port>
			</output>
		</layer>
		<layer id="171" name="580/fq_weights_1/Convert_to_float" type="Convert" version="opset1">
			<data destination_type="f16"/>
			<input>
				<port id="0">
					<dim>64</dim>
					<dim>1</dim>
					<dim>3</dim>
					<dim>3</dim>
				</port>
			</input>
			<output>
				<port id="1" precision="FP16">
					<dim>64</dim>
					<dim>1</dim>
					<dim>3</dim>
					<dim>3</dim>
				</port>
			</output>
		</layer>
		<layer id="172" name="580/fq_weights_1/Copy/out_low15028_const" type="Const" version="opset1">
			<data element_type="f16" offset="9448" shape="1" size="2"/>
			<output>
				<port id="1" precision="FP16">
					<dim>1</dim>
				</port>
			</output>
		</layer>
		<layer id="173" name="580/fq_weights_1/Copy/out_high15029_const" type="Const" version="opset1">
			<data element_type="f16" offset="9450" shape="1" size="2"/>
			<output>
				<port id="1" precision="FP16">
					<dim>1</dim>
				</port>
			</output>
		</layer>
		<layer id="174" name="55835587_const" type="Const" version="opset1">
			<data element_type="f16" offset="32124" shape="64,1,1,1" size="128"/>
			<output>
				<port id="1" precision="FP16">
					<dim>64</dim>
					<dim>1</dim>
					<dim>1</dim>
					<dim>1</dim>
				</port>
			</output>
		</layer>
		<layer id="175" name="55845588_const" type="Const" version="opset1">
			<data element_type="f16" offset="32252" shape="64,1,1,1" size="128"/>
			<output>
				<port id="1" precision="FP16">
					<dim>64</dim>
					<dim>1</dim>
					<dim>1</dim>
					<dim>1</dim>
				</port>
			</output>
		</layer>
		<layer id="176" name="580/fq_weights_1" type="FakeQuantize" version="opset1">
			<data levels="255"/>
			<input>
				<port id="0">
					<dim>64</dim>
					<dim>1</dim>
					<dim>3</dim>
					<dim>3</dim>
				</port>
				<port id="1">
					<dim>1</dim>
				</port>
				<port id="2">
					<dim>1</dim>
				</port>
				<port id="3">
					<dim>64</dim>
					<dim>1</dim>
					<dim>1</dim>
					<dim>1</dim>
				</port>
				<port id="4">
					<dim>64</dim>
					<dim>1</dim>
					<dim>1</dim>
					<dim>1</dim>
				</port>
			</input>
			<output>
				<port id="5" precision="FP16">
					<dim>64</dim>
					<dim>1</dim>
					<dim>3</dim>
					<dim>3</dim>
				</port>
			</output>
		</layer>
		<layer id="177" name="19759/value19761_const" type="Const" version="opset1">
			<data element_type="i64" offset="20020" shape="5" size="40"/>
			<output>
				<port id="1" precision="I64">
					<dim>5</dim>
				</port>
			</output>
		</layer>
		<layer id="178" name="19759" type="Reshape" version="opset1">
			<data special_zero="True"/>
			<input>
				<port id="0">
					<dim>64</dim>
					<dim>1</dim>
					<dim>3</dim>
					<dim>3</dim>
				</port>
				<port id="1">
					<dim>5</dim>
				</port>
			</input>
			<output>
				<port id="2" precision="FP16">
					<dim>64</dim>
					<dim>1</dim>
					<dim>1</dim>
					<dim>3</dim>
					<dim>3</dim>
				</port>
			</output>
		</layer>
		<layer id="179" name="580" type="GroupConvolution" version="opset1">
			<data dilations="1,1" output_padding="0,0" pads_begin="1,1" pads_end="1,1" strides="1,1"/>
			<input>
				<port id="0">
					<dim>1</dim>
					<dim>64</dim>
					<dim>64</dim>
					<dim>32</dim>
				</port>
				<port id="1">
					<dim>64</dim>
					<dim>1</dim>
					<dim>1</dim>
					<dim>3</dim>
					<dim>3</dim>
				</port>
			</input>
			<output>
				<port id="2" precision="FP16">
					<dim>1</dim>
					<dim>64</dim>
					<dim>64</dim>
					<dim>32</dim>
				</port>
			</output>
		</layer>
		<layer id="180" name="data_add_1958019585/copy_const973_const" type="Const" version="opset1">
			<data element_type="f16" offset="32380" shape="1,64,1,1" size="128"/>
			<output>
				<port id="1" precision="FP16">
					<dim>1</dim>
					<dim>64</dim>
					<dim>1</dim>
					<dim>1</dim>
				</port>
			</output>
		</layer>
		<layer id="181" name="581/variance/Fused_Add_" type="Add" version="opset1">
			<input>
				<port id="0">
					<dim>1</dim>
					<dim>64</dim>
					<dim>64</dim>
					<dim>32</dim>
				</port>
				<port id="1">
					<dim>1</dim>
					<dim>64</dim>
					<dim>1</dim>
					<dim>1</dim>
				</port>
			</input>
			<output>
				<port id="2" precision="FP16">
					<dim>1</dim>
					<dim>64</dim>
					<dim>64</dim>
					<dim>32</dim>
				</port>
			</output>
		</layer>
		<layer id="182" name="582" type="ReLU" version="opset1">
			<input>
				<port id="0">
					<dim>1</dim>
					<dim>64</dim>
					<dim>64</dim>
					<dim>32</dim>
				</port>
			</input>
			<output>
				<port id="1" precision="FP16">
					<dim>1</dim>
					<dim>64</dim>
					<dim>64</dim>
					<dim>32</dim>
				</port>
			</output>
		</layer>
		<layer id="183" name="58115815_const" type="Const" version="opset1">
			<data element_type="f16" offset="9448" shape="" size="2"/>
			<output>
				<port id="1" precision="FP16"/>
			</output>
		</layer>
		<layer id="184" name="58125816_const" type="Const" version="opset1">
			<data element_type="f16" offset="32508" shape="" size="2"/>
			<output>
				<port id="1" precision="FP16"/>
			</output>
		</layer>
		<layer id="185" name="58135817_const" type="Const" version="opset1">
			<data element_type="f16" offset="9448" shape="" size="2"/>
			<output>
				<port id="1" precision="FP16"/>
			</output>
		</layer>
		<layer id="186" name="58145818_const" type="Const" version="opset1">
			<data element_type="f16" offset="32508" shape="" size="2"/>
			<output>
				<port id="1" precision="FP16"/>
			</output>
		</layer>
		<layer id="187" name="617/reduce/fq_input_0" type="FakeQuantize" version="opset1">
			<data levels="256"/>
			<input>
				<port id="0">
					<dim>1</dim>
					<dim>64</dim>
					<dim>64</dim>
					<dim>32</dim>
				</port>
				<port id="1"/>
				<port id="2"/>
				<port id="3"/>
				<port id="4"/>
			</input>
			<output>
				<port id="5" precision="FP16">
					<dim>1</dim>
					<dim>64</dim>
					<dim>64</dim>
					<dim>32</dim>
				</port>
			</output>
		</layer>
		<layer id="188" name="617/reduce/Cast_117459_const" type="Const" version="opset1">
			<data element_type="i64" offset="20190" shape="2" size="16"/>
			<output>
				<port id="1" precision="I64">
					<dim>2</dim>
				</port>
			</output>
		</layer>
		<layer id="189" name="617/reduce" type="ReduceMean" version="opset1">
			<data keep_dims="True"/>
			<input>
				<port id="0">
					<dim>1</dim>
					<dim>64</dim>
					<dim>64</dim>
					<dim>32</dim>
				</port>
				<port id="1">
					<dim>2</dim>
				</port>
			</input>
			<output>
				<port id="2" precision="FP16">
					<dim>1</dim>
					<dim>64</dim>
					<dim>1</dim>
					<dim>1</dim>
				</port>
			</output>
		</layer>
		<layer id="190" name="Copy_onnx_initializer_node_conv2.0.gate.fc1.weight/Output_0/Data_3872_const978_const" type="Const" version="opset1">
			<data element_type="f16" offset="20206" shape="4,64,1,1" size="512"/>
			<output>
				<port id="1" precision="FP16">
					<dim>4</dim>
					<dim>64</dim>
					<dim>1</dim>
					<dim>1</dim>
				</port>
			</output>
		</layer>
		<layer id="191" name="618/WithoutBiases" type="Convolution" version="opset1">
			<data dilations="1,1" output_padding="0,0" pads_begin="0,0" pads_end="0,0" strides="1,1"/>
			<input>
				<port id="0">
					<dim>1</dim>
					<dim>64</dim>
					<dim>1</dim>
					<dim>1</dim>
				</port>
				<port id="1">
					<dim>4</dim>
					<dim>64</dim>
					<dim>1</dim>
					<dim>1</dim>
				</port>
			</input>
			<output>
				<port id="2" precision="FP16">
					<dim>1</dim>
					<dim>4</dim>
					<dim>1</dim>
					<dim>1</dim>
				</port>
			</output>
		</layer>
		<layer id="192" name="618/Dims11907/copy_const980_const" type="Const" version="opset1">
			<data element_type="f16" offset="20718" shape="1,4,1,1" size="8"/>
			<output>
				<port id="1" precision="FP16">
					<dim>1</dim>
					<dim>4</dim>
					<dim>1</dim>
					<dim>1</dim>
				</port>
			</output>
		</layer>
		<layer id="193" name="618" type="Add" version="opset1">
			<input>
				<port id="0">
					<dim>1</dim>
					<dim>4</dim>
					<dim>1</dim>
					<dim>1</dim>
				</port>
				<port id="1">
					<dim>1</dim>
					<dim>4</dim>
					<dim>1</dim>
					<dim>1</dim>
				</port>
			</input>
			<output>
				<port id="2" precision="FP16">
					<dim>1</dim>
					<dim>4</dim>
					<dim>1</dim>
					<dim>1</dim>
				</port>
			</output>
		</layer>
		<layer id="194" name="619" type="ReLU" version="opset1">
			<input>
				<port id="0">
					<dim>1</dim>
					<dim>4</dim>
					<dim>1</dim>
					<dim>1</dim>
				</port>
			</input>
			<output>
				<port id="1" precision="FP16">
					<dim>1</dim>
					<dim>4</dim>
					<dim>1</dim>
					<dim>1</dim>
				</port>
			</output>
		</layer>
		<layer id="195" name="Copy_onnx_initializer_node_conv2.0.gate.fc2.weight/Output_0/Data_3880_const983_const" type="Const" version="opset1">
			<data element_type="f16" offset="20726" shape="64,4,1,1" size="512"/>
			<output>
				<port id="1" precision="FP16">
					<dim>64</dim>
					<dim>4</dim>
					<dim>1</dim>
					<dim>1</dim>
				</port>
			</output>
		</layer>
		<layer id="196" name="620/WithoutBiases" type="Convolution" version="opset1">
			<data dilations="1,1" output_padding="0,0" pads_begin="0,0" pads_end="0,0" strides="1,1"/>
			<input>
				<port id="0">
					<dim>1</dim>
					<dim>4</dim>
					<dim>1</dim>
					<dim>1</dim>
				</port>
				<port id="1">
					<dim>64</dim>
					<dim>4</dim>
					<dim>1</dim>
					<dim>1</dim>
				</port>
			</input>
			<output>
				<port id="2" precision="FP16">
					<dim>1</dim>
					<dim>64</dim>
					<dim>1</dim>
					<dim>1</dim>
				</port>
			</output>
		</layer>
		<layer id="197" name="620/Dims11793/copy_const985_const" type="Const" version="opset1">
			<data element_type="f16" offset="21238" shape="1,64,1,1" size="128"/>
			<output>
				<port id="1" precision="FP16">
					<dim>1</dim>
					<dim>64</dim>
					<dim>1</dim>
					<dim>1</dim>
				</port>
			</output>
		</layer>
		<layer id="198" name="620" type="Add" version="opset1">
			<input>
				<port id="0">
					<dim>1</dim>
					<dim>64</dim>
					<dim>1</dim>
					<dim>1</dim>
				</port>
				<port id="1">
					<dim>1</dim>
					<dim>64</dim>
					<dim>1</dim>
					<dim>1</dim>
				</port>
			</input>
			<output>
				<port id="2" precision="FP16">
					<dim>1</dim>
					<dim>64</dim>
					<dim>1</dim>
					<dim>1</dim>
				</port>
			</output>
		</layer>
		<layer id="199" name="621" type="Sigmoid" version="opset1">
			<input>
				<port id="0">
					<dim>1</dim>
					<dim>64</dim>
					<dim>1</dim>
					<dim>1</dim>
				</port>
			</input>
			<output>
				<port id="1" precision="FP16">
					<dim>1</dim>
					<dim>64</dim>
					<dim>1</dim>
					<dim>1</dim>
				</port>
			</output>
		</layer>
		<layer id="200" name="65016505_const" type="Const" version="opset1">
			<data element_type="f16" offset="9448" shape="" size="2"/>
			<output>
				<port id="1" precision="FP16"/>
			</output>
		</layer>
		<layer id="201" name="65026506_const" type="Const" version="opset1">
			<data element_type="f16" offset="32510" shape="" size="2"/>
			<output>
				<port id="1" precision="FP16"/>
			</output>
		</layer>
		<layer id="202" name="65036507_const" type="Const" version="opset1">
			<data element_type="f16" offset="9448" shape="" size="2"/>
			<output>
				<port id="1" precision="FP16"/>
			</output>
		</layer>
		<layer id="203" name="65046508_const" type="Const" version="opset1">
			<data element_type="f16" offset="32510" shape="" size="2"/>
			<output>
				<port id="1" precision="FP16"/>
			</output>
		</layer>
		<layer id="204" name="622/fq_input_1" type="FakeQuantize" version="opset1">
			<data levels="256"/>
			<input>
				<port id="0">
					<dim>1</dim>
					<dim>64</dim>
					<dim>1</dim>
					<dim>1</dim>
				</port>
				<port id="1"/>
				<port id="2"/>
				<port id="3"/>
				<port id="4"/>
			</input>
			<output>
				<port id="5" precision="FP16">
					<dim>1</dim>
					<dim>64</dim>
					<dim>1</dim>
					<dim>1</dim>
				</port>
			</output>
		</layer>
		<layer id="205" name="622" type="Multiply" version="opset1">
			<input>
				<port id="0">
					<dim>1</dim>
					<dim>64</dim>
					<dim>64</dim>
					<dim>32</dim>
				</port>
				<port id="1">
					<dim>1</dim>
					<dim>64</dim>
					<dim>1</dim>
					<dim>1</dim>
				</port>
			</input>
			<output>
				<port id="2" precision="FP16">
					<dim>1</dim>
					<dim>64</dim>
					<dim>64</dim>
					<dim>32</dim>
				</port>
			</output>
		</layer>
		<layer id="206" name="51015105_const" type="Const" version="opset1">
			<data element_type="f16" offset="9448" shape="" size="2"/>
			<output>
				<port id="1" precision="FP16"/>
			</output>
		</layer>
		<layer id="207" name="51025106_const" type="Const" version="opset1">
			<data element_type="f16" offset="32512" shape="" size="2"/>
			<output>
				<port id="1" precision="FP16"/>
			</output>
		</layer>
		<layer id="208" name="51035107_const" type="Const" version="opset1">
			<data element_type="f16" offset="9448" shape="" size="2"/>
			<output>
				<port id="1" precision="FP16"/>
			</output>
		</layer>
		<layer id="209" name="51045108_const" type="Const" version="opset1">
			<data element_type="f16" offset="32512" shape="" size="2"/>
			<output>
				<port id="1" precision="FP16"/>
			</output>
		</layer>
		<layer id="210" name="623/fq_input_1" type="FakeQuantize" version="opset1">
			<data levels="256"/>
			<input>
				<port id="0">
					<dim>1</dim>
					<dim>64</dim>
					<dim>64</dim>
					<dim>32</dim>
				</port>
				<port id="1"/>
				<port id="2"/>
				<port id="3"/>
				<port id="4"/>
			</input>
			<output>
				<port id="5" precision="FP16">
					<dim>1</dim>
					<dim>64</dim>
					<dim>64</dim>
					<dim>32</dim>
				</port>
			</output>
		</layer>
		<layer id="211" name="623" type="Add" version="opset1">
			<input>
				<port id="0">
					<dim>1</dim>
					<dim>64</dim>
					<dim>64</dim>
					<dim>32</dim>
				</port>
				<port id="1">
					<dim>1</dim>
					<dim>64</dim>
					<dim>64</dim>
					<dim>32</dim>
				</port>
			</input>
			<output>
				<port id="2" precision="FP16">
					<dim>1</dim>
					<dim>64</dim>
					<dim>64</dim>
					<dim>32</dim>
				</port>
			</output>
		</layer>
		<layer id="212" name="59515955_const" type="Const" version="opset1">
			<data element_type="f16" offset="9448" shape="" size="2"/>
			<output>
				<port id="1" precision="FP16"/>
			</output>
		</layer>
		<layer id="213" name="59525956_const" type="Const" version="opset1">
			<data element_type="f16" offset="32514" shape="" size="2"/>
			<output>
				<port id="1" precision="FP16"/>
			</output>
		</layer>
		<layer id="214" name="59535957_const" type="Const" version="opset1">
			<data element_type="f16" offset="9448" shape="" size="2"/>
			<output>
				<port id="1" precision="FP16"/>
			</output>
		</layer>
		<layer id="215" name="59545958_const" type="Const" version="opset1">
			<data element_type="f16" offset="32514" shape="" size="2"/>
			<output>
				<port id="1" precision="FP16"/>
			</output>
		</layer>
		<layer id="216" name="630/fq_input_0" type="FakeQuantize" version="opset1">
			<data levels="256"/>
			<input>
				<port id="0">
					<dim>1</dim>
					<dim>64</dim>
					<dim>64</dim>
					<dim>32</dim>
				</port>
				<port id="1"/>
				<port id="2"/>
				<port id="3"/>
				<port id="4"/>
			</input>
			<output>
				<port id="5" precision="FP16">
					<dim>1</dim>
					<dim>64</dim>
					<dim>64</dim>
					<dim>32</dim>
				</port>
			</output>
		</layer>
		<layer id="217" name="583/fq_weights_1/Convert_to_float/Cast_017437_const" type="Const" version="opset1">
			<data element_type="u8" offset="32516" shape="64,64,1,1" size="4096"/>
			<output>
				<port id="1" precision="U8">
					<dim>64</dim>
					<dim>64</dim>
					<dim>1</dim>
					<dim>1</dim>
				</port>
			</output>
		</layer>
		<layer id="218" name="583/fq_weights_1/Convert_to_float" type="Convert" version="opset1">
			<data destination_type="f16"/>
			<input>
				<port id="0">
					<dim>64</dim>
					<dim>64</dim>
					<dim>1</dim>
					<dim>1</dim>
				</port>
			</input>
			<output>
				<port id="1" precision="FP16">
					<dim>64</dim>
					<dim>64</dim>
					<dim>1</dim>
					<dim>1</dim>
				</port>
			</output>
		</layer>
		<layer id="219" name="583/fq_weights_1/Copy/out_low14948_const" type="Const" version="opset1">
			<data element_type="f16" offset="9448" shape="1" size="2"/>
			<output>
				<port id="1" precision="FP16">
					<dim>1</dim>
				</port>
			</output>
		</layer>
		<layer id="220" name="583/fq_weights_1/Copy/out_high14949_const" type="Const" version="opset1">
			<data element_type="f16" offset="9450" shape="1" size="2"/>
			<output>
				<port id="1" precision="FP16">
					<dim>1</dim>
				</port>
			</output>
		</layer>
		<layer id="221" name="56235627_const" type="Const" version="opset1">
			<data element_type="f16" offset="36612" shape="64,1,1,1" size="128"/>
			<output>
				<port id="1" precision="FP16">
					<dim>64</dim>
					<dim>1</dim>
					<dim>1</dim>
					<dim>1</dim>
				</port>
			</output>
		</layer>
		<layer id="222" name="56245628_const" type="Const" version="opset1">
			<data element_type="f16" offset="36740" shape="64,1,1,1" size="128"/>
			<output>
				<port id="1" precision="FP16">
					<dim>64</dim>
					<dim>1</dim>
					<dim>1</dim>
					<dim>1</dim>
				</port>
			</output>
		</layer>
		<layer id="223" name="583/fq_weights_1" type="FakeQuantize" version="opset1">
			<data levels="255"/>
			<input>
				<port id="0">
					<dim>64</dim>
					<dim>64</dim>
					<dim>1</dim>
					<dim>1</dim>
				</port>
				<port id="1">
					<dim>1</dim>
				</port>
				<port id="2">
					<dim>1</dim>
				</port>
				<port id="3">
					<dim>64</dim>
					<dim>1</dim>
					<dim>1</dim>
					<dim>1</dim>
				</port>
				<port id="4">
					<dim>64</dim>
					<dim>1</dim>
					<dim>1</dim>
					<dim>1</dim>
				</port>
			</input>
			<output>
				<port id="5" precision="FP16">
					<dim>64</dim>
					<dim>64</dim>
					<dim>1</dim>
					<dim>1</dim>
				</port>
			</output>
		</layer>
		<layer id="224" name="583" type="Convolution" version="opset1">
			<data dilations="1,1" output_padding="0,0" pads_begin="0,0" pads_end="0,0" strides="1,1"/>
			<input>
				<port id="0">
					<dim>1</dim>
					<dim>64</dim>
					<dim>64</dim>
					<dim>32</dim>
				</port>
				<port id="1">
					<dim>64</dim>
					<dim>64</dim>
					<dim>1</dim>
					<dim>1</dim>
				</port>
			</input>
			<output>
				<port id="2" precision="FP16">
					<dim>1</dim>
					<dim>64</dim>
					<dim>64</dim>
					<dim>32</dim>
				</port>
			</output>
		</layer>
		<layer id="225" name="22082210_const" type="Const" version="opset1">
			<data element_type="f16" offset="9708" shape="1,64,1,1" size="128"/>
			<output>
				<port id="1" precision="FP16">
					<dim>1</dim>
					<dim>64</dim>
					<dim>1</dim>
					<dim>1</dim>
				</port>
			</output>
		</layer>
		<layer id="226" name="583/add_" type="Add" version="opset1">
			<input>
				<port id="0">
					<dim>1</dim>
					<dim>64</dim>
					<dim>64</dim>
					<dim>32</dim>
				</port>
				<port id="1">
					<dim>1</dim>
					<dim>64</dim>
					<dim>1</dim>
					<dim>1</dim>
				</port>
			</input>
			<output>
				<port id="2" precision="FP16">
					<dim>1</dim>
					<dim>64</dim>
					<dim>64</dim>
					<dim>32</dim>
				</port>
			</output>
		</layer>
		<layer id="227" name="43514355_const" type="Const" version="opset1">
			<data element_type="f16" offset="36868" shape="1,64,1,1" size="128"/>
			<output>
				<port id="1" precision="FP16">
					<dim>1</dim>
					<dim>64</dim>
					<dim>1</dim>
					<dim>1</dim>
				</port>
			</output>
		</layer>
		<layer id="228" name="43524356_const" type="Const" version="opset1">
			<data element_type="f16" offset="36996" shape="1,64,1,1" size="128"/>
			<output>
				<port id="1" precision="FP16">
					<dim>1</dim>
					<dim>64</dim>
					<dim>1</dim>
					<dim>1</dim>
				</port>
			</output>
		</layer>
		<layer id="229" name="43534357_const" type="Const" version="opset1">
			<data element_type="f16" offset="36868" shape="1,64,1,1" size="128"/>
			<output>
				<port id="1" precision="FP16">
					<dim>1</dim>
					<dim>64</dim>
					<dim>1</dim>
					<dim>1</dim>
				</port>
			</output>
		</layer>
		<layer id="230" name="43544358_const" type="Const" version="opset1">
			<data element_type="f16" offset="36996" shape="1,64,1,1" size="128"/>
			<output>
				<port id="1" precision="FP16">
					<dim>1</dim>
					<dim>64</dim>
					<dim>1</dim>
					<dim>1</dim>
				</port>
			</output>
		</layer>
		<layer id="231" name="584/fq_input_0" type="FakeQuantize" version="opset1">
			<data levels="256"/>
			<input>
				<port id="0">
					<dim>1</dim>
					<dim>64</dim>
					<dim>64</dim>
					<dim>32</dim>
				</port>
				<port id="1">
					<dim>1</dim>
					<dim>64</dim>
					<dim>1</dim>
					<dim>1</dim>
				</port>
				<port id="2">
					<dim>1</dim>
					<dim>64</dim>
					<dim>1</dim>
					<dim>1</dim>
				</port>
				<port id="3">
					<dim>1</dim>
					<dim>64</dim>
					<dim>1</dim>
					<dim>1</dim>
				</port>
				<port id="4">
					<dim>1</dim>
					<dim>64</dim>
					<dim>1</dim>
					<dim>1</dim>
				</port>
			</input>
			<output>
				<port id="5" precision="FP16">
					<dim>1</dim>
					<dim>64</dim>
					<dim>64</dim>
					<dim>32</dim>
				</port>
			</output>
		</layer>
		<layer id="232" name="584/fq_weights_1/Convert_to_float/Cast_017647_const" type="Const" version="opset1">
			<data element_type="u8" offset="37124" shape="64,1,3,3" size="576"/>
			<output>
				<port id="1" precision="U8">
					<dim>64</dim>
					<dim>1</dim>
					<dim>3</dim>
					<dim>3</dim>
				</port>
			</output>
		</layer>
		<layer id="233" name="584/fq_weights_1/Convert_to_float" type="Convert" version="opset1">
			<data destination_type="f16"/>
			<input>
				<port id="0">
					<dim>64</dim>
					<dim>1</dim>
					<dim>3</dim>
					<dim>3</dim>
				</port>
			</input>
			<output>
				<port id="1" precision="FP16">
					<dim>64</dim>
					<dim>1</dim>
					<dim>3</dim>
					<dim>3</dim>
				</port>
			</output>
		</layer>
		<layer id="234" name="584/fq_weights_1/Copy/out_low14748_const" type="Const" version="opset1">
			<data element_type="f16" offset="9448" shape="1" size="2"/>
			<output>
				<port id="1" precision="FP16">
					<dim>1</dim>
				</port>
			</output>
		</layer>
		<layer id="235" name="584/fq_weights_1/Copy/out_high14749_const" type="Const" version="opset1">
			<data element_type="f16" offset="9450" shape="1" size="2"/>
			<output>
				<port id="1" precision="FP16">
					<dim>1</dim>
				</port>
			</output>
		</layer>
		<layer id="236" name="43634367_const" type="Const" version="opset1">
			<data element_type="f16" offset="37700" shape="64,1,1,1" size="128"/>
			<output>
				<port id="1" precision="FP16">
					<dim>64</dim>
					<dim>1</dim>
					<dim>1</dim>
					<dim>1</dim>
				</port>
			</output>
		</layer>
		<layer id="237" name="43644368_const" type="Const" version="opset1">
			<data element_type="f16" offset="37828" shape="64,1,1,1" size="128"/>
			<output>
				<port id="1" precision="FP16">
					<dim>64</dim>
					<dim>1</dim>
					<dim>1</dim>
					<dim>1</dim>
				</port>
			</output>
		</layer>
		<layer id="238" name="584/fq_weights_1" type="FakeQuantize" version="opset1">
			<data levels="255"/>
			<input>
				<port id="0">
					<dim>64</dim>
					<dim>1</dim>
					<dim>3</dim>
					<dim>3</dim>
				</port>
				<port id="1">
					<dim>1</dim>
				</port>
				<port id="2">
					<dim>1</dim>
				</port>
				<port id="3">
					<dim>64</dim>
					<dim>1</dim>
					<dim>1</dim>
					<dim>1</dim>
				</port>
				<port id="4">
					<dim>64</dim>
					<dim>1</dim>
					<dim>1</dim>
					<dim>1</dim>
				</port>
			</input>
			<output>
				<port id="5" precision="FP16">
					<dim>64</dim>
					<dim>1</dim>
					<dim>3</dim>
					<dim>3</dim>
				</port>
			</output>
		</layer>
		<layer id="239" name="19659/value19661_const" type="Const" version="opset1">
			<data element_type="i64" offset="20020" shape="5" size="40"/>
			<output>
				<port id="1" precision="I64">
					<dim>5</dim>
				</port>
			</output>
		</layer>
		<layer id="240" name="19659" type="Reshape" version="opset1">
			<data special_zero="True"/>
			<input>
				<port id="0">
					<dim>64</dim>
					<dim>1</dim>
					<dim>3</dim>
					<dim>3</dim>
				</port>
				<port id="1">
					<dim>5</dim>
				</port>
			</input>
			<output>
				<port id="2" precision="FP16">
					<dim>64</dim>
					<dim>1</dim>
					<dim>1</dim>
					<dim>3</dim>
					<dim>3</dim>
				</port>
			</output>
		</layer>
		<layer id="241" name="584" type="GroupConvolution" version="opset1">
			<data dilations="1,1" output_padding="0,0" pads_begin="1,1" pads_end="1,1" strides="1,1"/>
			<input>
				<port id="0">
					<dim>1</dim>
					<dim>64</dim>
					<dim>64</dim>
					<dim>32</dim>
				</port>
				<port id="1">
					<dim>64</dim>
					<dim>1</dim>
					<dim>1</dim>
					<dim>3</dim>
					<dim>3</dim>
				</port>
			</input>
			<output>
				<port id="2" precision="FP16">
					<dim>1</dim>
					<dim>64</dim>
					<dim>64</dim>
					<dim>32</dim>
				</port>
			</output>
		</layer>
		<layer id="242" name="data_add_1954819553/copy_const994_const" type="Const" version="opset1">
			<data element_type="f16" offset="37956" shape="1,64,1,1" size="128"/>
			<output>
				<port id="1" precision="FP16">
					<dim>1</dim>
					<dim>64</dim>
					<dim>1</dim>
					<dim>1</dim>
				</port>
			</output>
		</layer>
		<layer id="243" name="585/variance/Fused_Add_" type="Add" version="opset1">
			<input>
				<port id="0">
					<dim>1</dim>
					<dim>64</dim>
					<dim>64</dim>
					<dim>32</dim>
				</port>
				<port id="1">
					<dim>1</dim>
					<dim>64</dim>
					<dim>1</dim>
					<dim>1</dim>
				</port>
			</input>
			<output>
				<port id="2" precision="FP16">
					<dim>1</dim>
					<dim>64</dim>
					<dim>64</dim>
					<dim>32</dim>
				</port>
			</output>
		</layer>
		<layer id="244" name="586" type="ReLU" version="opset1">
			<input>
				<port id="0">
					<dim>1</dim>
					<dim>64</dim>
					<dim>64</dim>
					<dim>32</dim>
				</port>
			</input>
			<output>
				<port id="1" precision="FP16">
					<dim>1</dim>
					<dim>64</dim>
					<dim>64</dim>
					<dim>32</dim>
				</port>
			</output>
		</layer>
		<layer id="245" name="62916295_const" type="Const" version="opset1">
			<data element_type="f16" offset="9448" shape="" size="2"/>
			<output>
				<port id="1" precision="FP16"/>
			</output>
		</layer>
		<layer id="246" name="62926296_const" type="Const" version="opset1">
			<data element_type="f16" offset="38084" shape="" size="2"/>
			<output>
				<port id="1" precision="FP16"/>
			</output>
		</layer>
		<layer id="247" name="62936297_const" type="Const" version="opset1">
			<data element_type="f16" offset="9448" shape="" size="2"/>
			<output>
				<port id="1" precision="FP16"/>
			</output>
		</layer>
		<layer id="248" name="62946298_const" type="Const" version="opset1">
			<data element_type="f16" offset="38084" shape="" size="2"/>
			<output>
				<port id="1" precision="FP16"/>
			</output>
		</layer>
		<layer id="249" name="587/fq_input_0" type="FakeQuantize" version="opset1">
			<data levels="256"/>
			<input>
				<port id="0">
					<dim>1</dim>
					<dim>64</dim>
					<dim>64</dim>
					<dim>32</dim>
				</port>
				<port id="1"/>
				<port id="2"/>
				<port id="3"/>
				<port id="4"/>
			</input>
			<output>
				<port id="5" precision="FP16">
					<dim>1</dim>
					<dim>64</dim>
					<dim>64</dim>
					<dim>32</dim>
				</port>
			</output>
		</layer>
		<layer id="250" name="587/fq_weights_1/Convert_to_float/Cast_017491_const" type="Const" version="opset1">
			<data element_type="u8" offset="38086" shape="64,64,1,1" size="4096"/>
			<output>
				<port id="1" precision="U8">
					<dim>64</dim>
					<dim>64</dim>
					<dim>1</dim>
					<dim>1</dim>
				</port>
			</output>
		</layer>
		<layer id="251" name="587/fq_weights_1/Convert_to_float" type="Convert" version="opset1">
			<data destination_type="f16"/>
			<input>
				<port id="0">
					<dim>64</dim>
					<dim>64</dim>
					<dim>1</dim>
					<dim>1</dim>
				</port>
			</input>
			<output>
				<port id="1" precision="FP16">
					<dim>64</dim>
					<dim>64</dim>
					<dim>1</dim>
					<dim>1</dim>
				</port>
			</output>
		</layer>
		<layer id="252" name="587/fq_weights_1/Copy/out_low14756_const" type="Const" version="opset1">
			<data element_type="f16" offset="9448" shape="1" size="2"/>
			<output>
				<port id="1" precision="FP16">
					<dim>1</dim>
				</port>
			</output>
		</layer>
		<layer id="253" name="587/fq_weights_1/Copy/out_high14757_const" type="Const" version="opset1">
			<data element_type="f16" offset="9450" shape="1" size="2"/>
			<output>
				<port id="1" precision="FP16">
					<dim>1</dim>
				</port>
			</output>
		</layer>
		<layer id="254" name="63036307_const" type="Const" version="opset1">
			<data element_type="f16" offset="42182" shape="64,1,1,1" size="128"/>
			<output>
				<port id="1" precision="FP16">
					<dim>64</dim>
					<dim>1</dim>
					<dim>1</dim>
					<dim>1</dim>
				</port>
			</output>
		</layer>
		<layer id="255" name="63046308_const" type="Const" version="opset1">
			<data element_type="f16" offset="42310" shape="64,1,1,1" size="128"/>
			<output>
				<port id="1" precision="FP16">
					<dim>64</dim>
					<dim>1</dim>
					<dim>1</dim>
					<dim>1</dim>
				</port>
			</output>
		</layer>
		<layer id="256" name="587/fq_weights_1" type="FakeQuantize" version="opset1">
			<data levels="255"/>
			<input>
				<port id="0">
					<dim>64</dim>
					<dim>64</dim>
					<dim>1</dim>
					<dim>1</dim>
				</port>
				<port id="1">
					<dim>1</dim>
				</port>
				<port id="2">
					<dim>1</dim>
				</port>
				<port id="3">
					<dim>64</dim>
					<dim>1</dim>
					<dim>1</dim>
					<dim>1</dim>
				</port>
				<port id="4">
					<dim>64</dim>
					<dim>1</dim>
					<dim>1</dim>
					<dim>1</dim>
				</port>
			</input>
			<output>
				<port id="5" precision="FP16">
					<dim>64</dim>
					<dim>64</dim>
					<dim>1</dim>
					<dim>1</dim>
				</port>
			</output>
		</layer>
		<layer id="257" name="587" type="Convolution" version="opset1">
			<data dilations="1,1" output_padding="0,0" pads_begin="0,0" pads_end="0,0" strides="1,1"/>
			<input>
				<port id="0">
					<dim>1</dim>
					<dim>64</dim>
					<dim>64</dim>
					<dim>32</dim>
				</port>
				<port id="1">
					<dim>64</dim>
					<dim>64</dim>
					<dim>1</dim>
					<dim>1</dim>
				</port>
			</input>
			<output>
				<port id="2" precision="FP16">
					<dim>1</dim>
					<dim>64</dim>
					<dim>64</dim>
					<dim>32</dim>
				</port>
			</output>
		</layer>
		<layer id="258" name="22122214_const" type="Const" version="opset1">
			<data element_type="f16" offset="9708" shape="1,64,1,1" size="128"/>
			<output>
				<port id="1" precision="FP16">
					<dim>1</dim>
					<dim>64</dim>
					<dim>1</dim>
					<dim>1</dim>
				</port>
			</output>
		</layer>
		<layer id="259" name="587/add_" type="Add" version="opset1">
			<input>
				<port id="0">
					<dim>1</dim>
					<dim>64</dim>
					<dim>64</dim>
					<dim>32</dim>
				</port>
				<port id="1">
					<dim>1</dim>
					<dim>64</dim>
					<dim>1</dim>
					<dim>1</dim>
				</port>
			</input>
			<output>
				<port id="2" precision="FP16">
					<dim>1</dim>
					<dim>64</dim>
					<dim>64</dim>
					<dim>32</dim>
				</port>
			</output>
		</layer>
		<layer id="260" name="63916395_const" type="Const" version="opset1">
			<data element_type="f16" offset="42438" shape="1,64,1,1" size="128"/>
			<output>
				<port id="1" precision="FP16">
					<dim>1</dim>
					<dim>64</dim>
					<dim>1</dim>
					<dim>1</dim>
				</port>
			</output>
		</layer>
		<layer id="261" name="63926396_const" type="Const" version="opset1">
			<data element_type="f16" offset="42566" shape="1,64,1,1" size="128"/>
			<output>
				<port id="1" precision="FP16">
					<dim>1</dim>
					<dim>64</dim>
					<dim>1</dim>
					<dim>1</dim>
				</port>
			</output>
		</layer>
		<layer id="262" name="63936397_const" type="Const" version="opset1">
			<data element_type="f16" offset="42438" shape="1,64,1,1" size="128"/>
			<output>
				<port id="1" precision="FP16">
					<dim>1</dim>
					<dim>64</dim>
					<dim>1</dim>
					<dim>1</dim>
				</port>
			</output>
		</layer>
		<layer id="263" name="63946398_const" type="Const" version="opset1">
			<data element_type="f16" offset="42566" shape="1,64,1,1" size="128"/>
			<output>
				<port id="1" precision="FP16">
					<dim>1</dim>
					<dim>64</dim>
					<dim>1</dim>
					<dim>1</dim>
				</port>
			</output>
		</layer>
		<layer id="264" name="588/fq_input_0" type="FakeQuantize" version="opset1">
			<data levels="256"/>
			<input>
				<port id="0">
					<dim>1</dim>
					<dim>64</dim>
					<dim>64</dim>
					<dim>32</dim>
				</port>
				<port id="1">
					<dim>1</dim>
					<dim>64</dim>
					<dim>1</dim>
					<dim>1</dim>
				</port>
				<port id="2">
					<dim>1</dim>
					<dim>64</dim>
					<dim>1</dim>
					<dim>1</dim>
				</port>
				<port id="3">
					<dim>1</dim>
					<dim>64</dim>
					<dim>1</dim>
					<dim>1</dim>
				</port>
				<port id="4">
					<dim>1</dim>
					<dim>64</dim>
					<dim>1</dim>
					<dim>1</dim>
				</port>
			</input>
			<output>
				<port id="5" precision="FP16">
					<dim>1</dim>
					<dim>64</dim>
					<dim>64</dim>
					<dim>32</dim>
				</port>
			</output>
		</layer>
		<layer id="265" name="588/fq_weights_1/Convert_to_float/Cast_017643_const" type="Const" version="opset1">
			<data element_type="u8" offset="42694" shape="64,1,3,3" size="576"/>
			<output>
				<port id="1" precision="U8">
					<dim>64</dim>
					<dim>1</dim>
					<dim>3</dim>
					<dim>3</dim>
				</port>
			</output>
		</layer>
		<layer id="266" name="588/fq_weights_1/Convert_to_float" type="Convert" version="opset1">
			<data destination_type="f16"/>
			<input>
				<port id="0">
					<dim>64</dim>
					<dim>1</dim>
					<dim>3</dim>
					<dim>3</dim>
				</port>
			</input>
			<output>
				<port id="1" precision="FP16">
					<dim>64</dim>
					<dim>1</dim>
					<dim>3</dim>
					<dim>3</dim>
				</port>
			</output>
		</layer>
		<layer id="267" name="588/fq_weights_1/Copy/out_low14388_const" type="Const" version="opset1">
			<data element_type="f16" offset="9448" shape="1" size="2"/>
			<output>
				<port id="1" precision="FP16">
					<dim>1</dim>
				</port>
			</output>
		</layer>
		<layer id="268" name="588/fq_weights_1/Copy/out_high14389_const" type="Const" version="opset1">
			<data element_type="f16" offset="9450" shape="1" size="2"/>
			<output>
				<port id="1" precision="FP16">
					<dim>1</dim>
				</port>
			</output>
		</layer>
		<layer id="269" name="64036407_const" type="Const" version="opset1">
			<data element_type="f16" offset="43270" shape="64,1,1,1" size="128"/>
			<output>
				<port id="1" precision="FP16">
					<dim>64</dim>
					<dim>1</dim>
					<dim>1</dim>
					<dim>1</dim>
				</port>
			</output>
		</layer>
		<layer id="270" name="64046408_const" type="Const" version="opset1">
			<data element_type="f16" offset="43398" shape="64,1,1,1" size="128"/>
			<output>
				<port id="1" precision="FP16">
					<dim>64</dim>
					<dim>1</dim>
					<dim>1</dim>
					<dim>1</dim>
				</port>
			</output>
		</layer>
		<layer id="271" name="588/fq_weights_1" type="FakeQuantize" version="opset1">
			<data levels="255"/>
			<input>
				<port id="0">
					<dim>64</dim>
					<dim>1</dim>
					<dim>3</dim>
					<dim>3</dim>
				</port>
				<port id="1">
					<dim>1</dim>
				</port>
				<port id="2">
					<dim>1</dim>
				</port>
				<port id="3">
					<dim>64</dim>
					<dim>1</dim>
					<dim>1</dim>
					<dim>1</dim>
				</port>
				<port id="4">
					<dim>64</dim>
					<dim>1</dim>
					<dim>1</dim>
					<dim>1</dim>
				</port>
			</input>
			<output>
				<port id="5" precision="FP16">
					<dim>64</dim>
					<dim>1</dim>
					<dim>3</dim>
					<dim>3</dim>
				</port>
			</output>
		</layer>
		<layer id="272" name="19775/value19777_const" type="Const" version="opset1">
			<data element_type="i64" offset="20020" shape="5" size="40"/>
			<output>
				<port id="1" precision="I64">
					<dim>5</dim>
				</port>
			</output>
		</layer>
		<layer id="273" name="19775" type="Reshape" version="opset1">
			<data special_zero="True"/>
			<input>
				<port id="0">
					<dim>64</dim>
					<dim>1</dim>
					<dim>3</dim>
					<dim>3</dim>
				</port>
				<port id="1">
					<dim>5</dim>
				</port>
			</input>
			<output>
				<port id="2" precision="FP16">
					<dim>64</dim>
					<dim>1</dim>
					<dim>1</dim>
					<dim>3</dim>
					<dim>3</dim>
				</port>
			</output>
		</layer>
		<layer id="274" name="588" type="GroupConvolution" version="opset1">
			<data dilations="1,1" output_padding="0,0" pads_begin="1,1" pads_end="1,1" strides="1,1"/>
			<input>
				<port id="0">
					<dim>1</dim>
					<dim>64</dim>
					<dim>64</dim>
					<dim>32</dim>
				</port>
				<port id="1">
					<dim>64</dim>
					<dim>1</dim>
					<dim>1</dim>
					<dim>3</dim>
					<dim>3</dim>
				</port>
			</input>
			<output>
				<port id="2" precision="FP16">
					<dim>1</dim>
					<dim>64</dim>
					<dim>64</dim>
					<dim>32</dim>
				</port>
			</output>
		</layer>
		<layer id="275" name="data_add_1955619561/copy_const1001_const" type="Const" version="opset1">
			<data element_type="f16" offset="43526" shape="1,64,1,1" size="128"/>
			<output>
				<port id="1" precision="FP16">
					<dim>1</dim>
					<dim>64</dim>
					<dim>1</dim>
					<dim>1</dim>
				</port>
			</output>
		</layer>
		<layer id="276" name="589/variance/Fused_Add_" type="Add" version="opset1">
			<input>
				<port id="0">
					<dim>1</dim>
					<dim>64</dim>
					<dim>64</dim>
					<dim>32</dim>
				</port>
				<port id="1">
					<dim>1</dim>
					<dim>64</dim>
					<dim>1</dim>
					<dim>1</dim>
				</port>
			</input>
			<output>
				<port id="2" precision="FP16">
					<dim>1</dim>
					<dim>64</dim>
					<dim>64</dim>
					<dim>32</dim>
				</port>
			</output>
		</layer>
		<layer id="277" name="590" type="ReLU" version="opset1">
			<input>
				<port id="0">
					<dim>1</dim>
					<dim>64</dim>
					<dim>64</dim>
					<dim>32</dim>
				</port>
			</input>
			<output>
				<port id="1" precision="FP16">
					<dim>1</dim>
					<dim>64</dim>
					<dim>64</dim>
					<dim>32</dim>
				</port>
			</output>
		</layer>
		<layer id="278" name="45114515_const" type="Const" version="opset1">
			<data element_type="f16" offset="9448" shape="" size="2"/>
			<output>
				<port id="1" precision="FP16"/>
			</output>
		</layer>
		<layer id="279" name="45124516_const" type="Const" version="opset1">
			<data element_type="f16" offset="43654" shape="" size="2"/>
			<output>
				<port id="1" precision="FP16"/>
			</output>
		</layer>
		<layer id="280" name="45134517_const" type="Const" version="opset1">
			<data element_type="f16" offset="9448" shape="" size="2"/>
			<output>
				<port id="1" precision="FP16"/>
			</output>
		</layer>
		<layer id="281" name="45144518_const" type="Const" version="opset1">
			<data element_type="f16" offset="43654" shape="" size="2"/>
			<output>
				<port id="1" precision="FP16"/>
			</output>
		</layer>
		<layer id="282" name="591/fq_input_0" type="FakeQuantize" version="opset1">
			<data levels="256"/>
			<input>
				<port id="0">
					<dim>1</dim>
					<dim>64</dim>
					<dim>64</dim>
					<dim>32</dim>
				</port>
				<port id="1"/>
				<port id="2"/>
				<port id="3"/>
				<port id="4"/>
			</input>
			<output>
				<port id="5" precision="FP16">
					<dim>1</dim>
					<dim>64</dim>
					<dim>64</dim>
					<dim>32</dim>
				</port>
			</output>
		</layer>
		<layer id="283" name="591/fq_weights_1/Convert_to_float/Cast_017665_const" type="Const" version="opset1">
			<data element_type="u8" offset="43656" shape="64,64,1,1" size="4096"/>
			<output>
				<port id="1" precision="U8">
					<dim>64</dim>
					<dim>64</dim>
					<dim>1</dim>
					<dim>1</dim>
				</port>
			</output>
		</layer>
		<layer id="284" name="591/fq_weights_1/Convert_to_float" type="Convert" version="opset1">
			<data destination_type="f16"/>
			<input>
				<port id="0">
					<dim>64</dim>
					<dim>64</dim>
					<dim>1</dim>
					<dim>1</dim>
				</port>
			</input>
			<output>
				<port id="1" precision="FP16">
					<dim>64</dim>
					<dim>64</dim>
					<dim>1</dim>
					<dim>1</dim>
				</port>
			</output>
		</layer>
		<layer id="285" name="591/fq_weights_1/Copy/out_low14884_const" type="Const" version="opset1">
			<data element_type="f16" offset="9448" shape="1" size="2"/>
			<output>
				<port id="1" precision="FP16">
					<dim>1</dim>
				</port>
			</output>
		</layer>
		<layer id="286" name="591/fq_weights_1/Copy/out_high14885_const" type="Const" version="opset1">
			<data element_type="f16" offset="9450" shape="1" size="2"/>
			<output>
				<port id="1" precision="FP16">
					<dim>1</dim>
				</port>
			</output>
		</layer>
		<layer id="287" name="45234527_const" type="Const" version="opset1">
			<data element_type="f16" offset="47752" shape="64,1,1,1" size="128"/>
			<output>
				<port id="1" precision="FP16">
					<dim>64</dim>
					<dim>1</dim>
					<dim>1</dim>
					<dim>1</dim>
				</port>
			</output>
		</layer>
		<layer id="288" name="45244528_const" type="Const" version="opset1">
			<data element_type="f16" offset="47880" shape="64,1,1,1" size="128"/>
			<output>
				<port id="1" precision="FP16">
					<dim>64</dim>
					<dim>1</dim>
					<dim>1</dim>
					<dim>1</dim>
				</port>
			</output>
		</layer>
		<layer id="289" name="591/fq_weights_1" type="FakeQuantize" version="opset1">
			<data levels="255"/>
			<input>
				<port id="0">
					<dim>64</dim>
					<dim>64</dim>
					<dim>1</dim>
					<dim>1</dim>
				</port>
				<port id="1">
					<dim>1</dim>
				</port>
				<port id="2">
					<dim>1</dim>
				</port>
				<port id="3">
					<dim>64</dim>
					<dim>1</dim>
					<dim>1</dim>
					<dim>1</dim>
				</port>
				<port id="4">
					<dim>64</dim>
					<dim>1</dim>
					<dim>1</dim>
					<dim>1</dim>
				</port>
			</input>
			<output>
				<port id="5" precision="FP16">
					<dim>64</dim>
					<dim>64</dim>
					<dim>1</dim>
					<dim>1</dim>
				</port>
			</output>
		</layer>
		<layer id="290" name="591" type="Convolution" version="opset1">
			<data dilations="1,1" output_padding="0,0" pads_begin="0,0" pads_end="0,0" strides="1,1"/>
			<input>
				<port id="0">
					<dim>1</dim>
					<dim>64</dim>
					<dim>64</dim>
					<dim>32</dim>
				</port>
				<port id="1">
					<dim>64</dim>
					<dim>64</dim>
					<dim>1</dim>
					<dim>1</dim>
				</port>
			</input>
			<output>
				<port id="2" precision="FP16">
					<dim>1</dim>
					<dim>64</dim>
					<dim>64</dim>
					<dim>32</dim>
				</port>
			</output>
		</layer>
		<layer id="291" name="22162218_const" type="Const" version="opset1">
			<data element_type="f16" offset="9708" shape="1,64,1,1" size="128"/>
			<output>
				<port id="1" precision="FP16">
					<dim>1</dim>
					<dim>64</dim>
					<dim>1</dim>
					<dim>1</dim>
				</port>
			</output>
		</layer>
		<layer id="292" name="591/add_" type="Add" version="opset1">
			<input>
				<port id="0">
					<dim>1</dim>
					<dim>64</dim>
					<dim>64</dim>
					<dim>32</dim>
				</port>
				<port id="1">
					<dim>1</dim>
					<dim>64</dim>
					<dim>1</dim>
					<dim>1</dim>
				</port>
			</input>
			<output>
				<port id="2" precision="FP16">
					<dim>1</dim>
					<dim>64</dim>
					<dim>64</dim>
					<dim>32</dim>
				</port>
			</output>
		</layer>
		<layer id="293" name="35513555_const" type="Const" version="opset1">
			<data element_type="f16" offset="48008" shape="1,64,1,1" size="128"/>
			<output>
				<port id="1" precision="FP16">
					<dim>1</dim>
					<dim>64</dim>
					<dim>1</dim>
					<dim>1</dim>
				</port>
			</output>
		</layer>
		<layer id="294" name="35523556_const" type="Const" version="opset1">
			<data element_type="f16" offset="48136" shape="1,64,1,1" size="128"/>
			<output>
				<port id="1" precision="FP16">
					<dim>1</dim>
					<dim>64</dim>
					<dim>1</dim>
					<dim>1</dim>
				</port>
			</output>
		</layer>
		<layer id="295" name="35533557_const" type="Const" version="opset1">
			<data element_type="f16" offset="48008" shape="1,64,1,1" size="128"/>
			<output>
				<port id="1" precision="FP16">
					<dim>1</dim>
					<dim>64</dim>
					<dim>1</dim>
					<dim>1</dim>
				</port>
			</output>
		</layer>
		<layer id="296" name="35543558_const" type="Const" version="opset1">
			<data element_type="f16" offset="48136" shape="1,64,1,1" size="128"/>
			<output>
				<port id="1" precision="FP16">
					<dim>1</dim>
					<dim>64</dim>
					<dim>1</dim>
					<dim>1</dim>
				</port>
			</output>
		</layer>
		<layer id="297" name="592/fq_input_0" type="FakeQuantize" version="opset1">
			<data levels="256"/>
			<input>
				<port id="0">
					<dim>1</dim>
					<dim>64</dim>
					<dim>64</dim>
					<dim>32</dim>
				</port>
				<port id="1">
					<dim>1</dim>
					<dim>64</dim>
					<dim>1</dim>
					<dim>1</dim>
				</port>
				<port id="2">
					<dim>1</dim>
					<dim>64</dim>
					<dim>1</dim>
					<dim>1</dim>
				</port>
				<port id="3">
					<dim>1</dim>
					<dim>64</dim>
					<dim>1</dim>
					<dim>1</dim>
				</port>
				<port id="4">
					<dim>1</dim>
					<dim>64</dim>
					<dim>1</dim>
					<dim>1</dim>
				</port>
			</input>
			<output>
				<port id="5" precision="FP16">
					<dim>1</dim>
					<dim>64</dim>
					<dim>64</dim>
					<dim>32</dim>
				</port>
			</output>
		</layer>
		<layer id="298" name="592/fq_weights_1/Convert_to_float/Cast_017385_const" type="Const" version="opset1">
			<data element_type="u8" offset="48264" shape="64,1,3,3" size="576"/>
			<output>
				<port id="1" precision="U8">
					<dim>64</dim>
					<dim>1</dim>
					<dim>3</dim>
					<dim>3</dim>
				</port>
			</output>
		</layer>
		<layer id="299" name="592/fq_weights_1/Convert_to_float" type="Convert" version="opset1">
			<data destination_type="f16"/>
			<input>
				<port id="0">
					<dim>64</dim>
					<dim>1</dim>
					<dim>3</dim>
					<dim>3</dim>
				</port>
			</input>
			<output>
				<port id="1" precision="FP16">
					<dim>64</dim>
					<dim>1</dim>
					<dim>3</dim>
					<dim>3</dim>
				</port>
			</output>
		</layer>
		<layer id="300" name="592/fq_weights_1/Copy/out_low15036_const" type="Const" version="opset1">
			<data element_type="f16" offset="9448" shape="1" size="2"/>
			<output>
				<port id="1" precision="FP16">
					<dim>1</dim>
				</port>
			</output>
		</layer>
		<layer id="301" name="592/fq_weights_1/Copy/out_high15037_const" type="Const" version="opset1">
			<data element_type="f16" offset="9450" shape="1" size="2"/>
			<output>
				<port id="1" precision="FP16">
					<dim>1</dim>
				</port>
			</output>
		</layer>
		<layer id="302" name="35633567_const" type="Const" version="opset1">
			<data element_type="f16" offset="48840" shape="64,1,1,1" size="128"/>
			<output>
				<port id="1" precision="FP16">
					<dim>64</dim>
					<dim>1</dim>
					<dim>1</dim>
					<dim>1</dim>
				</port>
			</output>
		</layer>
		<layer id="303" name="35643568_const" type="Const" version="opset1">
			<data element_type="f16" offset="48968" shape="64,1,1,1" size="128"/>
			<output>
				<port id="1" precision="FP16">
					<dim>64</dim>
					<dim>1</dim>
					<dim>1</dim>
					<dim>1</dim>
				</port>
			</output>
		</layer>
		<layer id="304" name="592/fq_weights_1" type="FakeQuantize" version="opset1">
			<data levels="255"/>
			<input>
				<port id="0">
					<dim>64</dim>
					<dim>1</dim>
					<dim>3</dim>
					<dim>3</dim>
				</port>
				<port id="1">
					<dim>1</dim>
				</port>
				<port id="2">
					<dim>1</dim>
				</port>
				<port id="3">
					<dim>64</dim>
					<dim>1</dim>
					<dim>1</dim>
					<dim>1</dim>
				</port>
				<port id="4">
					<dim>64</dim>
					<dim>1</dim>
					<dim>1</dim>
					<dim>1</dim>
				</port>
			</input>
			<output>
				<port id="5" precision="FP16">
					<dim>64</dim>
					<dim>1</dim>
					<dim>3</dim>
					<dim>3</dim>
				</port>
			</output>
		</layer>
		<layer id="305" name="19807/value19809_const" type="Const" version="opset1">
			<data element_type="i64" offset="20020" shape="5" size="40"/>
			<output>
				<port id="1" precision="I64">
					<dim>5</dim>
				</port>
			</output>
		</layer>
		<layer id="306" name="19807" type="Reshape" version="opset1">
			<data special_zero="True"/>
			<input>
				<port id="0">
					<dim>64</dim>
					<dim>1</dim>
					<dim>3</dim>
					<dim>3</dim>
				</port>
				<port id="1">
					<dim>5</dim>
				</port>
			</input>
			<output>
				<port id="2" precision="FP16">
					<dim>64</dim>
					<dim>1</dim>
					<dim>1</dim>
					<dim>3</dim>
					<dim>3</dim>
				</port>
			</output>
		</layer>
		<layer id="307" name="592" type="GroupConvolution" version="opset1">
			<data dilations="1,1" output_padding="0,0" pads_begin="1,1" pads_end="1,1" strides="1,1"/>
			<input>
				<port id="0">
					<dim>1</dim>
					<dim>64</dim>
					<dim>64</dim>
					<dim>32</dim>
				</port>
				<port id="1">
					<dim>64</dim>
					<dim>1</dim>
					<dim>1</dim>
					<dim>3</dim>
					<dim>3</dim>
				</port>
			</input>
			<output>
				<port id="2" precision="FP16">
					<dim>1</dim>
					<dim>64</dim>
					<dim>64</dim>
					<dim>32</dim>
				</port>
			</output>
		</layer>
		<layer id="308" name="data_add_1956419569/copy_const1008_const" type="Const" version="opset1">
			<data element_type="f16" offset="49096" shape="1,64,1,1" size="128"/>
			<output>
				<port id="1" precision="FP16">
					<dim>1</dim>
					<dim>64</dim>
					<dim>1</dim>
					<dim>1</dim>
				</port>
			</output>
		</layer>
		<layer id="309" name="593/variance/Fused_Add_" type="Add" version="opset1">
			<input>
				<port id="0">
					<dim>1</dim>
					<dim>64</dim>
					<dim>64</dim>
					<dim>32</dim>
				</port>
				<port id="1">
					<dim>1</dim>
					<dim>64</dim>
					<dim>1</dim>
					<dim>1</dim>
				</port>
			</input>
			<output>
				<port id="2" precision="FP16">
					<dim>1</dim>
					<dim>64</dim>
					<dim>64</dim>
					<dim>32</dim>
				</port>
			</output>
		</layer>
		<layer id="310" name="594" type="ReLU" version="opset1">
			<input>
				<port id="0">
					<dim>1</dim>
					<dim>64</dim>
					<dim>64</dim>
					<dim>32</dim>
				</port>
			</input>
			<output>
				<port id="1" precision="FP16">
					<dim>1</dim>
					<dim>64</dim>
					<dim>64</dim>
					<dim>32</dim>
				</port>
			</output>
		</layer>
		<layer id="311" name="57115715_const" type="Const" version="opset1">
			<data element_type="f16" offset="9448" shape="" size="2"/>
			<output>
				<port id="1" precision="FP16"/>
			</output>
		</layer>
		<layer id="312" name="57125716_const" type="Const" version="opset1">
			<data element_type="f16" offset="49224" shape="" size="2"/>
			<output>
				<port id="1" precision="FP16"/>
			</output>
		</layer>
		<layer id="313" name="57135717_const" type="Const" version="opset1">
			<data element_type="f16" offset="9448" shape="" size="2"/>
			<output>
				<port id="1" precision="FP16"/>
			</output>
		</layer>
		<layer id="314" name="57145718_const" type="Const" version="opset1">
			<data element_type="f16" offset="49224" shape="" size="2"/>
			<output>
				<port id="1" precision="FP16"/>
			</output>
		</layer>
		<layer id="315" name="624/reduce/fq_input_0" type="FakeQuantize" version="opset1">
			<data levels="256"/>
			<input>
				<port id="0">
					<dim>1</dim>
					<dim>64</dim>
					<dim>64</dim>
					<dim>32</dim>
				</port>
				<port id="1"/>
				<port id="2"/>
				<port id="3"/>
				<port id="4"/>
			</input>
			<output>
				<port id="5" precision="FP16">
					<dim>1</dim>
					<dim>64</dim>
					<dim>64</dim>
					<dim>32</dim>
				</port>
			</output>
		</layer>
		<layer id="316" name="624/reduce/Cast_117455_const" type="Const" version="opset1">
			<data element_type="i64" offset="20190" shape="2" size="16"/>
			<output>
				<port id="1" precision="I64">
					<dim>2</dim>
				</port>
			</output>
		</layer>
		<layer id="317" name="624/reduce" type="ReduceMean" version="opset1">
			<data keep_dims="True"/>
			<input>
				<port id="0">
					<dim>1</dim>
					<dim>64</dim>
					<dim>64</dim>
					<dim>32</dim>
				</port>
				<port id="1">
					<dim>2</dim>
				</port>
			</input>
			<output>
				<port id="2" precision="FP16">
					<dim>1</dim>
					<dim>64</dim>
					<dim>1</dim>
					<dim>1</dim>
				</port>
			</output>
		</layer>
		<layer id="318" name="Copy_onnx_initializer_node_conv2.0.gate.fc1.weight/Output_0/Data_3873_const1013_const" type="Const" version="opset1">
			<data element_type="f16" offset="20206" shape="4,64,1,1" size="512"/>
			<output>
				<port id="1" precision="FP16">
					<dim>4</dim>
					<dim>64</dim>
					<dim>1</dim>
					<dim>1</dim>
				</port>
			</output>
		</layer>
		<layer id="319" name="625/WithoutBiases" type="Convolution" version="opset1">
			<data dilations="1,1" output_padding="0,0" pads_begin="0,0" pads_end="0,0" strides="1,1"/>
			<input>
				<port id="0">
					<dim>1</dim>
					<dim>64</dim>
					<dim>1</dim>
					<dim>1</dim>
				</port>
				<port id="1">
					<dim>4</dim>
					<dim>64</dim>
					<dim>1</dim>
					<dim>1</dim>
				</port>
			</input>
			<output>
				<port id="2" precision="FP16">
					<dim>1</dim>
					<dim>4</dim>
					<dim>1</dim>
					<dim>1</dim>
				</port>
			</output>
		</layer>
		<layer id="320" name="625/Dims11895/copy_const1015_const" type="Const" version="opset1">
			<data element_type="f16" offset="20718" shape="1,4,1,1" size="8"/>
			<output>
				<port id="1" precision="FP16">
					<dim>1</dim>
					<dim>4</dim>
					<dim>1</dim>
					<dim>1</dim>
				</port>
			</output>
		</layer>
		<layer id="321" name="625" type="Add" version="opset1">
			<input>
				<port id="0">
					<dim>1</dim>
					<dim>4</dim>
					<dim>1</dim>
					<dim>1</dim>
				</port>
				<port id="1">
					<dim>1</dim>
					<dim>4</dim>
					<dim>1</dim>
					<dim>1</dim>
				</port>
			</input>
			<output>
				<port id="2" precision="FP16">
					<dim>1</dim>
					<dim>4</dim>
					<dim>1</dim>
					<dim>1</dim>
				</port>
			</output>
		</layer>
		<layer id="322" name="626" type="ReLU" version="opset1">
			<input>
				<port id="0">
					<dim>1</dim>
					<dim>4</dim>
					<dim>1</dim>
					<dim>1</dim>
				</port>
			</input>
			<output>
				<port id="1" precision="FP16">
					<dim>1</dim>
					<dim>4</dim>
					<dim>1</dim>
					<dim>1</dim>
				</port>
			</output>
		</layer>
		<layer id="323" name="Copy_onnx_initializer_node_conv2.0.gate.fc2.weight/Output_0/Data_3881_const1018_const" type="Const" version="opset1">
			<data element_type="f16" offset="20726" shape="64,4,1,1" size="512"/>
			<output>
				<port id="1" precision="FP16">
					<dim>64</dim>
					<dim>4</dim>
					<dim>1</dim>
					<dim>1</dim>
				</port>
			</output>
		</layer>
		<layer id="324" name="627/WithoutBiases" type="Convolution" version="opset1">
			<data dilations="1,1" output_padding="0,0" pads_begin="0,0" pads_end="0,0" strides="1,1"/>
			<input>
				<port id="0">
					<dim>1</dim>
					<dim>4</dim>
					<dim>1</dim>
					<dim>1</dim>
				</port>
				<port id="1">
					<dim>64</dim>
					<dim>4</dim>
					<dim>1</dim>
					<dim>1</dim>
				</port>
			</input>
			<output>
				<port id="2" precision="FP16">
					<dim>1</dim>
					<dim>64</dim>
					<dim>1</dim>
					<dim>1</dim>
				</port>
			</output>
		</layer>
		<layer id="325" name="627/Dims11823/copy_const1020_const" type="Const" version="opset1">
			<data element_type="f16" offset="21238" shape="1,64,1,1" size="128"/>
			<output>
				<port id="1" precision="FP16">
					<dim>1</dim>
					<dim>64</dim>
					<dim>1</dim>
					<dim>1</dim>
				</port>
			</output>
		</layer>
		<layer id="326" name="627" type="Add" version="opset1">
			<input>
				<port id="0">
					<dim>1</dim>
					<dim>64</dim>
					<dim>1</dim>
					<dim>1</dim>
				</port>
				<port id="1">
					<dim>1</dim>
					<dim>64</dim>
					<dim>1</dim>
					<dim>1</dim>
				</port>
			</input>
			<output>
				<port id="2" precision="FP16">
					<dim>1</dim>
					<dim>64</dim>
					<dim>1</dim>
					<dim>1</dim>
				</port>
			</output>
		</layer>
		<layer id="327" name="628" type="Sigmoid" version="opset1">
			<input>
				<port id="0">
					<dim>1</dim>
					<dim>64</dim>
					<dim>1</dim>
					<dim>1</dim>
				</port>
			</input>
			<output>
				<port id="1" precision="FP16">
					<dim>1</dim>
					<dim>64</dim>
					<dim>1</dim>
					<dim>1</dim>
				</port>
			</output>
		</layer>
		<layer id="328" name="37013705_const" type="Const" version="opset1">
			<data element_type="f16" offset="9448" shape="" size="2"/>
			<output>
				<port id="1" precision="FP16"/>
			</output>
		</layer>
		<layer id="329" name="37023706_const" type="Const" version="opset1">
			<data element_type="f16" offset="49226" shape="" size="2"/>
			<output>
				<port id="1" precision="FP16"/>
			</output>
		</layer>
		<layer id="330" name="37033707_const" type="Const" version="opset1">
			<data element_type="f16" offset="9448" shape="" size="2"/>
			<output>
				<port id="1" precision="FP16"/>
			</output>
		</layer>
		<layer id="331" name="37043708_const" type="Const" version="opset1">
			<data element_type="f16" offset="49226" shape="" size="2"/>
			<output>
				<port id="1" precision="FP16"/>
			</output>
		</layer>
		<layer id="332" name="629/fq_input_1" type="FakeQuantize" version="opset1">
			<data levels="256"/>
			<input>
				<port id="0">
					<dim>1</dim>
					<dim>64</dim>
					<dim>1</dim>
					<dim>1</dim>
				</port>
				<port id="1"/>
				<port id="2"/>
				<port id="3"/>
				<port id="4"/>
			</input>
			<output>
				<port id="5" precision="FP16">
					<dim>1</dim>
					<dim>64</dim>
					<dim>1</dim>
					<dim>1</dim>
				</port>
			</output>
		</layer>
		<layer id="333" name="629" type="Multiply" version="opset1">
			<input>
				<port id="0">
					<dim>1</dim>
					<dim>64</dim>
					<dim>64</dim>
					<dim>32</dim>
				</port>
				<port id="1">
					<dim>1</dim>
					<dim>64</dim>
					<dim>1</dim>
					<dim>1</dim>
				</port>
			</input>
			<output>
				<port id="2" precision="FP16">
					<dim>1</dim>
					<dim>64</dim>
					<dim>64</dim>
					<dim>32</dim>
				</port>
			</output>
		</layer>
		<layer id="334" name="59615965_const" type="Const" version="opset1">
			<data element_type="f16" offset="9448" shape="" size="2"/>
			<output>
				<port id="1" precision="FP16"/>
			</output>
		</layer>
		<layer id="335" name="59625966_const" type="Const" version="opset1">
			<data element_type="f16" offset="49228" shape="" size="2"/>
			<output>
				<port id="1" precision="FP16"/>
			</output>
		</layer>
		<layer id="336" name="59635967_const" type="Const" version="opset1">
			<data element_type="f16" offset="9448" shape="" size="2"/>
			<output>
				<port id="1" precision="FP16"/>
			</output>
		</layer>
		<layer id="337" name="59645968_const" type="Const" version="opset1">
			<data element_type="f16" offset="49228" shape="" size="2"/>
			<output>
				<port id="1" precision="FP16"/>
			</output>
		</layer>
		<layer id="338" name="630/fq_input_1" type="FakeQuantize" version="opset1">
			<data levels="256"/>
			<input>
				<port id="0">
					<dim>1</dim>
					<dim>64</dim>
					<dim>64</dim>
					<dim>32</dim>
				</port>
				<port id="1"/>
				<port id="2"/>
				<port id="3"/>
				<port id="4"/>
			</input>
			<output>
				<port id="5" precision="FP16">
					<dim>1</dim>
					<dim>64</dim>
					<dim>64</dim>
					<dim>32</dim>
				</port>
			</output>
		</layer>
		<layer id="339" name="630" type="Add" version="opset1">
			<input>
				<port id="0">
					<dim>1</dim>
					<dim>64</dim>
					<dim>64</dim>
					<dim>32</dim>
				</port>
				<port id="1">
					<dim>1</dim>
					<dim>64</dim>
					<dim>64</dim>
					<dim>32</dim>
				</port>
			</input>
			<output>
				<port id="2" precision="FP16">
					<dim>1</dim>
					<dim>64</dim>
					<dim>64</dim>
					<dim>32</dim>
				</port>
			</output>
		</layer>
		<layer id="340" name="65916595_const" type="Const" version="opset1">
			<data element_type="f16" offset="9448" shape="" size="2"/>
			<output>
				<port id="1" precision="FP16"/>
			</output>
		</layer>
		<layer id="341" name="65926596_const" type="Const" version="opset1">
			<data element_type="f16" offset="49230" shape="" size="2"/>
			<output>
				<port id="1" precision="FP16"/>
			</output>
		</layer>
		<layer id="342" name="65936597_const" type="Const" version="opset1">
			<data element_type="f16" offset="9448" shape="" size="2"/>
			<output>
				<port id="1" precision="FP16"/>
			</output>
		</layer>
		<layer id="343" name="65946598_const" type="Const" version="opset1">
			<data element_type="f16" offset="49230" shape="" size="2"/>
			<output>
				<port id="1" precision="FP16"/>
			</output>
		</layer>
		<layer id="344" name="637/fq_input_0" type="FakeQuantize" version="opset1">
			<data levels="256"/>
			<input>
				<port id="0">
					<dim>1</dim>
					<dim>64</dim>
					<dim>64</dim>
					<dim>32</dim>
				</port>
				<port id="1"/>
				<port id="2"/>
				<port id="3"/>
				<port id="4"/>
			</input>
			<output>
				<port id="5" precision="FP16">
					<dim>1</dim>
					<dim>64</dim>
					<dim>64</dim>
					<dim>32</dim>
				</port>
			</output>
		</layer>
		<layer id="345" name="595/fq_weights_1/Convert_to_float/Cast_017565_const" type="Const" version="opset1">
			<data element_type="u8" offset="49232" shape="64,64,1,1" size="4096"/>
			<output>
				<port id="1" precision="U8">
					<dim>64</dim>
					<dim>64</dim>
					<dim>1</dim>
					<dim>1</dim>
				</port>
			</output>
		</layer>
		<layer id="346" name="595/fq_weights_1/Convert_to_float" type="Convert" version="opset1">
			<data destination_type="f16"/>
			<input>
				<port id="0">
					<dim>64</dim>
					<dim>64</dim>
					<dim>1</dim>
					<dim>1</dim>
				</port>
			</input>
			<output>
				<port id="1" precision="FP16">
					<dim>64</dim>
					<dim>64</dim>
					<dim>1</dim>
					<dim>1</dim>
				</port>
			</output>
		</layer>
		<layer id="347" name="595/fq_weights_1/Copy/out_low14652_const" type="Const" version="opset1">
			<data element_type="f16" offset="9448" shape="1" size="2"/>
			<output>
				<port id="1" precision="FP16">
					<dim>1</dim>
				</port>
			</output>
		</layer>
		<layer id="348" name="595/fq_weights_1/Copy/out_high14653_const" type="Const" version="opset1">
			<data element_type="f16" offset="9450" shape="1" size="2"/>
			<output>
				<port id="1" precision="FP16">
					<dim>1</dim>
				</port>
			</output>
		</layer>
		<layer id="349" name="57835787_const" type="Const" version="opset1">
			<data element_type="f16" offset="53328" shape="64,1,1,1" size="128"/>
			<output>
				<port id="1" precision="FP16">
					<dim>64</dim>
					<dim>1</dim>
					<dim>1</dim>
					<dim>1</dim>
				</port>
			</output>
		</layer>
		<layer id="350" name="57845788_const" type="Const" version="opset1">
			<data element_type="f16" offset="53456" shape="64,1,1,1" size="128"/>
			<output>
				<port id="1" precision="FP16">
					<dim>64</dim>
					<dim>1</dim>
					<dim>1</dim>
					<dim>1</dim>
				</port>
			</output>
		</layer>
		<layer id="351" name="595/fq_weights_1" type="FakeQuantize" version="opset1">
			<data levels="255"/>
			<input>
				<port id="0">
					<dim>64</dim>
					<dim>64</dim>
					<dim>1</dim>
					<dim>1</dim>
				</port>
				<port id="1">
					<dim>1</dim>
				</port>
				<port id="2">
					<dim>1</dim>
				</port>
				<port id="3">
					<dim>64</dim>
					<dim>1</dim>
					<dim>1</dim>
					<dim>1</dim>
				</port>
				<port id="4">
					<dim>64</dim>
					<dim>1</dim>
					<dim>1</dim>
					<dim>1</dim>
				</port>
			</input>
			<output>
				<port id="5" precision="FP16">
					<dim>64</dim>
					<dim>64</dim>
					<dim>1</dim>
					<dim>1</dim>
				</port>
			</output>
		</layer>
		<layer id="352" name="595" type="Convolution" version="opset1">
			<data dilations="1,1" output_padding="0,0" pads_begin="0,0" pads_end="0,0" strides="1,1"/>
			<input>
				<port id="0">
					<dim>1</dim>
					<dim>64</dim>
					<dim>64</dim>
					<dim>32</dim>
				</port>
				<port id="1">
					<dim>64</dim>
					<dim>64</dim>
					<dim>1</dim>
					<dim>1</dim>
				</port>
			</input>
			<output>
				<port id="2" precision="FP16">
					<dim>1</dim>
					<dim>64</dim>
					<dim>64</dim>
					<dim>32</dim>
				</port>
			</output>
		</layer>
		<layer id="353" name="22202222_const" type="Const" version="opset1">
			<data element_type="f16" offset="9708" shape="1,64,1,1" size="128"/>
			<output>
				<port id="1" precision="FP16">
					<dim>1</dim>
					<dim>64</dim>
					<dim>1</dim>
					<dim>1</dim>
				</port>
			</output>
		</layer>
		<layer id="354" name="595/add_" type="Add" version="opset1">
			<input>
				<port id="0">
					<dim>1</dim>
					<dim>64</dim>
					<dim>64</dim>
					<dim>32</dim>
				</port>
				<port id="1">
					<dim>1</dim>
					<dim>64</dim>
					<dim>1</dim>
					<dim>1</dim>
				</port>
			</input>
			<output>
				<port id="2" precision="FP16">
					<dim>1</dim>
					<dim>64</dim>
					<dim>64</dim>
					<dim>32</dim>
				</port>
			</output>
		</layer>
		<layer id="355" name="69716975_const" type="Const" version="opset1">
			<data element_type="f16" offset="53584" shape="1,64,1,1" size="128"/>
			<output>
				<port id="1" precision="FP16">
					<dim>1</dim>
					<dim>64</dim>
					<dim>1</dim>
					<dim>1</dim>
				</port>
			</output>
		</layer>
		<layer id="356" name="69726976_const" type="Const" version="opset1">
			<data element_type="f16" offset="53712" shape="1,64,1,1" size="128"/>
			<output>
				<port id="1" precision="FP16">
					<dim>1</dim>
					<dim>64</dim>
					<dim>1</dim>
					<dim>1</dim>
				</port>
			</output>
		</layer>
		<layer id="357" name="69736977_const" type="Const" version="opset1">
			<data element_type="f16" offset="53584" shape="1,64,1,1" size="128"/>
			<output>
				<port id="1" precision="FP16">
					<dim>1</dim>
					<dim>64</dim>
					<dim>1</dim>
					<dim>1</dim>
				</port>
			</output>
		</layer>
		<layer id="358" name="69746978_const" type="Const" version="opset1">
			<data element_type="f16" offset="53712" shape="1,64,1,1" size="128"/>
			<output>
				<port id="1" precision="FP16">
					<dim>1</dim>
					<dim>64</dim>
					<dim>1</dim>
					<dim>1</dim>
				</port>
			</output>
		</layer>
		<layer id="359" name="596/fq_input_0" type="FakeQuantize" version="opset1">
			<data levels="256"/>
			<input>
				<port id="0">
					<dim>1</dim>
					<dim>64</dim>
					<dim>64</dim>
					<dim>32</dim>
				</port>
				<port id="1">
					<dim>1</dim>
					<dim>64</dim>
					<dim>1</dim>
					<dim>1</dim>
				</port>
				<port id="2">
					<dim>1</dim>
					<dim>64</dim>
					<dim>1</dim>
					<dim>1</dim>
				</port>
				<port id="3">
					<dim>1</dim>
					<dim>64</dim>
					<dim>1</dim>
					<dim>1</dim>
				</port>
				<port id="4">
					<dim>1</dim>
					<dim>64</dim>
					<dim>1</dim>
					<dim>1</dim>
				</port>
			</input>
			<output>
				<port id="5" precision="FP16">
					<dim>1</dim>
					<dim>64</dim>
					<dim>64</dim>
					<dim>32</dim>
				</port>
			</output>
		</layer>
		<layer id="360" name="596/fq_weights_1/Convert_to_float/Cast_017591_const" type="Const" version="opset1">
			<data element_type="u8" offset="53840" shape="64,1,3,3" size="576"/>
			<output>
				<port id="1" precision="U8">
					<dim>64</dim>
					<dim>1</dim>
					<dim>3</dim>
					<dim>3</dim>
				</port>
			</output>
		</layer>
		<layer id="361" name="596/fq_weights_1/Convert_to_float" type="Convert" version="opset1">
			<data destination_type="f16"/>
			<input>
				<port id="0">
					<dim>64</dim>
					<dim>1</dim>
					<dim>3</dim>
					<dim>3</dim>
				</port>
			</input>
			<output>
				<port id="1" precision="FP16">
					<dim>64</dim>
					<dim>1</dim>
					<dim>3</dim>
					<dim>3</dim>
				</port>
			</output>
		</layer>
		<layer id="362" name="596/fq_weights_1/Copy/out_low15292_const" type="Const" version="opset1">
			<data element_type="f16" offset="9448" shape="1" size="2"/>
			<output>
				<port id="1" precision="FP16">
					<dim>1</dim>
				</port>
			</output>
		</layer>
		<layer id="363" name="596/fq_weights_1/Copy/out_high15293_const" type="Const" version="opset1">
			<data element_type="f16" offset="9450" shape="1" size="2"/>
			<output>
				<port id="1" precision="FP16">
					<dim>1</dim>
				</port>
			</output>
		</layer>
		<layer id="364" name="69836987_const" type="Const" version="opset1">
			<data element_type="f16" offset="54416" shape="64,1,1,1" size="128"/>
			<output>
				<port id="1" precision="FP16">
					<dim>64</dim>
					<dim>1</dim>
					<dim>1</dim>
					<dim>1</dim>
				</port>
			</output>
		</layer>
		<layer id="365" name="69846988_const" type="Const" version="opset1">
			<data element_type="f16" offset="54544" shape="64,1,1,1" size="128"/>
			<output>
				<port id="1" precision="FP16">
					<dim>64</dim>
					<dim>1</dim>
					<dim>1</dim>
					<dim>1</dim>
				</port>
			</output>
		</layer>
		<layer id="366" name="596/fq_weights_1" type="FakeQuantize" version="opset1">
			<data levels="255"/>
			<input>
				<port id="0">
					<dim>64</dim>
					<dim>1</dim>
					<dim>3</dim>
					<dim>3</dim>
				</port>
				<port id="1">
					<dim>1</dim>
				</port>
				<port id="2">
					<dim>1</dim>
				</port>
				<port id="3">
					<dim>64</dim>
					<dim>1</dim>
					<dim>1</dim>
					<dim>1</dim>
				</port>
				<port id="4">
					<dim>64</dim>
					<dim>1</dim>
					<dim>1</dim>
					<dim>1</dim>
				</port>
			</input>
			<output>
				<port id="5" precision="FP16">
					<dim>64</dim>
					<dim>1</dim>
					<dim>3</dim>
					<dim>3</dim>
				</port>
			</output>
		</layer>
		<layer id="367" name="19679/value19681_const" type="Const" version="opset1">
			<data element_type="i64" offset="20020" shape="5" size="40"/>
			<output>
				<port id="1" precision="I64">
					<dim>5</dim>
				</port>
			</output>
		</layer>
		<layer id="368" name="19679" type="Reshape" version="opset1">
			<data special_zero="True"/>
			<input>
				<port id="0">
					<dim>64</dim>
					<dim>1</dim>
					<dim>3</dim>
					<dim>3</dim>
				</port>
				<port id="1">
					<dim>5</dim>
				</port>
			</input>
			<output>
				<port id="2" precision="FP16">
					<dim>64</dim>
					<dim>1</dim>
					<dim>1</dim>
					<dim>3</dim>
					<dim>3</dim>
				</port>
			</output>
		</layer>
		<layer id="369" name="596" type="GroupConvolution" version="opset1">
			<data dilations="1,1" output_padding="0,0" pads_begin="1,1" pads_end="1,1" strides="1,1"/>
			<input>
				<port id="0">
					<dim>1</dim>
					<dim>64</dim>
					<dim>64</dim>
					<dim>32</dim>
				</port>
				<port id="1">
					<dim>64</dim>
					<dim>1</dim>
					<dim>1</dim>
					<dim>3</dim>
					<dim>3</dim>
				</port>
			</input>
			<output>
				<port id="2" precision="FP16">
					<dim>1</dim>
					<dim>64</dim>
					<dim>64</dim>
					<dim>32</dim>
				</port>
			</output>
		</layer>
		<layer id="370" name="data_add_1951619521/copy_const1029_const" type="Const" version="opset1">
			<data element_type="f16" offset="54672" shape="1,64,1,1" size="128"/>
			<output>
				<port id="1" precision="FP16">
					<dim>1</dim>
					<dim>64</dim>
					<dim>1</dim>
					<dim>1</dim>
				</port>
			</output>
		</layer>
		<layer id="371" name="597/variance/Fused_Add_" type="Add" version="opset1">
			<input>
				<port id="0">
					<dim>1</dim>
					<dim>64</dim>
					<dim>64</dim>
					<dim>32</dim>
				</port>
				<port id="1">
					<dim>1</dim>
					<dim>64</dim>
					<dim>1</dim>
					<dim>1</dim>
				</port>
			</input>
			<output>
				<port id="2" precision="FP16">
					<dim>1</dim>
					<dim>64</dim>
					<dim>64</dim>
					<dim>32</dim>
				</port>
			</output>
		</layer>
		<layer id="372" name="598" type="ReLU" version="opset1">
			<input>
				<port id="0">
					<dim>1</dim>
					<dim>64</dim>
					<dim>64</dim>
					<dim>32</dim>
				</port>
			</input>
			<output>
				<port id="1" precision="FP16">
					<dim>1</dim>
					<dim>64</dim>
					<dim>64</dim>
					<dim>32</dim>
				</port>
			</output>
		</layer>
		<layer id="373" name="70417045_const" type="Const" version="opset1">
			<data element_type="f16" offset="9448" shape="" size="2"/>
			<output>
				<port id="1" precision="FP16"/>
			</output>
		</layer>
		<layer id="374" name="70427046_const" type="Const" version="opset1">
			<data element_type="f16" offset="54800" shape="" size="2"/>
			<output>
				<port id="1" precision="FP16"/>
			</output>
		</layer>
		<layer id="375" name="70437047_const" type="Const" version="opset1">
			<data element_type="f16" offset="9448" shape="" size="2"/>
			<output>
				<port id="1" precision="FP16"/>
			</output>
		</layer>
		<layer id="376" name="70447048_const" type="Const" version="opset1">
			<data element_type="f16" offset="54800" shape="" size="2"/>
			<output>
				<port id="1" precision="FP16"/>
			</output>
		</layer>
		<layer id="377" name="599/fq_input_0" type="FakeQuantize" version="opset1">
			<data levels="256"/>
			<input>
				<port id="0">
					<dim>1</dim>
					<dim>64</dim>
					<dim>64</dim>
					<dim>32</dim>
				</port>
				<port id="1"/>
				<port id="2"/>
				<port id="3"/>
				<port id="4"/>
			</input>
			<output>
				<port id="5" precision="FP16">
					<dim>1</dim>
					<dim>64</dim>
					<dim>64</dim>
					<dim>32</dim>
				</port>
			</output>
		</layer>
		<layer id="378" name="599/fq_weights_1/Convert_to_float/Cast_017353_const" type="Const" version="opset1">
			<data element_type="u8" offset="54802" shape="64,64,1,1" size="4096"/>
			<output>
				<port id="1" precision="U8">
					<dim>64</dim>
					<dim>64</dim>
					<dim>1</dim>
					<dim>1</dim>
				</port>
			</output>
		</layer>
		<layer id="379" name="599/fq_weights_1/Convert_to_float" type="Convert" version="opset1">
			<data destination_type="f16"/>
			<input>
				<port id="0">
					<dim>64</dim>
					<dim>64</dim>
					<dim>1</dim>
					<dim>1</dim>
				</port>
			</input>
			<output>
				<port id="1" precision="FP16">
					<dim>64</dim>
					<dim>64</dim>
					<dim>1</dim>
					<dim>1</dim>
				</port>
			</output>
		</layer>
		<layer id="380" name="599/fq_weights_1/Copy/out_low14876_const" type="Const" version="opset1">
			<data element_type="f16" offset="9448" shape="1" size="2"/>
			<output>
				<port id="1" precision="FP16">
					<dim>1</dim>
				</port>
			</output>
		</layer>
		<layer id="381" name="599/fq_weights_1/Copy/out_high14877_const" type="Const" version="opset1">
			<data element_type="f16" offset="9450" shape="1" size="2"/>
			<output>
				<port id="1" precision="FP16">
					<dim>1</dim>
				</port>
			</output>
		</layer>
		<layer id="382" name="70537057_const" type="Const" version="opset1">
			<data element_type="f16" offset="58898" shape="64,1,1,1" size="128"/>
			<output>
				<port id="1" precision="FP16">
					<dim>64</dim>
					<dim>1</dim>
					<dim>1</dim>
					<dim>1</dim>
				</port>
			</output>
		</layer>
		<layer id="383" name="70547058_const" type="Const" version="opset1">
			<data element_type="f16" offset="59026" shape="64,1,1,1" size="128"/>
			<output>
				<port id="1" precision="FP16">
					<dim>64</dim>
					<dim>1</dim>
					<dim>1</dim>
					<dim>1</dim>
				</port>
			</output>
		</layer>
		<layer id="384" name="599/fq_weights_1" type="FakeQuantize" version="opset1">
			<data levels="255"/>
			<input>
				<port id="0">
					<dim>64</dim>
					<dim>64</dim>
					<dim>1</dim>
					<dim>1</dim>
				</port>
				<port id="1">
					<dim>1</dim>
				</port>
				<port id="2">
					<dim>1</dim>
				</port>
				<port id="3">
					<dim>64</dim>
					<dim>1</dim>
					<dim>1</dim>
					<dim>1</dim>
				</port>
				<port id="4">
					<dim>64</dim>
					<dim>1</dim>
					<dim>1</dim>
					<dim>1</dim>
				</port>
			</input>
			<output>
				<port id="5" precision="FP16">
					<dim>64</dim>
					<dim>64</dim>
					<dim>1</dim>
					<dim>1</dim>
				</port>
			</output>
		</layer>
		<layer id="385" name="599" type="Convolution" version="opset1">
			<data dilations="1,1" output_padding="0,0" pads_begin="0,0" pads_end="0,0" strides="1,1"/>
			<input>
				<port id="0">
					<dim>1</dim>
					<dim>64</dim>
					<dim>64</dim>
					<dim>32</dim>
				</port>
				<port id="1">
					<dim>64</dim>
					<dim>64</dim>
					<dim>1</dim>
					<dim>1</dim>
				</port>
			</input>
			<output>
				<port id="2" precision="FP16">
					<dim>1</dim>
					<dim>64</dim>
					<dim>64</dim>
					<dim>32</dim>
				</port>
			</output>
		</layer>
		<layer id="386" name="22242226_const" type="Const" version="opset1">
			<data element_type="f16" offset="9708" shape="1,64,1,1" size="128"/>
			<output>
				<port id="1" precision="FP16">
					<dim>1</dim>
					<dim>64</dim>
					<dim>1</dim>
					<dim>1</dim>
				</port>
			</output>
		</layer>
		<layer id="387" name="599/add_" type="Add" version="opset1">
			<input>
				<port id="0">
					<dim>1</dim>
					<dim>64</dim>
					<dim>64</dim>
					<dim>32</dim>
				</port>
				<port id="1">
					<dim>1</dim>
					<dim>64</dim>
					<dim>1</dim>
					<dim>1</dim>
				</port>
			</input>
			<output>
				<port id="2" precision="FP16">
					<dim>1</dim>
					<dim>64</dim>
					<dim>64</dim>
					<dim>32</dim>
				</port>
			</output>
		</layer>
		<layer id="388" name="37513755_const" type="Const" version="opset1">
			<data element_type="f16" offset="59154" shape="1,64,1,1" size="128"/>
			<output>
				<port id="1" precision="FP16">
					<dim>1</dim>
					<dim>64</dim>
					<dim>1</dim>
					<dim>1</dim>
				</port>
			</output>
		</layer>
		<layer id="389" name="37523756_const" type="Const" version="opset1">
			<data element_type="f16" offset="59282" shape="1,64,1,1" size="128"/>
			<output>
				<port id="1" precision="FP16">
					<dim>1</dim>
					<dim>64</dim>
					<dim>1</dim>
					<dim>1</dim>
				</port>
			</output>
		</layer>
		<layer id="390" name="37533757_const" type="Const" version="opset1">
			<data element_type="f16" offset="59154" shape="1,64,1,1" size="128"/>
			<output>
				<port id="1" precision="FP16">
					<dim>1</dim>
					<dim>64</dim>
					<dim>1</dim>
					<dim>1</dim>
				</port>
			</output>
		</layer>
		<layer id="391" name="37543758_const" type="Const" version="opset1">
			<data element_type="f16" offset="59282" shape="1,64,1,1" size="128"/>
			<output>
				<port id="1" precision="FP16">
					<dim>1</dim>
					<dim>64</dim>
					<dim>1</dim>
					<dim>1</dim>
				</port>
			</output>
		</layer>
		<layer id="392" name="600/fq_input_0" type="FakeQuantize" version="opset1">
			<data levels="256"/>
			<input>
				<port id="0">
					<dim>1</dim>
					<dim>64</dim>
					<dim>64</dim>
					<dim>32</dim>
				</port>
				<port id="1">
					<dim>1</dim>
					<dim>64</dim>
					<dim>1</dim>
					<dim>1</dim>
				</port>
				<port id="2">
					<dim>1</dim>
					<dim>64</dim>
					<dim>1</dim>
					<dim>1</dim>
				</port>
				<port id="3">
					<dim>1</dim>
					<dim>64</dim>
					<dim>1</dim>
					<dim>1</dim>
				</port>
				<port id="4">
					<dim>1</dim>
					<dim>64</dim>
					<dim>1</dim>
					<dim>1</dim>
				</port>
			</input>
			<output>
				<port id="5" precision="FP16">
					<dim>1</dim>
					<dim>64</dim>
					<dim>64</dim>
					<dim>32</dim>
				</port>
			</output>
		</layer>
		<layer id="393" name="600/fq_weights_1/Convert_to_float/Cast_017595_const" type="Const" version="opset1">
			<data element_type="u8" offset="59410" shape="64,1,3,3" size="576"/>
			<output>
				<port id="1" precision="U8">
					<dim>64</dim>
					<dim>1</dim>
					<dim>3</dim>
					<dim>3</dim>
				</port>
			</output>
		</layer>
		<layer id="394" name="600/fq_weights_1/Convert_to_float" type="Convert" version="opset1">
			<data destination_type="f16"/>
			<input>
				<port id="0">
					<dim>64</dim>
					<dim>1</dim>
					<dim>3</dim>
					<dim>3</dim>
				</port>
			</input>
			<output>
				<port id="1" precision="FP16">
					<dim>64</dim>
					<dim>1</dim>
					<dim>3</dim>
					<dim>3</dim>
				</port>
			</output>
		</layer>
		<layer id="395" name="600/fq_weights_1/Copy/out_low14444_const" type="Const" version="opset1">
			<data element_type="f16" offset="9448" shape="1" size="2"/>
			<output>
				<port id="1" precision="FP16">
					<dim>1</dim>
				</port>
			</output>
		</layer>
		<layer id="396" name="600/fq_weights_1/Copy/out_high14445_const" type="Const" version="opset1">
			<data element_type="f16" offset="9450" shape="1" size="2"/>
			<output>
				<port id="1" precision="FP16">
					<dim>1</dim>
				</port>
			</output>
		</layer>
		<layer id="397" name="37633767_const" type="Const" version="opset1">
			<data element_type="f16" offset="59986" shape="64,1,1,1" size="128"/>
			<output>
				<port id="1" precision="FP16">
					<dim>64</dim>
					<dim>1</dim>
					<dim>1</dim>
					<dim>1</dim>
				</port>
			</output>
		</layer>
		<layer id="398" name="37643768_const" type="Const" version="opset1">
			<data element_type="f16" offset="60114" shape="64,1,1,1" size="128"/>
			<output>
				<port id="1" precision="FP16">
					<dim>64</dim>
					<dim>1</dim>
					<dim>1</dim>
					<dim>1</dim>
				</port>
			</output>
		</layer>
		<layer id="399" name="600/fq_weights_1" type="FakeQuantize" version="opset1">
			<data levels="255"/>
			<input>
				<port id="0">
					<dim>64</dim>
					<dim>1</dim>
					<dim>3</dim>
					<dim>3</dim>
				</port>
				<port id="1">
					<dim>1</dim>
				</port>
				<port id="2">
					<dim>1</dim>
				</port>
				<port id="3">
					<dim>64</dim>
					<dim>1</dim>
					<dim>1</dim>
					<dim>1</dim>
				</port>
				<port id="4">
					<dim>64</dim>
					<dim>1</dim>
					<dim>1</dim>
					<dim>1</dim>
				</port>
			</input>
			<output>
				<port id="5" precision="FP16">
					<dim>64</dim>
					<dim>1</dim>
					<dim>3</dim>
					<dim>3</dim>
				</port>
			</output>
		</layer>
		<layer id="400" name="19815/value19817_const" type="Const" version="opset1">
			<data element_type="i64" offset="20020" shape="5" size="40"/>
			<output>
				<port id="1" precision="I64">
					<dim>5</dim>
				</port>
			</output>
		</layer>
		<layer id="401" name="19815" type="Reshape" version="opset1">
			<data special_zero="True"/>
			<input>
				<port id="0">
					<dim>64</dim>
					<dim>1</dim>
					<dim>3</dim>
					<dim>3</dim>
				</port>
				<port id="1">
					<dim>5</dim>
				</port>
			</input>
			<output>
				<port id="2" precision="FP16">
					<dim>64</dim>
					<dim>1</dim>
					<dim>1</dim>
					<dim>3</dim>
					<dim>3</dim>
				</port>
			</output>
		</layer>
		<layer id="402" name="600" type="GroupConvolution" version="opset1">
			<data dilations="1,1" output_padding="0,0" pads_begin="1,1" pads_end="1,1" strides="1,1"/>
			<input>
				<port id="0">
					<dim>1</dim>
					<dim>64</dim>
					<dim>64</dim>
					<dim>32</dim>
				</port>
				<port id="1">
					<dim>64</dim>
					<dim>1</dim>
					<dim>1</dim>
					<dim>3</dim>
					<dim>3</dim>
				</port>
			</input>
			<output>
				<port id="2" precision="FP16">
					<dim>1</dim>
					<dim>64</dim>
					<dim>64</dim>
					<dim>32</dim>
				</port>
			</output>
		</layer>
		<layer id="403" name="data_add_1952419529/copy_const1036_const" type="Const" version="opset1">
			<data element_type="f16" offset="60242" shape="1,64,1,1" size="128"/>
			<output>
				<port id="1" precision="FP16">
					<dim>1</dim>
					<dim>64</dim>
					<dim>1</dim>
					<dim>1</dim>
				</port>
			</output>
		</layer>
		<layer id="404" name="601/variance/Fused_Add_" type="Add" version="opset1">
			<input>
				<port id="0">
					<dim>1</dim>
					<dim>64</dim>
					<dim>64</dim>
					<dim>32</dim>
				</port>
				<port id="1">
					<dim>1</dim>
					<dim>64</dim>
					<dim>1</dim>
					<dim>1</dim>
				</port>
			</input>
			<output>
				<port id="2" precision="FP16">
					<dim>1</dim>
					<dim>64</dim>
					<dim>64</dim>
					<dim>32</dim>
				</port>
			</output>
		</layer>
		<layer id="405" name="602" type="ReLU" version="opset1">
			<input>
				<port id="0">
					<dim>1</dim>
					<dim>64</dim>
					<dim>64</dim>
					<dim>32</dim>
				</port>
			</input>
			<output>
				<port id="1" precision="FP16">
					<dim>1</dim>
					<dim>64</dim>
					<dim>64</dim>
					<dim>32</dim>
				</port>
			</output>
		</layer>
		<layer id="406" name="50115015_const" type="Const" version="opset1">
			<data element_type="f16" offset="9448" shape="" size="2"/>
			<output>
				<port id="1" precision="FP16"/>
			</output>
		</layer>
		<layer id="407" name="50125016_const" type="Const" version="opset1">
			<data element_type="f16" offset="60370" shape="" size="2"/>
			<output>
				<port id="1" precision="FP16"/>
			</output>
		</layer>
		<layer id="408" name="50135017_const" type="Const" version="opset1">
			<data element_type="f16" offset="9448" shape="" size="2"/>
			<output>
				<port id="1" precision="FP16"/>
			</output>
		</layer>
		<layer id="409" name="50145018_const" type="Const" version="opset1">
			<data element_type="f16" offset="60370" shape="" size="2"/>
			<output>
				<port id="1" precision="FP16"/>
			</output>
		</layer>
		<layer id="410" name="603/fq_input_0" type="FakeQuantize" version="opset1">
			<data levels="256"/>
			<input>
				<port id="0">
					<dim>1</dim>
					<dim>64</dim>
					<dim>64</dim>
					<dim>32</dim>
				</port>
				<port id="1"/>
				<port id="2"/>
				<port id="3"/>
				<port id="4"/>
			</input>
			<output>
				<port id="5" precision="FP16">
					<dim>1</dim>
					<dim>64</dim>
					<dim>64</dim>
					<dim>32</dim>
				</port>
			</output>
		</layer>
		<layer id="411" name="603/fq_weights_1/Convert_to_float/Cast_017655_const" type="Const" version="opset1">
			<data element_type="u8" offset="60372" shape="64,64,1,1" size="4096"/>
			<output>
				<port id="1" precision="U8">
					<dim>64</dim>
					<dim>64</dim>
					<dim>1</dim>
					<dim>1</dim>
				</port>
			</output>
		</layer>
		<layer id="412" name="603/fq_weights_1/Convert_to_float" type="Convert" version="opset1">
			<data destination_type="f16"/>
			<input>
				<port id="0">
					<dim>64</dim>
					<dim>64</dim>
					<dim>1</dim>
					<dim>1</dim>
				</port>
			</input>
			<output>
				<port id="1" precision="FP16">
					<dim>64</dim>
					<dim>64</dim>
					<dim>1</dim>
					<dim>1</dim>
				</port>
			</output>
		</layer>
		<layer id="413" name="603/fq_weights_1/Copy/out_low14988_const" type="Const" version="opset1">
			<data element_type="f16" offset="9448" shape="1" size="2"/>
			<output>
				<port id="1" precision="FP16">
					<dim>1</dim>
				</port>
			</output>
		</layer>
		<layer id="414" name="603/fq_weights_1/Copy/out_high14989_const" type="Const" version="opset1">
			<data element_type="f16" offset="9450" shape="1" size="2"/>
			<output>
				<port id="1" precision="FP16">
					<dim>1</dim>
				</port>
			</output>
		</layer>
		<layer id="415" name="50235027_const" type="Const" version="opset1">
			<data element_type="f16" offset="64468" shape="64,1,1,1" size="128"/>
			<output>
				<port id="1" precision="FP16">
					<dim>64</dim>
					<dim>1</dim>
					<dim>1</dim>
					<dim>1</dim>
				</port>
			</output>
		</layer>
		<layer id="416" name="50245028_const" type="Const" version="opset1">
			<data element_type="f16" offset="64596" shape="64,1,1,1" size="128"/>
			<output>
				<port id="1" precision="FP16">
					<dim>64</dim>
					<dim>1</dim>
					<dim>1</dim>
					<dim>1</dim>
				</port>
			</output>
		</layer>
		<layer id="417" name="603/fq_weights_1" type="FakeQuantize" version="opset1">
			<data levels="255"/>
			<input>
				<port id="0">
					<dim>64</dim>
					<dim>64</dim>
					<dim>1</dim>
					<dim>1</dim>
				</port>
				<port id="1">
					<dim>1</dim>
				</port>
				<port id="2">
					<dim>1</dim>
				</port>
				<port id="3">
					<dim>64</dim>
					<dim>1</dim>
					<dim>1</dim>
					<dim>1</dim>
				</port>
				<port id="4">
					<dim>64</dim>
					<dim>1</dim>
					<dim>1</dim>
					<dim>1</dim>
				</port>
			</input>
			<output>
				<port id="5" precision="FP16">
					<dim>64</dim>
					<dim>64</dim>
					<dim>1</dim>
					<dim>1</dim>
				</port>
			</output>
		</layer>
		<layer id="418" name="603" type="Convolution" version="opset1">
			<data dilations="1,1" output_padding="0,0" pads_begin="0,0" pads_end="0,0" strides="1,1"/>
			<input>
				<port id="0">
					<dim>1</dim>
					<dim>64</dim>
					<dim>64</dim>
					<dim>32</dim>
				</port>
				<port id="1">
					<dim>64</dim>
					<dim>64</dim>
					<dim>1</dim>
					<dim>1</dim>
				</port>
			</input>
			<output>
				<port id="2" precision="FP16">
					<dim>1</dim>
					<dim>64</dim>
					<dim>64</dim>
					<dim>32</dim>
				</port>
			</output>
		</layer>
		<layer id="419" name="22282230_const" type="Const" version="opset1">
			<data element_type="f16" offset="9708" shape="1,64,1,1" size="128"/>
			<output>
				<port id="1" precision="FP16">
					<dim>1</dim>
					<dim>64</dim>
					<dim>1</dim>
					<dim>1</dim>
				</port>
			</output>
		</layer>
		<layer id="420" name="603/add_" type="Add" version="opset1">
			<input>
				<port id="0">
					<dim>1</dim>
…
		<edge from-layer="2589" from-port="1" to-layer="2594" to-port="0"/>
		<edge from-layer="2590" from-port="1" to-layer="2594" to-port="1"/>
		<edge from-layer="2591" from-port="1" to-layer="2594" to-port="2"/>
		<edge from-layer="2592" from-port="1" to-layer="2594" to-port="3"/>
		<edge from-layer="2593" from-port="1" to-layer="2594" to-port="4"/>
		<edge from-layer="2587" from-port="5" to-layer="2595" to-port="0"/>
		<edge from-layer="2594" from-port="5" to-layer="2595" to-port="1"/>
		<edge from-layer="2595" from-port="2" to-layer="2597" to-port="0"/>
		<edge from-layer="2596" from-port="1" to-layer="2597" to-port="1"/>
		<edge from-layer="2597" from-port="2" to-layer="2602" to-port="0"/>
		<edge from-layer="2598" from-port="1" to-layer="2602" to-port="1"/>
		<edge from-layer="2599" from-port="1" to-layer="2602" to-port="2"/>
		<edge from-layer="2600" from-port="1" to-layer="2602" to-port="3"/>
		<edge from-layer="2601" from-port="1" to-layer="2602" to-port="4"/>
		<edge from-layer="2603" from-port="1" to-layer="2604" to-port="0"/>
		<edge from-layer="2604" from-port="1" to-layer="2609" to-port="0"/>
		<edge from-layer="2605" from-port="1" to-layer="2609" to-port="1"/>
		<edge from-layer="2606" from-port="1" to-layer="2609" to-port="2"/>
		<edge from-layer="2607" from-port="1" to-layer="2609" to-port="3"/>
		<edge from-layer="2608" from-port="1" to-layer="2609" to-port="4"/>
		<edge from-layer="2131" from-port="5" to-layer="2610" to-port="0"/>
		<edge from-layer="2609" from-port="5" to-layer="2610" to-port="1"/>
		<edge from-layer="2610" from-port="2" to-layer="2612" to-port="0"/>
		<edge from-layer="2611" from-port="1" to-layer="2612" to-port="1"/>
		<edge from-layer="2612" from-port="2" to-layer="2617" to-port="0"/>
		<edge from-layer="2613" from-port="1" to-layer="2617" to-port="1"/>
		<edge from-layer="2614" from-port="1" to-layer="2617" to-port="2"/>
		<edge from-layer="2615" from-port="1" to-layer="2617" to-port="3"/>
		<edge from-layer="2616" from-port="1" to-layer="2617" to-port="4"/>
		<edge from-layer="2602" from-port="5" to-layer="2618" to-port="0"/>
		<edge from-layer="2617" from-port="5" to-layer="2618" to-port="1"/>
		<edge from-layer="2618" from-port="2" to-layer="2619" to-port="0"/>
		<edge from-layer="2619" from-port="1" to-layer="2624" to-port="0"/>
		<edge from-layer="2620" from-port="1" to-layer="2624" to-port="1"/>
		<edge from-layer="2621" from-port="1" to-layer="2624" to-port="2"/>
		<edge from-layer="2622" from-port="1" to-layer="2624" to-port="3"/>
		<edge from-layer="2623" from-port="1" to-layer="2624" to-port="4"/>
		<edge from-layer="2625" from-port="1" to-layer="2626" to-port="0"/>
		<edge from-layer="2626" from-port="1" to-layer="2631" to-port="0"/>
		<edge from-layer="2627" from-port="1" to-layer="2631" to-port="1"/>
		<edge from-layer="2628" from-port="1" to-layer="2631" to-port="2"/>
		<edge from-layer="2629" from-port="1" to-layer="2631" to-port="3"/>
		<edge from-layer="2630" from-port="1" to-layer="2631" to-port="4"/>
		<edge from-layer="2624" from-port="5" to-layer="2632" to-port="0"/>
		<edge from-layer="2631" from-port="5" to-layer="2632" to-port="1"/>
		<edge from-layer="2632" from-port="2" to-layer="2634" to-port="0"/>
		<edge from-layer="2633" from-port="1" to-layer="2634" to-port="1"/>
		<edge from-layer="2634" from-port="2" to-layer="2635" to-port="0"/>
		<edge from-layer="2635" from-port="1" to-layer="2640" to-port="0"/>
		<edge from-layer="2636" from-port="1" to-layer="2640" to-port="1"/>
		<edge from-layer="2637" from-port="1" to-layer="2640" to-port="2"/>
		<edge from-layer="2638" from-port="1" to-layer="2640" to-port="3"/>
		<edge from-layer="2639" from-port="1" to-layer="2640" to-port="4"/>
		<edge from-layer="2641" from-port="1" to-layer="2642" to-port="0"/>
		<edge from-layer="2642" from-port="1" to-layer="2647" to-port="0"/>
		<edge from-layer="2643" from-port="1" to-layer="2647" to-port="1"/>
		<edge from-layer="2644" from-port="1" to-layer="2647" to-port="2"/>
		<edge from-layer="2645" from-port="1" to-layer="2647" to-port="3"/>
		<edge from-layer="2646" from-port="1" to-layer="2647" to-port="4"/>
		<edge from-layer="2640" from-port="5" to-layer="2648" to-port="0"/>
		<edge from-layer="2647" from-port="5" to-layer="2648" to-port="1"/>
		<edge from-layer="2648" from-port="2" to-layer="2650" to-port="0"/>
		<edge from-layer="2649" from-port="1" to-layer="2650" to-port="1"/>
		<edge from-layer="2650" from-port="2" to-layer="2655" to-port="0"/>
		<edge from-layer="2651" from-port="1" to-layer="2655" to-port="1"/>
		<edge from-layer="2652" from-port="1" to-layer="2655" to-port="2"/>
		<edge from-layer="2653" from-port="1" to-layer="2655" to-port="3"/>
		<edge from-layer="2654" from-port="1" to-layer="2655" to-port="4"/>
		<edge from-layer="2656" from-port="1" to-layer="2657" to-port="0"/>
		<edge from-layer="2657" from-port="1" to-layer="2662" to-port="0"/>
		<edge from-layer="2658" from-port="1" to-layer="2662" to-port="1"/>
		<edge from-layer="2659" from-port="1" to-layer="2662" to-port="2"/>
		<edge from-layer="2660" from-port="1" to-layer="2662" to-port="3"/>
		<edge from-layer="2661" from-port="1" to-layer="2662" to-port="4"/>
		<edge from-layer="2662" from-port="5" to-layer="2664" to-port="0"/>
		<edge from-layer="2663" from-port="1" to-layer="2664" to-port="1"/>
		<edge from-layer="2655" from-port="5" to-layer="2665" to-port="0"/>
		<edge from-layer="2664" from-port="2" to-layer="2665" to-port="1"/>
		<edge from-layer="2665" from-port="2" to-layer="2667" to-port="0"/>
		<edge from-layer="2666" from-port="1" to-layer="2667" to-port="1"/>
		<edge from-layer="2667" from-port="2" to-layer="2668" to-port="0"/>
		<edge from-layer="2668" from-port="1" to-layer="2673" to-port="0"/>
		<edge from-layer="2669" from-port="1" to-layer="2673" to-port="1"/>
		<edge from-layer="2670" from-port="1" to-layer="2673" to-port="2"/>
		<edge from-layer="2671" from-port="1" to-layer="2673" to-port="3"/>
		<edge from-layer="2672" from-port="1" to-layer="2673" to-port="4"/>
		<edge from-layer="2673" from-port="5" to-layer="2675" to-port="0"/>
		<edge from-layer="2674" from-port="1" to-layer="2675" to-port="1"/>
		<edge from-layer="2675" from-port="2" to-layer="2680" to-port="0"/>
		<edge from-layer="2676" from-port="1" to-layer="2680" to-port="1"/>
		<edge from-layer="2677" from-port="1" to-layer="2680" to-port="2"/>
		<edge from-layer="2678" from-port="1" to-layer="2680" to-port="3"/>
		<edge from-layer="2679" from-port="1" to-layer="2680" to-port="4"/>
		<edge from-layer="2680" from-port="5" to-layer="2682" to-port="0"/>
		<edge from-layer="2681" from-port="1" to-layer="2682" to-port="1"/>
		<edge from-layer="2682" from-port="2" to-layer="2684" to-port="0"/>
		<edge from-layer="2683" from-port="1" to-layer="2684" to-port="1"/>
		<edge from-layer="2684" from-port="2" to-layer="2685" to-port="0"/>
		<edge from-layer="2685" from-port="1" to-layer="2690" to-port="0"/>
		<edge from-layer="2686" from-port="1" to-layer="2690" to-port="1"/>
		<edge from-layer="2687" from-port="1" to-layer="2690" to-port="2"/>
		<edge from-layer="2688" from-port="1" to-layer="2690" to-port="3"/>
		<edge from-layer="2689" from-port="1" to-layer="2690" to-port="4"/>
		<edge from-layer="2690" from-port="5" to-layer="2692" to-port="0"/>
		<edge from-layer="2691" from-port="1" to-layer="2692" to-port="1"/>
		<edge from-layer="2692" from-port="2" to-layer="2694" to-port="0"/>
		<edge from-layer="2693" from-port="1" to-layer="2694" to-port="1"/>
		<edge from-layer="2694" from-port="2" to-layer="2696" to-port="0"/>
		<edge from-layer="2695" from-port="1" to-layer="2696" to-port="1"/>
		<edge from-layer="2696" from-port="2" to-layer="2697" to-port="0"/>
		<edge from-layer="2697" from-port="1" to-layer="2702" to-port="0"/>
		<edge from-layer="2698" from-port="1" to-layer="2702" to-port="1"/>
		<edge from-layer="2699" from-port="1" to-layer="2702" to-port="2"/>
		<edge from-layer="2700" from-port="1" to-layer="2702" to-port="3"/>
		<edge from-layer="2701" from-port="1" to-layer="2702" to-port="4"/>
		<edge from-layer="2673" from-port="5" to-layer="2703" to-port="0"/>
		<edge from-layer="2702" from-port="5" to-layer="2703" to-port="1"/>
		<edge from-layer="2703" from-port="2" to-layer="2708" to-port="0"/>
		<edge from-layer="2704" from-port="1" to-layer="2708" to-port="1"/>
		<edge from-layer="2705" from-port="1" to-layer="2708" to-port="2"/>
		<edge from-layer="2706" from-port="1" to-layer="2708" to-port="3"/>
		<edge from-layer="2707" from-port="1" to-layer="2708" to-port="4"/>
		<edge from-layer="2709" from-port="1" to-layer="2710" to-port="0"/>
		<edge from-layer="2710" from-port="1" to-layer="2715" to-port="0"/>
		<edge from-layer="2711" from-port="1" to-layer="2715" to-port="1"/>
		<edge from-layer="2712" from-port="1" to-layer="2715" to-port="2"/>
		<edge from-layer="2713" from-port="1" to-layer="2715" to-port="3"/>
		<edge from-layer="2714" from-port="1" to-layer="2715" to-port="4"/>
		<edge from-layer="2640" from-port="5" to-layer="2716" to-port="0"/>
		<edge from-layer="2715" from-port="5" to-layer="2716" to-port="1"/>
		<edge from-layer="2716" from-port="2" to-layer="2718" to-port="0"/>
		<edge from-layer="2717" from-port="1" to-layer="2718" to-port="1"/>
		<edge from-layer="2718" from-port="2" to-layer="2723" to-port="0"/>
		<edge from-layer="2719" from-port="1" to-layer="2723" to-port="1"/>
		<edge from-layer="2720" from-port="1" to-layer="2723" to-port="2"/>
		<edge from-layer="2721" from-port="1" to-layer="2723" to-port="3"/>
		<edge from-layer="2722" from-port="1" to-layer="2723" to-port="4"/>
		<edge from-layer="2724" from-port="1" to-layer="2725" to-port="0"/>
		<edge from-layer="2725" from-port="1" to-layer="2730" to-port="0"/>
		<edge from-layer="2726" from-port="1" to-layer="2730" to-port="1"/>
		<edge from-layer="2727" from-port="1" to-layer="2730" to-port="2"/>
		<edge from-layer="2728" from-port="1" to-layer="2730" to-port="3"/>
		<edge from-layer="2729" from-port="1" to-layer="2730" to-port="4"/>
		<edge from-layer="2730" from-port="5" to-layer="2732" to-port="0"/>
		<edge from-layer="2731" from-port="1" to-layer="2732" to-port="1"/>
		<edge from-layer="2723" from-port="5" to-layer="2733" to-port="0"/>
		<edge from-layer="2732" from-port="2" to-layer="2733" to-port="1"/>
		<edge from-layer="2733" from-port="2" to-layer="2735" to-port="0"/>
		<edge from-layer="2734" from-port="1" to-layer="2735" to-port="1"/>
		<edge from-layer="2735" from-port="2" to-layer="2736" to-port="0"/>
		<edge from-layer="2736" from-port="1" to-layer="2741" to-port="0"/>
		<edge from-layer="2737" from-port="1" to-layer="2741" to-port="1"/>
		<edge from-layer="2738" from-port="1" to-layer="2741" to-port="2"/>
		<edge from-layer="2739" from-port="1" to-layer="2741" to-port="3"/>
		<edge from-layer="2740" from-port="1" to-layer="2741" to-port="4"/>
		<edge from-layer="2742" from-port="1" to-layer="2743" to-port="0"/>
		<edge from-layer="2743" from-port="1" to-layer="2748" to-port="0"/>
		<edge from-layer="2744" from-port="1" to-layer="2748" to-port="1"/>
		<edge from-layer="2745" from-port="1" to-layer="2748" to-port="2"/>
		<edge from-layer="2746" from-port="1" to-layer="2748" to-port="3"/>
		<edge from-layer="2747" from-port="1" to-layer="2748" to-port="4"/>
		<edge from-layer="2741" from-port="5" to-layer="2749" to-port="0"/>
		<edge from-layer="2748" from-port="5" to-layer="2749" to-port="1"/>
		<edge from-layer="2749" from-port="2" to-layer="2751" to-port="0"/>
		<edge from-layer="2750" from-port="1" to-layer="2751" to-port="1"/>
		<edge from-layer="2751" from-port="2" to-layer="2756" to-port="0"/>
		<edge from-layer="2752" from-port="1" to-layer="2756" to-port="1"/>
		<edge from-layer="2753" from-port="1" to-layer="2756" to-port="2"/>
		<edge from-layer="2754" from-port="1" to-layer="2756" to-port="3"/>
		<edge from-layer="2755" from-port="1" to-layer="2756" to-port="4"/>
		<edge from-layer="2757" from-port="1" to-layer="2758" to-port="0"/>
		<edge from-layer="2758" from-port="1" to-layer="2763" to-port="0"/>
		<edge from-layer="2759" from-port="1" to-layer="2763" to-port="1"/>
		<edge from-layer="2760" from-port="1" to-layer="2763" to-port="2"/>
		<edge from-layer="2761" from-port="1" to-layer="2763" to-port="3"/>
		<edge from-layer="2762" from-port="1" to-layer="2763" to-port="4"/>
		<edge from-layer="2763" from-port="5" to-layer="2765" to-port="0"/>
		<edge from-layer="2764" from-port="1" to-layer="2765" to-port="1"/>
		<edge from-layer="2756" from-port="5" to-layer="2766" to-port="0"/>
		<edge from-layer="2765" from-port="2" to-layer="2766" to-port="1"/>
		<edge from-layer="2766" from-port="2" to-layer="2768" to-port="0"/>
		<edge from-layer="2767" from-port="1" to-layer="2768" to-port="1"/>
		<edge from-layer="2768" from-port="2" to-layer="2769" to-port="0"/>
		<edge from-layer="2769" from-port="1" to-layer="2774" to-port="0"/>
		<edge from-layer="2770" from-port="1" to-layer="2774" to-port="1"/>
		<edge from-layer="2771" from-port="1" to-layer="2774" to-port="2"/>
		<edge from-layer="2772" from-port="1" to-layer="2774" to-port="3"/>
		<edge from-layer="2773" from-port="1" to-layer="2774" to-port="4"/>
		<edge from-layer="2774" from-port="5" to-layer="2776" to-port="0"/>
		<edge from-layer="2775" from-port="1" to-layer="2776" to-port="1"/>
		<edge from-layer="2776" from-port="2" to-layer="2781" to-port="0"/>
		<edge from-layer="2777" from-port="1" to-layer="2781" to-port="1"/>
		<edge from-layer="2778" from-port="1" to-layer="2781" to-port="2"/>
		<edge from-layer="2779" from-port="1" to-layer="2781" to-port="3"/>
		<edge from-layer="2780" from-port="1" to-layer="2781" to-port="4"/>
		<edge from-layer="2781" from-port="5" to-layer="2783" to-port="0"/>
		<edge from-layer="2782" from-port="1" to-layer="2783" to-port="1"/>
		<edge from-layer="2783" from-port="2" to-layer="2785" to-port="0"/>
		<edge from-layer="2784" from-port="1" to-layer="2785" to-port="1"/>
		<edge from-layer="2785" from-port="2" to-layer="2786" to-port="0"/>
		<edge from-layer="2786" from-port="1" to-layer="2791" to-port="0"/>
		<edge from-layer="2787" from-port="1" to-layer="2791" to-port="1"/>
		<edge from-layer="2788" from-port="1" to-layer="2791" to-port="2"/>
		<edge from-layer="2789" from-port="1" to-layer="2791" to-port="3"/>
		<edge from-layer="2790" from-port="1" to-layer="2791" to-port="4"/>
		<edge from-layer="2791" from-port="5" to-layer="2793" to-port="0"/>
		<edge from-layer="2792" from-port="1" to-layer="2793" to-port="1"/>
		<edge from-layer="2793" from-port="2" to-layer="2795" to-port="0"/>
		<edge from-layer="2794" from-port="1" to-layer="2795" to-port="1"/>
		<edge from-layer="2795" from-port="2" to-layer="2797" to-port="0"/>
		<edge from-layer="2796" from-port="1" to-layer="2797" to-port="1"/>
		<edge from-layer="2797" from-port="2" to-layer="2798" to-port="0"/>
		<edge from-layer="2798" from-port="1" to-layer="2803" to-port="0"/>
		<edge from-layer="2799" from-port="1" to-layer="2803" to-port="1"/>
		<edge from-layer="2800" from-port="1" to-layer="2803" to-port="2"/>
		<edge from-layer="2801" from-port="1" to-layer="2803" to-port="3"/>
		<edge from-layer="2802" from-port="1" to-layer="2803" to-port="4"/>
		<edge from-layer="2774" from-port="5" to-layer="2804" to-port="0"/>
		<edge from-layer="2803" from-port="5" to-layer="2804" to-port="1"/>
		<edge from-layer="2804" from-port="2" to-layer="2809" to-port="0"/>
		<edge from-layer="2805" from-port="1" to-layer="2809" to-port="1"/>
		<edge from-layer="2806" from-port="1" to-layer="2809" to-port="2"/>
		<edge from-layer="2807" from-port="1" to-layer="2809" to-port="3"/>
		<edge from-layer="2808" from-port="1" to-layer="2809" to-port="4"/>
		<edge from-layer="2708" from-port="5" to-layer="2810" to-port="0"/>
		<edge from-layer="2809" from-port="5" to-layer="2810" to-port="1"/>
		<edge from-layer="2810" from-port="2" to-layer="2815" to-port="0"/>
		<edge from-layer="2811" from-port="1" to-layer="2815" to-port="1"/>
		<edge from-layer="2812" from-port="1" to-layer="2815" to-port="2"/>
		<edge from-layer="2813" from-port="1" to-layer="2815" to-port="3"/>
		<edge from-layer="2814" from-port="1" to-layer="2815" to-port="4"/>
		<edge from-layer="2816" from-port="1" to-layer="2817" to-port="0"/>
		<edge from-layer="2817" from-port="1" to-layer="2822" to-port="0"/>
		<edge from-layer="2818" from-port="1" to-layer="2822" to-port="1"/>
		<edge from-layer="2819" from-port="1" to-layer="2822" to-port="2"/>
		<edge from-layer="2820" from-port="1" to-layer="2822" to-port="3"/>
		<edge from-layer="2821" from-port="1" to-layer="2822" to-port="4"/>
		<edge from-layer="2640" from-port="5" to-layer="2823" to-port="0"/>
		<edge from-layer="2822" from-port="5" to-layer="2823" to-port="1"/>
		<edge from-layer="2823" from-port="2" to-layer="2825" to-port="0"/>
		<edge from-layer="2824" from-port="1" to-layer="2825" to-port="1"/>
		<edge from-layer="2825" from-port="2" to-layer="2830" to-port="0"/>
		<edge from-layer="2826" from-port="1" to-layer="2830" to-port="1"/>
		<edge from-layer="2827" from-port="1" to-layer="2830" to-port="2"/>
		<edge from-layer="2828" from-port="1" to-layer="2830" to-port="3"/>
		<edge from-layer="2829" from-port="1" to-layer="2830" to-port="4"/>
		<edge from-layer="2831" from-port="1" to-layer="2832" to-port="0"/>
		<edge from-layer="2832" from-port="1" to-layer="2837" to-port="0"/>
		<edge from-layer="2833" from-port="1" to-layer="2837" to-port="1"/>
		<edge from-layer="2834" from-port="1" to-layer="2837" to-port="2"/>
		<edge from-layer="2835" from-port="1" to-layer="2837" to-port="3"/>
		<edge from-layer="2836" from-port="1" to-layer="2837" to-port="4"/>
		<edge from-layer="2837" from-port="5" to-layer="2839" to-port="0"/>
		<edge from-layer="2838" from-port="1" to-layer="2839" to-port="1"/>
		<edge from-layer="2830" from-port="5" to-layer="2840" to-port="0"/>
		<edge from-layer="2839" from-port="2" to-layer="2840" to-port="1"/>
		<edge from-layer="2840" from-port="2" to-layer="2842" to-port="0"/>
		<edge from-layer="2841" from-port="1" to-layer="2842" to-port="1"/>
		<edge from-layer="2842" from-port="2" to-layer="2843" to-port="0"/>
		<edge from-layer="2843" from-port="1" to-layer="2848" to-port="0"/>
		<edge from-layer="2844" from-port="1" to-layer="2848" to-port="1"/>
		<edge from-layer="2845" from-port="1" to-layer="2848" to-port="2"/>
		<edge from-layer="2846" from-port="1" to-layer="2848" to-port="3"/>
		<edge from-layer="2847" from-port="1" to-layer="2848" to-port="4"/>
		<edge from-layer="2849" from-port="1" to-layer="2850" to-port="0"/>
		<edge from-layer="2850" from-port="1" to-layer="2855" to-port="0"/>
		<edge from-layer="2851" from-port="1" to-layer="2855" to-port="1"/>
		<edge from-layer="2852" from-port="1" to-layer="2855" to-port="2"/>
		<edge from-layer="2853" from-port="1" to-layer="2855" to-port="3"/>
		<edge from-layer="2854" from-port="1" to-layer="2855" to-port="4"/>
		<edge from-layer="2848" from-port="5" to-layer="2856" to-port="0"/>
		<edge from-layer="2855" from-port="5" to-layer="2856" to-port="1"/>
		<edge from-layer="2856" from-port="2" to-layer="2858" to-port="0"/>
		<edge from-layer="2857" from-port="1" to-layer="2858" to-port="1"/>
		<edge from-layer="2858" from-port="2" to-layer="2863" to-port="0"/>
		<edge from-layer="2859" from-port="1" to-layer="2863" to-port="1"/>
		<edge from-layer="2860" from-port="1" to-layer="2863" to-port="2"/>
		<edge from-layer="2861" from-port="1" to-layer="2863" to-port="3"/>
		<edge from-layer="2862" from-port="1" to-layer="2863" to-port="4"/>
		<edge from-layer="2864" from-port="1" to-layer="2865" to-port="0"/>
		<edge from-layer="2865" from-port="1" to-layer="2870" to-port="0"/>
		<edge from-layer="2866" from-port="1" to-layer="2870" to-port="1"/>
		<edge from-layer="2867" from-port="1" to-layer="2870" to-port="2"/>
		<edge from-layer="2868" from-port="1" to-layer="2870" to-port="3"/>
		<edge from-layer="2869" from-port="1" to-layer="2870" to-port="4"/>
		<edge from-layer="2870" from-port="5" to-layer="2872" to-port="0"/>
		<edge from-layer="2871" from-port="1" to-layer="2872" to-port="1"/>
		<edge from-layer="2863" from-port="5" to-layer="2873" to-port="0"/>
		<edge from-layer="2872" from-port="2" to-layer="2873" to-port="1"/>
		<edge from-layer="2873" from-port="2" to-layer="2875" to-port="0"/>
		<edge from-layer="2874" from-port="1" to-layer="2875" to-port="1"/>
		<edge from-layer="2875" from-port="2" to-layer="2876" to-port="0"/>
		<edge from-layer="2876" from-port="1" to-layer="2881" to-port="0"/>
		<edge from-layer="2877" from-port="1" to-layer="2881" to-port="1"/>
		<edge from-layer="2878" from-port="1" to-layer="2881" to-port="2"/>
		<edge from-layer="2879" from-port="1" to-layer="2881" to-port="3"/>
		<edge from-layer="2880" from-port="1" to-layer="2881" to-port="4"/>
		<edge from-layer="2882" from-port="1" to-layer="2883" to-port="0"/>
		<edge from-layer="2883" from-port="1" to-layer="2888" to-port="0"/>
		<edge from-layer="2884" from-port="1" to-layer="2888" to-port="1"/>
		<edge from-layer="2885" from-port="1" to-layer="2888" to-port="2"/>
		<edge from-layer="2886" from-port="1" to-layer="2888" to-port="3"/>
		<edge from-layer="2887" from-port="1" to-layer="2888" to-port="4"/>
		<edge from-layer="2881" from-port="5" to-layer="2889" to-port="0"/>
		<edge from-layer="2888" from-port="5" to-layer="2889" to-port="1"/>
		<edge from-layer="2889" from-port="2" to-layer="2891" to-port="0"/>
		<edge from-layer="2890" from-port="1" to-layer="2891" to-port="1"/>
		<edge from-layer="2891" from-port="2" to-layer="2896" to-port="0"/>
		<edge from-layer="2892" from-port="1" to-layer="2896" to-port="1"/>
		<edge from-layer="2893" from-port="1" to-layer="2896" to-port="2"/>
		<edge from-layer="2894" from-port="1" to-layer="2896" to-port="3"/>
		<edge from-layer="2895" from-port="1" to-layer="2896" to-port="4"/>
		<edge from-layer="2897" from-port="1" to-layer="2898" to-port="0"/>
		<edge from-layer="2898" from-port="1" to-layer="2903" to-port="0"/>
		<edge from-layer="2899" from-port="1" to-layer="2903" to-port="1"/>
		<edge from-layer="2900" from-port="1" to-layer="2903" to-port="2"/>
		<edge from-layer="2901" from-port="1" to-layer="2903" to-port="3"/>
		<edge from-layer="2902" from-port="1" to-layer="2903" to-port="4"/>
		<edge from-layer="2903" from-port="5" to-layer="2905" to-port="0"/>
		<edge from-layer="2904" from-port="1" to-layer="2905" to-port="1"/>
		<edge from-layer="2896" from-port="5" to-layer="2906" to-port="0"/>
		<edge from-layer="2905" from-port="2" to-layer="2906" to-port="1"/>
		<edge from-layer="2906" from-port="2" to-layer="2908" to-port="0"/>
		<edge from-layer="2907" from-port="1" to-layer="2908" to-port="1"/>
		<edge from-layer="2908" from-port="2" to-layer="2909" to-port="0"/>
		<edge from-layer="2909" from-port="1" to-layer="2914" to-port="0"/>
		<edge from-layer="2910" from-port="1" to-layer="2914" to-port="1"/>
		<edge from-layer="2911" from-port="1" to-layer="2914" to-port="2"/>
		<edge from-layer="2912" from-port="1" to-layer="2914" to-port="3"/>
		<edge from-layer="2913" from-port="1" to-layer="2914" to-port="4"/>
		<edge from-layer="2914" from-port="5" to-layer="2916" to-port="0"/>
		<edge from-layer="2915" from-port="1" to-layer="2916" to-port="1"/>
		<edge from-layer="2916" from-port="2" to-layer="2921" to-port="0"/>
		<edge from-layer="2917" from-port="1" to-layer="2921" to-port="1"/>
		<edge from-layer="2918" from-port="1" to-layer="2921" to-port="2"/>
		<edge from-layer="2919" from-port="1" to-layer="2921" to-port="3"/>
		<edge from-layer="2920" from-port="1" to-layer="2921" to-port="4"/>
		<edge from-layer="2921" from-port="5" to-layer="2923" to-port="0"/>
		<edge from-layer="2922" from-port="1" to-layer="2923" to-port="1"/>
		<edge from-layer="2923" from-port="2" to-layer="2925" to-port="0"/>
		<edge from-layer="2924" from-port="1" to-layer="2925" to-port="1"/>
		<edge from-layer="2925" from-port="2" to-layer="2926" to-port="0"/>
		<edge from-layer="2926" from-port="1" to-layer="2931" to-port="0"/>
		<edge from-layer="2927" from-port="1" to-layer="2931" to-port="1"/>
		<edge from-layer="2928" from-port="1" to-layer="2931" to-port="2"/>
		<edge from-layer="2929" from-port="1" to-layer="2931" to-port="3"/>
		<edge from-layer="2930" from-port="1" to-layer="2931" to-port="4"/>
		<edge from-layer="2931" from-port="5" to-layer="2933" to-port="0"/>
		<edge from-layer="2932" from-port="1" to-layer="2933" to-port="1"/>
		<edge from-layer="2933" from-port="2" to-layer="2935" to-port="0"/>
		<edge from-layer="2934" from-port="1" to-layer="2935" to-port="1"/>
		<edge from-layer="2935" from-port="2" to-layer="2937" to-port="0"/>
		<edge from-layer="2936" from-port="1" to-layer="2937" to-port="1"/>
		<edge from-layer="2937" from-port="2" to-layer="2938" to-port="0"/>
		<edge from-layer="2938" from-port="1" to-layer="2943" to-port="0"/>
		<edge from-layer="2939" from-port="1" to-layer="2943" to-port="1"/>
		<edge from-layer="2940" from-port="1" to-layer="2943" to-port="2"/>
		<edge from-layer="2941" from-port="1" to-layer="2943" to-port="3"/>
		<edge from-layer="2942" from-port="1" to-layer="2943" to-port="4"/>
		<edge from-layer="2914" from-port="5" to-layer="2944" to-port="0"/>
		<edge from-layer="2943" from-port="5" to-layer="2944" to-port="1"/>
		<edge from-layer="2944" from-port="2" to-layer="2949" to-port="0"/>
		<edge from-layer="2945" from-port="1" to-layer="2949" to-port="1"/>
		<edge from-layer="2946" from-port="1" to-layer="2949" to-port="2"/>
		<edge from-layer="2947" from-port="1" to-layer="2949" to-port="3"/>
		<edge from-layer="2948" from-port="1" to-layer="2949" to-port="4"/>
		<edge from-layer="2815" from-port="5" to-layer="2950" to-port="0"/>
		<edge from-layer="2949" from-port="5" to-layer="2950" to-port="1"/>
		<edge from-layer="2950" from-port="2" to-layer="2955" to-port="0"/>
		<edge from-layer="2951" from-port="1" to-layer="2955" to-port="1"/>
		<edge from-layer="2952" from-port="1" to-layer="2955" to-port="2"/>
		<edge from-layer="2953" from-port="1" to-layer="2955" to-port="3"/>
		<edge from-layer="2954" from-port="1" to-layer="2955" to-port="4"/>
		<edge from-layer="2956" from-port="1" to-layer="2957" to-port="0"/>
		<edge from-layer="2957" from-port="1" to-layer="2962" to-port="0"/>
		<edge from-layer="2958" from-port="1" to-layer="2962" to-port="1"/>
		<edge from-layer="2959" from-port="1" to-layer="2962" to-port="2"/>
		<edge from-layer="2960" from-port="1" to-layer="2962" to-port="3"/>
		<edge from-layer="2961" from-port="1" to-layer="2962" to-port="4"/>
		<edge from-layer="2640" from-port="5" to-layer="2963" to-port="0"/>
		<edge from-layer="2962" from-port="5" to-layer="2963" to-port="1"/>
		<edge from-layer="2963" from-port="2" to-layer="2965" to-port="0"/>
		<edge from-layer="2964" from-port="1" to-layer="2965" to-port="1"/>
		<edge from-layer="2965" from-port="2" to-layer="2970" to-port="0"/>
		<edge from-layer="2966" from-port="1" to-layer="2970" to-port="1"/>
		<edge from-layer="2967" from-port="1" to-layer="2970" to-port="2"/>
		<edge from-layer="2968" from-port="1" to-layer="2970" to-port="3"/>
		<edge from-layer="2969" from-port="1" to-layer="2970" to-port="4"/>
		<edge from-layer="2971" from-port="1" to-layer="2972" to-port="0"/>
		<edge from-layer="2972" from-port="1" to-layer="2977" to-port="0"/>
		<edge from-layer="2973" from-port="1" to-layer="2977" to-port="1"/>
		<edge from-layer="2974" from-port="1" to-layer="2977" to-port="2"/>
		<edge from-layer="2975" from-port="1" to-layer="2977" to-port="3"/>
		<edge from-layer="2976" from-port="1" to-layer="2977" to-port="4"/>
		<edge from-layer="2977" from-port="5" to-layer="2979" to-port="0"/>
		<edge from-layer="2978" from-port="1" to-layer="2979" to-port="1"/>
		<edge from-layer="2970" from-port="5" to-layer="2980" to-port="0"/>
		<edge from-layer="2979" from-port="2" to-layer="2980" to-port="1"/>
		<edge from-layer="2980" from-port="2" to-layer="2982" to-port="0"/>
		<edge from-layer="2981" from-port="1" to-layer="2982" to-port="1"/>
		<edge from-layer="2982" from-port="2" to-layer="2983" to-port="0"/>
		<edge from-layer="2983" from-port="1" to-layer="2988" to-port="0"/>
		<edge from-layer="2984" from-port="1" to-layer="2988" to-port="1"/>
		<edge from-layer="2985" from-port="1" to-layer="2988" to-port="2"/>
		<edge from-layer="2986" from-port="1" to-layer="2988" to-port="3"/>
		<edge from-layer="2987" from-port="1" to-layer="2988" to-port="4"/>
		<edge from-layer="2989" from-port="1" to-layer="2990" to-port="0"/>
		<edge from-layer="2990" from-port="1" to-layer="2995" to-port="0"/>
		<edge from-layer="2991" from-port="1" to-layer="2995" to-port="1"/>
		<edge from-layer="2992" from-port="1" to-layer="2995" to-port="2"/>
		<edge from-layer="2993" from-port="1" to-layer="2995" to-port="3"/>
		<edge from-layer="2994" from-port="1" to-layer="2995" to-port="4"/>
		<edge from-layer="2988" from-port="5" to-layer="2996" to-port="0"/>
		<edge from-layer="2995" from-port="5" to-layer="2996" to-port="1"/>
		<edge from-layer="2996" from-port="2" to-layer="2998" to-port="0"/>
		<edge from-layer="2997" from-port="1" to-layer="2998" to-port="1"/>
		<edge from-layer="2998" from-port="2" to-layer="3003" to-port="0"/>
		<edge from-layer="2999" from-port="1" to-layer="3003" to-port="1"/>
		<edge from-layer="3000" from-port="1" to-layer="3003" to-port="2"/>
		<edge from-layer="3001" from-port="1" to-layer="3003" to-port="3"/>
		<edge from-layer="3002" from-port="1" to-layer="3003" to-port="4"/>
		<edge from-layer="3004" from-port="1" to-layer="3005" to-port="0"/>
		<edge from-layer="3005" from-port="1" to-layer="3010" to-port="0"/>
		<edge from-layer="3006" from-port="1" to-layer="3010" to-port="1"/>
		<edge from-layer="3007" from-port="1" to-layer="3010" to-port="2"/>
		<edge from-layer="3008" from-port="1" to-layer="3010" to-port="3"/>
		<edge from-layer="3009" from-port="1" to-layer="3010" to-port="4"/>
		<edge from-layer="3010" from-port="5" to-layer="3012" to-port="0"/>
		<edge from-layer="3011" from-port="1" to-layer="3012" to-port="1"/>
		<edge from-layer="3003" from-port="5" to-layer="3013" to-port="0"/>
		<edge from-layer="3012" from-port="2" to-layer="3013" to-port="1"/>
		<edge from-layer="3013" from-port="2" to-layer="3015" to-port="0"/>
		<edge from-layer="3014" from-port="1" to-layer="3015" to-port="1"/>
		<edge from-layer="3015" from-port="2" to-layer="3016" to-port="0"/>
		<edge from-layer="3016" from-port="1" to-layer="3021" to-port="0"/>
		<edge from-layer="3017" from-port="1" to-layer="3021" to-port="1"/>
		<edge from-layer="3018" from-port="1" to-layer="3021" to-port="2"/>
		<edge from-layer="3019" from-port="1" to-layer="3021" to-port="3"/>
		<edge from-layer="3020" from-port="1" to-layer="3021" to-port="4"/>
		<edge from-layer="3022" from-port="1" to-layer="3023" to-port="0"/>
		<edge from-layer="3023" from-port="1" to-layer="3028" to-port="0"/>
		<edge from-layer="3024" from-port="1" to-layer="3028" to-port="1"/>
		<edge from-layer="3025" from-port="1" to-layer="3028" to-port="2"/>
		<edge from-layer="3026" from-port="1" to-layer="3028" to-port="3"/>
		<edge from-layer="3027" from-port="1" to-layer="3028" to-port="4"/>
		<edge from-layer="3021" from-port="5" to-layer="3029" to-port="0"/>
		<edge from-layer="3028" from-port="5" to-layer="3029" to-port="1"/>
		<edge from-layer="3029" from-port="2" to-layer="3031" to-port="0"/>
		<edge from-layer="3030" from-port="1" to-layer="3031" to-port="1"/>
		<edge from-layer="3031" from-port="2" to-layer="3036" to-port="0"/>
		<edge from-layer="3032" from-port="1" to-layer="3036" to-port="1"/>
		<edge from-layer="3033" from-port="1" to-layer="3036" to-port="2"/>
		<edge from-layer="3034" from-port="1" to-layer="3036" to-port="3"/>
		<edge from-layer="3035" from-port="1" to-layer="3036" to-port="4"/>
		<edge from-layer="3037" from-port="1" to-layer="3038" to-port="0"/>
		<edge from-layer="3038" from-port="1" to-layer="3043" to-port="0"/>
		<edge from-layer="3039" from-port="1" to-layer="3043" to-port="1"/>
		<edge from-layer="3040" from-port="1" to-layer="3043" to-port="2"/>
		<edge from-layer="3041" from-port="1" to-layer="3043" to-port="3"/>
		<edge from-layer="3042" from-port="1" to-layer="3043" to-port="4"/>
		<edge from-layer="3043" from-port="5" to-layer="3045" to-port="0"/>
		<edge from-layer="3044" from-port="1" to-layer="3045" to-port="1"/>
		<edge from-layer="3036" from-port="5" to-layer="3046" to-port="0"/>
		<edge from-layer="3045" from-port="2" to-layer="3046" to-port="1"/>
		<edge from-layer="3046" from-port="2" to-layer="3048" to-port="0"/>
		<edge from-layer="3047" from-port="1" to-layer="3048" to-port="1"/>
		<edge from-layer="3048" from-port="2" to-layer="3049" to-port="0"/>
		<edge from-layer="3049" from-port="1" to-layer="3054" to-port="0"/>
		<edge from-layer="3050" from-port="1" to-layer="3054" to-port="1"/>
		<edge from-layer="3051" from-port="1" to-layer="3054" to-port="2"/>
		<edge from-layer="3052" from-port="1" to-layer="3054" to-port="3"/>
		<edge from-layer="3053" from-port="1" to-layer="3054" to-port="4"/>
		<edge from-layer="3055" from-port="1" to-layer="3056" to-port="0"/>
		<edge from-layer="3056" from-port="1" to-layer="3061" to-port="0"/>
		<edge from-layer="3057" from-port="1" to-layer="3061" to-port="1"/>
		<edge from-layer="3058" from-port="1" to-layer="3061" to-port="2"/>
		<edge from-layer="3059" from-port="1" to-layer="3061" to-port="3"/>
		<edge from-layer="3060" from-port="1" to-layer="3061" to-port="4"/>
		<edge from-layer="3054" from-port="5" to-layer="3062" to-port="0"/>
		<edge from-layer="3061" from-port="5" to-layer="3062" to-port="1"/>
		<edge from-layer="3062" from-port="2" to-layer="3064" to-port="0"/>
		<edge from-layer="3063" from-port="1" to-layer="3064" to-port="1"/>
		<edge from-layer="3064" from-port="2" to-layer="3069" to-port="0"/>
		<edge from-layer="3065" from-port="1" to-layer="3069" to-port="1"/>
		<edge from-layer="3066" from-port="1" to-layer="3069" to-port="2"/>
		<edge from-layer="3067" from-port="1" to-layer="3069" to-port="3"/>
		<edge from-layer="3068" from-port="1" to-layer="3069" to-port="4"/>
		<edge from-layer="3070" from-port="1" to-layer="3071" to-port="0"/>
		<edge from-layer="3071" from-port="1" to-layer="3076" to-port="0"/>
		<edge from-layer="3072" from-port="1" to-layer="3076" to-port="1"/>
		<edge from-layer="3073" from-port="1" to-layer="3076" to-port="2"/>
		<edge from-layer="3074" from-port="1" to-layer="3076" to-port="3"/>
		<edge from-layer="3075" from-port="1" to-layer="3076" to-port="4"/>
		<edge from-layer="3076" from-port="5" to-layer="3078" to-port="0"/>
		<edge from-layer="3077" from-port="1" to-layer="3078" to-port="1"/>
		<edge from-layer="3069" from-port="5" to-layer="3079" to-port="0"/>
		<edge from-layer="3078" from-port="2" to-layer="3079" to-port="1"/>
		<edge from-layer="3079" from-port="2" to-layer="3081" to-port="0"/>
		<edge from-layer="3080" from-port="1" to-layer="3081" to-port="1"/>
		<edge from-layer="3081" from-port="2" to-layer="3082" to-port="0"/>
		<edge from-layer="3082" from-port="1" to-layer="3087" to-port="0"/>
		<edge from-layer="3083" from-port="1" to-layer="3087" to-port="1"/>
		<edge from-layer="3084" from-port="1" to-layer="3087" to-port="2"/>
		<edge from-layer="3085" from-port="1" to-layer="3087" to-port="3"/>
		<edge from-layer="3086" from-port="1" to-layer="3087" to-port="4"/>
		<edge from-layer="3087" from-port="5" to-layer="3089" to-port="0"/>
		<edge from-layer="3088" from-port="1" to-layer="3089" to-port="1"/>
		<edge from-layer="3089" from-port="2" to-layer="3094" to-port="0"/>
		<edge from-layer="3090" from-port="1" to-layer="3094" to-port="1"/>
		<edge from-layer="3091" from-port="1" to-layer="3094" to-port="2"/>
		<edge from-layer="3092" from-port="1" to-layer="3094" to-port="3"/>
		<edge from-layer="3093" from-port="1" to-layer="3094" to-port="4"/>
		<edge from-layer="3094" from-port="5" to-layer="3096" to-port="0"/>
		<edge from-layer="3095" from-port="1" to-layer="3096" to-port="1"/>
		<edge from-layer="3096" from-port="2" to-layer="3098" to-port="0"/>
		<edge from-layer="3097" from-port="1" to-layer="3098" to-port="1"/>
		<edge from-layer="3098" from-port="2" to-layer="3099" to-port="0"/>
		<edge from-layer="3099" from-port="1" to-layer="3104" to-port="0"/>
		<edge from-layer="3100" from-port="1" to-layer="3104" to-port="1"/>
		<edge from-layer="3101" from-port="1" to-layer="3104" to-port="2"/>
		<edge from-layer="3102" from-port="1" to-layer="3104" to-port="3"/>
		<edge from-layer="3103" from-port="1" to-layer="3104" to-port="4"/>
		<edge from-layer="3104" from-port="5" to-layer="3106" to-port="0"/>
		<edge from-layer="3105" from-port="1" to-layer="3106" to-port="1"/>
		<edge from-layer="3106" from-port="2" to-layer="3108" to-port="0"/>
		<edge from-layer="3107" from-port="1" to-layer="3108" to-port="1"/>
		<edge from-layer="3108" from-port="2" to-layer="3110" to-port="0"/>
		<edge from-layer="3109" from-port="1" to-layer="3110" to-port="1"/>
		<edge from-layer="3110" from-port="2" to-layer="3111" to-port="0"/>
		<edge from-layer="3111" from-port="1" to-layer="3116" to-port="0"/>
		<edge from-layer="3112" from-port="1" to-layer="3116" to-port="1"/>
		<edge from-layer="3113" from-port="1" to-layer="3116" to-port="2"/>
		<edge from-layer="3114" from-port="1" to-layer="3116" to-port="3"/>
		<edge from-layer="3115" from-port="1" to-layer="3116" to-port="4"/>
		<edge from-layer="3087" from-port="5" to-layer="3117" to-port="0"/>
		<edge from-layer="3116" from-port="5" to-layer="3117" to-port="1"/>
		<edge from-layer="3117" from-port="2" to-layer="3122" to-port="0"/>
		<edge from-layer="3118" from-port="1" to-layer="3122" to-port="1"/>
		<edge from-layer="3119" from-port="1" to-layer="3122" to-port="2"/>
		<edge from-layer="3120" from-port="1" to-layer="3122" to-port="3"/>
		<edge from-layer="3121" from-port="1" to-layer="3122" to-port="4"/>
		<edge from-layer="2955" from-port="5" to-layer="3123" to-port="0"/>
		<edge from-layer="3122" from-port="5" to-layer="3123" to-port="1"/>
		<edge from-layer="3123" from-port="2" to-layer="3128" to-port="0"/>
		<edge from-layer="3124" from-port="1" to-layer="3128" to-port="1"/>
		<edge from-layer="3125" from-port="1" to-layer="3128" to-port="2"/>
		<edge from-layer="3126" from-port="1" to-layer="3128" to-port="3"/>
		<edge from-layer="3127" from-port="1" to-layer="3128" to-port="4"/>
		<edge from-layer="3129" from-port="1" to-layer="3130" to-port="0"/>
		<edge from-layer="3130" from-port="1" to-layer="3135" to-port="0"/>
		<edge from-layer="3131" from-port="1" to-layer="3135" to-port="1"/>
		<edge from-layer="3132" from-port="1" to-layer="3135" to-port="2"/>
		<edge from-layer="3133" from-port="1" to-layer="3135" to-port="3"/>
		<edge from-layer="3134" from-port="1" to-layer="3135" to-port="4"/>
		<edge from-layer="3128" from-port="5" to-layer="3136" to-port="0"/>
		<edge from-layer="3135" from-port="5" to-layer="3136" to-port="1"/>
		<edge from-layer="3136" from-port="2" to-layer="3138" to-port="0"/>
		<edge from-layer="3137" from-port="1" to-layer="3138" to-port="1"/>
		<edge from-layer="3138" from-port="2" to-layer="3143" to-port="0"/>
		<edge from-layer="3139" from-port="1" to-layer="3143" to-port="1"/>
		<edge from-layer="3140" from-port="1" to-layer="3143" to-port="2"/>
		<edge from-layer="3141" from-port="1" to-layer="3143" to-port="3"/>
		<edge from-layer="3142" from-port="1" to-layer="3143" to-port="4"/>
		<edge from-layer="3143" from-port="5" to-layer="3144" to-port="0"/>
		<edge from-layer="2624" from-port="5" to-layer="3144" to-port="1"/>
		<edge from-layer="3144" from-port="2" to-layer="3145" to-port="0"/>
		<edge from-layer="3145" from-port="1" to-layer="3150" to-port="0"/>
		<edge from-layer="3146" from-port="1" to-layer="3150" to-port="1"/>
		<edge from-layer="3147" from-port="1" to-layer="3150" to-port="2"/>
		<edge from-layer="3148" from-port="1" to-layer="3150" to-port="3"/>
		<edge from-layer="3149" from-port="1" to-layer="3150" to-port="4"/>
		<edge from-layer="3151" from-port="1" to-layer="3152" to-port="0"/>
		<edge from-layer="3152" from-port="1" to-layer="3157" to-port="0"/>
		<edge from-layer="3153" from-port="1" to-layer="3157" to-port="1"/>
		<edge from-layer="3154" from-port="1" to-layer="3157" to-port="2"/>
		<edge from-layer="3155" from-port="1" to-layer="3157" to-port="3"/>
		<edge from-layer="3156" from-port="1" to-layer="3157" to-port="4"/>
		<edge from-layer="3150" from-port="5" to-layer="3158" to-port="0"/>
		<edge from-layer="3157" from-port="5" to-layer="3158" to-port="1"/>
		<edge from-layer="3158" from-port="2" to-layer="3160" to-port="0"/>
		<edge from-layer="3159" from-port="1" to-layer="3160" to-port="1"/>
		<edge from-layer="3160" from-port="2" to-layer="3161" to-port="0"/>
		<edge from-layer="3161" from-port="1" to-layer="3166" to-port="0"/>
		<edge from-layer="3162" from-port="1" to-layer="3166" to-port="1"/>
		<edge from-layer="3163" from-port="1" to-layer="3166" to-port="2"/>
		<edge from-layer="3164" from-port="1" to-layer="3166" to-port="3"/>
		<edge from-layer="3165" from-port="1" to-layer="3166" to-port="4"/>
		<edge from-layer="3167" from-port="1" to-layer="3168" to-port="0"/>
		<edge from-layer="3168" from-port="1" to-layer="3173" to-port="0"/>
		<edge from-layer="3169" from-port="1" to-layer="3173" to-port="1"/>
		<edge from-layer="3170" from-port="1" to-layer="3173" to-port="2"/>
		<edge from-layer="3171" from-port="1" to-layer="3173" to-port="3"/>
		<edge from-layer="3172" from-port="1" to-layer="3173" to-port="4"/>
		<edge from-layer="3173" from-port="5" to-layer="3175" to-port="0"/>
		<edge from-layer="3174" from-port="1" to-layer="3175" to-port="1"/>
		<edge from-layer="3166" from-port="5" to-layer="3176" to-port="0"/>
		<edge from-layer="3175" from-port="2" to-layer="3176" to-port="1"/>
		<edge from-layer="3176" from-port="2" to-layer="3178" to-port="0"/>
		<edge from-layer="3177" from-port="1" to-layer="3178" to-port="1"/>
		<edge from-layer="3178" from-port="2" to-layer="3183" to-port="0"/>
		<edge from-layer="3179" from-port="1" to-layer="3183" to-port="1"/>
		<edge from-layer="3180" from-port="1" to-layer="3183" to-port="2"/>
		<edge from-layer="3181" from-port="1" to-layer="3183" to-port="3"/>
		<edge from-layer="3182" from-port="1" to-layer="3183" to-port="4"/>
		<edge from-layer="3183" from-port="5" to-layer="3185" to-port="0"/>
		<edge from-layer="3184" from-port="1" to-layer="3185" to-port="1"/>
		<edge from-layer="3186" from-port="1" to-layer="3187" to-port="0"/>
		<edge from-layer="3187" from-port="1" to-layer="3192" to-port="0"/>
		<edge from-layer="3188" from-port="1" to-layer="3192" to-port="1"/>
		<edge from-layer="3189" from-port="1" to-layer="3192" to-port="2"/>
		<edge from-layer="3190" from-port="1" to-layer="3192" to-port="3"/>
		<edge from-layer="3191" from-port="1" to-layer="3192" to-port="4"/>
		<edge from-layer="3185" from-port="2" to-layer="3193" to-port="0"/>
		<edge from-layer="3192" from-port="5" to-layer="3193" to-port="1"/>
		<edge from-layer="3193" from-port="2" to-layer="3195" to-port="0"/>
		<edge from-layer="3194" from-port="1" to-layer="3195" to-port="1"/>
		<edge from-layer="3195" from-port="2" to-layer="3200" to-port="0"/>
		<edge from-layer="3196" from-port="1" to-layer="3200" to-port="1"/>
		<edge from-layer="3197" from-port="1" to-layer="3200" to-port="2"/>
		<edge from-layer="3198" from-port="1" to-layer="3200" to-port="3"/>
		<edge from-layer="3199" from-port="1" to-layer="3200" to-port="4"/>
		<edge from-layer="3200" from-port="5" to-layer="3202" to-port="0"/>
		<edge from-layer="3201" from-port="1" to-layer="3202" to-port="1"/>
		<edge from-layer="3202" from-port="2" to-layer="3204" to-port="0"/>
		<edge from-layer="3203" from-port="1" to-layer="3204" to-port="1"/>
		<edge from-layer="3204" from-port="2" to-layer="3206" to-port="0"/>
		<edge from-layer="3205" from-port="1" to-layer="3206" to-port="1"/>
		<edge from-layer="3206" from-port="2" to-layer="3208" to-port="0"/>
		<edge from-layer="3207" from-port="1" to-layer="3208" to-port="1"/>
		<edge from-layer="3208" from-port="2" to-layer="3210" to-port="0"/>
		<edge from-layer="3209" from-port="1" to-layer="3210" to-port="1"/>
		<edge from-layer="3210" from-port="2" to-layer="3211" to-port="0"/>
	</edges>
	<meta_data>
		<MO_version value="unknown version"/>
		<cli_parameters>
			<blobs_as_inputs value="True"/>
			<caffe_parser_path value="DIR"/>
			<data_type value="FP16"/>
			<disable_nhwc_to_nchw value="False"/>
			<disable_omitting_optional value="False"/>
			<disable_resnet_optimization value="False"/>
			<disable_weights_compression value="False"/>
			<enable_concat_optimization value="False"/>
			<enable_flattening_nested_params value="False"/>
			<enable_ssd_gluoncv value="False"/>
			<extensions value="DIR"/>
			<framework value="onnx"/>
			<freeze_placeholder_with_value value="{}"/>
			<generate_deprecated_IR_V2 value="False"/>
			<generate_deprecated_IR_V7 value="False"/>
			<generate_experimental_IR_V10 value="True"/>
			<input value="data"/>
			<input_model value="DIR/person-reidentification-retail-0265.onnx"/>
			<input_model_is_text value="False"/>
			<input_shape value="[1,3,256,128]"/>
			<k value="DIR/CustomLayersMapping.xml"/>
			<keep_quantize_ops_in_IR value="True"/>
			<keep_shape_ops value="False"/>
			<legacy_mxnet_model value="False"/>
			<log_level value="ERROR"/>
			<mean_scale_values value="{'data': {'mean': array([123.675, 116.28 , 103.53 ]), 'scale': array([58.395, 57.12 , 57.375])}}"/>
			<mean_values value="data[123.675,116.28,103.53]"/>
			<model_name value="person-reidentification-retail-0265"/>
			<move_to_preprocess value="False"/>
			<output value="['reid_embedding']"/>
			<output_dir value="DIR"/>
			<placeholder_data_types value="{}"/>
			<placeholder_shapes value="{'data': array([  1,   3, 256, 128])}"/>
			<progress value="False"/>
			<remove_memory value="False"/>
			<remove_output_softmax value="False"/>
			<reverse_input_channels value="True"/>
			<save_params_from_nd value="False"/>
			<scale_values value="data[58.395,57.12,57.375]"/>
			<silent value="False"/>
			<stream_output value="False"/>
			<unset unset_cli_parameters="batch, counts, disable_fusing, disable_gfusing, finegrain_fusing, input_checkpoint, input_meta_graph, input_proto, input_symbol, mean_file, mean_file_offsets, nd_prefix_name, pretrained_model_name, saved_model_dir, saved_model_tags, scale, tensorboard_logdir, tensorflow_custom_layer_libraries, tensorflow_custom_operations_config_update, tensorflow_object_detection_api_pipeline_config, tensorflow_use_custom_operations_config, transformations_config"/>
		</cli_parameters>
	</meta_data>
	<quantization_parameters>
		<config>{
		'compression': {
			'algorithms': [
				{
					'name': 'DefaultQuantization',
					'params': {
						'preset': 'performance',
						'stat_subset_size': 300
					}
				}
			],
			'target_device': 'CPU'
		},
		'engine': {
			'models': [
				{
					'name': 'person-reidentification-retail-0265',
					'launchers': [
						{
							'framework': 'dlsdk',
							'tags': [
								'FP32'
							],
							'model': 'PATH',
							'weights': 'PATH',
							'adapter': 'reid',
							'device': 'CPU'
						}
					],
					'datasets': [
						{
							'name': 'market1501',
							'data_source': 'PATH',
							'annotation_conversion': {
								'converter': 'market1501_reid',
								'data_dir': 'PATH'
							},
							'annotation': 'market1501_reid.pickle',
							'preprocessing': [
								{
									'type': 'resize',
									'dst_width': 128,
									'dst_height': 256,
									'use_pillow': true,
									'interpolation': 'BILINEAR'
								}
							],
							'metrics': [
								{
									'name': 'rank@1',
									'type': 'cmc',
									'top_k': 1
								},
								{
									'type': 'reid_map'
								}
							]
						}
					]
				},
				{
					'name': 'person-reidentification-retail-0265',
					'launchers': [
						{
							'framework': 'dlsdk',
							'tags': [
								'FP16'
							],
							'model': 'PATH',
							'weights': 'PATH',
							'adapter': 'reid',
							'device': 'CPU'
						}
					],
					'datasets': [
						{
							'name': 'market1501',
							'data_source': 'PATH',
							'annotation_conversion': {
								'converter': 'market1501_reid',
								'data_dir': 'PATH'
							},
							'annotation': 'market1501_reid.pickle',
							'preprocessing': [
								{
									'type': 'resize',
									'dst_width': 128,
									'dst_height': 256,
									'use_pillow': true,
									'interpolation': 'BILINEAR'
								}
							],
							'metrics': [
								{
									'name': 'rank@1',
									'type': 'cmc',
									'top_k': 1
								},
								{
									'type': 'reid_map'
								}
							]
						}
					]
				},
				{
					'name': 'person-reidentification-retail-0265',
					'launchers': [
						{
							'framework': 'dlsdk',
							'tags': [
								'FP16-INT8'
							],
							'model': 'PATH',
							'weights': 'PATH',
							'adapter': 'reid',
							'device': 'CPU'
						}
					],
					'datasets': [
						{
							'name': 'market1501',
							'data_source': 'PATH',
							'annotation_conversion': {
								'converter': 'market1501_reid',
								'data_dir': 'PATH'
							},
							'annotation': 'market1501_reid.pickle',
							'preprocessing': [
								{
									'type': 'resize',
									'dst_width': 128,
									'dst_height': 256,
									'use_pillow': true,
									'interpolation': 'BILINEAR'
								}
							],
							'metrics': [
								{
									'name': 'rank@1',
									'type': 'cmc',
									'top_k': 1
								},
								{
									'type': 'reid_map'
								}
							]
						}
					]
				}
			],
			'global_definitions': '../dataset_definitions.yml',
			'stat_requests_number': null,
			'eval_requests_number': null,
			'type': 'accuracy_checker'
		}
	}</config>
		<version value="1.0"/>
		<cli_params value="{'evaluate': False, 'output_dir': 'PATH', 'direct_dump': True, 'log_level': 'INFO', 'pbar': False, 'keep_uncompressed_weights': False}"/>
	</quantization_parameters>
</net>
