<?xml version="1.0" ?>
<net name="ICV-RMNet-PD-ReID-Light" version="10">
	<layers>
		<layer id="0" name="data" type="Parameter" version="opset1">
			<data element_type="f16" shape="1,3,96,48"/>
			<output>
				<port id="0" precision="FP16">
					<dim>1</dim>
					<dim>3</dim>
					<dim>96</dim>
					<dim>48</dim>
				</port>
			</output>
		</layer>
		<layer id="1" name="201/Output_0/Data_/copy_const276_const" type="Const" version="opset1">
			<data element_type="f16" offset="0" shape="1,3,1,1" size="6"/>
			<output>
				<port id="1" precision="FP16">
					<dim>1</dim>
					<dim>3</dim>
					<dim>1</dim>
					<dim>1</dim>
				</port>
			</output>
		</layer>
		<layer id="2" name="data/norm/scale/Mul_" type="Multiply" version="opset1">
			<input>
				<port id="0">
					<dim>1</dim>
					<dim>3</dim>
					<dim>96</dim>
					<dim>48</dim>
				</port>
				<port id="1">
					<dim>1</dim>
					<dim>3</dim>
					<dim>1</dim>
					<dim>1</dim>
				</port>
			</input>
			<output>
				<port id="2" precision="FP16">
					<dim>1</dim>
					<dim>3</dim>
					<dim>96</dim>
					<dim>48</dim>
				</port>
			</output>
		</layer>
		<layer id="3" name="202/Output_0/Data_/copy_const278_const" type="Const" version="opset1">
			<data element_type="f16" offset="6" shape="1,3,1,1" size="6"/>
			<output>
				<port id="1" precision="FP16">
					<dim>1</dim>
					<dim>3</dim>
					<dim>1</dim>
					<dim>1</dim>
				</port>
			</output>
		</layer>
		<layer id="4" name="data/norm/scale/Add_" type="Add" version="opset1">
			<input>
				<port id="0">
					<dim>1</dim>
					<dim>3</dim>
					<dim>96</dim>
					<dim>48</dim>
				</port>
				<port id="1">
					<dim>1</dim>
					<dim>3</dim>
					<dim>1</dim>
					<dim>1</dim>
				</port>
			</input>
			<output>
				<port id="2" precision="FP16">
					<dim>1</dim>
					<dim>3</dim>
					<dim>96</dim>
					<dim>48</dim>
				</port>
			</output>
		</layer>
		<layer id="5" name="18411845_const" type="Const" version="opset1">
			<data element_type="f16" offset="12" shape="" size="2"/>
			<output>
				<port id="1" precision="FP16"/>
			</output>
		</layer>
		<layer id="6" name="18421846_const" type="Const" version="opset1">
			<data element_type="f16" offset="14" shape="" size="2"/>
			<output>
				<port id="1" precision="FP16"/>
			</output>
		</layer>
		<layer id="7" name="18431847_const" type="Const" version="opset1">
			<data element_type="f16" offset="12" shape="" size="2"/>
			<output>
				<port id="1" precision="FP16"/>
			</output>
		</layer>
		<layer id="8" name="18441848_const" type="Const" version="opset1">
			<data element_type="f16" offset="14" shape="" size="2"/>
			<output>
				<port id="1" precision="FP16"/>
			</output>
		</layer>
		<layer id="9" name="init_block1/dim_inc/conv/WithoutBiases/fq_input_0" type="FakeQuantize" version="opset1">
			<data levels="256"/>
			<input>
				<port id="0">
					<dim>1</dim>
					<dim>3</dim>
					<dim>96</dim>
					<dim>48</dim>
				</port>
				<port id="1"/>
				<port id="2"/>
				<port id="3"/>
				<port id="4"/>
			</input>
			<output>
				<port id="5" precision="FP16">
					<dim>1</dim>
					<dim>3</dim>
					<dim>96</dim>
					<dim>48</dim>
				</port>
			</output>
		</layer>
		<layer id="10" name="init_block1/dim_inc/conv/WithoutBiases/fq_weights_1/Convert_to_float/Cast_05007_const" type="Const" version="opset1">
			<data element_type="u8" offset="16" shape="32,3,3,3" size="864"/>
			<output>
				<port id="1" precision="U8">
					<dim>32</dim>
					<dim>3</dim>
					<dim>3</dim>
					<dim>3</dim>
				</port>
			</output>
		</layer>
		<layer id="11" name="init_block1/dim_inc/conv/WithoutBiases/fq_weights_1/Convert_to_float" type="Convert" version="opset1">
			<data destination_type="f16"/>
			<input>
				<port id="0">
					<dim>32</dim>
					<dim>3</dim>
					<dim>3</dim>
					<dim>3</dim>
				</port>
			</input>
			<output>
				<port id="1" precision="FP16">
					<dim>32</dim>
					<dim>3</dim>
					<dim>3</dim>
					<dim>3</dim>
				</port>
			</output>
		</layer>
		<layer id="12" name="init_block1/dim_inc/conv/WithoutBiases/fq_weights_1/Copy/out_low4193_const" type="Const" version="opset1">
			<data element_type="f16" offset="880" shape="1" size="2"/>
			<output>
				<port id="1" precision="FP16">
					<dim>1</dim>
				</port>
			</output>
		</layer>
		<layer id="13" name="init_block1/dim_inc/conv/WithoutBiases/fq_weights_1/Copy/out_high4194_const" type="Const" version="opset1">
			<data element_type="f16" offset="882" shape="1" size="2"/>
			<output>
				<port id="1" precision="FP16">
					<dim>1</dim>
				</port>
			</output>
		</layer>
		<layer id="14" name="18531857_const" type="Const" version="opset1">
			<data element_type="f16" offset="884" shape="32,1,1,1" size="64"/>
			<output>
				<port id="1" precision="FP16">
					<dim>32</dim>
					<dim>1</dim>
					<dim>1</dim>
					<dim>1</dim>
				</port>
			</output>
		</layer>
		<layer id="15" name="18541858_const" type="Const" version="opset1">
			<data element_type="f16" offset="948" shape="32,1,1,1" size="64"/>
			<output>
				<port id="1" precision="FP16">
					<dim>32</dim>
					<dim>1</dim>
					<dim>1</dim>
					<dim>1</dim>
				</port>
			</output>
		</layer>
		<layer id="16" name="init_block1/dim_inc/conv/WithoutBiases/fq_weights_1" type="FakeQuantize" version="opset1">
			<data levels="255"/>
			<input>
				<port id="0">
					<dim>32</dim>
					<dim>3</dim>
					<dim>3</dim>
					<dim>3</dim>
				</port>
				<port id="1">
					<dim>1</dim>
				</port>
				<port id="2">
					<dim>1</dim>
				</port>
				<port id="3">
					<dim>32</dim>
					<dim>1</dim>
					<dim>1</dim>
					<dim>1</dim>
				</port>
				<port id="4">
					<dim>32</dim>
					<dim>1</dim>
					<dim>1</dim>
					<dim>1</dim>
				</port>
			</input>
			<output>
				<port id="5" precision="FP16">
					<dim>32</dim>
					<dim>3</dim>
					<dim>3</dim>
					<dim>3</dim>
				</port>
			</output>
		</layer>
		<layer id="17" name="init_block1/dim_inc/conv/WithoutBiases" type="Convolution" version="opset1">
			<data dilations="1,1" output_padding="0,0" pads_begin="1,1" pads_end="1,1" strides="2,2"/>
			<input>
				<port id="0">
					<dim>1</dim>
					<dim>3</dim>
					<dim>96</dim>
					<dim>48</dim>
				</port>
				<port id="1">
					<dim>32</dim>
					<dim>3</dim>
					<dim>3</dim>
					<dim>3</dim>
				</port>
			</input>
			<output>
				<port id="2" precision="FP16">
					<dim>1</dim>
					<dim>32</dim>
					<dim>48</dim>
					<dim>24</dim>
				</port>
			</output>
		</layer>
		<layer id="18" name="init_block1/dim_inc/conv/Dims2415/copy_const282_const" type="Const" version="opset1">
			<data element_type="f16" offset="1012" shape="1,32,1,1" size="64"/>
			<output>
				<port id="1" precision="FP16">
					<dim>1</dim>
					<dim>32</dim>
					<dim>1</dim>
					<dim>1</dim>
				</port>
			</output>
		</layer>
		<layer id="19" name="init_block1/dim_inc/conv" type="Add" version="opset1">
			<input>
				<port id="0">
					<dim>1</dim>
					<dim>32</dim>
					<dim>48</dim>
					<dim>24</dim>
				</port>
				<port id="1">
					<dim>1</dim>
					<dim>32</dim>
					<dim>1</dim>
					<dim>1</dim>
				</port>
			</input>
			<output>
				<port id="2" precision="FP16">
					<dim>1</dim>
					<dim>32</dim>
					<dim>48</dim>
					<dim>24</dim>
				</port>
			</output>
		</layer>
		<layer id="20" name="init_block1/dim_inc/fn" type="ReLU" version="opset1">
			<input>
				<port id="0">
					<dim>1</dim>
					<dim>32</dim>
					<dim>48</dim>
					<dim>24</dim>
				</port>
			</input>
			<output>
				<port id="1" precision="FP16">
					<dim>1</dim>
					<dim>32</dim>
					<dim>48</dim>
					<dim>24</dim>
				</port>
			</output>
		</layer>
		<layer id="21" name="901905_const" type="Const" version="opset1">
			<data element_type="f16" offset="1076" shape="" size="2"/>
			<output>
				<port id="1" precision="FP16"/>
			</output>
		</layer>
		<layer id="22" name="902906_const" type="Const" version="opset1">
			<data element_type="f16" offset="1078" shape="" size="2"/>
			<output>
				<port id="1" precision="FP16"/>
			</output>
		</layer>
		<layer id="23" name="903907_const" type="Const" version="opset1">
			<data element_type="f16" offset="1076" shape="" size="2"/>
			<output>
				<port id="1" precision="FP16"/>
			</output>
		</layer>
		<layer id="24" name="904908_const" type="Const" version="opset1">
			<data element_type="f16" offset="1078" shape="" size="2"/>
			<output>
				<port id="1" precision="FP16"/>
			</output>
		</layer>
		<layer id="25" name="bottleneck1_1/add/fq_input_0" type="FakeQuantize" version="opset1">
			<data levels="256"/>
			<input>
				<port id="0">
					<dim>1</dim>
					<dim>32</dim>
					<dim>48</dim>
					<dim>24</dim>
				</port>
				<port id="1"/>
				<port id="2"/>
				<port id="3"/>
				<port id="4"/>
			</input>
			<output>
				<port id="5" precision="FP16">
					<dim>1</dim>
					<dim>32</dim>
					<dim>48</dim>
					<dim>24</dim>
				</port>
			</output>
		</layer>
		<layer id="26" name="bottleneck1_1/dim_red/conv/WithoutBiases/fq_weights_1/Convert_to_float/Cast_05005_const" type="Const" version="opset1">
			<data element_type="u8" offset="1080" shape="8,32,1,1" size="256"/>
			<output>
				<port id="1" precision="U8">
					<dim>8</dim>
					<dim>32</dim>
					<dim>1</dim>
					<dim>1</dim>
				</port>
			</output>
		</layer>
		<layer id="27" name="bottleneck1_1/dim_red/conv/WithoutBiases/fq_weights_1/Convert_to_float" type="Convert" version="opset1">
			<data destination_type="f16"/>
			<input>
				<port id="0">
					<dim>8</dim>
					<dim>32</dim>
					<dim>1</dim>
					<dim>1</dim>
				</port>
			</input>
			<output>
				<port id="1" precision="FP16">
					<dim>8</dim>
					<dim>32</dim>
					<dim>1</dim>
					<dim>1</dim>
				</port>
			</output>
		</layer>
		<layer id="28" name="bottleneck1_1/dim_red/conv/WithoutBiases/fq_weights_1/Copy/out_low4385_const" type="Const" version="opset1">
			<data element_type="f16" offset="1336" shape="1" size="2"/>
			<output>
				<port id="1" precision="FP16">
					<dim>1</dim>
				</port>
			</output>
		</layer>
		<layer id="29" name="bottleneck1_1/dim_red/conv/WithoutBiases/fq_weights_1/Copy/out_high4386_const" type="Const" version="opset1">
			<data element_type="f16" offset="882" shape="1" size="2"/>
			<output>
				<port id="1" precision="FP16">
					<dim>1</dim>
				</port>
			</output>
		</layer>
		<layer id="30" name="20332037_const" type="Const" version="opset1">
			<data element_type="f16" offset="1338" shape="8,1,1,1" size="16"/>
			<output>
				<port id="1" precision="FP16">
					<dim>8</dim>
					<dim>1</dim>
					<dim>1</dim>
					<dim>1</dim>
				</port>
			</output>
		</layer>
		<layer id="31" name="20342038_const" type="Const" version="opset1">
			<data element_type="f16" offset="1354" shape="8,1,1,1" size="16"/>
			<output>
				<port id="1" precision="FP16">
					<dim>8</dim>
					<dim>1</dim>
					<dim>1</dim>
					<dim>1</dim>
				</port>
			</output>
		</layer>
		<layer id="32" name="bottleneck1_1/dim_red/conv/WithoutBiases/fq_weights_1" type="FakeQuantize" version="opset1">
			<data levels="255"/>
			<input>
				<port id="0">
					<dim>8</dim>
					<dim>32</dim>
					<dim>1</dim>
					<dim>1</dim>
				</port>
				<port id="1">
					<dim>1</dim>
				</port>
				<port id="2">
					<dim>1</dim>
				</port>
				<port id="3">
					<dim>8</dim>
					<dim>1</dim>
					<dim>1</dim>
					<dim>1</dim>
				</port>
				<port id="4">
					<dim>8</dim>
					<dim>1</dim>
					<dim>1</dim>
					<dim>1</dim>
				</port>
			</input>
			<output>
				<port id="5" precision="FP16">
					<dim>8</dim>
					<dim>32</dim>
					<dim>1</dim>
					<dim>1</dim>
				</port>
			</output>
		</layer>
		<layer id="33" name="bottleneck1_1/dim_red/conv/WithoutBiases" type="Convolution" version="opset1">
			<data dilations="1,1" output_padding="0,0" pads_begin="0,0" pads_end="0,0" strides="1,1"/>
			<input>
				<port id="0">
					<dim>1</dim>
					<dim>32</dim>
					<dim>48</dim>
					<dim>24</dim>
				</port>
				<port id="1">
					<dim>8</dim>
					<dim>32</dim>
					<dim>1</dim>
					<dim>1</dim>
				</port>
			</input>
			<output>
				<port id="2" precision="FP16">
					<dim>1</dim>
					<dim>8</dim>
					<dim>48</dim>
					<dim>24</dim>
				</port>
			</output>
		</layer>
		<layer id="34" name="bottleneck1_1/dim_red/conv/Dims2271/copy_const287_const" type="Const" version="opset1">
			<data element_type="f16" offset="1370" shape="1,8,1,1" size="16"/>
			<output>
				<port id="1" precision="FP16">
					<dim>1</dim>
					<dim>8</dim>
					<dim>1</dim>
					<dim>1</dim>
				</port>
			</output>
		</layer>
		<layer id="35" name="bottleneck1_1/dim_red/conv" type="Add" version="opset1">
			<input>
				<port id="0">
					<dim>1</dim>
					<dim>8</dim>
					<dim>48</dim>
					<dim>24</dim>
				</port>
				<port id="1">
					<dim>1</dim>
					<dim>8</dim>
					<dim>1</dim>
					<dim>1</dim>
				</port>
			</input>
			<output>
				<port id="2" precision="FP16">
					<dim>1</dim>
					<dim>8</dim>
					<dim>48</dim>
					<dim>24</dim>
				</port>
			</output>
		</layer>
		<layer id="36" name="bottleneck1_1/dim_red/fn" type="Elu" version="opset1">
			<data alpha="1.0"/>
			<input>
				<port id="0">
					<dim>1</dim>
					<dim>8</dim>
					<dim>48</dim>
					<dim>24</dim>
				</port>
			</input>
			<output>
				<port id="1" precision="FP16">
					<dim>1</dim>
					<dim>8</dim>
					<dim>48</dim>
					<dim>24</dim>
				</port>
			</output>
		</layer>
		<layer id="37" name="18611865_const" type="Const" version="opset1">
			<data element_type="f16" offset="1386" shape="1,8,1,1" size="16"/>
			<output>
				<port id="1" precision="FP16">
					<dim>1</dim>
					<dim>8</dim>
					<dim>1</dim>
					<dim>1</dim>
				</port>
			</output>
		</layer>
		<layer id="38" name="18621866_const" type="Const" version="opset1">
			<data element_type="f16" offset="1402" shape="1,8,1,1" size="16"/>
			<output>
				<port id="1" precision="FP16">
					<dim>1</dim>
					<dim>8</dim>
					<dim>1</dim>
					<dim>1</dim>
				</port>
			</output>
		</layer>
		<layer id="39" name="18631867_const" type="Const" version="opset1">
			<data element_type="f16" offset="1386" shape="1,8,1,1" size="16"/>
			<output>
				<port id="1" precision="FP16">
					<dim>1</dim>
					<dim>8</dim>
					<dim>1</dim>
					<dim>1</dim>
				</port>
			</output>
		</layer>
		<layer id="40" name="18641868_const" type="Const" version="opset1">
			<data element_type="f16" offset="1402" shape="1,8,1,1" size="16"/>
			<output>
				<port id="1" precision="FP16">
					<dim>1</dim>
					<dim>8</dim>
					<dim>1</dim>
					<dim>1</dim>
				</port>
			</output>
		</layer>
		<layer id="41" name="bottleneck1_1/inner/dw1/conv/WithoutBiases/fq_input_0" type="FakeQuantize" version="opset1">
			<data levels="256"/>
			<input>
				<port id="0">
					<dim>1</dim>
					<dim>8</dim>
					<dim>48</dim>
					<dim>24</dim>
				</port>
				<port id="1">
					<dim>1</dim>
					<dim>8</dim>
					<dim>1</dim>
					<dim>1</dim>
				</port>
				<port id="2">
					<dim>1</dim>
					<dim>8</dim>
					<dim>1</dim>
					<dim>1</dim>
				</port>
				<port id="3">
					<dim>1</dim>
					<dim>8</dim>
					<dim>1</dim>
					<dim>1</dim>
				</port>
				<port id="4">
					<dim>1</dim>
					<dim>8</dim>
					<dim>1</dim>
					<dim>1</dim>
				</port>
			</input>
			<output>
				<port id="5" precision="FP16">
					<dim>1</dim>
					<dim>8</dim>
					<dim>48</dim>
					<dim>24</dim>
				</port>
			</output>
		</layer>
		<layer id="42" name="bottleneck1_1/inner/dw1/conv/WithoutBiases/fq_weights_1/Convert_to_float/Cast_05073_const" type="Const" version="opset1">
			<data element_type="u8" offset="1418" shape="8,1,3,3" size="72"/>
			<output>
				<port id="1" precision="U8">
					<dim>8</dim>
					<dim>1</dim>
					<dim>3</dim>
					<dim>3</dim>
				</port>
			</output>
		</layer>
		<layer id="43" name="bottleneck1_1/inner/dw1/conv/WithoutBiases/fq_weights_1/Convert_to_float" type="Convert" version="opset1">
			<data destination_type="f16"/>
			<input>
				<port id="0">
					<dim>8</dim>
					<dim>1</dim>
					<dim>3</dim>
					<dim>3</dim>
				</port>
			</input>
			<output>
				<port id="1" precision="FP16">
					<dim>8</dim>
					<dim>1</dim>
					<dim>3</dim>
					<dim>3</dim>
				</port>
			</output>
		</layer>
		<layer id="44" name="bottleneck1_1/inner/dw1/conv/WithoutBiases/fq_weights_1/Copy/out_low4361_const" type="Const" version="opset1">
			<data element_type="f16" offset="1336" shape="1" size="2"/>
			<output>
				<port id="1" precision="FP16">
					<dim>1</dim>
				</port>
			</output>
		</layer>
		<layer id="45" name="bottleneck1_1/inner/dw1/conv/WithoutBiases/fq_weights_1/Copy/out_high4362_const" type="Const" version="opset1">
			<data element_type="f16" offset="882" shape="1" size="2"/>
			<output>
				<port id="1" precision="FP16">
					<dim>1</dim>
				</port>
			</output>
		</layer>
		<layer id="46" name="18731877_const" type="Const" version="opset1">
			<data element_type="f16" offset="1490" shape="8,1,1,1" size="16"/>
			<output>
				<port id="1" precision="FP16">
					<dim>8</dim>
					<dim>1</dim>
					<dim>1</dim>
					<dim>1</dim>
				</port>
			</output>
		</layer>
		<layer id="47" name="18741878_const" type="Const" version="opset1">
			<data element_type="f16" offset="1506" shape="8,1,1,1" size="16"/>
			<output>
				<port id="1" precision="FP16">
					<dim>8</dim>
					<dim>1</dim>
					<dim>1</dim>
					<dim>1</dim>
				</port>
			</output>
		</layer>
		<layer id="48" name="bottleneck1_1/inner/dw1/conv/WithoutBiases/fq_weights_1" type="FakeQuantize" version="opset1">
			<data levels="255"/>
			<input>
				<port id="0">
					<dim>8</dim>
					<dim>1</dim>
					<dim>3</dim>
					<dim>3</dim>
				</port>
				<port id="1">
					<dim>1</dim>
				</port>
				<port id="2">
					<dim>1</dim>
				</port>
				<port id="3">
					<dim>8</dim>
					<dim>1</dim>
					<dim>1</dim>
					<dim>1</dim>
				</port>
				<port id="4">
					<dim>8</dim>
					<dim>1</dim>
					<dim>1</dim>
					<dim>1</dim>
				</port>
			</input>
			<output>
				<port id="5" precision="FP16">
					<dim>8</dim>
					<dim>1</dim>
					<dim>3</dim>
					<dim>3</dim>
				</port>
			</output>
		</layer>
		<layer id="49" name="5684/value5686_const" type="Const" version="opset1">
			<data element_type="i64" offset="1522" shape="5" size="40"/>
			<output>
				<port id="1" precision="I64">
					<dim>5</dim>
				</port>
			</output>
		</layer>
		<layer id="50" name="5684" type="Reshape" version="opset1">
			<data special_zero="True"/>
			<input>
				<port id="0">
					<dim>8</dim>
					<dim>1</dim>
					<dim>3</dim>
					<dim>3</dim>
				</port>
				<port id="1">
					<dim>5</dim>
				</port>
			</input>
			<output>
				<port id="2" precision="FP16">
					<dim>8</dim>
					<dim>1</dim>
					<dim>1</dim>
					<dim>3</dim>
					<dim>3</dim>
				</port>
			</output>
		</layer>
		<layer id="51" name="bottleneck1_1/inner/dw1/conv/WithoutBiases" type="GroupConvolution" version="opset1">
			<data dilations="1,1" output_padding="0,0" pads_begin="1,1" pads_end="1,1" strides="1,1"/>
			<input>
				<port id="0">
					<dim>1</dim>
					<dim>8</dim>
					<dim>48</dim>
					<dim>24</dim>
				</port>
				<port id="1">
					<dim>8</dim>
					<dim>1</dim>
					<dim>1</dim>
					<dim>3</dim>
					<dim>3</dim>
				</port>
			</input>
			<output>
				<port id="2" precision="FP16">
					<dim>1</dim>
					<dim>8</dim>
					<dim>48</dim>
					<dim>24</dim>
				</port>
			</output>
		</layer>
		<layer id="52" name="bottleneck1_1/inner/dw1/conv/Dims2247/copy_const292_const" type="Const" version="opset1">
			<data element_type="f16" offset="1562" shape="1,8,1,1" size="16"/>
			<output>
				<port id="1" precision="FP16">
					<dim>1</dim>
					<dim>8</dim>
					<dim>1</dim>
					<dim>1</dim>
				</port>
			</output>
		</layer>
		<layer id="53" name="bottleneck1_1/inner/dw1/conv" type="Add" version="opset1">
			<input>
				<port id="0">
					<dim>1</dim>
					<dim>8</dim>
					<dim>48</dim>
					<dim>24</dim>
				</port>
				<port id="1">
					<dim>1</dim>
					<dim>8</dim>
					<dim>1</dim>
					<dim>1</dim>
				</port>
			</input>
			<output>
				<port id="2" precision="FP16">
					<dim>1</dim>
					<dim>8</dim>
					<dim>48</dim>
					<dim>24</dim>
				</port>
			</output>
		</layer>
		<layer id="54" name="bottleneck1_1/inner/dw1/fn" type="Elu" version="opset1">
			<data alpha="1.0"/>
			<input>
				<port id="0">
					<dim>1</dim>
					<dim>8</dim>
					<dim>48</dim>
					<dim>24</dim>
				</port>
			</input>
			<output>
				<port id="1" precision="FP16">
					<dim>1</dim>
					<dim>8</dim>
					<dim>48</dim>
					<dim>24</dim>
				</port>
			</output>
		</layer>
		<layer id="55" name="14611465_const" type="Const" version="opset1">
			<data element_type="f16" offset="1578" shape="" size="2"/>
			<output>
				<port id="1" precision="FP16"/>
			</output>
		</layer>
		<layer id="56" name="14621466_const" type="Const" version="opset1">
			<data element_type="f16" offset="1580" shape="" size="2"/>
			<output>
				<port id="1" precision="FP16"/>
			</output>
		</layer>
		<layer id="57" name="14631467_const" type="Const" version="opset1">
			<data element_type="f16" offset="1578" shape="" size="2"/>
			<output>
				<port id="1" precision="FP16"/>
			</output>
		</layer>
		<layer id="58" name="14641468_const" type="Const" version="opset1">
			<data element_type="f16" offset="1580" shape="" size="2"/>
			<output>
				<port id="1" precision="FP16"/>
			</output>
		</layer>
		<layer id="59" name="bottleneck1_1/dim_inc/conv/WithoutBiases/fq_input_0" type="FakeQuantize" version="opset1">
			<data levels="256"/>
			<input>
				<port id="0">
					<dim>1</dim>
					<dim>8</dim>
					<dim>48</dim>
					<dim>24</dim>
				</port>
				<port id="1"/>
				<port id="2"/>
				<port id="3"/>
				<port id="4"/>
			</input>
			<output>
				<port id="5" precision="FP16">
					<dim>1</dim>
					<dim>8</dim>
					<dim>48</dim>
					<dim>24</dim>
				</port>
			</output>
		</layer>
		<layer id="60" name="bottleneck1_1/dim_inc/conv/WithoutBiases/fq_weights_1/Convert_to_float/Cast_05045_const" type="Const" version="opset1">
			<data element_type="u8" offset="1582" shape="32,8,1,1" size="256"/>
			<output>
				<port id="1" precision="U8">
					<dim>32</dim>
					<dim>8</dim>
					<dim>1</dim>
					<dim>1</dim>
				</port>
			</output>
		</layer>
		<layer id="61" name="bottleneck1_1/dim_inc/conv/WithoutBiases/fq_weights_1/Convert_to_float" type="Convert" version="opset1">
			<data destination_type="f16"/>
			<input>
				<port id="0">
					<dim>32</dim>
					<dim>8</dim>
					<dim>1</dim>
					<dim>1</dim>
				</port>
			</input>
			<output>
				<port id="1" precision="FP16">
					<dim>32</dim>
					<dim>8</dim>
					<dim>1</dim>
					<dim>1</dim>
				</port>
			</output>
		</layer>
		<layer id="62" name="bottleneck1_1/dim_inc/conv/WithoutBiases/fq_weights_1/Copy/out_low4209_const" type="Const" version="opset1">
			<data element_type="f16" offset="1336" shape="1" size="2"/>
			<output>
				<port id="1" precision="FP16">
					<dim>1</dim>
				</port>
			</output>
		</layer>
		<layer id="63" name="bottleneck1_1/dim_inc/conv/WithoutBiases/fq_weights_1/Copy/out_high4210_const" type="Const" version="opset1">
			<data element_type="f16" offset="882" shape="1" size="2"/>
			<output>
				<port id="1" precision="FP16">
					<dim>1</dim>
				</port>
			</output>
		</layer>
		<layer id="64" name="14731477_const" type="Const" version="opset1">
			<data element_type="f16" offset="1838" shape="32,1,1,1" size="64"/>
			<output>
				<port id="1" precision="FP16">
					<dim>32</dim>
					<dim>1</dim>
					<dim>1</dim>
					<dim>1</dim>
				</port>
			</output>
		</layer>
		<layer id="65" name="14741478_const" type="Const" version="opset1">
			<data element_type="f16" offset="1902" shape="32,1,1,1" size="64"/>
			<output>
				<port id="1" precision="FP16">
					<dim>32</dim>
					<dim>1</dim>
					<dim>1</dim>
					<dim>1</dim>
				</port>
			</output>
		</layer>
		<layer id="66" name="bottleneck1_1/dim_inc/conv/WithoutBiases/fq_weights_1" type="FakeQuantize" version="opset1">
			<data levels="255"/>
			<input>
				<port id="0">
					<dim>32</dim>
					<dim>8</dim>
					<dim>1</dim>
					<dim>1</dim>
				</port>
				<port id="1">
					<dim>1</dim>
				</port>
				<port id="2">
					<dim>1</dim>
				</port>
				<port id="3">
					<dim>32</dim>
					<dim>1</dim>
					<dim>1</dim>
					<dim>1</dim>
				</port>
				<port id="4">
					<dim>32</dim>
					<dim>1</dim>
					<dim>1</dim>
					<dim>1</dim>
				</port>
			</input>
			<output>
				<port id="5" precision="FP16">
					<dim>32</dim>
					<dim>8</dim>
					<dim>1</dim>
					<dim>1</dim>
				</port>
			</output>
		</layer>
		<layer id="67" name="bottleneck1_1/dim_inc/conv/WithoutBiases" type="Convolution" version="opset1">
			<data dilations="1,1" output_padding="0,0" pads_begin="0,0" pads_end="0,0" strides="1,1"/>
			<input>
				<port id="0">
					<dim>1</dim>
					<dim>8</dim>
					<dim>48</dim>
					<dim>24</dim>
				</port>
				<port id="1">
					<dim>32</dim>
					<dim>8</dim>
					<dim>1</dim>
					<dim>1</dim>
				</port>
			</input>
			<output>
				<port id="2" precision="FP16">
					<dim>1</dim>
					<dim>32</dim>
					<dim>48</dim>
					<dim>24</dim>
				</port>
			</output>
		</layer>
		<layer id="68" name="bottleneck1_1/dim_inc/conv/Dims2241/copy_const297_const" type="Const" version="opset1">
			<data element_type="f16" offset="1966" shape="1,32,1,1" size="64"/>
			<output>
				<port id="1" precision="FP16">
					<dim>1</dim>
					<dim>32</dim>
					<dim>1</dim>
					<dim>1</dim>
				</port>
			</output>
		</layer>
		<layer id="69" name="bottleneck1_1/dim_inc/conv" type="Add" version="opset1">
			<input>
				<port id="0">
					<dim>1</dim>
					<dim>32</dim>
					<dim>48</dim>
					<dim>24</dim>
				</port>
				<port id="1">
					<dim>1</dim>
					<dim>32</dim>
					<dim>1</dim>
					<dim>1</dim>
				</port>
			</input>
			<output>
				<port id="2" precision="FP16">
					<dim>1</dim>
					<dim>32</dim>
					<dim>48</dim>
					<dim>24</dim>
				</port>
			</output>
		</layer>
		<layer id="70" name="911915_const" type="Const" version="opset1">
			<data element_type="f16" offset="2030" shape="" size="2"/>
			<output>
				<port id="1" precision="FP16"/>
			</output>
		</layer>
		<layer id="71" name="912916_const" type="Const" version="opset1">
			<data element_type="f16" offset="2032" shape="" size="2"/>
			<output>
				<port id="1" precision="FP16"/>
			</output>
		</layer>
		<layer id="72" name="913917_const" type="Const" version="opset1">
			<data element_type="f16" offset="2030" shape="" size="2"/>
			<output>
				<port id="1" precision="FP16"/>
			</output>
		</layer>
		<layer id="73" name="914918_const" type="Const" version="opset1">
			<data element_type="f16" offset="2032" shape="" size="2"/>
			<output>
				<port id="1" precision="FP16"/>
			</output>
		</layer>
		<layer id="74" name="bottleneck1_1/add/fq_input_1" type="FakeQuantize" version="opset1">
			<data levels="256"/>
			<input>
				<port id="0">
					<dim>1</dim>
					<dim>32</dim>
					<dim>48</dim>
					<dim>24</dim>
				</port>
				<port id="1"/>
				<port id="2"/>
				<port id="3"/>
				<port id="4"/>
			</input>
			<output>
				<port id="5" precision="FP16">
					<dim>1</dim>
					<dim>32</dim>
					<dim>48</dim>
					<dim>24</dim>
				</port>
			</output>
		</layer>
		<layer id="75" name="bottleneck1_1/add" type="Add" version="opset1">
			<input>
				<port id="0">
					<dim>1</dim>
					<dim>32</dim>
					<dim>48</dim>
					<dim>24</dim>
				</port>
				<port id="1">
					<dim>1</dim>
					<dim>32</dim>
					<dim>48</dim>
					<dim>24</dim>
				</port>
			</input>
			<output>
				<port id="2" precision="FP16">
					<dim>1</dim>
					<dim>32</dim>
					<dim>48</dim>
					<dim>24</dim>
				</port>
			</output>
		</layer>
		<layer id="76" name="bottleneck1_1/fn" type="Elu" version="opset1">
			<data alpha="1.0"/>
			<input>
				<port id="0">
					<dim>1</dim>
					<dim>32</dim>
					<dim>48</dim>
					<dim>24</dim>
				</port>
			</input>
			<output>
				<port id="1" precision="FP16">
					<dim>1</dim>
					<dim>32</dim>
					<dim>48</dim>
					<dim>24</dim>
				</port>
			</output>
		</layer>
		<layer id="77" name="11211125_const" type="Const" version="opset1">
			<data element_type="f16" offset="1578" shape="" size="2"/>
			<output>
				<port id="1" precision="FP16"/>
			</output>
		</layer>
		<layer id="78" name="11221126_const" type="Const" version="opset1">
			<data element_type="f16" offset="2034" shape="" size="2"/>
			<output>
				<port id="1" precision="FP16"/>
			</output>
		</layer>
		<layer id="79" name="11231127_const" type="Const" version="opset1">
			<data element_type="f16" offset="1578" shape="" size="2"/>
			<output>
				<port id="1" precision="FP16"/>
			</output>
		</layer>
		<layer id="80" name="11241128_const" type="Const" version="opset1">
			<data element_type="f16" offset="2034" shape="" size="2"/>
			<output>
				<port id="1" precision="FP16"/>
			</output>
		</layer>
		<layer id="81" name="bottleneck1_2/add/fq_input_0" type="FakeQuantize" version="opset1">
			<data levels="256"/>
			<input>
				<port id="0">
					<dim>1</dim>
					<dim>32</dim>
					<dim>48</dim>
					<dim>24</dim>
				</port>
				<port id="1"/>
				<port id="2"/>
				<port id="3"/>
				<port id="4"/>
			</input>
			<output>
				<port id="5" precision="FP16">
					<dim>1</dim>
					<dim>32</dim>
					<dim>48</dim>
					<dim>24</dim>
				</port>
			</output>
		</layer>
		<layer id="82" name="bottleneck1_2/dim_red/conv/WithoutBiases/fq_weights_1/Convert_to_float/Cast_05085_const" type="Const" version="opset1">
			<data element_type="u8" offset="2036" shape="8,32,1,1" size="256"/>
			<output>
				<port id="1" precision="U8">
					<dim>8</dim>
					<dim>32</dim>
					<dim>1</dim>
					<dim>1</dim>
				</port>
			</output>
		</layer>
		<layer id="83" name="bottleneck1_2/dim_red/conv/WithoutBiases/fq_weights_1/Convert_to_float" type="Convert" version="opset1">
			<data destination_type="f16"/>
			<input>
				<port id="0">
					<dim>8</dim>
					<dim>32</dim>
					<dim>1</dim>
					<dim>1</dim>
				</port>
			</input>
			<output>
				<port id="1" precision="FP16">
					<dim>8</dim>
					<dim>32</dim>
					<dim>1</dim>
					<dim>1</dim>
				</port>
			</output>
		</layer>
		<layer id="84" name="bottleneck1_2/dim_red/conv/WithoutBiases/fq_weights_1/Copy/out_low4169_const" type="Const" version="opset1">
			<data element_type="f16" offset="1336" shape="1" size="2"/>
			<output>
				<port id="1" precision="FP16">
					<dim>1</dim>
				</port>
			</output>
		</layer>
		<layer id="85" name="bottleneck1_2/dim_red/conv/WithoutBiases/fq_weights_1/Copy/out_high4170_const" type="Const" version="opset1">
			<data element_type="f16" offset="882" shape="1" size="2"/>
			<output>
				<port id="1" precision="FP16">
					<dim>1</dim>
				</port>
			</output>
		</layer>
		<layer id="86" name="12531257_const" type="Const" version="opset1">
			<data element_type="f16" offset="2292" shape="8,1,1,1" size="16"/>
			<output>
				<port id="1" precision="FP16">
					<dim>8</dim>
					<dim>1</dim>
					<dim>1</dim>
					<dim>1</dim>
				</port>
			</output>
		</layer>
		<layer id="87" name="12541258_const" type="Const" version="opset1">
			<data element_type="f16" offset="2308" shape="8,1,1,1" size="16"/>
			<output>
				<port id="1" precision="FP16">
					<dim>8</dim>
					<dim>1</dim>
					<dim>1</dim>
					<dim>1</dim>
				</port>
			</output>
		</layer>
		<layer id="88" name="bottleneck1_2/dim_red/conv/WithoutBiases/fq_weights_1" type="FakeQuantize" version="opset1">
			<data levels="255"/>
			<input>
				<port id="0">
					<dim>8</dim>
					<dim>32</dim>
					<dim>1</dim>
					<dim>1</dim>
				</port>
				<port id="1">
					<dim>1</dim>
				</port>
				<port id="2">
					<dim>1</dim>
				</port>
				<port id="3">
					<dim>8</dim>
					<dim>1</dim>
					<dim>1</dim>
					<dim>1</dim>
				</port>
				<port id="4">
					<dim>8</dim>
					<dim>1</dim>
					<dim>1</dim>
					<dim>1</dim>
				</port>
			</input>
			<output>
				<port id="5" precision="FP16">
					<dim>8</dim>
					<dim>32</dim>
					<dim>1</dim>
					<dim>1</dim>
				</port>
			</output>
		</layer>
		<layer id="89" name="bottleneck1_2/dim_red/conv/WithoutBiases" type="Convolution" version="opset1">
			<data dilations="1,1" output_padding="0,0" pads_begin="0,0" pads_end="0,0" strides="1,1"/>
			<input>
				<port id="0">
					<dim>1</dim>
					<dim>32</dim>
					<dim>48</dim>
					<dim>24</dim>
				</port>
				<port id="1">
					<dim>8</dim>
					<dim>32</dim>
					<dim>1</dim>
					<dim>1</dim>
				</port>
			</input>
			<output>
				<port id="2" precision="FP16">
					<dim>1</dim>
					<dim>8</dim>
					<dim>48</dim>
					<dim>24</dim>
				</port>
			</output>
		</layer>
		<layer id="90" name="bottleneck1_2/dim_red/conv/Dims2349/copy_const303_const" type="Const" version="opset1">
			<data element_type="f16" offset="2324" shape="1,8,1,1" size="16"/>
			<output>
				<port id="1" precision="FP16">
					<dim>1</dim>
					<dim>8</dim>
					<dim>1</dim>
					<dim>1</dim>
				</port>
			</output>
		</layer>
		<layer id="91" name="bottleneck1_2/dim_red/conv" type="Add" version="opset1">
			<input>
				<port id="0">
					<dim>1</dim>
					<dim>8</dim>
					<dim>48</dim>
					<dim>24</dim>
				</port>
				<port id="1">
					<dim>1</dim>
					<dim>8</dim>
					<dim>1</dim>
					<dim>1</dim>
				</port>
			</input>
			<output>
				<port id="2" precision="FP16">
					<dim>1</dim>
					<dim>8</dim>
					<dim>48</dim>
					<dim>24</dim>
				</port>
			</output>
		</layer>
		<layer id="92" name="bottleneck1_2/dim_red/fn" type="Elu" version="opset1">
			<data alpha="1.0"/>
			<input>
				<port id="0">
					<dim>1</dim>
					<dim>8</dim>
					<dim>48</dim>
					<dim>24</dim>
				</port>
			</input>
			<output>
				<port id="1" precision="FP16">
					<dim>1</dim>
					<dim>8</dim>
					<dim>48</dim>
					<dim>24</dim>
				</port>
			</output>
		</layer>
		<layer id="93" name="15811585_const" type="Const" version="opset1">
			<data element_type="f16" offset="2340" shape="1,8,1,1" size="16"/>
			<output>
				<port id="1" precision="FP16">
					<dim>1</dim>
					<dim>8</dim>
					<dim>1</dim>
					<dim>1</dim>
				</port>
			</output>
		</layer>
		<layer id="94" name="15821586_const" type="Const" version="opset1">
			<data element_type="f16" offset="2356" shape="1,8,1,1" size="16"/>
			<output>
				<port id="1" precision="FP16">
					<dim>1</dim>
					<dim>8</dim>
					<dim>1</dim>
					<dim>1</dim>
				</port>
			</output>
		</layer>
		<layer id="95" name="15831587_const" type="Const" version="opset1">
			<data element_type="f16" offset="2340" shape="1,8,1,1" size="16"/>
			<output>
				<port id="1" precision="FP16">
					<dim>1</dim>
					<dim>8</dim>
					<dim>1</dim>
					<dim>1</dim>
				</port>
			</output>
		</layer>
		<layer id="96" name="15841588_const" type="Const" version="opset1">
			<data element_type="f16" offset="2356" shape="1,8,1,1" size="16"/>
			<output>
				<port id="1" precision="FP16">
					<dim>1</dim>
					<dim>8</dim>
					<dim>1</dim>
					<dim>1</dim>
				</port>
			</output>
		</layer>
		<layer id="97" name="bottleneck1_2/inner/dw1/conv/WithoutBiases/fq_input_0" type="FakeQuantize" version="opset1">
			<data levels="256"/>
			<input>
				<port id="0">
					<dim>1</dim>
					<dim>8</dim>
					<dim>48</dim>
					<dim>24</dim>
				</port>
				<port id="1">
					<dim>1</dim>
					<dim>8</dim>
					<dim>1</dim>
					<dim>1</dim>
				</port>
				<port id="2">
					<dim>1</dim>
					<dim>8</dim>
					<dim>1</dim>
					<dim>1</dim>
				</port>
				<port id="3">
					<dim>1</dim>
					<dim>8</dim>
					<dim>1</dim>
					<dim>1</dim>
				</port>
				<port id="4">
					<dim>1</dim>
					<dim>8</dim>
					<dim>1</dim>
					<dim>1</dim>
				</port>
			</input>
			<output>
				<port id="5" precision="FP16">
					<dim>1</dim>
					<dim>8</dim>
					<dim>48</dim>
					<dim>24</dim>
				</port>
			</output>
		</layer>
		<layer id="98" name="bottleneck1_2/inner/dw1/conv/WithoutBiases/fq_weights_1/Convert_to_float/Cast_05031_const" type="Const" version="opset1">
			<data element_type="u8" offset="2372" shape="8,1,3,3" size="72"/>
			<output>
				<port id="1" precision="U8">
					<dim>8</dim>
					<dim>1</dim>
					<dim>3</dim>
					<dim>3</dim>
				</port>
			</output>
		</layer>
		<layer id="99" name="bottleneck1_2/inner/dw1/conv/WithoutBiases/fq_weights_1/Convert_to_float" type="Convert" version="opset1">
			<data destination_type="f16"/>
			<input>
				<port id="0">
					<dim>8</dim>
					<dim>1</dim>
					<dim>3</dim>
					<dim>3</dim>
				</port>
			</input>
			<output>
				<port id="1" precision="FP16">
					<dim>8</dim>
					<dim>1</dim>
					<dim>3</dim>
					<dim>3</dim>
				</port>
			</output>
		</layer>
		<layer id="100" name="bottleneck1_2/inner/dw1/conv/WithoutBiases/fq_weights_1/Copy/out_low4313_const" type="Const" version="opset1">
			<data element_type="f16" offset="1336" shape="1" size="2"/>
			<output>
				<port id="1" precision="FP16">
					<dim>1</dim>
				</port>
			</output>
		</layer>
		<layer id="101" name="bottleneck1_2/inner/dw1/conv/WithoutBiases/fq_weights_1/Copy/out_high4314_const" type="Const" version="opset1">
			<data element_type="f16" offset="882" shape="1" size="2"/>
			<output>
				<port id="1" precision="FP16">
					<dim>1</dim>
				</port>
			</output>
		</layer>
		<layer id="102" name="15931597_const" type="Const" version="opset1">
			<data element_type="f16" offset="2444" shape="8,1,1,1" size="16"/>
			<output>
				<port id="1" precision="FP16">
					<dim>8</dim>
					<dim>1</dim>
					<dim>1</dim>
					<dim>1</dim>
				</port>
			</output>
		</layer>
		<layer id="103" name="15941598_const" type="Const" version="opset1">
			<data element_type="f16" offset="2460" shape="8,1,1,1" size="16"/>
			<output>
				<port id="1" precision="FP16">
					<dim>8</dim>
					<dim>1</dim>
					<dim>1</dim>
					<dim>1</dim>
				</port>
			</output>
		</layer>
		<layer id="104" name="bottleneck1_2/inner/dw1/conv/WithoutBiases/fq_weights_1" type="FakeQuantize" version="opset1">
			<data levels="255"/>
			<input>
				<port id="0">
					<dim>8</dim>
					<dim>1</dim>
					<dim>3</dim>
					<dim>3</dim>
				</port>
				<port id="1">
					<dim>1</dim>
				</port>
				<port id="2">
					<dim>1</dim>
				</port>
				<port id="3">
					<dim>8</dim>
					<dim>1</dim>
					<dim>1</dim>
					<dim>1</dim>
				</port>
				<port id="4">
					<dim>8</dim>
					<dim>1</dim>
					<dim>1</dim>
					<dim>1</dim>
				</port>
			</input>
			<output>
				<port id="5" precision="FP16">
					<dim>8</dim>
					<dim>1</dim>
					<dim>3</dim>
					<dim>3</dim>
				</port>
			</output>
		</layer>
		<layer id="105" name="5664/value5666_const" type="Const" version="opset1">
			<data element_type="i64" offset="1522" shape="5" size="40"/>
			<output>
				<port id="1" precision="I64">
					<dim>5</dim>
				</port>
			</output>
		</layer>
		<layer id="106" name="5664" type="Reshape" version="opset1">
			<data special_zero="True"/>
			<input>
				<port id="0">
					<dim>8</dim>
					<dim>1</dim>
					<dim>3</dim>
					<dim>3</dim>
				</port>
				<port id="1">
					<dim>5</dim>
				</port>
			</input>
			<output>
				<port id="2" precision="FP16">
					<dim>8</dim>
					<dim>1</dim>
					<dim>1</dim>
					<dim>3</dim>
					<dim>3</dim>
				</port>
			</output>
		</layer>
		<layer id="107" name="bottleneck1_2/inner/dw1/conv/WithoutBiases" type="GroupConvolution" version="opset1">
			<data dilations="1,1" output_padding="0,0" pads_begin="1,1" pads_end="1,1" strides="1,1"/>
			<input>
				<port id="0">
					<dim>1</dim>
					<dim>8</dim>
					<dim>48</dim>
					<dim>24</dim>
				</port>
				<port id="1">
					<dim>8</dim>
					<dim>1</dim>
					<dim>1</dim>
					<dim>3</dim>
					<dim>3</dim>
				</port>
			</input>
			<output>
				<port id="2" precision="FP16">
					<dim>1</dim>
					<dim>8</dim>
					<dim>48</dim>
					<dim>24</dim>
				</port>
			</output>
		</layer>
		<layer id="108" name="bottleneck1_2/inner/dw1/conv/Dims2175/copy_const308_const" type="Const" version="opset1">
			<data element_type="f16" offset="2476" shape="1,8,1,1" size="16"/>
			<output>
				<port id="1" precision="FP16">
					<dim>1</dim>
					<dim>8</dim>
					<dim>1</dim>
					<dim>1</dim>
				</port>
			</output>
		</layer>
		<layer id="109" name="bottleneck1_2/inner/dw1/conv" type="Add" version="opset1">
			<input>
				<port id="0">
					<dim>1</dim>
					<dim>8</dim>
					<dim>48</dim>
					<dim>24</dim>
				</port>
				<port id="1">
					<dim>1</dim>
					<dim>8</dim>
					<dim>1</dim>
					<dim>1</dim>
				</port>
			</input>
			<output>
				<port id="2" precision="FP16">
					<dim>1</dim>
					<dim>8</dim>
					<dim>48</dim>
					<dim>24</dim>
				</port>
			</output>
		</layer>
		<layer id="110" name="bottleneck1_2/inner/dw1/fn" type="Elu" version="opset1">
			<data alpha="1.0"/>
			<input>
				<port id="0">
					<dim>1</dim>
					<dim>8</dim>
					<dim>48</dim>
					<dim>24</dim>
				</port>
			</input>
			<output>
				<port id="1" precision="FP16">
					<dim>1</dim>
					<dim>8</dim>
					<dim>48</dim>
					<dim>24</dim>
				</port>
			</output>
		</layer>
		<layer id="111" name="861865_const" type="Const" version="opset1">
			<data element_type="f16" offset="2492" shape="" size="2"/>
			<output>
				<port id="1" precision="FP16"/>
			</output>
		</layer>
		<layer id="112" name="862866_const" type="Const" version="opset1">
			<data element_type="f16" offset="2494" shape="" size="2"/>
			<output>
				<port id="1" precision="FP16"/>
			</output>
		</layer>
		<layer id="113" name="863867_const" type="Const" version="opset1">
			<data element_type="f16" offset="2492" shape="" size="2"/>
			<output>
				<port id="1" precision="FP16"/>
			</output>
		</layer>
		<layer id="114" name="864868_const" type="Const" version="opset1">
			<data element_type="f16" offset="2494" shape="" size="2"/>
			<output>
				<port id="1" precision="FP16"/>
			</output>
		</layer>
		<layer id="115" name="bottleneck1_2/dim_inc/conv/WithoutBiases/fq_input_0" type="FakeQuantize" version="opset1">
			<data levels="256"/>
			<input>
				<port id="0">
					<dim>1</dim>
					<dim>8</dim>
					<dim>48</dim>
					<dim>24</dim>
				</port>
				<port id="1"/>
				<port id="2"/>
				<port id="3"/>
				<port id="4"/>
			</input>
			<output>
				<port id="5" precision="FP16">
					<dim>1</dim>
					<dim>8</dim>
					<dim>48</dim>
					<dim>24</dim>
				</port>
			</output>
		</layer>
		<layer id="116" name="bottleneck1_2/dim_inc/conv/WithoutBiases/fq_weights_1/Convert_to_float/Cast_05041_const" type="Const" version="opset1">
			<data element_type="u8" offset="2496" shape="32,8,1,1" size="256"/>
			<output>
				<port id="1" precision="U8">
					<dim>32</dim>
					<dim>8</dim>
					<dim>1</dim>
					<dim>1</dim>
				</port>
			</output>
		</layer>
		<layer id="117" name="bottleneck1_2/dim_inc/conv/WithoutBiases/fq_weights_1/Convert_to_float" type="Convert" version="opset1">
			<data destination_type="f16"/>
			<input>
				<port id="0">
					<dim>32</dim>
					<dim>8</dim>
					<dim>1</dim>
					<dim>1</dim>
				</port>
			</input>
			<output>
				<port id="1" precision="FP16">
					<dim>32</dim>
					<dim>8</dim>
					<dim>1</dim>
					<dim>1</dim>
				</port>
			</output>
		</layer>
		<layer id="118" name="bottleneck1_2/dim_inc/conv/WithoutBiases/fq_weights_1/Copy/out_low4185_const" type="Const" version="opset1">
			<data element_type="f16" offset="1336" shape="1" size="2"/>
			<output>
				<port id="1" precision="FP16">
					<dim>1</dim>
				</port>
			</output>
		</layer>
		<layer id="119" name="bottleneck1_2/dim_inc/conv/WithoutBiases/fq_weights_1/Copy/out_high4186_const" type="Const" version="opset1">
			<data element_type="f16" offset="882" shape="1" size="2"/>
			<output>
				<port id="1" precision="FP16">
					<dim>1</dim>
				</port>
			</output>
		</layer>
		<layer id="120" name="873877_const" type="Const" version="opset1">
			<data element_type="f16" offset="2752" shape="32,1,1,1" size="64"/>
			<output>
				<port id="1" precision="FP16">
					<dim>32</dim>
					<dim>1</dim>
					<dim>1</dim>
					<dim>1</dim>
				</port>
			</output>
		</layer>
		<layer id="121" name="874878_const" type="Const" version="opset1">
			<data element_type="f16" offset="2816" shape="32,1,1,1" size="64"/>
			<output>
				<port id="1" precision="FP16">
					<dim>32</dim>
					<dim>1</dim>
					<dim>1</dim>
					<dim>1</dim>
				</port>
			</output>
		</layer>
		<layer id="122" name="bottleneck1_2/dim_inc/conv/WithoutBiases/fq_weights_1" type="FakeQuantize" version="opset1">
			<data levels="255"/>
			<input>
				<port id="0">
					<dim>32</dim>
					<dim>8</dim>
					<dim>1</dim>
					<dim>1</dim>
				</port>
				<port id="1">
					<dim>1</dim>
				</port>
				<port id="2">
					<dim>1</dim>
				</port>
				<port id="3">
					<dim>32</dim>
					<dim>1</dim>
					<dim>1</dim>
					<dim>1</dim>
				</port>
				<port id="4">
					<dim>32</dim>
					<dim>1</dim>
					<dim>1</dim>
					<dim>1</dim>
				</port>
			</input>
			<output>
				<port id="5" precision="FP16">
					<dim>32</dim>
					<dim>8</dim>
					<dim>1</dim>
					<dim>1</dim>
				</port>
			</output>
		</layer>
		<layer id="123" name="bottleneck1_2/dim_inc/conv/WithoutBiases" type="Convolution" version="opset1">
			<data dilations="1,1" output_padding="0,0" pads_begin="0,0" pads_end="0,0" strides="1,1"/>
			<input>
				<port id="0">
					<dim>1</dim>
					<dim>8</dim>
					<dim>48</dim>
					<dim>24</dim>
				</port>
				<port id="1">
					<dim>32</dim>
					<dim>8</dim>
					<dim>1</dim>
					<dim>1</dim>
				</port>
			</input>
			<output>
				<port id="2" precision="FP16">
					<dim>1</dim>
					<dim>32</dim>
					<dim>48</dim>
					<dim>24</dim>
				</port>
			</output>
		</layer>
		<layer id="124" name="bottleneck1_2/dim_inc/conv/Dims2259/copy_const313_const" type="Const" version="opset1">
			<data element_type="f16" offset="2880" shape="1,32,1,1" size="64"/>
			<output>
				<port id="1" precision="FP16">
					<dim>1</dim>
					<dim>32</dim>
					<dim>1</dim>
					<dim>1</dim>
				</port>
			</output>
		</layer>
		<layer id="125" name="bottleneck1_2/dim_inc/conv" type="Add" version="opset1">
			<input>
				<port id="0">
					<dim>1</dim>
					<dim>32</dim>
					<dim>48</dim>
					<dim>24</dim>
				</port>
				<port id="1">
					<dim>1</dim>
					<dim>32</dim>
					<dim>1</dim>
					<dim>1</dim>
				</port>
			</input>
			<output>
				<port id="2" precision="FP16">
					<dim>1</dim>
					<dim>32</dim>
					<dim>48</dim>
					<dim>24</dim>
				</port>
			</output>
		</layer>
		<layer id="126" name="11311135_const" type="Const" version="opset1">
			<data element_type="f16" offset="2944" shape="" size="2"/>
			<output>
				<port id="1" precision="FP16"/>
			</output>
		</layer>
		<layer id="127" name="11321136_const" type="Const" version="opset1">
			<data element_type="f16" offset="2946" shape="" size="2"/>
			<output>
				<port id="1" precision="FP16"/>
			</output>
		</layer>
		<layer id="128" name="11331137_const" type="Const" version="opset1">
			<data element_type="f16" offset="2944" shape="" size="2"/>
			<output>
				<port id="1" precision="FP16"/>
			</output>
		</layer>
		<layer id="129" name="11341138_const" type="Const" version="opset1">
			<data element_type="f16" offset="2946" shape="" size="2"/>
			<output>
				<port id="1" precision="FP16"/>
			</output>
		</layer>
		<layer id="130" name="bottleneck1_2/add/fq_input_1" type="FakeQuantize" version="opset1">
			<data levels="256"/>
			<input>
				<port id="0">
					<dim>1</dim>
					<dim>32</dim>
					<dim>48</dim>
					<dim>24</dim>
				</port>
				<port id="1"/>
				<port id="2"/>
				<port id="3"/>
				<port id="4"/>
			</input>
			<output>
				<port id="5" precision="FP16">
					<dim>1</dim>
					<dim>32</dim>
					<dim>48</dim>
					<dim>24</dim>
				</port>
			</output>
		</layer>
		<layer id="131" name="bottleneck1_2/add" type="Add" version="opset1">
			<input>
				<port id="0">
					<dim>1</dim>
					<dim>32</dim>
					<dim>48</dim>
					<dim>24</dim>
				</port>
				<port id="1">
					<dim>1</dim>
					<dim>32</dim>
					<dim>48</dim>
					<dim>24</dim>
				</port>
			</input>
			<output>
				<port id="2" precision="FP16">
					<dim>1</dim>
					<dim>32</dim>
					<dim>48</dim>
					<dim>24</dim>
				</port>
			</output>
		</layer>
		<layer id="132" name="bottleneck1_2/fn" type="Elu" version="opset1">
			<data alpha="1.0"/>
			<input>
				<port id="0">
					<dim>1</dim>
					<dim>32</dim>
					<dim>48</dim>
					<dim>24</dim>
				</port>
			</input>
			<output>
				<port id="1" precision="FP16">
					<dim>1</dim>
					<dim>32</dim>
					<dim>48</dim>
					<dim>24</dim>
				</port>
			</output>
		</layer>
		<layer id="133" name="941945_const" type="Const" version="opset1">
			<data element_type="f16" offset="2948" shape="" size="2"/>
			<output>
				<port id="1" precision="FP16"/>
			</output>
		</layer>
		<layer id="134" name="942946_const" type="Const" version="opset1">
			<data element_type="f16" offset="2950" shape="" size="2"/>
			<output>
				<port id="1" precision="FP16"/>
			</output>
		</layer>
		<layer id="135" name="943947_const" type="Const" version="opset1">
			<data element_type="f16" offset="2948" shape="" size="2"/>
			<output>
				<port id="1" precision="FP16"/>
			</output>
		</layer>
		<layer id="136" name="944948_const" type="Const" version="opset1">
			<data element_type="f16" offset="2950" shape="" size="2"/>
			<output>
				<port id="1" precision="FP16"/>
			</output>
		</layer>
		<layer id="137" name="bottleneck1_3/add/fq_input_0" type="FakeQuantize" version="opset1">
			<data levels="256"/>
			<input>
				<port id="0">
					<dim>1</dim>
					<dim>32</dim>
					<dim>48</dim>
					<dim>24</dim>
				</port>
				<port id="1"/>
				<port id="2"/>
				<port id="3"/>
				<port id="4"/>
			</input>
			<output>
				<port id="5" precision="FP16">
					<dim>1</dim>
					<dim>32</dim>
					<dim>48</dim>
					<dim>24</dim>
				</port>
			</output>
		</layer>
		<layer id="138" name="bottleneck1_3/dim_red/conv/WithoutBiases/fq_weights_1/Convert_to_float/Cast_05061_const" type="Const" version="opset1">
			<data element_type="u8" offset="2952" shape="8,32,1,1" size="256"/>
			<output>
				<port id="1" precision="U8">
					<dim>8</dim>
					<dim>32</dim>
					<dim>1</dim>
					<dim>1</dim>
				</port>
			</output>
		</layer>
		<layer id="139" name="bottleneck1_3/dim_red/conv/WithoutBiases/fq_weights_1/Convert_to_float" type="Convert" version="opset1">
			<data destination_type="f16"/>
			<input>
				<port id="0">
					<dim>8</dim>
					<dim>32</dim>
					<dim>1</dim>
					<dim>1</dim>
				</port>
			</input>
			<output>
				<port id="1" precision="FP16">
					<dim>8</dim>
					<dim>32</dim>
					<dim>1</dim>
					<dim>1</dim>
				</port>
			</output>
		</layer>
		<layer id="140" name="bottleneck1_3/dim_red/conv/WithoutBiases/fq_weights_1/Copy/out_low4137_const" type="Const" version="opset1">
			<data element_type="f16" offset="1336" shape="1" size="2"/>
			<output>
				<port id="1" precision="FP16">
					<dim>1</dim>
				</port>
			</output>
		</layer>
		<layer id="141" name="bottleneck1_3/dim_red/conv/WithoutBiases/fq_weights_1/Copy/out_high4138_const" type="Const" version="opset1">
			<data element_type="f16" offset="882" shape="1" size="2"/>
			<output>
				<port id="1" precision="FP16">
					<dim>1</dim>
				</port>
			</output>
		</layer>
		<layer id="142" name="13131317_const" type="Const" version="opset1">
			<data element_type="f16" offset="3208" shape="8,1,1,1" size="16"/>
			<output>
				<port id="1" precision="FP16">
					<dim>8</dim>
					<dim>1</dim>
					<dim>1</dim>
					<dim>1</dim>
				</port>
			</output>
		</layer>
		<layer id="143" name="13141318_const" type="Const" version="opset1">
			<data element_type="f16" offset="3224" shape="8,1,1,1" size="16"/>
			<output>
				<port id="1" precision="FP16">
					<dim>8</dim>
					<dim>1</dim>
					<dim>1</dim>
					<dim>1</dim>
				</port>
			</output>
		</layer>
		<layer id="144" name="bottleneck1_3/dim_red/conv/WithoutBiases/fq_weights_1" type="FakeQuantize" version="opset1">
			<data levels="255"/>
			<input>
				<port id="0">
					<dim>8</dim>
					<dim>32</dim>
					<dim>1</dim>
					<dim>1</dim>
				</port>
				<port id="1">
					<dim>1</dim>
				</port>
				<port id="2">
					<dim>1</dim>
				</port>
				<port id="3">
					<dim>8</dim>
					<dim>1</dim>
					<dim>1</dim>
					<dim>1</dim>
				</port>
				<port id="4">
					<dim>8</dim>
					<dim>1</dim>
					<dim>1</dim>
					<dim>1</dim>
				</port>
			</input>
			<output>
				<port id="5" precision="FP16">
					<dim>8</dim>
					<dim>32</dim>
					<dim>1</dim>
					<dim>1</dim>
				</port>
			</output>
		</layer>
		<layer id="145" name="bottleneck1_3/dim_red/conv/WithoutBiases" type="Convolution" version="opset1">
			<data dilations="1,1" output_padding="0,0" pads_begin="0,0" pads_end="0,0" strides="1,1"/>
			<input>
				<port id="0">
					<dim>1</dim>
					<dim>32</dim>
					<dim>48</dim>
					<dim>24</dim>
				</port>
				<port id="1">
					<dim>8</dim>
					<dim>32</dim>
					<dim>1</dim>
					<dim>1</dim>
				</port>
			</input>
			<output>
				<port id="2" precision="FP16">
					<dim>1</dim>
					<dim>8</dim>
					<dim>48</dim>
					<dim>24</dim>
				</port>
			</output>
		</layer>
		<layer id="146" name="bottleneck1_3/dim_red/conv/Dims2169/copy_const319_const" type="Const" version="opset1">
			<data element_type="f16" offset="3240" shape="1,8,1,1" size="16"/>
			<output>
				<port id="1" precision="FP16">
					<dim>1</dim>
					<dim>8</dim>
					<dim>1</dim>
					<dim>1</dim>
				</port>
			</output>
		</layer>
		<layer id="147" name="bottleneck1_3/dim_red/conv" type="Add" version="opset1">
			<input>
				<port id="0">
					<dim>1</dim>
					<dim>8</dim>
					<dim>48</dim>
					<dim>24</dim>
				</port>
				<port id="1">
					<dim>1</dim>
					<dim>8</dim>
					<dim>1</dim>
					<dim>1</dim>
				</port>
			</input>
			<output>
				<port id="2" precision="FP16">
					<dim>1</dim>
					<dim>8</dim>
					<dim>48</dim>
					<dim>24</dim>
				</port>
			</output>
		</layer>
		<layer id="148" name="bottleneck1_3/dim_red/fn" type="Elu" version="opset1">
			<data alpha="1.0"/>
			<input>
				<port id="0">
					<dim>1</dim>
					<dim>8</dim>
					<dim>48</dim>
					<dim>24</dim>
				</port>
			</input>
			<output>
				<port id="1" precision="FP16">
					<dim>1</dim>
					<dim>8</dim>
					<dim>48</dim>
					<dim>24</dim>
				</port>
			</output>
		</layer>
		<layer id="149" name="19011905_const" type="Const" version="opset1">
			<data element_type="f16" offset="3256" shape="1,8,1,1" size="16"/>
			<output>
				<port id="1" precision="FP16">
					<dim>1</dim>
					<dim>8</dim>
					<dim>1</dim>
					<dim>1</dim>
				</port>
			</output>
		</layer>
		<layer id="150" name="19021906_const" type="Const" version="opset1">
			<data element_type="f16" offset="3272" shape="1,8,1,1" size="16"/>
			<output>
				<port id="1" precision="FP16">
					<dim>1</dim>
					<dim>8</dim>
					<dim>1</dim>
					<dim>1</dim>
				</port>
			</output>
		</layer>
		<layer id="151" name="19031907_const" type="Const" version="opset1">
			<data element_type="f16" offset="3256" shape="1,8,1,1" size="16"/>
			<output>
				<port id="1" precision="FP16">
					<dim>1</dim>
					<dim>8</dim>
					<dim>1</dim>
					<dim>1</dim>
				</port>
			</output>
		</layer>
		<layer id="152" name="19041908_const" type="Const" version="opset1">
			<data element_type="f16" offset="3272" shape="1,8,1,1" size="16"/>
			<output>
				<port id="1" precision="FP16">
					<dim>1</dim>
					<dim>8</dim>
					<dim>1</dim>
					<dim>1</dim>
				</port>
			</output>
		</layer>
		<layer id="153" name="bottleneck1_3/inner/dw1/conv/WithoutBiases/fq_input_0" type="FakeQuantize" version="opset1">
			<data levels="256"/>
			<input>
				<port id="0">
					<dim>1</dim>
					<dim>8</dim>
					<dim>48</dim>
					<dim>24</dim>
				</port>
				<port id="1">
					<dim>1</dim>
					<dim>8</dim>
					<dim>1</dim>
					<dim>1</dim>
				</port>
				<port id="2">
					<dim>1</dim>
					<dim>8</dim>
					<dim>1</dim>
					<dim>1</dim>
				</port>
				<port id="3">
					<dim>1</dim>
					<dim>8</dim>
					<dim>1</dim>
					<dim>1</dim>
				</port>
				<port id="4">
					<dim>1</dim>
					<dim>8</dim>
					<dim>1</dim>
					<dim>1</dim>
				</port>
			</input>
			<output>
				<port id="5" precision="FP16">
					<dim>1</dim>
					<dim>8</dim>
					<dim>48</dim>
					<dim>24</dim>
				</port>
			</output>
		</layer>
		<layer id="154" name="bottleneck1_3/inner/dw1/conv/WithoutBiases/fq_weights_1/Convert_to_float/Cast_05069_const" type="Const" version="opset1">
			<data element_type="u8" offset="3288" shape="8,1,3,3" size="72"/>
			<output>
				<port id="1" precision="U8">
					<dim>8</dim>
					<dim>1</dim>
					<dim>3</dim>
					<dim>3</dim>
				</port>
			</output>
		</layer>
		<layer id="155" name="bottleneck1_3/inner/dw1/conv/WithoutBiases/fq_weights_1/Convert_to_float" type="Convert" version="opset1">
			<data destination_type="f16"/>
			<input>
				<port id="0">
					<dim>8</dim>
					<dim>1</dim>
					<dim>3</dim>
					<dim>3</dim>
				</port>
			</input>
			<output>
				<port id="1" precision="FP16">
					<dim>8</dim>
					<dim>1</dim>
					<dim>3</dim>
					<dim>3</dim>
				</port>
			</output>
		</layer>
		<layer id="156" name="bottleneck1_3/inner/dw1/conv/WithoutBiases/fq_weights_1/Copy/out_low4321_const" type="Const" version="opset1">
			<data element_type="f16" offset="1336" shape="1" size="2"/>
			<output>
				<port id="1" precision="FP16">
					<dim>1</dim>
				</port>
			</output>
		</layer>
		<layer id="157" name="bottleneck1_3/inner/dw1/conv/WithoutBiases/fq_weights_1/Copy/out_high4322_const" type="Const" version="opset1">
			<data element_type="f16" offset="882" shape="1" size="2"/>
			<output>
				<port id="1" precision="FP16">
					<dim>1</dim>
				</port>
			</output>
		</layer>
		<layer id="158" name="19131917_const" type="Const" version="opset1">
			<data element_type="f16" offset="3360" shape="8,1,1,1" size="16"/>
			<output>
				<port id="1" precision="FP16">
					<dim>8</dim>
					<dim>1</dim>
					<dim>1</dim>
					<dim>1</dim>
				</port>
			</output>
		</layer>
		<layer id="159" name="19141918_const" type="Const" version="opset1">
			<data element_type="f16" offset="3376" shape="8,1,1,1" size="16"/>
			<output>
				<port id="1" precision="FP16">
					<dim>8</dim>
					<dim>1</dim>
					<dim>1</dim>
					<dim>1</dim>
				</port>
			</output>
		</layer>
		<layer id="160" name="bottleneck1_3/inner/dw1/conv/WithoutBiases/fq_weights_1" type="FakeQuantize" version="opset1">
			<data levels="255"/>
			<input>
				<port id="0">
					<dim>8</dim>
					<dim>1</dim>
					<dim>3</dim>
					<dim>3</dim>
				</port>
				<port id="1">
					<dim>1</dim>
				</port>
				<port id="2">
					<dim>1</dim>
				</port>
				<port id="3">
					<dim>8</dim>
					<dim>1</dim>
					<dim>1</dim>
					<dim>1</dim>
				</port>
				<port id="4">
					<dim>8</dim>
					<dim>1</dim>
					<dim>1</dim>
					<dim>1</dim>
				</port>
			</input>
			<output>
				<port id="5" precision="FP16">
					<dim>8</dim>
					<dim>1</dim>
					<dim>3</dim>
					<dim>3</dim>
				</port>
			</output>
		</layer>
		<layer id="161" name="5708/value5710_const" type="Const" version="opset1">
			<data element_type="i64" offset="1522" shape="5" size="40"/>
			<output>
				<port id="1" precision="I64">
					<dim>5</dim>
				</port>
			</output>
		</layer>
		<layer id="162" name="5708" type="Reshape" version="opset1">
			<data special_zero="True"/>
			<input>
				<port id="0">
					<dim>8</dim>
					<dim>1</dim>
					<dim>3</dim>
					<dim>3</dim>
				</port>
				<port id="1">
					<dim>5</dim>
				</port>
			</input>
			<output>
				<port id="2" precision="FP16">
					<dim>8</dim>
					<dim>1</dim>
					<dim>1</dim>
					<dim>3</dim>
					<dim>3</dim>
				</port>
			</output>
		</layer>
		<layer id="163" name="bottleneck1_3/inner/dw1/conv/WithoutBiases" type="GroupConvolution" version="opset1">
			<data dilations="1,1" output_padding="0,0" pads_begin="1,1" pads_end="1,1" strides="1,1"/>
			<input>
				<port id="0">
					<dim>1</dim>
					<dim>8</dim>
					<dim>48</dim>
					<dim>24</dim>
				</port>
				<port id="1">
					<dim>8</dim>
					<dim>1</dim>
					<dim>1</dim>
					<dim>3</dim>
					<dim>3</dim>
				</port>
			</input>
			<output>
				<port id="2" precision="FP16">
					<dim>1</dim>
					<dim>8</dim>
					<dim>48</dim>
					<dim>24</dim>
				</port>
			</output>
		</layer>
		<layer id="164" name="bottleneck1_3/inner/dw1/conv/Dims2373/copy_const324_const" type="Const" version="opset1">
			<data element_type="f16" offset="3392" shape="1,8,1,1" size="16"/>
			<output>
				<port id="1" precision="FP16">
					<dim>1</dim>
					<dim>8</dim>
					<dim>1</dim>
					<dim>1</dim>
				</port>
			</output>
		</layer>
		<layer id="165" name="bottleneck1_3/inner/dw1/conv" type="Add" version="opset1">
			<input>
				<port id="0">
					<dim>1</dim>
					<dim>8</dim>
					<dim>48</dim>
					<dim>24</dim>
				</port>
				<port id="1">
					<dim>1</dim>
					<dim>8</dim>
					<dim>1</dim>
					<dim>1</dim>
				</port>
			</input>
			<output>
				<port id="2" precision="FP16">
					<dim>1</dim>
					<dim>8</dim>
					<dim>48</dim>
					<dim>24</dim>
				</port>
			</output>
		</layer>
		<layer id="166" name="bottleneck1_3/inner/dw1/fn" type="Elu" version="opset1">
			<data alpha="1.0"/>
			<input>
				<port id="0">
					<dim>1</dim>
					<dim>8</dim>
					<dim>48</dim>
					<dim>24</dim>
				</port>
			</input>
			<output>
				<port id="1" precision="FP16">
					<dim>1</dim>
					<dim>8</dim>
					<dim>48</dim>
					<dim>24</dim>
				</port>
			</output>
		</layer>
		<layer id="167" name="15211525_const" type="Const" version="opset1">
			<data element_type="f16" offset="3408" shape="" size="2"/>
			<output>
				<port id="1" precision="FP16"/>
			</output>
		</layer>
		<layer id="168" name="15221526_const" type="Const" version="opset1">
			<data element_type="f16" offset="3410" shape="" size="2"/>
			<output>
				<port id="1" precision="FP16"/>
			</output>
		</layer>
		<layer id="169" name="15231527_const" type="Const" version="opset1">
			<data element_type="f16" offset="3408" shape="" size="2"/>
			<output>
				<port id="1" precision="FP16"/>
			</output>
		</layer>
		<layer id="170" name="15241528_const" type="Const" version="opset1">
			<data element_type="f16" offset="3410" shape="" size="2"/>
			<output>
				<port id="1" precision="FP16"/>
			</output>
		</layer>
		<layer id="171" name="bottleneck1_3/dim_inc/conv/WithoutBiases/fq_input_0" type="FakeQuantize" version="opset1">
			<data levels="256"/>
			<input>
				<port id="0">
					<dim>1</dim>
					<dim>8</dim>
					<dim>48</dim>
					<dim>24</dim>
				</port>
				<port id="1"/>
				<port id="2"/>
				<port id="3"/>
				<port id="4"/>
			</input>
			<output>
				<port id="5" precision="FP16">
					<dim>1</dim>
					<dim>8</dim>
					<dim>48</dim>
					<dim>24</dim>
				</port>
			</output>
		</layer>
		<layer id="172" name="bottleneck1_3/dim_inc/conv/WithoutBiases/fq_weights_1/Convert_to_float/Cast_04993_const" type="Const" version="opset1">
			<data element_type="u8" offset="3412" shape="32,8,1,1" size="256"/>
			<output>
				<port id="1" precision="U8">
					<dim>32</dim>
					<dim>8</dim>
					<dim>1</dim>
					<dim>1</dim>
				</port>
			</output>
		</layer>
		<layer id="173" name="bottleneck1_3/dim_inc/conv/WithoutBiases/fq_weights_1/Convert_to_float" type="Convert" version="opset1">
			<data destination_type="f16"/>
			<input>
				<port id="0">
					<dim>32</dim>
					<dim>8</dim>
					<dim>1</dim>
					<dim>1</dim>
				</port>
			</input>
			<output>
				<port id="1" precision="FP16">
					<dim>32</dim>
					<dim>8</dim>
					<dim>1</dim>
					<dim>1</dim>
				</port>
			</output>
		</layer>
		<layer id="174" name="bottleneck1_3/dim_inc/conv/WithoutBiases/fq_weights_1/Copy/out_low4297_const" type="Const" version="opset1">
			<data element_type="f16" offset="1336" shape="1" size="2"/>
			<output>
				<port id="1" precision="FP16">
					<dim>1</dim>
				</port>
			</output>
		</layer>
		<layer id="175" name="bottleneck1_3/dim_inc/conv/WithoutBiases/fq_weights_1/Copy/out_high4298_const" type="Const" version="opset1">
			<data element_type="f16" offset="882" shape="1" size="2"/>
			<output>
				<port id="1" precision="FP16">
					<dim>1</dim>
				</port>
			</output>
		</layer>
		<layer id="176" name="15331537_const" type="Const" version="opset1">
			<data element_type="f16" offset="3668" shape="32,1,1,1" size="64"/>
			<output>
				<port id="1" precision="FP16">
					<dim>32</dim>
					<dim>1</dim>
					<dim>1</dim>
					<dim>1</dim>
				</port>
			</output>
		</layer>
		<layer id="177" name="15341538_const" type="Const" version="opset1">
			<data element_type="f16" offset="3732" shape="32,1,1,1" size="64"/>
			<output>
				<port id="1" precision="FP16">
					<dim>32</dim>
					<dim>1</dim>
					<dim>1</dim>
					<dim>1</dim>
				</port>
			</output>
		</layer>
		<layer id="178" name="bottleneck1_3/dim_inc/conv/WithoutBiases/fq_weights_1" type="FakeQuantize" version="opset1">
			<data levels="255"/>
			<input>
				<port id="0">
					<dim>32</dim>
					<dim>8</dim>
					<dim>1</dim>
					<dim>1</dim>
				</port>
				<port id="1">
					<dim>1</dim>
				</port>
				<port id="2">
					<dim>1</dim>
				</port>
				<port id="3">
					<dim>32</dim>
					<dim>1</dim>
					<dim>1</dim>
					<dim>1</dim>
				</port>
				<port id="4">
					<dim>32</dim>
					<dim>1</dim>
					<dim>1</dim>
					<dim>1</dim>
				</port>
			</input>
			<output>
				<port id="5" precision="FP16">
					<dim>32</dim>
					<dim>8</dim>
					<dim>1</dim>
					<dim>1</dim>
				</port>
			</output>
		</layer>
		<layer id="179" name="bottleneck1_3/dim_inc/conv/WithoutBiases" type="Convolution" version="opset1">
			<data dilations="1,1" output_padding="0,0" pads_begin="0,0" pads_end="0,0" strides="1,1"/>
			<input>
				<port id="0">
					<dim>1</dim>
					<dim>8</dim>
					<dim>48</dim>
					<dim>24</dim>
				</port>
				<port id="1">
					<dim>32</dim>
					<dim>8</dim>
					<dim>1</dim>
					<dim>1</dim>
				</port>
			</input>
			<output>
				<port id="2" precision="FP16">
					<dim>1</dim>
					<dim>32</dim>
					<dim>48</dim>
					<dim>24</dim>
				</port>
			</output>
		</layer>
		<layer id="180" name="bottleneck1_3/dim_inc/conv/Dims2427/copy_const329_const" type="Const" version="opset1">
			<data element_type="f16" offset="3796" shape="1,32,1,1" size="64"/>
			<output>
				<port id="1" precision="FP16">
					<dim>1</dim>
					<dim>32</dim>
					<dim>1</dim>
					<dim>1</dim>
				</port>
			</output>
		</layer>
		<layer id="181" name="bottleneck1_3/dim_inc/conv" type="Add" version="opset1">
			<input>
				<port id="0">
					<dim>1</dim>
					<dim>32</dim>
					<dim>48</dim>
					<dim>24</dim>
				</port>
				<port id="1">
					<dim>1</dim>
					<dim>32</dim>
					<dim>1</dim>
					<dim>1</dim>
				</port>
			</input>
			<output>
				<port id="2" precision="FP16">
					<dim>1</dim>
					<dim>32</dim>
					<dim>48</dim>
					<dim>24</dim>
				</port>
			</output>
		</layer>
		<layer id="182" name="951955_const" type="Const" version="opset1">
			<data element_type="f16" offset="3860" shape="" size="2"/>
			<output>
				<port id="1" precision="FP16"/>
			</output>
		</layer>
		<layer id="183" name="952956_const" type="Const" version="opset1">
			<data element_type="f16" offset="3862" shape="" size="2"/>
			<output>
				<port id="1" precision="FP16"/>
			</output>
		</layer>
		<layer id="184" name="953957_const" type="Const" version="opset1">
			<data element_type="f16" offset="3860" shape="" size="2"/>
			<output>
				<port id="1" precision="FP16"/>
			</output>
		</layer>
		<layer id="185" name="954958_const" type="Const" version="opset1">
			<data element_type="f16" offset="3862" shape="" size="2"/>
			<output>
				<port id="1" precision="FP16"/>
			</output>
		</layer>
		<layer id="186" name="bottleneck1_3/add/fq_input_1" type="FakeQuantize" version="opset1">
			<data levels="256"/>
			<input>
				<port id="0">
					<dim>1</dim>
					<dim>32</dim>
					<dim>48</dim>
					<dim>24</dim>
				</port>
				<port id="1"/>
				<port id="2"/>
				<port id="3"/>
				<port id="4"/>
			</input>
			<output>
				<port id="5" precision="FP16">
					<dim>1</dim>
					<dim>32</dim>
					<dim>48</dim>
					<dim>24</dim>
				</port>
			</output>
		</layer>
		<layer id="187" name="bottleneck1_3/add" type="Add" version="opset1">
			<input>
				<port id="0">
					<dim>1</dim>
					<dim>32</dim>
					<dim>48</dim>
					<dim>24</dim>
				</port>
				<port id="1">
					<dim>1</dim>
					<dim>32</dim>
					<dim>48</dim>
					<dim>24</dim>
				</port>
			</input>
			<output>
				<port id="2" precision="FP16">
					<dim>1</dim>
					<dim>32</dim>
					<dim>48</dim>
					<dim>24</dim>
				</port>
			</output>
		</layer>
		<layer id="188" name="bottleneck1_3/fn" type="Elu" version="opset1">
			<data alpha="1.0"/>
			<input>
				<port id="0">
					<dim>1</dim>
					<dim>32</dim>
					<dim>48</dim>
					<dim>24</dim>
				</port>
			</input>
			<output>
				<port id="1" precision="FP16">
					<dim>1</dim>
					<dim>32</dim>
					<dim>48</dim>
					<dim>24</dim>
				</port>
			</output>
		</layer>
		<layer id="189" name="21212125_const" type="Const" version="opset1">
			<data element_type="f16" offset="3864" shape="" size="2"/>
			<output>
				<port id="1" precision="FP16"/>
			</output>
		</layer>
		<layer id="190" name="21222126_const" type="Const" version="opset1">
			<data element_type="f16" offset="3866" shape="" size="2"/>
			<output>
				<port id="1" precision="FP16"/>
			</output>
		</layer>
		<layer id="191" name="21232127_const" type="Const" version="opset1">
			<data element_type="f16" offset="3864" shape="" size="2"/>
			<output>
				<port id="1" precision="FP16"/>
			</output>
		</layer>
		<layer id="192" name="21242128_const" type="Const" version="opset1">
			<data element_type="f16" offset="3866" shape="" size="2"/>
			<output>
				<port id="1" precision="FP16"/>
			</output>
		</layer>
		<layer id="193" name="bottleneck2_0/dim_red/conv/WithoutBiases/fq_input_0" type="FakeQuantize" version="opset1">
			<data levels="256"/>
			<input>
				<port id="0">
					<dim>1</dim>
					<dim>32</dim>
					<dim>48</dim>
					<dim>24</dim>
				</port>
				<port id="1"/>
				<port id="2"/>
				<port id="3"/>
				<port id="4"/>
			</input>
			<output>
				<port id="5" precision="FP16">
					<dim>1</dim>
					<dim>32</dim>
					<dim>48</dim>
					<dim>24</dim>
				</port>
			</output>
		</layer>
		<layer id="194" name="bottleneck2_0/skip/pooling" type="MaxPool" version="opset1">
			<data kernel="2,2" pads_begin="0,0" pads_end="0,0" rounding_type="ceil" strides="2,2"/>
			<input>
				<port id="0">
					<dim>1</dim>
					<dim>32</dim>
					<dim>48</dim>
					<dim>24</dim>
				</port>
			</input>
			<output>
				<port id="1" precision="FP16">
					<dim>1</dim>
					<dim>32</dim>
					<dim>24</dim>
					<dim>12</dim>
				</port>
			</output>
		</layer>
		<layer id="195" name="bottleneck2_0/skip/conv/WithoutBiases/fq_weights_1/Convert_to_float/Cast_05055_const" type="Const" version="opset1">
			<data element_type="u8" offset="3868" shape="64,32,1,1" size="2048"/>
			<output>
				<port id="1" precision="U8">
					<dim>64</dim>
					<dim>32</dim>
					<dim>1</dim>
					<dim>1</dim>
				</port>
			</output>
		</layer>
		<layer id="196" name="bottleneck2_0/skip/conv/WithoutBiases/fq_weights_1/Convert_to_float" type="Convert" version="opset1">
			<data destination_type="f16"/>
			<input>
				<port id="0">
					<dim>64</dim>
					<dim>32</dim>
					<dim>1</dim>
					<dim>1</dim>
				</port>
			</input>
			<output>
				<port id="1" precision="FP16">
					<dim>64</dim>
					<dim>32</dim>
					<dim>1</dim>
					<dim>1</dim>
				</port>
			</output>
		</layer>
		<layer id="197" name="bottleneck2_0/skip/conv/WithoutBiases/fq_weights_1/Copy/out_low4289_const" type="Const" version="opset1">
			<data element_type="f16" offset="1336" shape="1" size="2"/>
			<output>
				<port id="1" precision="FP16">
					<dim>1</dim>
				</port>
			</output>
		</layer>
		<layer id="198" name="bottleneck2_0/skip/conv/WithoutBiases/fq_weights_1/Copy/out_high4290_const" type="Const" version="opset1">
			<data element_type="f16" offset="882" shape="1" size="2"/>
			<output>
				<port id="1" precision="FP16">
					<dim>1</dim>
				</port>
			</output>
		</layer>
		<layer id="199" name="10331037_const" type="Const" version="opset1">
			<data element_type="f16" offset="5916" shape="64,1,1,1" size="128"/>
			<output>
				<port id="1" precision="FP16">
					<dim>64</dim>
					<dim>1</dim>
					<dim>1</dim>
					<dim>1</dim>
				</port>
			</output>
		</layer>
		<layer id="200" name="10341038_const" type="Const" version="opset1">
			<data element_type="f16" offset="6044" shape="64,1,1,1" size="128"/>
			<output>
				<port id="1" precision="FP16">
					<dim>64</dim>
					<dim>1</dim>
					<dim>1</dim>
					<dim>1</dim>
				</port>
			</output>
		</layer>
		<layer id="201" name="bottleneck2_0/skip/conv/WithoutBiases/fq_weights_1" type="FakeQuantize" version="opset1">
			<data levels="255"/>
			<input>
				<port id="0">
					<dim>64</dim>
					<dim>32</dim>
					<dim>1</dim>
					<dim>1</dim>
				</port>
				<port id="1">
					<dim>1</dim>
				</port>
				<port id="2">
					<dim>1</dim>
				</port>
				<port id="3">
					<dim>64</dim>
					<dim>1</dim>
					<dim>1</dim>
					<dim>1</dim>
				</port>
				<port id="4">
					<dim>64</dim>
					<dim>1</dim>
					<dim>1</dim>
					<dim>1</dim>
				</port>
			</input>
			<output>
				<port id="5" precision="FP16">
					<dim>64</dim>
					<dim>32</dim>
					<dim>1</dim>
					<dim>1</dim>
				</port>
			</output>
		</layer>
		<layer id="202" name="bottleneck2_0/skip/conv/WithoutBiases" type="Convolution" version="opset1">
			<data dilations="1,1" output_padding="0,0" pads_begin="0,0" pads_end="0,0" strides="1,1"/>
			<input>
				<port id="0">
					<dim>1</dim>
					<dim>32</dim>
					<dim>24</dim>
					<dim>12</dim>
				</port>
				<port id="1">
					<dim>64</dim>
					<dim>32</dim>
					<dim>1</dim>
					<dim>1</dim>
				</port>
			</input>
			<output>
				<port id="2" precision="FP16">
					<dim>1</dim>
					<dim>64</dim>
					<dim>24</dim>
					<dim>12</dim>
				</port>
			</output>
		</layer>
		<layer id="203" name="bottleneck2_0/skip/conv/Dims2409/copy_const336_const" type="Const" version="opset1">
			<data element_type="f16" offset="6172" shape="1,64,1,1" size="128"/>
			<output>
				<port id="1" precision="FP16">
					<dim>1</dim>
					<dim>64</dim>
					<dim>1</dim>
					<dim>1</dim>
				</port>
			</output>
		</layer>
		<layer id="204" name="bottleneck2_0/skip/conv" type="Add" version="opset1">
			<input>
				<port id="0">
					<dim>1</dim>
					<dim>64</dim>
					<dim>24</dim>
					<dim>12</dim>
				</port>
				<port id="1">
					<dim>1</dim>
					<dim>64</dim>
					<dim>1</dim>
					<dim>1</dim>
				</port>
			</input>
			<output>
				<port id="2" precision="FP16">
					<dim>1</dim>
					<dim>64</dim>
					<dim>24</dim>
					<dim>12</dim>
				</port>
			</output>
		</layer>
		<layer id="205" name="12011205_const" type="Const" version="opset1">
			<data element_type="f16" offset="6300" shape="" size="2"/>
			<output>
				<port id="1" precision="FP16"/>
			</output>
		</layer>
		<layer id="206" name="12021206_const" type="Const" version="opset1">
			<data element_type="f16" offset="6302" shape="" size="2"/>
			<output>
				<port id="1" precision="FP16"/>
			</output>
		</layer>
		<layer id="207" name="12031207_const" type="Const" version="opset1">
			<data element_type="f16" offset="6300" shape="" size="2"/>
			<output>
				<port id="1" precision="FP16"/>
			</output>
		</layer>
		<layer id="208" name="12041208_const" type="Const" version="opset1">
			<data element_type="f16" offset="6302" shape="" size="2"/>
			<output>
				<port id="1" precision="FP16"/>
			</output>
		</layer>
		<layer id="209" name="bottleneck2_0/add/fq_input_0" type="FakeQuantize" version="opset1">
			<data levels="256"/>
			<input>
				<port id="0">
					<dim>1</dim>
					<dim>64</dim>
					<dim>24</dim>
					<dim>12</dim>
				</port>
				<port id="1"/>
				<port id="2"/>
				<port id="3"/>
				<port id="4"/>
			</input>
			<output>
				<port id="5" precision="FP16">
					<dim>1</dim>
					<dim>64</dim>
					<dim>24</dim>
					<dim>12</dim>
				</port>
			</output>
		</layer>
		<layer id="210" name="bottleneck2_0/dim_red/conv/WithoutBiases/fq_weights_1/Convert_to_float/Cast_05083_const" type="Const" version="opset1">
			<data element_type="u8" offset="6304" shape="16,32,1,1" size="512"/>
			<output>
				<port id="1" precision="U8">
					<dim>16</dim>
					<dim>32</dim>
					<dim>1</dim>
					<dim>1</dim>
				</port>
			</output>
		</layer>
		<layer id="211" name="bottleneck2_0/dim_red/conv/WithoutBiases/fq_weights_1/Convert_to_float" type="Convert" version="opset1">
			<data destination_type="f16"/>
			<input>
				<port id="0">
					<dim>16</dim>
					<dim>32</dim>
					<dim>1</dim>
					<dim>1</dim>
				</port>
			</input>
			<output>
				<port id="1" precision="FP16">
					<dim>16</dim>
					<dim>32</dim>
					<dim>1</dim>
					<dim>1</dim>
				</port>
			</output>
		</layer>
		<layer id="212" name="bottleneck2_0/dim_red/conv/WithoutBiases/fq_weights_1/Copy/out_low4081_const" type="Const" version="opset1">
			<data element_type="f16" offset="1336" shape="1" size="2"/>
			<output>
				<port id="1" precision="FP16">
					<dim>1</dim>
				</port>
			</output>
		</layer>
		<layer id="213" name="bottleneck2_0/dim_red/conv/WithoutBiases/fq_weights_1/Copy/out_high4082_const" type="Const" version="opset1">
			<data element_type="f16" offset="882" shape="1" size="2"/>
			<output>
				<port id="1" precision="FP16">
					<dim>1</dim>
				</port>
			</output>
		</layer>
		<layer id="214" name="21332137_const" type="Const" version="opset1">
			<data element_type="f16" offset="6816" shape="16,1,1,1" size="32"/>
			<output>
				<port id="1" precision="FP16">
					<dim>16</dim>
					<dim>1</dim>
					<dim>1</dim>
					<dim>1</dim>
				</port>
			</output>
		</layer>
		<layer id="215" name="21342138_const" type="Const" version="opset1">
			<data element_type="f16" offset="6848" shape="16,1,1,1" size="32"/>
			<output>
				<port id="1" precision="FP16">
					<dim>16</dim>
					<dim>1</dim>
					<dim>1</dim>
					<dim>1</dim>
				</port>
			</output>
		</layer>
		<layer id="216" name="bottleneck2_0/dim_red/conv/WithoutBiases/fq_weights_1" type="FakeQuantize" version="opset1">
			<data levels="255"/>
			<input>
				<port id="0">
					<dim>16</dim>
					<dim>32</dim>
					<dim>1</dim>
					<dim>1</dim>
				</port>
				<port id="1">
					<dim>1</dim>
				</port>
				<port id="2">
					<dim>1</dim>
				</port>
				<port id="3">
					<dim>16</dim>
					<dim>1</dim>
					<dim>1</dim>
					<dim>1</dim>
				</port>
				<port id="4">
					<dim>16</dim>
					<dim>1</dim>
					<dim>1</dim>
					<dim>1</dim>
				</port>
			</input>
			<output>
				<port id="5" precision="FP16">
					<dim>16</dim>
					<dim>32</dim>
					<dim>1</dim>
					<dim>1</dim>
				</port>
			</output>
		</layer>
		<layer id="217" name="bottleneck2_0/dim_red/conv/WithoutBiases" type="Convolution" version="opset1">
			<data dilations="1,1" output_padding="0,0" pads_begin="0,0" pads_end="0,0" strides="1,1"/>
			<input>
				<port id="0">
					<dim>1</dim>
					<dim>32</dim>
					<dim>48</dim>
					<dim>24</dim>
				</port>
				<port id="1">
					<dim>16</dim>
					<dim>32</dim>
					<dim>1</dim>
					<dim>1</dim>
				</port>
			</input>
			<output>
				<port id="2" precision="FP16">
					<dim>1</dim>
					<dim>16</dim>
					<dim>48</dim>
					<dim>24</dim>
				</port>
			</output>
		</layer>
		<layer id="218" name="bottleneck2_0/dim_red/conv/Dims2319/copy_const340_const" type="Const" version="opset1">
			<data element_type="f16" offset="6880" shape="1,16,1,1" size="32"/>
			<output>
				<port id="1" precision="FP16">
					<dim>1</dim>
					<dim>16</dim>
					<dim>1</dim>
					<dim>1</dim>
				</port>
			</output>
		</layer>
		<layer id="219" name="bottleneck2_0/dim_red/conv" type="Add" version="opset1">
			<input>
				<port id="0">
					<dim>1</dim>
					<dim>16</dim>
					<dim>48</dim>
					<dim>24</dim>
				</port>
				<port id="1">
					<dim>1</dim>
					<dim>16</dim>
					<dim>1</dim>
					<dim>1</dim>
				</port>
			</input>
			<output>
				<port id="2" precision="FP16">
					<dim>1</dim>
					<dim>16</dim>
					<dim>48</dim>
					<dim>24</dim>
				</port>
			</output>
		</layer>
		<layer id="220" name="bottleneck2_0/dim_red/fn" type="Elu" version="opset1">
			<data alpha="1.0"/>
			<input>
				<port id="0">
					<dim>1</dim>
					<dim>16</dim>
					<dim>48</dim>
					<dim>24</dim>
				</port>
			</input>
			<output>
				<port id="1" precision="FP16">
					<dim>1</dim>
					<dim>16</dim>
					<dim>48</dim>
					<dim>24</dim>
				</port>
			</output>
		</layer>
		<layer id="221" name="10411045_const" type="Const" version="opset1">
			<data element_type="f16" offset="6912" shape="1,16,1,1" size="32"/>
			<output>
				<port id="1" precision="FP16">
					<dim>1</dim>
					<dim>16</dim>
					<dim>1</dim>
					<dim>1</dim>
				</port>
			</output>
		</layer>
		<layer id="222" name="10421046_const" type="Const" version="opset1">
			<data element_type="f16" offset="6944" shape="1,16,1,1" size="32"/>
			<output>
				<port id="1" precision="FP16">
					<dim>1</dim>
					<dim>16</dim>
					<dim>1</dim>
					<dim>1</dim>
				</port>
			</output>
		</layer>
		<layer id="223" name="10431047_const" type="Const" version="opset1">
			<data element_type="f16" offset="6912" shape="1,16,1,1" size="32"/>
			<output>
				<port id="1" precision="FP16">
					<dim>1</dim>
					<dim>16</dim>
					<dim>1</dim>
					<dim>1</dim>
				</port>
			</output>
		</layer>
		<layer id="224" name="10441048_const" type="Const" version="opset1">
			<data element_type="f16" offset="6944" shape="1,16,1,1" size="32"/>
			<output>
				<port id="1" precision="FP16">
					<dim>1</dim>
					<dim>16</dim>
					<dim>1</dim>
					<dim>1</dim>
				</port>
			</output>
		</layer>
		<layer id="225" name="bottleneck2_0/inner/dw1/conv/WithoutBiases/fq_input_0" type="FakeQuantize" version="opset1">
			<data levels="256"/>
			<input>
				<port id="0">
					<dim>1</dim>
					<dim>16</dim>
					<dim>48</dim>
					<dim>24</dim>
				</port>
				<port id="1">
					<dim>1</dim>
					<dim>16</dim>
					<dim>1</dim>
					<dim>1</dim>
				</port>
				<port id="2">
					<dim>1</dim>
					<dim>16</dim>
					<dim>1</dim>
					<dim>1</dim>
				</port>
				<port id="3">
					<dim>1</dim>
					<dim>16</dim>
					<dim>1</dim>
					<dim>1</dim>
				</port>
				<port id="4">
					<dim>1</dim>
					<dim>16</dim>
					<dim>1</dim>
					<dim>1</dim>
				</port>
			</input>
			<output>
				<port id="5" precision="FP16">
					<dim>1</dim>
					<dim>16</dim>
					<dim>48</dim>
					<dim>24</dim>
				</port>
			</output>
		</layer>
		<layer id="226" name="bottleneck2_0/inner/dw1/conv/WithoutBiases/fq_weights_1/Convert_to_float/Cast_04987_const" type="Const" version="opset1">
			<data element_type="u8" offset="6976" shape="16,1,3,3" size="144"/>
			<output>
				<port id="1" precision="U8">
					<dim>16</dim>
					<dim>1</dim>
					<dim>3</dim>
					<dim>3</dim>
				</port>
			</output>
		</layer>
		<layer id="227" name="bottleneck2_0/inner/dw1/conv/WithoutBiases/fq_weights_1/Convert_to_float" type="Convert" version="opset1">
			<data destination_type="f16"/>
			<input>
				<port id="0">
					<dim>16</dim>
					<dim>1</dim>
					<dim>3</dim>
					<dim>3</dim>
				</port>
			</input>
			<output>
				<port id="1" precision="FP16">
					<dim>16</dim>
					<dim>1</dim>
					<dim>3</dim>
					<dim>3</dim>
				</port>
			</output>
		</layer>
		<layer id="228" name="bottleneck2_0/inner/dw1/conv/WithoutBiases/fq_weights_1/Copy/out_low4065_const" type="Const" version="opset1">
			<data element_type="f16" offset="1336" shape="1" size="2"/>
			<output>
				<port id="1" precision="FP16">
					<dim>1</dim>
				</port>
			</output>
		</layer>
		<layer id="229" name="bottleneck2_0/inner/dw1/conv/WithoutBiases/fq_weights_1/Copy/out_high4066_const" type="Const" version="opset1">
			<data element_type="f16" offset="882" shape="1" size="2"/>
			<output>
				<port id="1" precision="FP16">
					<dim>1</dim>
				</port>
			</output>
		</layer>
		<layer id="230" name="10531057_const" type="Const" version="opset1">
			<data element_type="f16" offset="7120" shape="16,1,1,1" size="32"/>
			<output>
				<port id="1" precision="FP16">
					<dim>16</dim>
					<dim>1</dim>
					<dim>1</dim>
					<dim>1</dim>
				</port>
			</output>
		</layer>
		<layer id="231" name="10541058_const" type="Const" version="opset1">
			<data element_type="f16" offset="7152" shape="16,1,1,1" size="32"/>
			<output>
				<port id="1" precision="FP16">
					<dim>16</dim>
					<dim>1</dim>
					<dim>1</dim>
					<dim>1</dim>
				</port>
			</output>
		</layer>
		<layer id="232" name="bottleneck2_0/inner/dw1/conv/WithoutBiases/fq_weights_1" type="FakeQuantize" version="opset1">
			<data levels="255"/>
			<input>
				<port id="0">
					<dim>16</dim>
					<dim>1</dim>
					<dim>3</dim>
					<dim>3</dim>
				</port>
				<port id="1">
					<dim>1</dim>
				</port>
				<port id="2">
					<dim>1</dim>
				</port>
				<port id="3">
					<dim>16</dim>
					<dim>1</dim>
					<dim>1</dim>
					<dim>1</dim>
				</port>
				<port id="4">
					<dim>16</dim>
					<dim>1</dim>
					<dim>1</dim>
					<dim>1</dim>
				</port>
			</input>
			<output>
				<port id="5" precision="FP16">
					<dim>16</dim>
					<dim>1</dim>
					<dim>3</dim>
					<dim>3</dim>
				</port>
			</output>
		</layer>
		<layer id="233" name="5696/value5698_const" type="Const" version="opset1">
			<data element_type="i64" offset="7184" shape="5" size="40"/>
			<output>
				<port id="1" precision="I64">
					<dim>5</dim>
				</port>
			</output>
		</layer>
		<layer id="234" name="5696" type="Reshape" version="opset1">
			<data special_zero="True"/>
			<input>
				<port id="0">
					<dim>16</dim>
					<dim>1</dim>
					<dim>3</dim>
					<dim>3</dim>
				</port>
				<port id="1">
					<dim>5</dim>
				</port>
			</input>
			<output>
				<port id="2" precision="FP16">
					<dim>16</dim>
					<dim>1</dim>
					<dim>1</dim>
					<dim>3</dim>
					<dim>3</dim>
				</port>
			</output>
		</layer>
		<layer id="235" name="bottleneck2_0/inner/dw1/conv/WithoutBiases" type="GroupConvolution" version="opset1">
			<data dilations="1,1" output_padding="0,0" pads_begin="1,1" pads_end="1,1" strides="2,2"/>
			<input>
				<port id="0">
					<dim>1</dim>
					<dim>16</dim>
					<dim>48</dim>
					<dim>24</dim>
				</port>
				<port id="1">
					<dim>16</dim>
					<dim>1</dim>
					<dim>1</dim>
					<dim>3</dim>
					<dim>3</dim>
				</port>
			</input>
			<output>
				<port id="2" precision="FP16">
					<dim>1</dim>
					<dim>16</dim>
					<dim>24</dim>
					<dim>12</dim>
				</port>
			</output>
		</layer>
		<layer id="236" name="bottleneck2_0/inner/dw1/conv/Dims2187/copy_const345_const" type="Const" version="opset1">
			<data element_type="f16" offset="7224" shape="1,16,1,1" size="32"/>
			<output>
				<port id="1" precision="FP16">
					<dim>1</dim>
					<dim>16</dim>
					<dim>1</dim>
					<dim>1</dim>
				</port>
			</output>
		</layer>
		<layer id="237" name="bottleneck2_0/inner/dw1/conv" type="Add" version="opset1">
			<input>
				<port id="0">
					<dim>1</dim>
					<dim>16</dim>
					<dim>24</dim>
					<dim>12</dim>
				</port>
				<port id="1">
					<dim>1</dim>
					<dim>16</dim>
					<dim>1</dim>
					<dim>1</dim>
				</port>
			</input>
			<output>
				<port id="2" precision="FP16">
					<dim>1</dim>
					<dim>16</dim>
					<dim>24</dim>
					<dim>12</dim>
				</port>
			</output>
		</layer>
		<layer id="238" name="bottleneck2_0/inner/dw1/fn" type="Elu" version="opset1">
			<data alpha="1.0"/>
			<input>
				<port id="0">
					<dim>1</dim>
					<dim>16</dim>
					<dim>24</dim>
					<dim>12</dim>
				</port>
			</input>
			<output>
				<port id="1" precision="FP16">
					<dim>1</dim>
					<dim>16</dim>
					<dim>24</dim>
					<dim>12</dim>
				</port>
			</output>
		</layer>
		<layer id="239" name="12811285_const" type="Const" version="opset1">
			<data element_type="f16" offset="1578" shape="" size="2"/>
			<output>
				<port id="1" precision="FP16"/>
			</output>
		</layer>
		<layer id="240" name="12821286_const" type="Const" version="opset1">
			<data element_type="f16" offset="7256" shape="" size="2"/>
			<output>
				<port id="1" precision="FP16"/>
			</output>
		</layer>
		<layer id="241" name="12831287_const" type="Const" version="opset1">
			<data element_type="f16" offset="1578" shape="" size="2"/>
			<output>
				<port id="1" precision="FP16"/>
			</output>
		</layer>
		<layer id="242" name="12841288_const" type="Const" version="opset1">
			<data element_type="f16" offset="7256" shape="" size="2"/>
			<output>
				<port id="1" precision="FP16"/>
			</output>
		</layer>
		<layer id="243" name="bottleneck2_0/dim_inc/conv/WithoutBiases/fq_input_0" type="FakeQuantize" version="opset1">
			<data levels="256"/>
			<input>
				<port id="0">
					<dim>1</dim>
					<dim>16</dim>
					<dim>24</dim>
					<dim>12</dim>
				</port>
				<port id="1"/>
				<port id="2"/>
				<port id="3"/>
				<port id="4"/>
			</input>
			<output>
				<port id="5" precision="FP16">
					<dim>1</dim>
					<dim>16</dim>
					<dim>24</dim>
					<dim>12</dim>
				</port>
			</output>
		</layer>
		<layer id="244" name="bottleneck2_0/dim_inc/conv/WithoutBiases/fq_weights_1/Convert_to_float/Cast_05079_const" type="Const" version="opset1">
			<data element_type="u8" offset="7258" shape="64,16,1,1" size="1024"/>
			<output>
				<port id="1" precision="U8">
					<dim>64</dim>
					<dim>16</dim>
					<dim>1</dim>
					<dim>1</dim>
				</port>
			</output>
		</layer>
		<layer id="245" name="bottleneck2_0/dim_inc/conv/WithoutBiases/fq_weights_1/Convert_to_float" type="Convert" version="opset1">
			<data destination_type="f16"/>
			<input>
				<port id="0">
					<dim>64</dim>
					<dim>16</dim>
					<dim>1</dim>
					<dim>1</dim>
				</port>
			</input>
			<output>
				<port id="1" precision="FP16">
					<dim>64</dim>
					<dim>16</dim>
					<dim>1</dim>
					<dim>1</dim>
				</port>
			</output>
		</layer>
		<layer id="246" name="bottleneck2_0/dim_inc/conv/WithoutBiases/fq_weights_1/Copy/out_low4177_const" type="Const" version="opset1">
			<data element_type="f16" offset="1336" shape="1" size="2"/>
			<output>
				<port id="1" precision="FP16">
					<dim>1</dim>
				</port>
			</output>
		</layer>
		<layer id="247" name="bottleneck2_0/dim_inc/conv/WithoutBiases/fq_weights_1/Copy/out_high4178_const" type="Const" version="opset1">
			<data element_type="f16" offset="882" shape="1" size="2"/>
			<output>
				<port id="1" precision="FP16">
					<dim>1</dim>
				</port>
			</output>
		</layer>
		<layer id="248" name="12931297_const" type="Const" version="opset1">
			<data element_type="f16" offset="8282" shape="64,1,1,1" size="128"/>
			<output>
				<port id="1" precision="FP16">
					<dim>64</dim>
					<dim>1</dim>
					<dim>1</dim>
					<dim>1</dim>
				</port>
			</output>
		</layer>
		<layer id="249" name="12941298_const" type="Const" version="opset1">
			<data element_type="f16" offset="8410" shape="64,1,1,1" size="128"/>
			<output>
				<port id="1" precision="FP16">
					<dim>64</dim>
					<dim>1</dim>
					<dim>1</dim>
					<dim>1</dim>
				</port>
			</output>
		</layer>
		<layer id="250" name="bottleneck2_0/dim_inc/conv/WithoutBiases/fq_weights_1" type="FakeQuantize" version="opset1">
			<data levels="255"/>
			<input>
				<port id="0">
					<dim>64</dim>
					<dim>16</dim>
					<dim>1</dim>
					<dim>1</dim>
				</port>
				<port id="1">
					<dim>1</dim>
				</port>
				<port id="2">
					<dim>1</dim>
				</port>
				<port id="3">
					<dim>64</dim>
					<dim>1</dim>
					<dim>1</dim>
					<dim>1</dim>
				</port>
				<port id="4">
					<dim>64</dim>
					<dim>1</dim>
					<dim>1</dim>
					<dim>1</dim>
				</port>
			</input>
			<output>
				<port id="5" precision="FP16">
					<dim>64</dim>
					<dim>16</dim>
					<dim>1</dim>
					<dim>1</dim>
				</port>
			</output>
		</layer>
		<layer id="251" name="bottleneck2_0/dim_inc/conv/WithoutBiases" type="Convolution" version="opset1">
			<data dilations="1,1" output_padding="0,0" pads_begin="0,0" pads_end="0,0" strides="1,1"/>
			<input>
				<port id="0">
					<dim>1</dim>
					<dim>16</dim>
					<dim>24</dim>
					<dim>12</dim>
				</port>
				<port id="1">
					<dim>64</dim>
					<dim>16</dim>
					<dim>1</dim>
					<dim>1</dim>
				</port>
			</input>
			<output>
				<port id="2" precision="FP16">
					<dim>1</dim>
					<dim>64</dim>
					<dim>24</dim>
					<dim>12</dim>
				</port>
			</output>
		</layer>
		<layer id="252" name="bottleneck2_0/dim_inc/conv/Dims2403/copy_const350_const" type="Const" version="opset1">
			<data element_type="f16" offset="8538" shape="1,64,1,1" size="128"/>
			<output>
				<port id="1" precision="FP16">
					<dim>1</dim>
					<dim>64</dim>
					<dim>1</dim>
					<dim>1</dim>
				</port>
			</output>
		</layer>
		<layer id="253" name="bottleneck2_0/dim_inc/conv" type="Add" version="opset1">
			<input>
				<port id="0">
					<dim>1</dim>
					<dim>64</dim>
					<dim>24</dim>
					<dim>12</dim>
				</port>
				<port id="1">
					<dim>1</dim>
					<dim>64</dim>
					<dim>1</dim>
					<dim>1</dim>
				</port>
			</input>
			<output>
				<port id="2" precision="FP16">
					<dim>1</dim>
					<dim>64</dim>
					<dim>24</dim>
					<dim>12</dim>
				</port>
			</output>
		</layer>
		<layer id="254" name="12111215_const" type="Const" version="opset1">
			<data element_type="f16" offset="8666" shape="" size="2"/>
			<output>
				<port id="1" precision="FP16"/>
			</output>
		</layer>
		<layer id="255" name="12121216_const" type="Const" version="opset1">
			<data element_type="f16" offset="8668" shape="" size="2"/>
			<output>
				<port id="1" precision="FP16"/>
			</output>
		</layer>
		<layer id="256" name="12131217_const" type="Const" version="opset1">
			<data element_type="f16" offset="8666" shape="" size="2"/>
			<output>
				<port id="1" precision="FP16"/>
			</output>
		</layer>
		<layer id="257" name="12141218_const" type="Const" version="opset1">
			<data element_type="f16" offset="8668" shape="" size="2"/>
			<output>
				<port id="1" precision="FP16"/>
			</output>
		</layer>
		<layer id="258" name="bottleneck2_0/add/fq_input_1" type="FakeQuantize" version="opset1">
			<data levels="256"/>
			<input>
				<port id="0">
					<dim>1</dim>
					<dim>64</dim>
					<dim>24</dim>
					<dim>12</dim>
				</port>
				<port id="1"/>
				<port id="2"/>
				<port id="3"/>
				<port id="4"/>
			</input>
			<output>
				<port id="5" precision="FP16">
					<dim>1</dim>
					<dim>64</dim>
					<dim>24</dim>
					<dim>12</dim>
				</port>
			</output>
		</layer>
		<layer id="259" name="bottleneck2_0/add" type="Add" version="opset1">
			<input>
				<port id="0">
					<dim>1</dim>
					<dim>64</dim>
					<dim>24</dim>
					<dim>12</dim>
				</port>
				<port id="1">
					<dim>1</dim>
					<dim>64</dim>
					<dim>24</dim>
					<dim>12</dim>
				</port>
			</input>
			<output>
				<port id="2" precision="FP16">
					<dim>1</dim>
					<dim>64</dim>
					<dim>24</dim>
					<dim>12</dim>
				</port>
			</output>
		</layer>
		<layer id="260" name="bottleneck2_0/fn" type="Elu" version="opset1">
			<data alpha="1.0"/>
			<input>
				<port id="0">
					<dim>1</dim>
					<dim>64</dim>
					<dim>24</dim>
					<dim>12</dim>
				</port>
			</input>
			<output>
				<port id="1" precision="FP16">
					<dim>1</dim>
					<dim>64</dim>
					<dim>24</dim>
					<dim>12</dim>
				</port>
			</output>
		</layer>
		<layer id="261" name="18811885_const" type="Const" version="opset1">
			<data element_type="f16" offset="1578" shape="" size="2"/>
			<output>
				<port id="1" precision="FP16"/>
			</output>
		</layer>
		<layer id="262" name="18821886_const" type="Const" version="opset1">
			<data element_type="f16" offset="8670" shape="" size="2"/>
			<output>
				<port id="1" precision="FP16"/>
			</output>
		</layer>
		<layer id="263" name="18831887_const" type="Const" version="opset1">
			<data element_type="f16" offset="1578" shape="" size="2"/>
			<output>
				<port id="1" precision="FP16"/>
			</output>
		</layer>
		<layer id="264" name="18841888_const" type="Const" version="opset1">
			<data element_type="f16" offset="8670" shape="" size="2"/>
			<output>
				<port id="1" precision="FP16"/>
			</output>
		</layer>
		<layer id="265" name="bottleneck2_1/add/fq_input_0" type="FakeQuantize" version="opset1">
			<data levels="256"/>
			<input>
				<port id="0">
					<dim>1</dim>
					<dim>64</dim>
					<dim>24</dim>
					<dim>12</dim>
				</port>
				<port id="1"/>
				<port id="2"/>
				<port id="3"/>
				<port id="4"/>
			</input>
			<output>
				<port id="5" precision="FP16">
					<dim>1</dim>
					<dim>64</dim>
					<dim>24</dim>
					<dim>12</dim>
				</port>
			</output>
		</layer>
		<layer id="266" name="bottleneck2_1/dim_red/conv/WithoutBiases/fq_weights_1/Convert_to_float/Cast_05053_const" type="Const" version="opset1">
			<data element_type="u8" offset="8672" shape="16,64,1,1" size="1024"/>
			<output>
				<port id="1" precision="U8">
					<dim>16</dim>
					<dim>64</dim>
					<dim>1</dim>
					<dim>1</dim>
				</port>
			</output>
		</layer>
		<layer id="267" name="bottleneck2_1/dim_red/conv/WithoutBiases/fq_weights_1/Convert_to_float" type="Convert" version="opset1">
			<data destination_type="f16"/>
			<input>
				<port id="0">
					<dim>16</dim>
					<dim>64</dim>
					<dim>1</dim>
					<dim>1</dim>
				</port>
			</input>
			<output>
				<port id="1" precision="FP16">
					<dim>16</dim>
					<dim>64</dim>
					<dim>1</dim>
					<dim>1</dim>
				</port>
			</output>
		</layer>
		<layer id="268" name="bottleneck2_1/dim_red/conv/WithoutBiases/fq_weights_1/Copy/out_low4201_const" type="Const" version="opset1">
			<data element_type="f16" offset="1336" shape="1" size="2"/>
			<output>
				<port id="1" precision="FP16">
					<dim>1</dim>
				</port>
			</output>
		</layer>
		<layer id="269" name="bottleneck2_1/dim_red/conv/WithoutBiases/fq_weights_1/Copy/out_high4202_const" type="Const" version="opset1">
			<data element_type="f16" offset="882" shape="1" size="2"/>
			<output>
				<port id="1" precision="FP16">
					<dim>1</dim>
				</port>
			</output>
		</layer>
		<layer id="270" name="10731077_const" type="Const" version="opset1">
			<data element_type="f16" offset="9696" shape="16,1,1,1" size="32"/>
			<output>
				<port id="1" precision="FP16">
					<dim>16</dim>
					<dim>1</dim>
					<dim>1</dim>
					<dim>1</dim>
				</port>
			</output>
		</layer>
		<layer id="271" name="10741078_const" type="Const" version="opset1">
			<data element_type="f16" offset="9728" shape="16,1,1,1" size="32"/>
			<output>
				<port id="1" precision="FP16">
					<dim>16</dim>
					<dim>1</dim>
					<dim>1</dim>
					<dim>1</dim>
				</port>
			</output>
		</layer>
		<layer id="272" name="bottleneck2_1/dim_red/conv/WithoutBiases/fq_weights_1" type="FakeQuantize" version="opset1">
			<data levels="255"/>
			<input>
				<port id="0">
					<dim>16</dim>
					<dim>64</dim>
					<dim>1</dim>
					<dim>1</dim>
				</port>
				<port id="1">
					<dim>1</dim>
				</port>
				<port id="2">
					<dim>1</dim>
				</port>
				<port id="3">
					<dim>16</dim>
					<dim>1</dim>
					<dim>1</dim>
					<dim>1</dim>
				</port>
				<port id="4">
					<dim>16</dim>
					<dim>1</dim>
					<dim>1</dim>
					<dim>1</dim>
				</port>
			</input>
			<output>
				<port id="5" precision="FP16">
					<dim>16</dim>
					<dim>64</dim>
					<dim>1</dim>
					<dim>1</dim>
				</port>
			</output>
		</layer>
		<layer id="273" name="bottleneck2_1/dim_red/conv/WithoutBiases" type="Convolution" version="opset1">
			<data dilations="1,1" output_padding="0,0" pads_begin="0,0" pads_end="0,0" strides="1,1"/>
			<input>
				<port id="0">
					<dim>1</dim>
					<dim>64</dim>
					<dim>24</dim>
					<dim>12</dim>
				</port>
				<port id="1">
					<dim>16</dim>
					<dim>64</dim>
					<dim>1</dim>
					<dim>1</dim>
				</port>
			</input>
			<output>
				<port id="2" precision="FP16">
					<dim>1</dim>
					<dim>16</dim>
					<dim>24</dim>
					<dim>12</dim>
				</port>
			</output>
		</layer>
		<layer id="274" name="bottleneck2_1/dim_red/conv/Dims2145/copy_const356_const" type="Const" version="opset1">
			<data element_type="f16" offset="9760" shape="1,16,1,1" size="32"/>
			<output>
				<port id="1" precision="FP16">
					<dim>1</dim>
					<dim>16</dim>
					<dim>1</dim>
					<dim>1</dim>
				</port>
			</output>
		</layer>
		<layer id="275" name="bottleneck2_1/dim_red/conv" type="Add" version="opset1">
			<input>
				<port id="0">
					<dim>1</dim>
					<dim>16</dim>
					<dim>24</dim>
					<dim>12</dim>
				</port>
				<port id="1">
					<dim>1</dim>
					<dim>16</dim>
					<dim>1</dim>
					<dim>1</dim>
				</port>
			</input>
			<output>
				<port id="2" precision="FP16">
					<dim>1</dim>
					<dim>16</dim>
					<dim>24</dim>
					<dim>12</dim>
				</port>
			</output>
		</layer>
		<layer id="276" name="bottleneck2_1/dim_red/fn" type="Elu" version="opset1">
			<data alpha="1.0"/>
			<input>
				<port id="0">
					<dim>1</dim>
					<dim>16</dim>
					<dim>24</dim>
					<dim>12</dim>
				</port>
			</input>
			<output>
				<port id="1" precision="FP16">
					<dim>1</dim>
					<dim>16</dim>
					<dim>24</dim>
					<dim>12</dim>
				</port>
			</output>
		</layer>
		<layer id="277" name="10811085_const" type="Const" version="opset1">
			<data element_type="f16" offset="9792" shape="1,16,1,1" size="32"/>
			<output>
				<port id="1" precision="FP16">
					<dim>1</dim>
					<dim>16</dim>
					<dim>1</dim>
					<dim>1</dim>
				</port>
			</output>
		</layer>
		<layer id="278" name="10821086_const" type="Const" version="opset1">
			<data element_type="f16" offset="9824" shape="1,16,1,1" size="32"/>
			<output>
				<port id="1" precision="FP16">
					<dim>1</dim>
					<dim>16</dim>
					<dim>1</dim>
					<dim>1</dim>
				</port>
			</output>
		</layer>
		<layer id="279" name="10831087_const" type="Const" version="opset1">
			<data element_type="f16" offset="9792" shape="1,16,1,1" size="32"/>
			<output>
				<port id="1" precision="FP16">
					<dim>1</dim>
					<dim>16</dim>
					<dim>1</dim>
					<dim>1</dim>
				</port>
			</output>
		</layer>
		<layer id="280" name="10841088_const" type="Const" version="opset1">
			<data element_type="f16" offset="9824" shape="1,16,1,1" size="32"/>
			<output>
				<port id="1" precision="FP16">
					<dim>1</dim>
					<dim>16</dim>
					<dim>1</dim>
					<dim>1</dim>
				</port>
			</output>
		</layer>
		<layer id="281" name="bottleneck2_1/inner/dw1/conv/WithoutBiases/fq_input_0" type="FakeQuantize" version="opset1">
			<data levels="256"/>
			<input>
				<port id="0">
					<dim>1</dim>
					<dim>16</dim>
					<dim>24</dim>
					<dim>12</dim>
				</port>
				<port id="1">
					<dim>1</dim>
					<dim>16</dim>
					<dim>1</dim>
					<dim>1</dim>
				</port>
				<port id="2">
					<dim>1</dim>
					<dim>16</dim>
					<dim>1</dim>
					<dim>1</dim>
				</port>
				<port id="3">
					<dim>1</dim>
					<dim>16</dim>
					<dim>1</dim>
					<dim>1</dim>
				</port>
				<port id="4">
					<dim>1</dim>
					<dim>16</dim>
					<dim>1</dim>
					<dim>1</dim>
				</port>
			</input>
			<output>
				<port id="5" precision="FP16">
					<dim>1</dim>
					<dim>16</dim>
					<dim>24</dim>
					<dim>12</dim>
				</port>
			</output>
		</layer>
		<layer id="282" name="bottleneck2_1/inner/dw1/conv/WithoutBiases/fq_weights_1/Convert_to_float/Cast_05001_const" type="Const" version="opset1">
			<data element_type="u8" offset="9856" shape="16,1,3,3" size="144"/>
			<output>
				<port id="1" precision="U8">
					<dim>16</dim>
					<dim>1</dim>
					<dim>3</dim>
					<dim>3</dim>
				</port>
			</output>
		</layer>
		<layer id="283" name="bottleneck2_1/inner/dw1/conv/WithoutBiases/fq_weights_1/Convert_to_float" type="Convert" version="opset1">
			<data destination_type="f16"/>
			<input>
				<port id="0">
					<dim>16</dim>
					<dim>1</dim>
					<dim>3</dim>
					<dim>3</dim>
				</port>
			</input>
			<output>
				<port id="1" precision="FP16">
					<dim>16</dim>
					<dim>1</dim>
					<dim>3</dim>
					<dim>3</dim>
				</port>
			</output>
		</layer>
		<layer id="284" name="bottleneck2_1/inner/dw1/conv/WithoutBiases/fq_weights_1/Copy/out_low4233_const" type="Const" version="opset1">
			<data element_type="f16" offset="1336" shape="1" size="2"/>
			<output>
				<port id="1" precision="FP16">
					<dim>1</dim>
				</port>
			</output>
		</layer>
		<layer id="285" name="bottleneck2_1/inner/dw1/conv/WithoutBiases/fq_weights_1/Copy/out_high4234_const" type="Const" version="opset1">
			<data element_type="f16" offset="882" shape="1" size="2"/>
			<output>
				<port id="1" precision="FP16">
					<dim>1</dim>
				</port>
			</output>
		</layer>
		<layer id="286" name="10931097_const" type="Const" version="opset1">
			<data element_type="f16" offset="10000" shape="16,1,1,1" size="32"/>
			<output>
				<port id="1" precision="FP16">
					<dim>16</dim>
					<dim>1</dim>
					<dim>1</dim>
					<dim>1</dim>
				</port>
			</output>
		</layer>
		<layer id="287" name="10941098_const" type="Const" version="opset1">
			<data element_type="f16" offset="10032" shape="16,1,1,1" size="32"/>
			<output>
				<port id="1" precision="FP16">
					<dim>16</dim>
					<dim>1</dim>
					<dim>1</dim>
					<dim>1</dim>
				</port>
			</output>
		</layer>
		<layer id="288" name="bottleneck2_1/inner/dw1/conv/WithoutBiases/fq_weights_1" type="FakeQuantize" version="opset1">
			<data levels="255"/>
			<input>
				<port id="0">
					<dim>16</dim>
					<dim>1</dim>
					<dim>3</dim>
					<dim>3</dim>
				</port>
				<port id="1">
					<dim>1</dim>
				</port>
				<port id="2">
					<dim>1</dim>
				</port>
				<port id="3">
					<dim>16</dim>
					<dim>1</dim>
					<dim>1</dim>
					<dim>1</dim>
				</port>
				<port id="4">
					<dim>16</dim>
					<dim>1</dim>
					<dim>1</dim>
					<dim>1</dim>
				</port>
			</input>
			<output>
				<port id="5" precision="FP16">
					<dim>16</dim>
					<dim>1</dim>
					<dim>3</dim>
					<dim>3</dim>
				</port>
			</output>
		</layer>
		<layer id="289" name="5700/value5702_const" type="Const" version="opset1">
			<data element_type="i64" offset="7184" shape="5" size="40"/>
			<output>
				<port id="1" precision="I64">
					<dim>5</dim>
				</port>
			</output>
		</layer>
		<layer id="290" name="5700" type="Reshape" version="opset1">
			<data special_zero="True"/>
			<input>
				<port id="0">
					<dim>16</dim>
					<dim>1</dim>
					<dim>3</dim>
					<dim>3</dim>
				</port>
				<port id="1">
					<dim>5</dim>
				</port>
			</input>
			<output>
				<port id="2" precision="FP16">
					<dim>16</dim>
					<dim>1</dim>
					<dim>1</dim>
					<dim>3</dim>
					<dim>3</dim>
				</port>
			</output>
		</layer>
		<layer id="291" name="bottleneck2_1/inner/dw1/conv/WithoutBiases" type="GroupConvolution" version="opset1">
			<data dilations="1,1" output_padding="0,0" pads_begin="1,1" pads_end="1,1" strides="1,1"/>
			<input>
				<port id="0">
					<dim>1</dim>
					<dim>16</dim>
					<dim>24</dim>
					<dim>12</dim>
				</port>
				<port id="1">
					<dim>16</dim>
					<dim>1</dim>
					<dim>1</dim>
					<dim>3</dim>
					<dim>3</dim>
				</port>
			</input>
			<output>
				<port id="2" precision="FP16">
					<dim>1</dim>
					<dim>16</dim>
					<dim>24</dim>
					<dim>12</dim>
				</port>
			</output>
		</layer>
		<layer id="292" name="bottleneck2_1/inner/dw1/conv/Dims2199/copy_const361_const" type="Const" version="opset1">
			<data element_type="f16" offset="10064" shape="1,16,1,1" size="32"/>
			<output>
				<port id="1" precision="FP16">
					<dim>1</dim>
					<dim>16</dim>
					<dim>1</dim>
					<dim>1</dim>
				</port>
			</output>
		</layer>
		<layer id="293" name="bottleneck2_1/inner/dw1/conv" type="Add" version="opset1">
			<input>
				<port id="0">
					<dim>1</dim>
					<dim>16</dim>
					<dim>24</dim>
					<dim>12</dim>
				</port>
				<port id="1">
					<dim>1</dim>
					<dim>16</dim>
					<dim>1</dim>
					<dim>1</dim>
				</port>
			</input>
			<output>
				<port id="2" precision="FP16">
					<dim>1</dim>
					<dim>16</dim>
					<dim>24</dim>
					<dim>12</dim>
				</port>
			</output>
		</layer>
		<layer id="294" name="bottleneck2_1/inner/dw1/fn" type="Elu" version="opset1">
			<data alpha="1.0"/>
			<input>
				<port id="0">
					<dim>1</dim>
					<dim>16</dim>
					<dim>24</dim>
					<dim>12</dim>
				</port>
			</input>
			<output>
				<port id="1" precision="FP16">
					<dim>1</dim>
					<dim>16</dim>
					<dim>24</dim>
					<dim>12</dim>
				</port>
			</output>
		</layer>
		<layer id="295" name="921925_const" type="Const" version="opset1">
			<data element_type="f16" offset="10096" shape="" size="2"/>
			<output>
				<port id="1" precision="FP16"/>
			</output>
		</layer>
		<layer id="296" name="922926_const" type="Const" version="opset1">
			<data element_type="f16" offset="10098" shape="" size="2"/>
			<output>
				<port id="1" precision="FP16"/>
			</output>
		</layer>
		<layer id="297" name="923927_const" type="Const" version="opset1">
			<data element_type="f16" offset="10096" shape="" size="2"/>
			<output>
				<port id="1" precision="FP16"/>
			</output>
		</layer>
		<layer id="298" name="924928_const" type="Const" version="opset1">
			<data element_type="f16" offset="10098" shape="" size="2"/>
			<output>
				<port id="1" precision="FP16"/>
			</output>
		</layer>
		<layer id="299" name="bottleneck2_1/dim_inc/conv/WithoutBiases/fq_input_0" type="FakeQuantize" version="opset1">
			<data levels="256"/>
			<input>
				<port id="0">
					<dim>1</dim>
					<dim>16</dim>
					<dim>24</dim>
					<dim>12</dim>
				</port>
				<port id="1"/>
				<port id="2"/>
				<port id="3"/>
				<port id="4"/>
			</input>
			<output>
				<port id="5" precision="FP16">
					<dim>1</dim>
					<dim>16</dim>
					<dim>24</dim>
					<dim>12</dim>
				</port>
			</output>
		</layer>
		<layer id="300" name="bottleneck2_1/dim_inc/conv/WithoutBiases/fq_weights_1/Convert_to_float/Cast_05023_const" type="Const" version="opset1">
			<data element_type="u8" offset="10100" shape="64,16,1,1" size="1024"/>
			<output>
				<port id="1" precision="U8">
					<dim>64</dim>
					<dim>16</dim>
					<dim>1</dim>
					<dim>1</dim>
				</port>
			</output>
		</layer>
		<layer id="301" name="bottleneck2_1/dim_inc/conv/WithoutBiases/fq_weights_1/Convert_to_float" type="Convert" version="opset1">
			<data destination_type="f16"/>
			<input>
				<port id="0">
					<dim>64</dim>
					<dim>16</dim>
					<dim>1</dim>
					<dim>1</dim>
				</port>
			</input>
			<output>
				<port id="1" precision="FP16">
					<dim>64</dim>
					<dim>16</dim>
					<dim>1</dim>
					<dim>1</dim>
				</port>
			</output>
		</layer>
		<layer id="302" name="bottleneck2_1/dim_inc/conv/WithoutBiases/fq_weights_1/Copy/out_low4089_const" type="Const" version="opset1">
			<data element_type="f16" offset="1336" shape="1" size="2"/>
			<output>
				<port id="1" precision="FP16">
					<dim>1</dim>
				</port>
			</output>
		</layer>
		<layer id="303" name="bottleneck2_1/dim_inc/conv/WithoutBiases/fq_weights_1/Copy/out_high4090_const" type="Const" version="opset1">
			<data element_type="f16" offset="882" shape="1" size="2"/>
			<output>
				<port id="1" precision="FP16">
					<dim>1</dim>
				</port>
			</output>
		</layer>
		<layer id="304" name="933937_const" type="Const" version="opset1">
			<data element_type="f16" offset="11124" shape="64,1,1,1" size="128"/>
			<output>
				<port id="1" precision="FP16">
					<dim>64</dim>
					<dim>1</dim>
					<dim>1</dim>
					<dim>1</dim>
				</port>
			</output>
		</layer>
		<layer id="305" name="934938_const" type="Const" version="opset1">
			<data element_type="f16" offset="11252" shape="64,1,1,1" size="128"/>
			<output>
				<port id="1" precision="FP16">
					<dim>64</dim>
					<dim>1</dim>
					<dim>1</dim>
					<dim>1</dim>
				</port>
			</output>
		</layer>
		<layer id="306" name="bottleneck2_1/dim_inc/conv/WithoutBiases/fq_weights_1" type="FakeQuantize" version="opset1">
			<data levels="255"/>
			<input>
				<port id="0">
					<dim>64</dim>
					<dim>16</dim>
					<dim>1</dim>
					<dim>1</dim>
				</port>
				<port id="1">
					<dim>1</dim>
				</port>
				<port id="2">
					<dim>1</dim>
				</port>
				<port id="3">
					<dim>64</dim>
					<dim>1</dim>
					<dim>1</dim>
					<dim>1</dim>
				</port>
				<port id="4">
					<dim>64</dim>
					<dim>1</dim>
					<dim>1</dim>
					<dim>1</dim>
				</port>
			</input>
			<output>
				<port id="5" precision="FP16">
					<dim>64</dim>
					<dim>16</dim>
					<dim>1</dim>
					<dim>1</dim>
				</port>
			</output>
		</layer>
		<layer id="307" name="bottleneck2_1/dim_inc/conv/WithoutBiases" type="Convolution" version="opset1">
			<data dilations="1,1" output_padding="0,0" pads_begin="0,0" pads_end="0,0" strides="1,1"/>
			<input>
				<port id="0">
					<dim>1</dim>
					<dim>16</dim>
					<dim>24</dim>
					<dim>12</dim>
				</port>
				<port id="1">
					<dim>64</dim>
					<dim>16</dim>
					<dim>1</dim>
					<dim>1</dim>
				</port>
			</input>
			<output>
				<port id="2" precision="FP16">
					<dim>1</dim>
					<dim>64</dim>
					<dim>24</dim>
					<dim>12</dim>
				</port>
			</output>
		</layer>
		<layer id="308" name="bottleneck2_1/dim_inc/conv/Dims2337/copy_const366_const" type="Const" version="opset1">
			<data element_type="f16" offset="11380" shape="1,64,1,1" size="128"/>
			<output>
				<port id="1" precision="FP16">
					<dim>1</dim>
					<dim>64</dim>
					<dim>1</dim>
					<dim>1</dim>
				</port>
			</output>
		</layer>
		<layer id="309" name="bottleneck2_1/dim_inc/conv" type="Add" version="opset1">
			<input>
				<port id="0">
					<dim>1</dim>
					<dim>64</dim>
					<dim>24</dim>
					<dim>12</dim>
				</port>
				<port id="1">
					<dim>1</dim>
					<dim>64</dim>
					<dim>1</dim>
					<dim>1</dim>
				</port>
			</input>
			<output>
				<port id="2" precision="FP16">
					<dim>1</dim>
					<dim>64</dim>
					<dim>24</dim>
					<dim>12</dim>
				</port>
			</output>
		</layer>
		<layer id="310" name="18911895_const" type="Const" version="opset1">
			<data element_type="f16" offset="11508" shape="" size="2"/>
			<output>
				<port id="1" precision="FP16"/>
			</output>
		</layer>
		<layer id="311" name="18921896_const" type="Const" version="opset1">
			<data element_type="f16" offset="11510" shape="" size="2"/>
			<output>
				<port id="1" precision="FP16"/>
			</output>
		</layer>
		<layer id="312" name="18931897_const" type="Const" version="opset1">
			<data element_type="f16" offset="11508" shape="" size="2"/>
			<output>
				<port id="1" precision="FP16"/>
			</output>
		</layer>
		<layer id="313" name="18941898_const" type="Const" version="opset1">
			<data element_type="f16" offset="11510" shape="" size="2"/>
			<output>
				<port id="1" precision="FP16"/>
			</output>
		</layer>
		<layer id="314" name="bottleneck2_1/add/fq_input_1" type="FakeQuantize" version="opset1">
			<data levels="256"/>
			<input>
				<port id="0">
					<dim>1</dim>
					<dim>64</dim>
					<dim>24</dim>
					<dim>12</dim>
				</port>
				<port id="1"/>
				<port id="2"/>
				<port id="3"/>
				<port id="4"/>
			</input>
			<output>
				<port id="5" precision="FP16">
					<dim>1</dim>
					<dim>64</dim>
					<dim>24</dim>
					<dim>12</dim>
				</port>
			</output>
		</layer>
		<layer id="315" name="bottleneck2_1/add" type="Add" version="opset1">
			<input>
				<port id="0">
					<dim>1</dim>
					<dim>64</dim>
					<dim>24</dim>
					<dim>12</dim>
				</port>
				<port id="1">
					<dim>1</dim>
					<dim>64</dim>
					<dim>24</dim>
					<dim>12</dim>
				</port>
			</input>
			<output>
				<port id="2" precision="FP16">
					<dim>1</dim>
					<dim>64</dim>
					<dim>24</dim>
					<dim>12</dim>
				</port>
			</output>
		</layer>
		<layer id="316" name="bottleneck2_1/fn" type="Elu" version="opset1">
			<data alpha="1.0"/>
			<input>
				<port id="0">
					<dim>1</dim>
					<dim>64</dim>
					<dim>24</dim>
					<dim>12</dim>
				</port>
			</input>
			<output>
				<port id="1" precision="FP16">
					<dim>1</dim>
					<dim>64</dim>
					<dim>24</dim>
					<dim>12</dim>
				</port>
			</output>
		</layer>
		<layer id="317" name="13611365_const" type="Const" version="opset1">
			<data element_type="f16" offset="3408" shape="" size="2"/>
			<output>
				<port id="1" precision="FP16"/>
			</output>
		</layer>
		<layer id="318" name="13621366_const" type="Const" version="opset1">
			<data element_type="f16" offset="11512" shape="" size="2"/>
			<output>
				<port id="1" precision="FP16"/>
			</output>
		</layer>
		<layer id="319" name="13631367_const" type="Const" version="opset1">
			<data element_type="f16" offset="3408" shape="" size="2"/>
			<output>
				<port id="1" precision="FP16"/>
			</output>
		</layer>
		<layer id="320" name="13641368_const" type="Const" version="opset1">
			<data element_type="f16" offset="11512" shape="" size="2"/>
			<output>
				<port id="1" precision="FP16"/>
			</output>
		</layer>
		<layer id="321" name="bottleneck2_2/add/fq_input_0" type="FakeQuantize" version="opset1">
			<data levels="256"/>
			<input>
				<port id="0">
					<dim>1</dim>
					<dim>64</dim>
					<dim>24</dim>
					<dim>12</dim>
				</port>
				<port id="1"/>
				<port id="2"/>
				<port id="3"/>
				<port id="4"/>
			</input>
			<output>
				<port id="5" precision="FP16">
					<dim>1</dim>
					<dim>64</dim>
					<dim>24</dim>
					<dim>12</dim>
				</port>
			</output>
		</layer>
		<layer id="322" name="bottleneck2_2/dim_red/conv/WithoutBiases/fq_weights_1/Convert_to_float/Cast_05059_const" type="Const" version="opset1">
			<data element_type="u8" offset="11514" shape="16,64,1,1" size="1024"/>
			<output>
				<port id="1" precision="U8">
					<dim>16</dim>
					<dim>64</dim>
					<dim>1</dim>
					<dim>1</dim>
				</port>
			</output>
		</layer>
		<layer id="323" name="bottleneck2_2/dim_red/conv/WithoutBiases/fq_weights_1/Convert_to_float" type="Convert" version="opset1">
			<data destination_type="f16"/>
			<input>
				<port id="0">
					<dim>16</dim>
					<dim>64</dim>
					<dim>1</dim>
					<dim>1</dim>
				</port>
			</input>
			<output>
				<port id="1" precision="FP16">
					<dim>16</dim>
					<dim>64</dim>
					<dim>1</dim>
					<dim>1</dim>
				</port>
			</output>
		</layer>
		<layer id="324" name="bottleneck2_2/dim_red/conv/WithoutBiases/fq_weights_1/Copy/out_low4121_const" type="Const" version="opset1">
			<data element_type="f16" offset="1336" shape="1" size="2"/>
			<output>
				<port id="1" precision="FP16">
					<dim>1</dim>
				</port>
			</output>
		</layer>
		<layer id="325" name="bottleneck2_2/dim_red/conv/WithoutBiases/fq_weights_1/Copy/out_high4122_const" type="Const" version="opset1">
			<data element_type="f16" offset="882" shape="1" size="2"/>
			<output>
				<port id="1" precision="FP16">
					<dim>1</dim>
				</port>
			</output>
		</layer>
		<layer id="326" name="14131417_const" type="Const" version="opset1">
			<data element_type="f16" offset="12538" shape="16,1,1,1" size="32"/>
			<output>
				<port id="1" precision="FP16">
					<dim>16</dim>
					<dim>1</dim>
					<dim>1</dim>
					<dim>1</dim>
				</port>
			</output>
		</layer>
		<layer id="327" name="14141418_const" type="Const" version="opset1">
			<data element_type="f16" offset="12570" shape="16,1,1,1" size="32"/>
			<output>
				<port id="1" precision="FP16">
					<dim>16</dim>
					<dim>1</dim>
					<dim>1</dim>
					<dim>1</dim>
				</port>
			</output>
		</layer>
		<layer id="328" name="bottleneck2_2/dim_red/conv/WithoutBiases/fq_weights_1" type="FakeQuantize" version="opset1">
			<data levels="255"/>
			<input>
				<port id="0">
					<dim>16</dim>
					<dim>64</dim>
					<dim>1</dim>
					<dim>1</dim>
				</port>
				<port id="1">
					<dim>1</dim>
				</port>
				<port id="2">
					<dim>1</dim>
				</port>
				<port id="3">
					<dim>16</dim>
					<dim>1</dim>
					<dim>1</dim>
					<dim>1</dim>
				</port>
				<port id="4">
					<dim>16</dim>
					<dim>1</dim>
					<dim>1</dim>
					<dim>1</dim>
				</port>
			</input>
			<output>
				<port id="5" precision="FP16">
					<dim>16</dim>
					<dim>64</dim>
					<dim>1</dim>
					<dim>1</dim>
				</port>
			</output>
		</layer>
		<layer id="329" name="bottleneck2_2/dim_red/conv/WithoutBiases" type="Convolution" version="opset1">
			<data dilations="1,1" output_padding="0,0" pads_begin="0,0" pads_end="0,0" strides="1,1"/>
			<input>
				<port id="0">
					<dim>1</dim>
					<dim>64</dim>
					<dim>24</dim>
					<dim>12</dim>
				</port>
				<port id="1">
					<dim>16</dim>
					<dim>64</dim>
					<dim>1</dim>
					<dim>1</dim>
				</port>
			</input>
			<output>
				<port id="2" precision="FP16">
					<dim>1</dim>
					<dim>16</dim>
					<dim>24</dim>
					<dim>12</dim>
				</port>
			</output>
		</layer>
		<layer id="330" name="bottleneck2_2/dim_red/conv/Dims2193/copy_const372_const" type="Const" version="opset1">
			<data element_type="f16" offset="12602" shape="1,16,1,1" size="32"/>
			<output>
				<port id="1" precision="FP16">
					<dim>1</dim>
					<dim>16</dim>
					<dim>1</dim>
					<dim>1</dim>
				</port>
			</output>
		</layer>
		<layer id="331" name="bottleneck2_2/dim_red/conv" type="Add" version="opset1">
			<input>
				<port id="0">
					<dim>1</dim>
					<dim>16</dim>
					<dim>24</dim>
					<dim>12</dim>
				</port>
				<port id="1">
					<dim>1</dim>
					<dim>16</dim>
					<dim>1</dim>
					<dim>1</dim>
				</port>
			</input>
			<output>
				<port id="2" precision="FP16">
					<dim>1</dim>
					<dim>16</dim>
					<dim>24</dim>
					<dim>12</dim>
				</port>
			</output>
		</layer>
		<layer id="332" name="bottleneck2_2/dim_red/fn" type="Elu" version="opset1">
			<data alpha="1.0"/>
			<input>
				<port id="0">
					<dim>1</dim>
					<dim>16</dim>
					<dim>24</dim>
					<dim>12</dim>
				</port>
			</input>
			<output>
				<port id="1" precision="FP16">
					<dim>1</dim>
					<dim>16</dim>
					<dim>24</dim>
					<dim>12</dim>
				</port>
			</output>
		</layer>
		<layer id="333" name="17811785_const" type="Const" version="opset1">
			<data element_type="f16" offset="12634" shape="1,16,1,1" size="32"/>
			<output>
				<port id="1" precision="FP16">
					<dim>1</dim>
					<dim>16</dim>
					<dim>1</dim>
					<dim>1</dim>
				</port>
			</output>
		</layer>
		<layer id="334" name="17821786_const" type="Const" version="opset1">
			<data element_type="f16" offset="12666" shape="1,16,1,1" size="32"/>
			<output>
				<port id="1" precision="FP16">
					<dim>1</dim>
					<dim>16</dim>
					<dim>1</dim>
					<dim>1</dim>
				</port>
			</output>
		</layer>
		<layer id="335" name="17831787_const" type="Const" version="opset1">
			<data element_type="f16" offset="12634" shape="1,16,1,1" size="32"/>
			<output>
				<port id="1" precision="FP16">
					<dim>1</dim>
					<dim>16</dim>
					<dim>1</dim>
					<dim>1</dim>
				</port>
			</output>
		</layer>
		<layer id="336" name="17841788_const" type="Const" version="opset1">
			<data element_type="f16" offset="12666" shape="1,16,1,1" size="32"/>
			<output>
				<port id="1" precision="FP16">
					<dim>1</dim>
					<dim>16</dim>
					<dim>1</dim>
					<dim>1</dim>
				</port>
			</output>
		</layer>
		<layer id="337" name="bottleneck2_2/inner/dw1/conv/WithoutBiases/fq_input_0" type="FakeQuantize" version="opset1">
			<data levels="256"/>
			<input>
				<port id="0">
					<dim>1</dim>
					<dim>16</dim>
					<dim>24</dim>
					<dim>12</dim>
				</port>
				<port id="1">
					<dim>1</dim>
					<dim>16</dim>
					<dim>1</dim>
					<dim>1</dim>
				</port>
				<port id="2">
					<dim>1</dim>
					<dim>16</dim>
					<dim>1</dim>
					<dim>1</dim>
				</port>
				<port id="3">
					<dim>1</dim>
					<dim>16</dim>
					<dim>1</dim>
					<dim>1</dim>
				</port>
				<port id="4">
					<dim>1</dim>
					<dim>16</dim>
					<dim>1</dim>
					<dim>1</dim>
				</port>
			</input>
			<output>
				<port id="5" precision="FP16">
					<dim>1</dim>
					<dim>16</dim>
					<dim>24</dim>
					<dim>12</dim>
				</port>
			</output>
		</layer>
		<layer id="338" name="bottleneck2_2/inner/dw1/conv/WithoutBiases/fq_weights_1/Convert_to_float/Cast_05035_const" type="Const" version="opset1">
			<data element_type="u8" offset="12698" shape="16,1,3,3" size="144"/>
			<output>
				<port id="1" precision="U8">
					<dim>16</dim>
					<dim>1</dim>
					<dim>3</dim>
					<dim>3</dim>
				</port>
			</output>
		</layer>
		<layer id="339" name="bottleneck2_2/inner/dw1/conv/WithoutBiases/fq_weights_1/Convert_to_float" type="Convert" version="opset1">
			<data destination_type="f16"/>
			<input>
				<port id="0">
					<dim>16</dim>
					<dim>1</dim>
					<dim>3</dim>
					<dim>3</dim>
				</port>
			</input>
			<output>
				<port id="1" precision="FP16">
					<dim>16</dim>
					<dim>1</dim>
					<dim>3</dim>
					<dim>3</dim>
				</port>
			</output>
		</layer>
		<layer id="340" name="bottleneck2_2/inner/dw1/conv/WithoutBiases/fq_weights_1/Copy/out_low4305_const" type="Const" version="opset1">
			<data element_type="f16" offset="1336" shape="1" size="2"/>
			<output>
				<port id="1" precision="FP16">
					<dim>1</dim>
				</port>
			</output>
		</layer>
		<layer id="341" name="bottleneck2_2/inner/dw1/conv/WithoutBiases/fq_weights_1/Copy/out_high4306_const" type="Const" version="opset1">
			<data element_type="f16" offset="882" shape="1" size="2"/>
			<output>
				<port id="1" precision="FP16">
					<dim>1</dim>
				</port>
			</output>
		</layer>
		<layer id="342" name="17931797_const" type="Const" version="opset1">
			<data element_type="f16" offset="12842" shape="16,1,1,1" size="32"/>
			<output>
				<port id="1" precision="FP16">
					<dim>16</dim>
					<dim>1</dim>
					<dim>1</dim>
					<dim>1</dim>
				</port>
			</output>
		</layer>
		<layer id="343" name="17941798_const" type="Const" version="opset1">
			<data element_type="f16" offset="12874" shape="16,1,1,1" size="32"/>
			<output>
				<port id="1" precision="FP16">
					<dim>16</dim>
					<dim>1</dim>
					<dim>1</dim>
					<dim>1</dim>
				</port>
			</output>
		</layer>
		<layer id="344" name="bottleneck2_2/inner/dw1/conv/WithoutBiases/fq_weights_1" type="FakeQuantize" version="opset1">
			<data levels="255"/>
			<input>
				<port id="0">
					<dim>16</dim>
					<dim>1</dim>
					<dim>3</dim>
					<dim>3</dim>
				</port>
				<port id="1">
					<dim>1</dim>
				</port>
				<port id="2">
					<dim>1</dim>
				</port>
				<port id="3">
					<dim>16</dim>
					<dim>1</dim>
					<dim>1</dim>
					<dim>1</dim>
				</port>
				<port id="4">
					<dim>16</dim>
					<dim>1</dim>
					<dim>1</dim>
					<dim>1</dim>
				</port>
			</input>
			<output>
				<port id="5" precision="FP16">
					<dim>16</dim>
					<dim>1</dim>
					<dim>3</dim>
					<dim>3</dim>
				</port>
			</output>
		</layer>
		<layer id="345" name="5680/value5682_const" type="Const" version="opset1">
			<data element_type="i64" offset="7184" shape="5" size="40"/>
			<output>
				<port id="1" precision="I64">
					<dim>5</dim>
				</port>
			</output>
		</layer>
		<layer id="346" name="5680" type="Reshape" version="opset1">
			<data special_zero="True"/>
			<input>
				<port id="0">
					<dim>16</dim>
					<dim>1</dim>
					<dim>3</dim>
					<dim>3</dim>
				</port>
				<port id="1">
					<dim>5</dim>
				</port>
			</input>
			<output>
				<port id="2" precision="FP16">
					<dim>16</dim>
					<dim>1</dim>
					<dim>1</dim>
					<dim>3</dim>
					<dim>3</dim>
				</port>
			</output>
		</layer>
		<layer id="347" name="bottleneck2_2/inner/dw1/conv/WithoutBiases" type="GroupConvolution" version="opset1">
			<data dilations="1,1" output_padding="0,0" pads_begin="1,1" pads_end="1,1" strides="1,1"/>
			<input>
				<port id="0">
					<dim>1</dim>
					<dim>16</dim>
					<dim>24</dim>
					<dim>12</dim>
				</port>
				<port id="1">
					<dim>16</dim>
					<dim>1</dim>
					<dim>1</dim>
					<dim>3</dim>
					<dim>3</dim>
				</port>
			</input>
			<output>
				<port id="2" precision="FP16">
					<dim>1</dim>
					<dim>16</dim>
					<dim>24</dim>
					<dim>12</dim>
				</port>
			</output>
		</layer>
		<layer id="348" name="bottleneck2_2/inner/dw1/conv/Dims2223/copy_const377_const" type="Const" version="opset1">
			<data element_type="f16" offset="12906" shape="1,16,1,1" size="32"/>
			<output>
				<port id="1" precision="FP16">
					<dim>1</dim>
					<dim>16</dim>
					<dim>1</dim>
					<dim>1</dim>
				</port>
			</output>
		</layer>
		<layer id="349" name="bottleneck2_2/inner/dw1/conv" type="Add" version="opset1">
			<input>
				<port id="0">
					<dim>1</dim>
					<dim>16</dim>
					<dim>24</dim>
					<dim>12</dim>
				</port>
				<port id="1">
					<dim>1</dim>
					<dim>16</dim>
					<dim>1</dim>
					<dim>1</dim>
				</port>
			</input>
			<output>
				<port id="2" precision="FP16">
					<dim>1</dim>
					<dim>16</dim>
					<dim>24</dim>
					<dim>12</dim>
				</port>
			</output>
		</layer>
		<layer id="350" name="bottleneck2_2/inner/dw1/fn" type="Elu" version="opset1">
			<data alpha="1.0"/>
			<input>
				<port id="0">
					<dim>1</dim>
					<dim>16</dim>
					<dim>24</dim>
					<dim>12</dim>
				</port>
			</input>
			<output>
				<port id="1" precision="FP16">
					<dim>1</dim>
					<dim>16</dim>
					<dim>24</dim>
					<dim>12</dim>
				</port>
			</output>
		</layer>
		<layer id="351" name="13811385_const" type="Const" version="opset1">
			<data element_type="f16" offset="12938" shape="" size="2"/>
			<output>
				<port id="1" precision="FP16"/>
			</output>
		</layer>
		<layer id="352" name="13821386_const" type="Const" version="opset1">
			<data element_type="f16" offset="12940" shape="" size="2"/>
			<output>
				<port id="1" precision="FP16"/>
			</output>
		</layer>
		<layer id="353" name="13831387_const" type="Const" version="opset1">
			<data element_type="f16" offset="12938" shape="" size="2"/>
			<output>
				<port id="1" precision="FP16"/>
			</output>
		</layer>
		<layer id="354" name="13841388_const" type="Const" version="opset1">
			<data element_type="f16" offset="12940" shape="" size="2"/>
			<output>
				<port id="1" precision="FP16"/>
			</output>
		</layer>
		<layer id="355" name="bottleneck2_2/dim_inc/conv/WithoutBiases/fq_input_0" type="FakeQuantize" version="opset1">
			<data levels="256"/>
			<input>
				<port id="0">
					<dim>1</dim>
					<dim>16</dim>
					<dim>24</dim>
					<dim>12</dim>
				</port>
				<port id="1"/>
				<port id="2"/>
				<port id="3"/>
				<port id="4"/>
			</input>
			<output>
				<port id="5" precision="FP16">
					<dim>1</dim>
					<dim>16</dim>
					<dim>24</dim>
					<dim>12</dim>
				</port>
			</output>
		</layer>
		<layer id="356" name="bottleneck2_2/dim_inc/conv/WithoutBiases/fq_weights_1/Convert_to_float/Cast_05057_const" type="Const" version="opset1">
			<data element_type="u8" offset="12942" shape="64,16,1,1" size="1024"/>
			<output>
				<port id="1" precision="U8">
					<dim>64</dim>
					<dim>16</dim>
					<dim>1</dim>
					<dim>1</dim>
				</port>
			</output>
		</layer>
		<layer id="357" name="bottleneck2_2/dim_inc/conv/WithoutBiases/fq_weights_1/Convert_to_float" type="Convert" version="opset1">
			<data destination_type="f16"/>
			<input>
				<port id="0">
					<dim>64</dim>
					<dim>16</dim>
					<dim>1</dim>
					<dim>1</dim>
				</port>
			</input>
			<output>
				<port id="1" precision="FP16">
					<dim>64</dim>
					<dim>16</dim>
					<dim>1</dim>
					<dim>1</dim>
				</port>
			</output>
		</layer>
		<layer id="358" name="bottleneck2_2/dim_inc/conv/WithoutBiases/fq_weights_1/Copy/out_low4161_const" type="Const" version="opset1">
			<data element_type="f16" offset="1336" shape="1" size="2"/>
			<output>
				<port id="1" precision="FP16">
					<dim>1</dim>
				</port>
			</output>
		</layer>
		<layer id="359" name="bottleneck2_2/dim_inc/conv/WithoutBiases/fq_weights_1/Copy/out_high4162_const" type="Const" version="opset1">
			<data element_type="f16" offset="882" shape="1" size="2"/>
			<output>
				<port id="1" precision="FP16">
					<dim>1</dim>
				</port>
			</output>
		</layer>
		<layer id="360" name="13931397_const" type="Const" version="opset1">
			<data element_type="f16" offset="13966" shape="64,1,1,1" size="128"/>
			<output>
				<port id="1" precision="FP16">
					<dim>64</dim>
					<dim>1</dim>
					<dim>1</dim>
					<dim>1</dim>
				</port>
			</output>
		</layer>
		<layer id="361" name="13941398_const" type="Const" version="opset1">
			<data element_type="f16" offset="14094" shape="64,1,1,1" size="128"/>
			<output>
				<port id="1" precision="FP16">
					<dim>64</dim>
					<dim>1</dim>
					<dim>1</dim>
					<dim>1</dim>
				</port>
			</output>
		</layer>
		<layer id="362" name="bottleneck2_2/dim_inc/conv/WithoutBiases/fq_weights_1" type="FakeQuantize" version="opset1">
			<data levels="255"/>
			<input>
				<port id="0">
					<dim>64</dim>
					<dim>16</dim>
					<dim>1</dim>
					<dim>1</dim>
				</port>
				<port id="1">
					<dim>1</dim>
				</port>
				<port id="2">
					<dim>1</dim>
				</port>
				<port id="3">
					<dim>64</dim>
					<dim>1</dim>
					<dim>1</dim>
					<dim>1</dim>
				</port>
				<port id="4">
					<dim>64</dim>
					<dim>1</dim>
					<dim>1</dim>
					<dim>1</dim>
				</port>
			</input>
			<output>
				<port id="5" precision="FP16">
					<dim>64</dim>
					<dim>16</dim>
					<dim>1</dim>
					<dim>1</dim>
				</port>
			</output>
		</layer>
		<layer id="363" name="bottleneck2_2/dim_inc/conv/WithoutBiases" type="Convolution" version="opset1">
			<data dilations="1,1" output_padding="0,0" pads_begin="0,0" pads_end="0,0" strides="1,1"/>
			<input>
				<port id="0">
					<dim>1</dim>
					<dim>16</dim>
					<dim>24</dim>
					<dim>12</dim>
				</port>
				<port id="1">
					<dim>64</dim>
					<dim>16</dim>
					<dim>1</dim>
					<dim>1</dim>
				</port>
			</input>
			<output>
				<port id="2" precision="FP16">
					<dim>1</dim>
					<dim>64</dim>
					<dim>24</dim>
					<dim>12</dim>
				</port>
			</output>
		</layer>
		<layer id="364" name="bottleneck2_2/dim_inc/conv/Dims2307/copy_const382_const" type="Const" version="opset1">
			<data element_type="f16" offset="14222" shape="1,64,1,1" size="128"/>
			<output>
				<port id="1" precision="FP16">
					<dim>1</dim>
					<dim>64</dim>
					<dim>1</dim>
					<dim>1</dim>
				</port>
			</output>
		</layer>
		<layer id="365" name="bottleneck2_2/dim_inc/conv" type="Add" version="opset1">
			<input>
				<port id="0">
					<dim>1</dim>
					<dim>64</dim>
					<dim>24</dim>
					<dim>12</dim>
				</port>
				<port id="1">
					<dim>1</dim>
					<dim>64</dim>
					<dim>1</dim>
					<dim>1</dim>
				</port>
			</input>
			<output>
				<port id="2" precision="FP16">
					<dim>1</dim>
					<dim>64</dim>
					<dim>24</dim>
					<dim>12</dim>
				</port>
			</output>
		</layer>
		<layer id="366" name="13711375_const" type="Const" version="opset1">
			<data element_type="f16" offset="14350" shape="" size="2"/>
			<output>
				<port id="1" precision="FP16"/>
			</output>
		</layer>
		<layer id="367" name="13721376_const" type="Const" version="opset1">
			<data element_type="f16" offset="14352" shape="" size="2"/>
			<output>
				<port id="1" precision="FP16"/>
			</output>
		</layer>
		<layer id="368" name="13731377_const" type="Const" version="opset1">
			<data element_type="f16" offset="14350" shape="" size="2"/>
			<output>
				<port id="1" precision="FP16"/>
			</output>
		</layer>
		<layer id="369" name="13741378_const" type="Const" version="opset1">
			<data element_type="f16" offset="14352" shape="" size="2"/>
			<output>
				<port id="1" precision="FP16"/>
			</output>
		</layer>
		<layer id="370" name="bottleneck2_2/add/fq_input_1" type="FakeQuantize" version="opset1">
			<data levels="256"/>
			<input>
				<port id="0">
					<dim>1</dim>
					<dim>64</dim>
					<dim>24</dim>
					<dim>12</dim>
				</port>
				<port id="1"/>
				<port id="2"/>
				<port id="3"/>
				<port id="4"/>
			</input>
			<output>
				<port id="5" precision="FP16">
					<dim>1</dim>
					<dim>64</dim>
					<dim>24</dim>
					<dim>12</dim>
				</port>
			</output>
		</layer>
		<layer id="371" name="bottleneck2_2/add" type="Add" version="opset1">
			<input>
				<port id="0">
					<dim>1</dim>
					<dim>64</dim>
					<dim>24</dim>
					<dim>12</dim>
				</port>
				<port id="1">
					<dim>1</dim>
					<dim>64</dim>
					<dim>24</dim>
					<dim>12</dim>
				</port>
			</input>
			<output>
				<port id="2" precision="FP16">
					<dim>1</dim>
					<dim>64</dim>
					<dim>24</dim>
					<dim>12</dim>
				</port>
			</output>
		</layer>
		<layer id="372" name="bottleneck2_2/fn" type="Elu" version="opset1">
			<data alpha="1.0"/>
			<input>
				<port id="0">
					<dim>1</dim>
					<dim>64</dim>
					<dim>24</dim>
					<dim>12</dim>
				</port>
			</input>
			<output>
				<port id="1" precision="FP16">
					<dim>1</dim>
					<dim>64</dim>
					<dim>24</dim>
					<dim>12</dim>
				</port>
			</output>
		</layer>
		<layer id="373" name="11011105_const" type="Const" version="opset1">
			<data element_type="f16" offset="14354" shape="" size="2"/>
			<output>
				<port id="1" precision="FP16"/>
			</output>
		</layer>
		<layer id="374" name="11021106_const" type="Const" version="opset1">
			<data element_type="f16" offset="14356" shape="" size="2"/>
			<output>
				<port id="1" precision="FP16"/>
			</output>
		</layer>
		<layer id="375" name="11031107_const" type="Const" version="opset1">
			<data element_type="f16" offset="14354" shape="" size="2"/>
			<output>
				<port id="1" precision="FP16"/>
			</output>
		</layer>
		<layer id="376" name="11041108_const" type="Const" version="opset1">
			<data element_type="f16" offset="14356" shape="" size="2"/>
			<output>
				<port id="1" precision="FP16"/>
			</output>
		</layer>
		<layer id="377" name="bottleneck2_3/add/fq_input_0" type="FakeQuantize" version="opset1">
			<data levels="256"/>
			<input>
				<port id="0">
					<dim>1</dim>
					<dim>64</dim>
					<dim>24</dim>
					<dim>12</dim>
				</port>
				<port id="1"/>
				<port id="2"/>
				<port id="3"/>
				<port id="4"/>
			</input>
			<output>
				<port id="5" precision="FP16">
					<dim>1</dim>
					<dim>64</dim>
					<dim>24</dim>
					<dim>12</dim>
				</port>
			</output>
		</layer>
		<layer id="378" name="bottleneck2_3/dim_red/conv/WithoutBiases/fq_weights_1/Convert_to_float/Cast_05037_const" type="Const" version="opset1">
			<data element_type="u8" offset="14358" shape="16,64,1,1" size="1024"/>
			<output>
				<port id="1" precision="U8">
					<dim>16</dim>
					<dim>64</dim>
					<dim>1</dim>
					<dim>1</dim>
				</port>
			</output>
		</layer>
		<layer id="379" name="bottleneck2_3/dim_red/conv/WithoutBiases/fq_weights_1/Convert_to_float" type="Convert" version="opset1">
			<data destination_type="f16"/>
			<input>
				<port id="0">
					<dim>16</dim>
					<dim>64</dim>
					<dim>1</dim>
					<dim>1</dim>
				</port>
			</input>
			<output>
				<port id="1" precision="FP16">
					<dim>16</dim>
					<dim>64</dim>
					<dim>1</dim>
					<dim>1</dim>
				</port>
			</output>
		</layer>
		<layer id="380" name="bottleneck2_3/dim_red/conv/WithoutBiases/fq_weights_1/Copy/out_low4377_const" type="Const" version="opset1">
			<data element_type="f16" offset="1336" shape="1" size="2"/>
			<output>
				<port id="1" precision="FP16">
					<dim>1</dim>
				</port>
			</output>
		</layer>
		<layer id="381" name="bottleneck2_3/dim_red/conv/WithoutBiases/fq_weights_1/Copy/out_high4378_const" type="Const" version="opset1">
			<data element_type="f16" offset="882" shape="1" size="2"/>
			<output>
				<port id="1" precision="FP16">
					<dim>1</dim>
				</port>
			</output>
		</layer>
		<layer id="382" name="20932097_const" type="Const" version="opset1">
			<data element_type="f16" offset="15382" shape="16,1,1,1" size="32"/>
			<output>
				<port id="1" precision="FP16">
					<dim>16</dim>
					<dim>1</dim>
					<dim>1</dim>
					<dim>1</dim>
				</port>
			</output>
		</layer>
		<layer id="383" name="20942098_const" type="Const" version="opset1">
			<data element_type="f16" offset="15414" shape="16,1,1,1" size="32"/>
			<output>
				<port id="1" precision="FP16">
					<dim>16</dim>
					<dim>1</dim>
					<dim>1</dim>
					<dim>1</dim>
				</port>
			</output>
		</layer>
		<layer id="384" name="bottleneck2_3/dim_red/conv/WithoutBiases/fq_weights_1" type="FakeQuantize" version="opset1">
			<data levels="255"/>
			<input>
				<port id="0">
					<dim>16</dim>
					<dim>64</dim>
					<dim>1</dim>
					<dim>1</dim>
				</port>
				<port id="1">
					<dim>1</dim>
				</port>
				<port id="2">
					<dim>1</dim>
				</port>
				<port id="3">
					<dim>16</dim>
					<dim>1</dim>
					<dim>1</dim>
					<dim>1</dim>
				</port>
				<port id="4">
					<dim>16</dim>
					<dim>1</dim>
					<dim>1</dim>
					<dim>1</dim>
				</port>
			</input>
			<output>
				<port id="5" precision="FP16">
					<dim>16</dim>
					<dim>64</dim>
					<dim>1</dim>
					<dim>1</dim>
				</port>
			</output>
		</layer>
		<layer id="385" name="bottleneck2_3/dim_red/conv/WithoutBiases" type="Convolution" version="opset1">
			<data dilations="1,1" output_padding="0,0" pads_begin="0,0" pads_end="0,0" strides="1,1"/>
			<input>
				<port id="0">
					<dim>1</dim>
					<dim>64</dim>
					<dim>24</dim>
					<dim>12</dim>
				</port>
				<port id="1">
					<dim>16</dim>
					<dim>64</dim>
					<dim>1</dim>
					<dim>1</dim>
				</port>
			</input>
			<output>
				<port id="2" precision="FP16">
					<dim>1</dim>
					<dim>16</dim>
					<dim>24</dim>
					<dim>12</dim>
				</port>
			</output>
		</layer>
		<layer id="386" name="bottleneck2_3/dim_red/conv/Dims2283/copy_const388_const" type="Const" version="opset1">
			<data element_type="f16" offset="15446" shape="1,16,1,1" size="32"/>
			<output>
				<port id="1" precision="FP16">
					<dim>1</dim>
					<dim>16</dim>
					<dim>1</dim>
					<dim>1</dim>
				</port>
			</output>
		</layer>
		<layer id="387" name="bottleneck2_3/dim_red/conv" type="Add" version="opset1">
			<input>
				<port id="0">
					<dim>1</dim>
					<dim>16</dim>
					<dim>24</dim>
					<dim>12</dim>
				</port>
				<port id="1">
					<dim>1</dim>
					<dim>16</dim>
					<dim>1</dim>
					<dim>1</dim>
				</port>
			</input>
			<output>
				<port id="2" precision="FP16">
					<dim>1</dim>
					<dim>16</dim>
					<dim>24</dim>
					<dim>12</dim>
				</port>
			</output>
		</layer>
		<layer id="388" name="bottleneck2_3/dim_red/fn" type="Elu" version="opset1">
			<data alpha="1.0"/>
			<input>
				<port id="0">
					<dim>1</dim>
					<dim>16</dim>
					<dim>24</dim>
					<dim>12</dim>
				</port>
			</input>
			<output>
				<port id="1" precision="FP16">
					<dim>1</dim>
					<dim>16</dim>
					<dim>24</dim>
					<dim>12</dim>
				</port>
			</output>
		</layer>
		<layer id="389" name="10011005_const" type="Const" version="opset1">
			<data element_type="f16" offset="15478" shape="1,16,1,1" size="32"/>
			<output>
				<port id="1" precision="FP16">
					<dim>1</dim>
					<dim>16</dim>
					<dim>1</dim>
					<dim>1</dim>
				</port>
			</output>
		</layer>
		<layer id="390" name="10021006_const" type="Const" version="opset1">
			<data element_type="f16" offset="15510" shape="1,16,1,1" size="32"/>
			<output>
				<port id="1" precision="FP16">
					<dim>1</dim>
					<dim>16</dim>
					<dim>1</dim>
					<dim>1</dim>
				</port>
			</output>
		</layer>
		<layer id="391" name="10031007_const" type="Const" version="opset1">
			<data element_type="f16" offset="15478" shape="1,16,1,1" size="32"/>
			<output>
				<port id="1" precision="FP16">
					<dim>1</dim>
					<dim>16</dim>
					<dim>1</dim>
					<dim>1</dim>
				</port>
			</output>
		</layer>
		<layer id="392" name="10041008_const" type="Const" version="opset1">
			<data element_type="f16" offset="15510" shape="1,16,1,1" size="32"/>
			<output>
				<port id="1" precision="FP16">
					<dim>1</dim>
					<dim>16</dim>
					<dim>1</dim>
					<dim>1</dim>
				</port>
			</output>
		</layer>
		<layer id="393" name="bottleneck2_3/inner/dw1/conv/WithoutBiases/fq_input_0" type="FakeQuantize" version="opset1">
			<data levels="256"/>
			<input>
				<port id="0">
					<dim>1</dim>
					<dim>16</dim>
					<dim>24</dim>
					<dim>12</dim>
				</port>
				<port id="1">
					<dim>1</dim>
					<dim>16</dim>
					<dim>1</dim>
					<dim>1</dim>
				</port>
				<port id="2">
					<dim>1</dim>
					<dim>16</dim>
					<dim>1</dim>
					<dim>1</dim>
				</port>
				<port id="3">
					<dim>1</dim>
					<dim>16</dim>
					<dim>1</dim>
					<dim>1</dim>
				</port>
				<port id="4">
					<dim>1</dim>
					<dim>16</dim>
					<dim>1</dim>
					<dim>1</dim>
				</port>
			</input>
			<output>
				<port id="5" precision="FP16">
					<dim>1</dim>
					<dim>16</dim>
					<dim>24</dim>
					<dim>12</dim>
				</port>
			</output>
		</layer>
		<layer id="394" name="bottleneck2_3/inner/dw1/conv/WithoutBiases/fq_weights_1/Convert_to_float/Cast_04995_const" type="Const" version="opset1">
			<data element_type="u8" offset="15542" shape="16,1,3,3" size="144"/>
			<output>
				<port id="1" precision="U8">
					<dim>16</dim>
					<dim>1</dim>
					<dim>3</dim>
					<dim>3</dim>
				</port>
			</output>
		</layer>
		<layer id="395" name="bottleneck2_3/inner/dw1/conv/WithoutBiases/fq_weights_1/Convert_to_float" type="Convert" version="opset1">
			<data destination_type="f16"/>
			<input>
				<port id="0">
					<dim>16</dim>
					<dim>1</dim>
					<dim>3</dim>
					<dim>3</dim>
				</port>
			</input>
			<output>
				<port id="1" precision="FP16">
					<dim>16</dim>
					<dim>1</dim>
					<dim>3</dim>
					<dim>3</dim>
				</port>
			</output>
		</layer>
		<layer id="396" name="bottleneck2_3/inner/dw1/conv/WithoutBiases/fq_weights_1/Copy/out_low4057_const" type="Const" version="opset1">
			<data element_type="f16" offset="1336" shape="1" size="2"/>
			<output>
				<port id="1" precision="FP16">
					<dim>1</dim>
				</port>
			</output>
		</layer>
		<layer id="397" name="bottleneck2_3/inner/dw1/conv/WithoutBiases/fq_weights_1/Copy/out_high4058_const" type="Const" version="opset1">
			<data element_type="f16" offset="882" shape="1" size="2"/>
			<output>
				<port id="1" precision="FP16">
					<dim>1</dim>
				</port>
			</output>
		</layer>
		<layer id="398" name="10131017_const" type="Const" version="opset1">
			<data element_type="f16" offset="15686" shape="16,1,1,1" size="32"/>
			<output>
				<port id="1" precision="FP16">
					<dim>16</dim>
					<dim>1</dim>
					<dim>1</dim>
					<dim>1</dim>
				</port>
			</output>
		</layer>
		<layer id="399" name="10141018_const" type="Const" version="opset1">
			<data element_type="f16" offset="15718" shape="16,1,1,1" size="32"/>
			<output>
				<port id="1" precision="FP16">
					<dim>16</dim>
					<dim>1</dim>
					<dim>1</dim>
					<dim>1</dim>
				</port>
			</output>
		</layer>
		<layer id="400" name="bottleneck2_3/inner/dw1/conv/WithoutBiases/fq_weights_1" type="FakeQuantize" version="opset1">
			<data levels="255"/>
			<input>
				<port id="0">
					<dim>16</dim>
					<dim>1</dim>
					<dim>3</dim>
					<dim>3</dim>
				</port>
				<port id="1">
					<dim>1</dim>
				</port>
				<port id="2">
					<dim>1</dim>
				</port>
				<port id="3">
					<dim>16</dim>
					<dim>1</dim>
					<dim>1</dim>
					<dim>1</dim>
				</port>
				<port id="4">
					<dim>16</dim>
					<dim>1</dim>
					<dim>1</dim>
					<dim>1</dim>
				</port>
			</input>
			<output>
				<port id="5" precision="FP16">
					<dim>16</dim>
					<dim>1</dim>
					<dim>3</dim>
					<dim>3</dim>
				</port>
			</output>
		</layer>
		<layer id="401" name="5692/value5694_const" type="Const" version="opset1">
			<data element_type="i64" offset="7184" shape="5" size="40"/>
			<output>
				<port id="1" precision="I64">
					<dim>5</dim>
				</port>
			</output>
		</layer>
		<layer id="402" name="5692" type="Reshape" version="opset1">
			<data special_zero="True"/>
			<input>
				<port id="0">
					<dim>16</dim>
					<dim>1</dim>
					<dim>3</dim>
					<dim>3</dim>
				</port>
				<port id="1">
					<dim>5</dim>
				</port>
			</input>
			<output>
				<port id="2" precision="FP16">
					<dim>16</dim>
					<dim>1</dim>
					<dim>1</dim>
					<dim>3</dim>
					<dim>3</dim>
				</port>
			</output>
		</layer>
		<layer id="403" name="bottleneck2_3/inner/dw1/conv/WithoutBiases" type="GroupConvolution" version="opset1">
			<data dilations="1,1" output_padding="0,0" pads_begin="1,1" pads_end="1,1" strides="1,1"/>
			<input>
				<port id="0">
					<dim>1</dim>
					<dim>16</dim>
					<dim>24</dim>
					<dim>12</dim>
				</port>
				<port id="1">
					<dim>16</dim>
					<dim>1</dim>
					<dim>1</dim>
					<dim>3</dim>
					<dim>3</dim>
				</port>
			</input>
			<output>
				<port id="2" precision="FP16">
					<dim>1</dim>
					<dim>16</dim>
					<dim>24</dim>
					<dim>12</dim>
				</port>
			</output>
		</layer>
		<layer id="404" name="bottleneck2_3/inner/dw1/conv/Dims2139/copy_const393_const" type="Const" version="opset1">
			<data element_type="f16" offset="15750" shape="1,16,1,1" size="32"/>
			<output>
				<port id="1" precision="FP16">
					<dim>1</dim>
					<dim>16</dim>
					<dim>1</dim>
					<dim>1</dim>
				</port>
			</output>
		</layer>
		<layer id="405" name="bottleneck2_3/inner/dw1/conv" type="Add" version="opset1">
			<input>
				<port id="0">
					<dim>1</dim>
					<dim>16</dim>
					<dim>24</dim>
					<dim>12</dim>
				</port>
				<port id="1">
					<dim>1</dim>
					<dim>16</dim>
					<dim>1</dim>
					<dim>1</dim>
				</port>
			</input>
			<output>
				<port id="2" precision="FP16">
					<dim>1</dim>
					<dim>16</dim>
					<dim>24</dim>
					<dim>12</dim>
…
		<edge from-layer="291" from-port="2" to-layer="293" to-port="0"/>
		<edge from-layer="292" from-port="1" to-layer="293" to-port="1"/>
		<edge from-layer="293" from-port="2" to-layer="294" to-port="0"/>
		<edge from-layer="294" from-port="1" to-layer="299" to-port="0"/>
		<edge from-layer="295" from-port="1" to-layer="299" to-port="1"/>
		<edge from-layer="296" from-port="1" to-layer="299" to-port="2"/>
		<edge from-layer="297" from-port="1" to-layer="299" to-port="3"/>
		<edge from-layer="298" from-port="1" to-layer="299" to-port="4"/>
		<edge from-layer="300" from-port="1" to-layer="301" to-port="0"/>
		<edge from-layer="301" from-port="1" to-layer="306" to-port="0"/>
		<edge from-layer="302" from-port="1" to-layer="306" to-port="1"/>
		<edge from-layer="303" from-port="1" to-layer="306" to-port="2"/>
		<edge from-layer="304" from-port="1" to-layer="306" to-port="3"/>
		<edge from-layer="305" from-port="1" to-layer="306" to-port="4"/>
		<edge from-layer="299" from-port="5" to-layer="307" to-port="0"/>
		<edge from-layer="306" from-port="5" to-layer="307" to-port="1"/>
		<edge from-layer="307" from-port="2" to-layer="309" to-port="0"/>
		<edge from-layer="308" from-port="1" to-layer="309" to-port="1"/>
		<edge from-layer="309" from-port="2" to-layer="314" to-port="0"/>
		<edge from-layer="310" from-port="1" to-layer="314" to-port="1"/>
		<edge from-layer="311" from-port="1" to-layer="314" to-port="2"/>
		<edge from-layer="312" from-port="1" to-layer="314" to-port="3"/>
		<edge from-layer="313" from-port="1" to-layer="314" to-port="4"/>
		<edge from-layer="265" from-port="5" to-layer="315" to-port="0"/>
		<edge from-layer="314" from-port="5" to-layer="315" to-port="1"/>
		<edge from-layer="315" from-port="2" to-layer="316" to-port="0"/>
		<edge from-layer="316" from-port="1" to-layer="321" to-port="0"/>
		<edge from-layer="317" from-port="1" to-layer="321" to-port="1"/>
		<edge from-layer="318" from-port="1" to-layer="321" to-port="2"/>
		<edge from-layer="319" from-port="1" to-layer="321" to-port="3"/>
		<edge from-layer="320" from-port="1" to-layer="321" to-port="4"/>
		<edge from-layer="322" from-port="1" to-layer="323" to-port="0"/>
		<edge from-layer="323" from-port="1" to-layer="328" to-port="0"/>
		<edge from-layer="324" from-port="1" to-layer="328" to-port="1"/>
		<edge from-layer="325" from-port="1" to-layer="328" to-port="2"/>
		<edge from-layer="326" from-port="1" to-layer="328" to-port="3"/>
		<edge from-layer="327" from-port="1" to-layer="328" to-port="4"/>
		<edge from-layer="321" from-port="5" to-layer="329" to-port="0"/>
		<edge from-layer="328" from-port="5" to-layer="329" to-port="1"/>
		<edge from-layer="329" from-port="2" to-layer="331" to-port="0"/>
		<edge from-layer="330" from-port="1" to-layer="331" to-port="1"/>
		<edge from-layer="331" from-port="2" to-layer="332" to-port="0"/>
		<edge from-layer="332" from-port="1" to-layer="337" to-port="0"/>
		<edge from-layer="333" from-port="1" to-layer="337" to-port="1"/>
		<edge from-layer="334" from-port="1" to-layer="337" to-port="2"/>
		<edge from-layer="335" from-port="1" to-layer="337" to-port="3"/>
		<edge from-layer="336" from-port="1" to-layer="337" to-port="4"/>
		<edge from-layer="338" from-port="1" to-layer="339" to-port="0"/>
		<edge from-layer="339" from-port="1" to-layer="344" to-port="0"/>
		<edge from-layer="340" from-port="1" to-layer="344" to-port="1"/>
		<edge from-layer="341" from-port="1" to-layer="344" to-port="2"/>
		<edge from-layer="342" from-port="1" to-layer="344" to-port="3"/>
		<edge from-layer="343" from-port="1" to-layer="344" to-port="4"/>
		<edge from-layer="344" from-port="5" to-layer="346" to-port="0"/>
		<edge from-layer="345" from-port="1" to-layer="346" to-port="1"/>
		<edge from-layer="337" from-port="5" to-layer="347" to-port="0"/>
		<edge from-layer="346" from-port="2" to-layer="347" to-port="1"/>
		<edge from-layer="347" from-port="2" to-layer="349" to-port="0"/>
		<edge from-layer="348" from-port="1" to-layer="349" to-port="1"/>
		<edge from-layer="349" from-port="2" to-layer="350" to-port="0"/>
		<edge from-layer="350" from-port="1" to-layer="355" to-port="0"/>
		<edge from-layer="351" from-port="1" to-layer="355" to-port="1"/>
		<edge from-layer="352" from-port="1" to-layer="355" to-port="2"/>
		<edge from-layer="353" from-port="1" to-layer="355" to-port="3"/>
		<edge from-layer="354" from-port="1" to-layer="355" to-port="4"/>
		<edge from-layer="356" from-port="1" to-layer="357" to-port="0"/>
		<edge from-layer="357" from-port="1" to-layer="362" to-port="0"/>
		<edge from-layer="358" from-port="1" to-layer="362" to-port="1"/>
		<edge from-layer="359" from-port="1" to-layer="362" to-port="2"/>
		<edge from-layer="360" from-port="1" to-layer="362" to-port="3"/>
		<edge from-layer="361" from-port="1" to-layer="362" to-port="4"/>
		<edge from-layer="355" from-port="5" to-layer="363" to-port="0"/>
		<edge from-layer="362" from-port="5" to-layer="363" to-port="1"/>
		<edge from-layer="363" from-port="2" to-layer="365" to-port="0"/>
		<edge from-layer="364" from-port="1" to-layer="365" to-port="1"/>
		<edge from-layer="365" from-port="2" to-layer="370" to-port="0"/>
		<edge from-layer="366" from-port="1" to-layer="370" to-port="1"/>
		<edge from-layer="367" from-port="1" to-layer="370" to-port="2"/>
		<edge from-layer="368" from-port="1" to-layer="370" to-port="3"/>
		<edge from-layer="369" from-port="1" to-layer="370" to-port="4"/>
		<edge from-layer="321" from-port="5" to-layer="371" to-port="0"/>
		<edge from-layer="370" from-port="5" to-layer="371" to-port="1"/>
		<edge from-layer="371" from-port="2" to-layer="372" to-port="0"/>
		<edge from-layer="372" from-port="1" to-layer="377" to-port="0"/>
		<edge from-layer="373" from-port="1" to-layer="377" to-port="1"/>
		<edge from-layer="374" from-port="1" to-layer="377" to-port="2"/>
		<edge from-layer="375" from-port="1" to-layer="377" to-port="3"/>
		<edge from-layer="376" from-port="1" to-layer="377" to-port="4"/>
		<edge from-layer="378" from-port="1" to-layer="379" to-port="0"/>
		<edge from-layer="379" from-port="1" to-layer="384" to-port="0"/>
		<edge from-layer="380" from-port="1" to-layer="384" to-port="1"/>
		<edge from-layer="381" from-port="1" to-layer="384" to-port="2"/>
		<edge from-layer="382" from-port="1" to-layer="384" to-port="3"/>
		<edge from-layer="383" from-port="1" to-layer="384" to-port="4"/>
		<edge from-layer="377" from-port="5" to-layer="385" to-port="0"/>
		<edge from-layer="384" from-port="5" to-layer="385" to-port="1"/>
		<edge from-layer="385" from-port="2" to-layer="387" to-port="0"/>
		<edge from-layer="386" from-port="1" to-layer="387" to-port="1"/>
		<edge from-layer="387" from-port="2" to-layer="388" to-port="0"/>
		<edge from-layer="388" from-port="1" to-layer="393" to-port="0"/>
		<edge from-layer="389" from-port="1" to-layer="393" to-port="1"/>
		<edge from-layer="390" from-port="1" to-layer="393" to-port="2"/>
		<edge from-layer="391" from-port="1" to-layer="393" to-port="3"/>
		<edge from-layer="392" from-port="1" to-layer="393" to-port="4"/>
		<edge from-layer="394" from-port="1" to-layer="395" to-port="0"/>
		<edge from-layer="395" from-port="1" to-layer="400" to-port="0"/>
		<edge from-layer="396" from-port="1" to-layer="400" to-port="1"/>
		<edge from-layer="397" from-port="1" to-layer="400" to-port="2"/>
		<edge from-layer="398" from-port="1" to-layer="400" to-port="3"/>
		<edge from-layer="399" from-port="1" to-layer="400" to-port="4"/>
		<edge from-layer="400" from-port="5" to-layer="402" to-port="0"/>
		<edge from-layer="401" from-port="1" to-layer="402" to-port="1"/>
		<edge from-layer="393" from-port="5" to-layer="403" to-port="0"/>
		<edge from-layer="402" from-port="2" to-layer="403" to-port="1"/>
		<edge from-layer="403" from-port="2" to-layer="405" to-port="0"/>
		<edge from-layer="404" from-port="1" to-layer="405" to-port="1"/>
		<edge from-layer="405" from-port="2" to-layer="406" to-port="0"/>
		<edge from-layer="406" from-port="1" to-layer="411" to-port="0"/>
		<edge from-layer="407" from-port="1" to-layer="411" to-port="1"/>
		<edge from-layer="408" from-port="1" to-layer="411" to-port="2"/>
		<edge from-layer="409" from-port="1" to-layer="411" to-port="3"/>
		<edge from-layer="410" from-port="1" to-layer="411" to-port="4"/>
		<edge from-layer="412" from-port="1" to-layer="413" to-port="0"/>
		<edge from-layer="413" from-port="1" to-layer="418" to-port="0"/>
		<edge from-layer="414" from-port="1" to-layer="418" to-port="1"/>
		<edge from-layer="415" from-port="1" to-layer="418" to-port="2"/>
		<edge from-layer="416" from-port="1" to-layer="418" to-port="3"/>
		<edge from-layer="417" from-port="1" to-layer="418" to-port="4"/>
		<edge from-layer="411" from-port="5" to-layer="419" to-port="0"/>
		<edge from-layer="418" from-port="5" to-layer="419" to-port="1"/>
		<edge from-layer="419" from-port="2" to-layer="421" to-port="0"/>
		<edge from-layer="420" from-port="1" to-layer="421" to-port="1"/>
		<edge from-layer="421" from-port="2" to-layer="426" to-port="0"/>
		<edge from-layer="422" from-port="1" to-layer="426" to-port="1"/>
		<edge from-layer="423" from-port="1" to-layer="426" to-port="2"/>
		<edge from-layer="424" from-port="1" to-layer="426" to-port="3"/>
		<edge from-layer="425" from-port="1" to-layer="426" to-port="4"/>
		<edge from-layer="377" from-port="5" to-layer="427" to-port="0"/>
		<edge from-layer="426" from-port="5" to-layer="427" to-port="1"/>
		<edge from-layer="427" from-port="2" to-layer="428" to-port="0"/>
		<edge from-layer="428" from-port="1" to-layer="433" to-port="0"/>
		<edge from-layer="429" from-port="1" to-layer="433" to-port="1"/>
		<edge from-layer="430" from-port="1" to-layer="433" to-port="2"/>
		<edge from-layer="431" from-port="1" to-layer="433" to-port="3"/>
		<edge from-layer="432" from-port="1" to-layer="433" to-port="4"/>
		<edge from-layer="433" from-port="5" to-layer="434" to-port="0"/>
		<edge from-layer="435" from-port="1" to-layer="436" to-port="0"/>
		<edge from-layer="436" from-port="1" to-layer="441" to-port="0"/>
		<edge from-layer="437" from-port="1" to-layer="441" to-port="1"/>
		<edge from-layer="438" from-port="1" to-layer="441" to-port="2"/>
		<edge from-layer="439" from-port="1" to-layer="441" to-port="3"/>
		<edge from-layer="440" from-port="1" to-layer="441" to-port="4"/>
		<edge from-layer="434" from-port="1" to-layer="442" to-port="0"/>
		<edge from-layer="441" from-port="5" to-layer="442" to-port="1"/>
		<edge from-layer="442" from-port="2" to-layer="444" to-port="0"/>
		<edge from-layer="443" from-port="1" to-layer="444" to-port="1"/>
		<edge from-layer="444" from-port="2" to-layer="449" to-port="0"/>
		<edge from-layer="445" from-port="1" to-layer="449" to-port="1"/>
		<edge from-layer="446" from-port="1" to-layer="449" to-port="2"/>
		<edge from-layer="447" from-port="1" to-layer="449" to-port="3"/>
		<edge from-layer="448" from-port="1" to-layer="449" to-port="4"/>
		<edge from-layer="450" from-port="1" to-layer="451" to-port="0"/>
		<edge from-layer="451" from-port="1" to-layer="456" to-port="0"/>
		<edge from-layer="452" from-port="1" to-layer="456" to-port="1"/>
		<edge from-layer="453" from-port="1" to-layer="456" to-port="2"/>
		<edge from-layer="454" from-port="1" to-layer="456" to-port="3"/>
		<edge from-layer="455" from-port="1" to-layer="456" to-port="4"/>
		<edge from-layer="433" from-port="5" to-layer="457" to-port="0"/>
		<edge from-layer="456" from-port="5" to-layer="457" to-port="1"/>
		<edge from-layer="457" from-port="2" to-layer="459" to-port="0"/>
		<edge from-layer="458" from-port="1" to-layer="459" to-port="1"/>
		<edge from-layer="459" from-port="2" to-layer="460" to-port="0"/>
		<edge from-layer="460" from-port="1" to-layer="465" to-port="0"/>
		<edge from-layer="461" from-port="1" to-layer="465" to-port="1"/>
		<edge from-layer="462" from-port="1" to-layer="465" to-port="2"/>
		<edge from-layer="463" from-port="1" to-layer="465" to-port="3"/>
		<edge from-layer="464" from-port="1" to-layer="465" to-port="4"/>
		<edge from-layer="466" from-port="1" to-layer="467" to-port="0"/>
		<edge from-layer="467" from-port="1" to-layer="472" to-port="0"/>
		<edge from-layer="468" from-port="1" to-layer="472" to-port="1"/>
		<edge from-layer="469" from-port="1" to-layer="472" to-port="2"/>
		<edge from-layer="470" from-port="1" to-layer="472" to-port="3"/>
		<edge from-layer="471" from-port="1" to-layer="472" to-port="4"/>
		<edge from-layer="472" from-port="5" to-layer="474" to-port="0"/>
		<edge from-layer="473" from-port="1" to-layer="474" to-port="1"/>
		<edge from-layer="465" from-port="5" to-layer="475" to-port="0"/>
		<edge from-layer="474" from-port="2" to-layer="475" to-port="1"/>
		<edge from-layer="475" from-port="2" to-layer="477" to-port="0"/>
		<edge from-layer="476" from-port="1" to-layer="477" to-port="1"/>
		<edge from-layer="477" from-port="2" to-layer="478" to-port="0"/>
		<edge from-layer="478" from-port="1" to-layer="483" to-port="0"/>
		<edge from-layer="479" from-port="1" to-layer="483" to-port="1"/>
		<edge from-layer="480" from-port="1" to-layer="483" to-port="2"/>
		<edge from-layer="481" from-port="1" to-layer="483" to-port="3"/>
		<edge from-layer="482" from-port="1" to-layer="483" to-port="4"/>
		<edge from-layer="484" from-port="1" to-layer="485" to-port="0"/>
		<edge from-layer="485" from-port="1" to-layer="490" to-port="0"/>
		<edge from-layer="486" from-port="1" to-layer="490" to-port="1"/>
		<edge from-layer="487" from-port="1" to-layer="490" to-port="2"/>
		<edge from-layer="488" from-port="1" to-layer="490" to-port="3"/>
		<edge from-layer="489" from-port="1" to-layer="490" to-port="4"/>
		<edge from-layer="483" from-port="5" to-layer="491" to-port="0"/>
		<edge from-layer="490" from-port="5" to-layer="491" to-port="1"/>
		<edge from-layer="491" from-port="2" to-layer="493" to-port="0"/>
		<edge from-layer="492" from-port="1" to-layer="493" to-port="1"/>
		<edge from-layer="493" from-port="2" to-layer="498" to-port="0"/>
		<edge from-layer="494" from-port="1" to-layer="498" to-port="1"/>
		<edge from-layer="495" from-port="1" to-layer="498" to-port="2"/>
		<edge from-layer="496" from-port="1" to-layer="498" to-port="3"/>
		<edge from-layer="497" from-port="1" to-layer="498" to-port="4"/>
		<edge from-layer="449" from-port="5" to-layer="499" to-port="0"/>
		<edge from-layer="498" from-port="5" to-layer="499" to-port="1"/>
		<edge from-layer="499" from-port="2" to-layer="500" to-port="0"/>
		<edge from-layer="500" from-port="1" to-layer="505" to-port="0"/>
		<edge from-layer="501" from-port="1" to-layer="505" to-port="1"/>
		<edge from-layer="502" from-port="1" to-layer="505" to-port="2"/>
		<edge from-layer="503" from-port="1" to-layer="505" to-port="3"/>
		<edge from-layer="504" from-port="1" to-layer="505" to-port="4"/>
		<edge from-layer="506" from-port="1" to-layer="507" to-port="0"/>
		<edge from-layer="507" from-port="1" to-layer="512" to-port="0"/>
		<edge from-layer="508" from-port="1" to-layer="512" to-port="1"/>
		<edge from-layer="509" from-port="1" to-layer="512" to-port="2"/>
		<edge from-layer="510" from-port="1" to-layer="512" to-port="3"/>
		<edge from-layer="511" from-port="1" to-layer="512" to-port="4"/>
		<edge from-layer="505" from-port="5" to-layer="513" to-port="0"/>
		<edge from-layer="512" from-port="5" to-layer="513" to-port="1"/>
		<edge from-layer="513" from-port="2" to-layer="515" to-port="0"/>
		<edge from-layer="514" from-port="1" to-layer="515" to-port="1"/>
		<edge from-layer="515" from-port="2" to-layer="516" to-port="0"/>
		<edge from-layer="516" from-port="1" to-layer="521" to-port="0"/>
		<edge from-layer="517" from-port="1" to-layer="521" to-port="1"/>
		<edge from-layer="518" from-port="1" to-layer="521" to-port="2"/>
		<edge from-layer="519" from-port="1" to-layer="521" to-port="3"/>
		<edge from-layer="520" from-port="1" to-layer="521" to-port="4"/>
		<edge from-layer="522" from-port="1" to-layer="523" to-port="0"/>
		<edge from-layer="523" from-port="1" to-layer="528" to-port="0"/>
		<edge from-layer="524" from-port="1" to-layer="528" to-port="1"/>
		<edge from-layer="525" from-port="1" to-layer="528" to-port="2"/>
		<edge from-layer="526" from-port="1" to-layer="528" to-port="3"/>
		<edge from-layer="527" from-port="1" to-layer="528" to-port="4"/>
		<edge from-layer="528" from-port="5" to-layer="530" to-port="0"/>
		<edge from-layer="529" from-port="1" to-layer="530" to-port="1"/>
		<edge from-layer="521" from-port="5" to-layer="531" to-port="0"/>
		<edge from-layer="530" from-port="2" to-layer="531" to-port="1"/>
		<edge from-layer="531" from-port="2" to-layer="533" to-port="0"/>
		<edge from-layer="532" from-port="1" to-layer="533" to-port="1"/>
		<edge from-layer="533" from-port="2" to-layer="534" to-port="0"/>
		<edge from-layer="534" from-port="1" to-layer="539" to-port="0"/>
		<edge from-layer="535" from-port="1" to-layer="539" to-port="1"/>
		<edge from-layer="536" from-port="1" to-layer="539" to-port="2"/>
		<edge from-layer="537" from-port="1" to-layer="539" to-port="3"/>
		<edge from-layer="538" from-port="1" to-layer="539" to-port="4"/>
		<edge from-layer="540" from-port="1" to-layer="541" to-port="0"/>
		<edge from-layer="541" from-port="1" to-layer="546" to-port="0"/>
		<edge from-layer="542" from-port="1" to-layer="546" to-port="1"/>
		<edge from-layer="543" from-port="1" to-layer="546" to-port="2"/>
		<edge from-layer="544" from-port="1" to-layer="546" to-port="3"/>
		<edge from-layer="545" from-port="1" to-layer="546" to-port="4"/>
		<edge from-layer="539" from-port="5" to-layer="547" to-port="0"/>
		<edge from-layer="546" from-port="5" to-layer="547" to-port="1"/>
		<edge from-layer="547" from-port="2" to-layer="549" to-port="0"/>
		<edge from-layer="548" from-port="1" to-layer="549" to-port="1"/>
		<edge from-layer="549" from-port="2" to-layer="554" to-port="0"/>
		<edge from-layer="550" from-port="1" to-layer="554" to-port="1"/>
		<edge from-layer="551" from-port="1" to-layer="554" to-port="2"/>
		<edge from-layer="552" from-port="1" to-layer="554" to-port="3"/>
		<edge from-layer="553" from-port="1" to-layer="554" to-port="4"/>
		<edge from-layer="505" from-port="5" to-layer="555" to-port="0"/>
		<edge from-layer="554" from-port="5" to-layer="555" to-port="1"/>
		<edge from-layer="555" from-port="2" to-layer="556" to-port="0"/>
		<edge from-layer="556" from-port="1" to-layer="561" to-port="0"/>
		<edge from-layer="557" from-port="1" to-layer="561" to-port="1"/>
		<edge from-layer="558" from-port="1" to-layer="561" to-port="2"/>
		<edge from-layer="559" from-port="1" to-layer="561" to-port="3"/>
		<edge from-layer="560" from-port="1" to-layer="561" to-port="4"/>
		<edge from-layer="562" from-port="1" to-layer="563" to-port="0"/>
		<edge from-layer="563" from-port="1" to-layer="568" to-port="0"/>
		<edge from-layer="564" from-port="1" to-layer="568" to-port="1"/>
		<edge from-layer="565" from-port="1" to-layer="568" to-port="2"/>
		<edge from-layer="566" from-port="1" to-layer="568" to-port="3"/>
		<edge from-layer="567" from-port="1" to-layer="568" to-port="4"/>
		<edge from-layer="561" from-port="5" to-layer="569" to-port="0"/>
		<edge from-layer="568" from-port="5" to-layer="569" to-port="1"/>
		<edge from-layer="569" from-port="2" to-layer="571" to-port="0"/>
		<edge from-layer="570" from-port="1" to-layer="571" to-port="1"/>
		<edge from-layer="571" from-port="2" to-layer="572" to-port="0"/>
		<edge from-layer="572" from-port="1" to-layer="577" to-port="0"/>
		<edge from-layer="573" from-port="1" to-layer="577" to-port="1"/>
		<edge from-layer="574" from-port="1" to-layer="577" to-port="2"/>
		<edge from-layer="575" from-port="1" to-layer="577" to-port="3"/>
		<edge from-layer="576" from-port="1" to-layer="577" to-port="4"/>
		<edge from-layer="578" from-port="1" to-layer="579" to-port="0"/>
		<edge from-layer="579" from-port="1" to-layer="584" to-port="0"/>
		<edge from-layer="580" from-port="1" to-layer="584" to-port="1"/>
		<edge from-layer="581" from-port="1" to-layer="584" to-port="2"/>
		<edge from-layer="582" from-port="1" to-layer="584" to-port="3"/>
		<edge from-layer="583" from-port="1" to-layer="584" to-port="4"/>
		<edge from-layer="584" from-port="5" to-layer="586" to-port="0"/>
		<edge from-layer="585" from-port="1" to-layer="586" to-port="1"/>
		<edge from-layer="577" from-port="5" to-layer="587" to-port="0"/>
		<edge from-layer="586" from-port="2" to-layer="587" to-port="1"/>
		<edge from-layer="587" from-port="2" to-layer="589" to-port="0"/>
		<edge from-layer="588" from-port="1" to-layer="589" to-port="1"/>
		<edge from-layer="589" from-port="2" to-layer="590" to-port="0"/>
		<edge from-layer="590" from-port="1" to-layer="595" to-port="0"/>
		<edge from-layer="591" from-port="1" to-layer="595" to-port="1"/>
		<edge from-layer="592" from-port="1" to-layer="595" to-port="2"/>
		<edge from-layer="593" from-port="1" to-layer="595" to-port="3"/>
		<edge from-layer="594" from-port="1" to-layer="595" to-port="4"/>
		<edge from-layer="596" from-port="1" to-layer="597" to-port="0"/>
		<edge from-layer="597" from-port="1" to-layer="602" to-port="0"/>
		<edge from-layer="598" from-port="1" to-layer="602" to-port="1"/>
		<edge from-layer="599" from-port="1" to-layer="602" to-port="2"/>
		<edge from-layer="600" from-port="1" to-layer="602" to-port="3"/>
		<edge from-layer="601" from-port="1" to-layer="602" to-port="4"/>
		<edge from-layer="595" from-port="5" to-layer="603" to-port="0"/>
		<edge from-layer="602" from-port="5" to-layer="603" to-port="1"/>
		<edge from-layer="603" from-port="2" to-layer="605" to-port="0"/>
		<edge from-layer="604" from-port="1" to-layer="605" to-port="1"/>
		<edge from-layer="605" from-port="2" to-layer="610" to-port="0"/>
		<edge from-layer="606" from-port="1" to-layer="610" to-port="1"/>
		<edge from-layer="607" from-port="1" to-layer="610" to-port="2"/>
		<edge from-layer="608" from-port="1" to-layer="610" to-port="3"/>
		<edge from-layer="609" from-port="1" to-layer="610" to-port="4"/>
		<edge from-layer="561" from-port="5" to-layer="611" to-port="0"/>
		<edge from-layer="610" from-port="5" to-layer="611" to-port="1"/>
		<edge from-layer="611" from-port="2" to-layer="612" to-port="0"/>
		<edge from-layer="612" from-port="1" to-layer="617" to-port="0"/>
		<edge from-layer="613" from-port="1" to-layer="617" to-port="1"/>
		<edge from-layer="614" from-port="1" to-layer="617" to-port="2"/>
		<edge from-layer="615" from-port="1" to-layer="617" to-port="3"/>
		<edge from-layer="616" from-port="1" to-layer="617" to-port="4"/>
		<edge from-layer="618" from-port="1" to-layer="619" to-port="0"/>
		<edge from-layer="619" from-port="1" to-layer="624" to-port="0"/>
		<edge from-layer="620" from-port="1" to-layer="624" to-port="1"/>
		<edge from-layer="621" from-port="1" to-layer="624" to-port="2"/>
		<edge from-layer="622" from-port="1" to-layer="624" to-port="3"/>
		<edge from-layer="623" from-port="1" to-layer="624" to-port="4"/>
		<edge from-layer="617" from-port="5" to-layer="625" to-port="0"/>
		<edge from-layer="624" from-port="5" to-layer="625" to-port="1"/>
		<edge from-layer="625" from-port="2" to-layer="627" to-port="0"/>
		<edge from-layer="626" from-port="1" to-layer="627" to-port="1"/>
		<edge from-layer="627" from-port="2" to-layer="628" to-port="0"/>
		<edge from-layer="628" from-port="1" to-layer="633" to-port="0"/>
		<edge from-layer="629" from-port="1" to-layer="633" to-port="1"/>
		<edge from-layer="630" from-port="1" to-layer="633" to-port="2"/>
		<edge from-layer="631" from-port="1" to-layer="633" to-port="3"/>
		<edge from-layer="632" from-port="1" to-layer="633" to-port="4"/>
		<edge from-layer="634" from-port="1" to-layer="635" to-port="0"/>
		<edge from-layer="635" from-port="1" to-layer="640" to-port="0"/>
		<edge from-layer="636" from-port="1" to-layer="640" to-port="1"/>
		<edge from-layer="637" from-port="1" to-layer="640" to-port="2"/>
		<edge from-layer="638" from-port="1" to-layer="640" to-port="3"/>
		<edge from-layer="639" from-port="1" to-layer="640" to-port="4"/>
		<edge from-layer="640" from-port="5" to-layer="642" to-port="0"/>
		<edge from-layer="641" from-port="1" to-layer="642" to-port="1"/>
		<edge from-layer="633" from-port="5" to-layer="643" to-port="0"/>
		<edge from-layer="642" from-port="2" to-layer="643" to-port="1"/>
		<edge from-layer="643" from-port="2" to-layer="645" to-port="0"/>
		<edge from-layer="644" from-port="1" to-layer="645" to-port="1"/>
		<edge from-layer="645" from-port="2" to-layer="646" to-port="0"/>
		<edge from-layer="646" from-port="1" to-layer="651" to-port="0"/>
		<edge from-layer="647" from-port="1" to-layer="651" to-port="1"/>
		<edge from-layer="648" from-port="1" to-layer="651" to-port="2"/>
		<edge from-layer="649" from-port="1" to-layer="651" to-port="3"/>
		<edge from-layer="650" from-port="1" to-layer="651" to-port="4"/>
		<edge from-layer="652" from-port="1" to-layer="653" to-port="0"/>
		<edge from-layer="653" from-port="1" to-layer="658" to-port="0"/>
		<edge from-layer="654" from-port="1" to-layer="658" to-port="1"/>
		<edge from-layer="655" from-port="1" to-layer="658" to-port="2"/>
		<edge from-layer="656" from-port="1" to-layer="658" to-port="3"/>
		<edge from-layer="657" from-port="1" to-layer="658" to-port="4"/>
		<edge from-layer="651" from-port="5" to-layer="659" to-port="0"/>
		<edge from-layer="658" from-port="5" to-layer="659" to-port="1"/>
		<edge from-layer="659" from-port="2" to-layer="661" to-port="0"/>
		<edge from-layer="660" from-port="1" to-layer="661" to-port="1"/>
		<edge from-layer="661" from-port="2" to-layer="666" to-port="0"/>
		<edge from-layer="662" from-port="1" to-layer="666" to-port="1"/>
		<edge from-layer="663" from-port="1" to-layer="666" to-port="2"/>
		<edge from-layer="664" from-port="1" to-layer="666" to-port="3"/>
		<edge from-layer="665" from-port="1" to-layer="666" to-port="4"/>
		<edge from-layer="617" from-port="5" to-layer="667" to-port="0"/>
		<edge from-layer="666" from-port="5" to-layer="667" to-port="1"/>
		<edge from-layer="667" from-port="2" to-layer="668" to-port="0"/>
		<edge from-layer="668" from-port="1" to-layer="673" to-port="0"/>
		<edge from-layer="669" from-port="1" to-layer="673" to-port="1"/>
		<edge from-layer="670" from-port="1" to-layer="673" to-port="2"/>
		<edge from-layer="671" from-port="1" to-layer="673" to-port="3"/>
		<edge from-layer="672" from-port="1" to-layer="673" to-port="4"/>
		<edge from-layer="673" from-port="5" to-layer="674" to-port="0"/>
		<edge from-layer="675" from-port="1" to-layer="676" to-port="0"/>
		<edge from-layer="676" from-port="1" to-layer="681" to-port="0"/>
		<edge from-layer="677" from-port="1" to-layer="681" to-port="1"/>
		<edge from-layer="678" from-port="1" to-layer="681" to-port="2"/>
		<edge from-layer="679" from-port="1" to-layer="681" to-port="3"/>
		<edge from-layer="680" from-port="1" to-layer="681" to-port="4"/>
		<edge from-layer="674" from-port="1" to-layer="682" to-port="0"/>
		<edge from-layer="681" from-port="5" to-layer="682" to-port="1"/>
		<edge from-layer="682" from-port="2" to-layer="684" to-port="0"/>
		<edge from-layer="683" from-port="1" to-layer="684" to-port="1"/>
		<edge from-layer="684" from-port="2" to-layer="689" to-port="0"/>
		<edge from-layer="685" from-port="1" to-layer="689" to-port="1"/>
		<edge from-layer="686" from-port="1" to-layer="689" to-port="2"/>
		<edge from-layer="687" from-port="1" to-layer="689" to-port="3"/>
		<edge from-layer="688" from-port="1" to-layer="689" to-port="4"/>
		<edge from-layer="690" from-port="1" to-layer="691" to-port="0"/>
		<edge from-layer="691" from-port="1" to-layer="696" to-port="0"/>
		<edge from-layer="692" from-port="1" to-layer="696" to-port="1"/>
		<edge from-layer="693" from-port="1" to-layer="696" to-port="2"/>
		<edge from-layer="694" from-port="1" to-layer="696" to-port="3"/>
		<edge from-layer="695" from-port="1" to-layer="696" to-port="4"/>
		<edge from-layer="673" from-port="5" to-layer="697" to-port="0"/>
		<edge from-layer="696" from-port="5" to-layer="697" to-port="1"/>
		<edge from-layer="697" from-port="2" to-layer="699" to-port="0"/>
		<edge from-layer="698" from-port="1" to-layer="699" to-port="1"/>
		<edge from-layer="699" from-port="2" to-layer="700" to-port="0"/>
		<edge from-layer="700" from-port="1" to-layer="705" to-port="0"/>
		<edge from-layer="701" from-port="1" to-layer="705" to-port="1"/>
		<edge from-layer="702" from-port="1" to-layer="705" to-port="2"/>
		<edge from-layer="703" from-port="1" to-layer="705" to-port="3"/>
		<edge from-layer="704" from-port="1" to-layer="705" to-port="4"/>
		<edge from-layer="706" from-port="1" to-layer="707" to-port="0"/>
		<edge from-layer="707" from-port="1" to-layer="712" to-port="0"/>
		<edge from-layer="708" from-port="1" to-layer="712" to-port="1"/>
		<edge from-layer="709" from-port="1" to-layer="712" to-port="2"/>
		<edge from-layer="710" from-port="1" to-layer="712" to-port="3"/>
		<edge from-layer="711" from-port="1" to-layer="712" to-port="4"/>
		<edge from-layer="712" from-port="5" to-layer="714" to-port="0"/>
		<edge from-layer="713" from-port="1" to-layer="714" to-port="1"/>
		<edge from-layer="705" from-port="5" to-layer="715" to-port="0"/>
		<edge from-layer="714" from-port="2" to-layer="715" to-port="1"/>
		<edge from-layer="715" from-port="2" to-layer="717" to-port="0"/>
		<edge from-layer="716" from-port="1" to-layer="717" to-port="1"/>
		<edge from-layer="717" from-port="2" to-layer="718" to-port="0"/>
		<edge from-layer="718" from-port="1" to-layer="723" to-port="0"/>
		<edge from-layer="719" from-port="1" to-layer="723" to-port="1"/>
		<edge from-layer="720" from-port="1" to-layer="723" to-port="2"/>
		<edge from-layer="721" from-port="1" to-layer="723" to-port="3"/>
		<edge from-layer="722" from-port="1" to-layer="723" to-port="4"/>
		<edge from-layer="724" from-port="1" to-layer="725" to-port="0"/>
		<edge from-layer="725" from-port="1" to-layer="730" to-port="0"/>
		<edge from-layer="726" from-port="1" to-layer="730" to-port="1"/>
		<edge from-layer="727" from-port="1" to-layer="730" to-port="2"/>
		<edge from-layer="728" from-port="1" to-layer="730" to-port="3"/>
		<edge from-layer="729" from-port="1" to-layer="730" to-port="4"/>
		<edge from-layer="723" from-port="5" to-layer="731" to-port="0"/>
		<edge from-layer="730" from-port="5" to-layer="731" to-port="1"/>
		<edge from-layer="731" from-port="2" to-layer="733" to-port="0"/>
		<edge from-layer="732" from-port="1" to-layer="733" to-port="1"/>
		<edge from-layer="733" from-port="2" to-layer="738" to-port="0"/>
		<edge from-layer="734" from-port="1" to-layer="738" to-port="1"/>
		<edge from-layer="735" from-port="1" to-layer="738" to-port="2"/>
		<edge from-layer="736" from-port="1" to-layer="738" to-port="3"/>
		<edge from-layer="737" from-port="1" to-layer="738" to-port="4"/>
		<edge from-layer="689" from-port="5" to-layer="739" to-port="0"/>
		<edge from-layer="738" from-port="5" to-layer="739" to-port="1"/>
		<edge from-layer="739" from-port="2" to-layer="740" to-port="0"/>
		<edge from-layer="740" from-port="1" to-layer="745" to-port="0"/>
		<edge from-layer="741" from-port="1" to-layer="745" to-port="1"/>
		<edge from-layer="742" from-port="1" to-layer="745" to-port="2"/>
		<edge from-layer="743" from-port="1" to-layer="745" to-port="3"/>
		<edge from-layer="744" from-port="1" to-layer="745" to-port="4"/>
		<edge from-layer="746" from-port="1" to-layer="747" to-port="0"/>
		<edge from-layer="747" from-port="1" to-layer="752" to-port="0"/>
		<edge from-layer="748" from-port="1" to-layer="752" to-port="1"/>
		<edge from-layer="749" from-port="1" to-layer="752" to-port="2"/>
		<edge from-layer="750" from-port="1" to-layer="752" to-port="3"/>
		<edge from-layer="751" from-port="1" to-layer="752" to-port="4"/>
		<edge from-layer="745" from-port="5" to-layer="753" to-port="0"/>
		<edge from-layer="752" from-port="5" to-layer="753" to-port="1"/>
		<edge from-layer="753" from-port="2" to-layer="755" to-port="0"/>
		<edge from-layer="754" from-port="1" to-layer="755" to-port="1"/>
		<edge from-layer="755" from-port="2" to-layer="756" to-port="0"/>
		<edge from-layer="756" from-port="1" to-layer="761" to-port="0"/>
		<edge from-layer="757" from-port="1" to-layer="761" to-port="1"/>
		<edge from-layer="758" from-port="1" to-layer="761" to-port="2"/>
		<edge from-layer="759" from-port="1" to-layer="761" to-port="3"/>
		<edge from-layer="760" from-port="1" to-layer="761" to-port="4"/>
		<edge from-layer="762" from-port="1" to-layer="763" to-port="0"/>
		<edge from-layer="763" from-port="1" to-layer="768" to-port="0"/>
		<edge from-layer="764" from-port="1" to-layer="768" to-port="1"/>
		<edge from-layer="765" from-port="1" to-layer="768" to-port="2"/>
		<edge from-layer="766" from-port="1" to-layer="768" to-port="3"/>
		<edge from-layer="767" from-port="1" to-layer="768" to-port="4"/>
		<edge from-layer="768" from-port="5" to-layer="770" to-port="0"/>
		<edge from-layer="769" from-port="1" to-layer="770" to-port="1"/>
		<edge from-layer="761" from-port="5" to-layer="771" to-port="0"/>
		<edge from-layer="770" from-port="2" to-layer="771" to-port="1"/>
		<edge from-layer="771" from-port="2" to-layer="773" to-port="0"/>
		<edge from-layer="772" from-port="1" to-layer="773" to-port="1"/>
		<edge from-layer="773" from-port="2" to-layer="774" to-port="0"/>
		<edge from-layer="774" from-port="1" to-layer="779" to-port="0"/>
		<edge from-layer="775" from-port="1" to-layer="779" to-port="1"/>
		<edge from-layer="776" from-port="1" to-layer="779" to-port="2"/>
		<edge from-layer="777" from-port="1" to-layer="779" to-port="3"/>
		<edge from-layer="778" from-port="1" to-layer="779" to-port="4"/>
		<edge from-layer="780" from-port="1" to-layer="781" to-port="0"/>
		<edge from-layer="781" from-port="1" to-layer="786" to-port="0"/>
		<edge from-layer="782" from-port="1" to-layer="786" to-port="1"/>
		<edge from-layer="783" from-port="1" to-layer="786" to-port="2"/>
		<edge from-layer="784" from-port="1" to-layer="786" to-port="3"/>
		<edge from-layer="785" from-port="1" to-layer="786" to-port="4"/>
		<edge from-layer="779" from-port="5" to-layer="787" to-port="0"/>
		<edge from-layer="786" from-port="5" to-layer="787" to-port="1"/>
		<edge from-layer="787" from-port="2" to-layer="789" to-port="0"/>
		<edge from-layer="788" from-port="1" to-layer="789" to-port="1"/>
		<edge from-layer="789" from-port="2" to-layer="794" to-port="0"/>
		<edge from-layer="790" from-port="1" to-layer="794" to-port="1"/>
		<edge from-layer="791" from-port="1" to-layer="794" to-port="2"/>
		<edge from-layer="792" from-port="1" to-layer="794" to-port="3"/>
		<edge from-layer="793" from-port="1" to-layer="794" to-port="4"/>
		<edge from-layer="745" from-port="5" to-layer="795" to-port="0"/>
		<edge from-layer="794" from-port="5" to-layer="795" to-port="1"/>
		<edge from-layer="795" from-port="2" to-layer="796" to-port="0"/>
		<edge from-layer="796" from-port="1" to-layer="801" to-port="0"/>
		<edge from-layer="797" from-port="1" to-layer="801" to-port="1"/>
		<edge from-layer="798" from-port="1" to-layer="801" to-port="2"/>
		<edge from-layer="799" from-port="1" to-layer="801" to-port="3"/>
		<edge from-layer="800" from-port="1" to-layer="801" to-port="4"/>
		<edge from-layer="802" from-port="1" to-layer="803" to-port="0"/>
		<edge from-layer="803" from-port="1" to-layer="808" to-port="0"/>
		<edge from-layer="804" from-port="1" to-layer="808" to-port="1"/>
		<edge from-layer="805" from-port="1" to-layer="808" to-port="2"/>
		<edge from-layer="806" from-port="1" to-layer="808" to-port="3"/>
		<edge from-layer="807" from-port="1" to-layer="808" to-port="4"/>
		<edge from-layer="801" from-port="5" to-layer="809" to-port="0"/>
		<edge from-layer="808" from-port="5" to-layer="809" to-port="1"/>
		<edge from-layer="809" from-port="2" to-layer="811" to-port="0"/>
		<edge from-layer="810" from-port="1" to-layer="811" to-port="1"/>
		<edge from-layer="811" from-port="2" to-layer="812" to-port="0"/>
		<edge from-layer="812" from-port="1" to-layer="817" to-port="0"/>
		<edge from-layer="813" from-port="1" to-layer="817" to-port="1"/>
		<edge from-layer="814" from-port="1" to-layer="817" to-port="2"/>
		<edge from-layer="815" from-port="1" to-layer="817" to-port="3"/>
		<edge from-layer="816" from-port="1" to-layer="817" to-port="4"/>
		<edge from-layer="818" from-port="1" to-layer="819" to-port="0"/>
		<edge from-layer="819" from-port="1" to-layer="824" to-port="0"/>
		<edge from-layer="820" from-port="1" to-layer="824" to-port="1"/>
		<edge from-layer="821" from-port="1" to-layer="824" to-port="2"/>
		<edge from-layer="822" from-port="1" to-layer="824" to-port="3"/>
		<edge from-layer="823" from-port="1" to-layer="824" to-port="4"/>
		<edge from-layer="824" from-port="5" to-layer="826" to-port="0"/>
		<edge from-layer="825" from-port="1" to-layer="826" to-port="1"/>
		<edge from-layer="817" from-port="5" to-layer="827" to-port="0"/>
		<edge from-layer="826" from-port="2" to-layer="827" to-port="1"/>
		<edge from-layer="827" from-port="2" to-layer="829" to-port="0"/>
		<edge from-layer="828" from-port="1" to-layer="829" to-port="1"/>
		<edge from-layer="829" from-port="2" to-layer="830" to-port="0"/>
		<edge from-layer="830" from-port="1" to-layer="835" to-port="0"/>
		<edge from-layer="831" from-port="1" to-layer="835" to-port="1"/>
		<edge from-layer="832" from-port="1" to-layer="835" to-port="2"/>
		<edge from-layer="833" from-port="1" to-layer="835" to-port="3"/>
		<edge from-layer="834" from-port="1" to-layer="835" to-port="4"/>
		<edge from-layer="836" from-port="1" to-layer="837" to-port="0"/>
		<edge from-layer="837" from-port="1" to-layer="842" to-port="0"/>
		<edge from-layer="838" from-port="1" to-layer="842" to-port="1"/>
		<edge from-layer="839" from-port="1" to-layer="842" to-port="2"/>
		<edge from-layer="840" from-port="1" to-layer="842" to-port="3"/>
		<edge from-layer="841" from-port="1" to-layer="842" to-port="4"/>
		<edge from-layer="835" from-port="5" to-layer="843" to-port="0"/>
		<edge from-layer="842" from-port="5" to-layer="843" to-port="1"/>
		<edge from-layer="843" from-port="2" to-layer="845" to-port="0"/>
		<edge from-layer="844" from-port="1" to-layer="845" to-port="1"/>
		<edge from-layer="845" from-port="2" to-layer="850" to-port="0"/>
		<edge from-layer="846" from-port="1" to-layer="850" to-port="1"/>
		<edge from-layer="847" from-port="1" to-layer="850" to-port="2"/>
		<edge from-layer="848" from-port="1" to-layer="850" to-port="3"/>
		<edge from-layer="849" from-port="1" to-layer="850" to-port="4"/>
		<edge from-layer="801" from-port="5" to-layer="851" to-port="0"/>
		<edge from-layer="850" from-port="5" to-layer="851" to-port="1"/>
		<edge from-layer="851" from-port="2" to-layer="852" to-port="0"/>
		<edge from-layer="852" from-port="1" to-layer="857" to-port="0"/>
		<edge from-layer="853" from-port="1" to-layer="857" to-port="1"/>
		<edge from-layer="854" from-port="1" to-layer="857" to-port="2"/>
		<edge from-layer="855" from-port="1" to-layer="857" to-port="3"/>
		<edge from-layer="856" from-port="1" to-layer="857" to-port="4"/>
		<edge from-layer="858" from-port="1" to-layer="859" to-port="0"/>
		<edge from-layer="859" from-port="1" to-layer="864" to-port="0"/>
		<edge from-layer="860" from-port="1" to-layer="864" to-port="1"/>
		<edge from-layer="861" from-port="1" to-layer="864" to-port="2"/>
		<edge from-layer="862" from-port="1" to-layer="864" to-port="3"/>
		<edge from-layer="863" from-port="1" to-layer="864" to-port="4"/>
		<edge from-layer="857" from-port="5" to-layer="865" to-port="0"/>
		<edge from-layer="864" from-port="5" to-layer="865" to-port="1"/>
		<edge from-layer="865" from-port="2" to-layer="867" to-port="0"/>
		<edge from-layer="866" from-port="1" to-layer="867" to-port="1"/>
		<edge from-layer="867" from-port="2" to-layer="868" to-port="0"/>
		<edge from-layer="868" from-port="1" to-layer="873" to-port="0"/>
		<edge from-layer="869" from-port="1" to-layer="873" to-port="1"/>
		<edge from-layer="870" from-port="1" to-layer="873" to-port="2"/>
		<edge from-layer="871" from-port="1" to-layer="873" to-port="3"/>
		<edge from-layer="872" from-port="1" to-layer="873" to-port="4"/>
		<edge from-layer="874" from-port="1" to-layer="875" to-port="0"/>
		<edge from-layer="875" from-port="1" to-layer="880" to-port="0"/>
		<edge from-layer="876" from-port="1" to-layer="880" to-port="1"/>
		<edge from-layer="877" from-port="1" to-layer="880" to-port="2"/>
		<edge from-layer="878" from-port="1" to-layer="880" to-port="3"/>
		<edge from-layer="879" from-port="1" to-layer="880" to-port="4"/>
		<edge from-layer="880" from-port="5" to-layer="882" to-port="0"/>
		<edge from-layer="881" from-port="1" to-layer="882" to-port="1"/>
		<edge from-layer="873" from-port="5" to-layer="883" to-port="0"/>
		<edge from-layer="882" from-port="2" to-layer="883" to-port="1"/>
		<edge from-layer="883" from-port="2" to-layer="885" to-port="0"/>
		<edge from-layer="884" from-port="1" to-layer="885" to-port="1"/>
		<edge from-layer="885" from-port="2" to-layer="886" to-port="0"/>
		<edge from-layer="886" from-port="1" to-layer="891" to-port="0"/>
		<edge from-layer="887" from-port="1" to-layer="891" to-port="1"/>
		<edge from-layer="888" from-port="1" to-layer="891" to-port="2"/>
		<edge from-layer="889" from-port="1" to-layer="891" to-port="3"/>
		<edge from-layer="890" from-port="1" to-layer="891" to-port="4"/>
		<edge from-layer="892" from-port="1" to-layer="893" to-port="0"/>
		<edge from-layer="893" from-port="1" to-layer="898" to-port="0"/>
		<edge from-layer="894" from-port="1" to-layer="898" to-port="1"/>
		<edge from-layer="895" from-port="1" to-layer="898" to-port="2"/>
		<edge from-layer="896" from-port="1" to-layer="898" to-port="3"/>
		<edge from-layer="897" from-port="1" to-layer="898" to-port="4"/>
		<edge from-layer="891" from-port="5" to-layer="899" to-port="0"/>
		<edge from-layer="898" from-port="5" to-layer="899" to-port="1"/>
		<edge from-layer="899" from-port="2" to-layer="901" to-port="0"/>
		<edge from-layer="900" from-port="1" to-layer="901" to-port="1"/>
		<edge from-layer="901" from-port="2" to-layer="906" to-port="0"/>
		<edge from-layer="902" from-port="1" to-layer="906" to-port="1"/>
		<edge from-layer="903" from-port="1" to-layer="906" to-port="2"/>
		<edge from-layer="904" from-port="1" to-layer="906" to-port="3"/>
		<edge from-layer="905" from-port="1" to-layer="906" to-port="4"/>
		<edge from-layer="857" from-port="5" to-layer="907" to-port="0"/>
		<edge from-layer="906" from-port="5" to-layer="907" to-port="1"/>
		<edge from-layer="907" from-port="2" to-layer="908" to-port="0"/>
		<edge from-layer="908" from-port="1" to-layer="913" to-port="0"/>
		<edge from-layer="909" from-port="1" to-layer="913" to-port="1"/>
		<edge from-layer="910" from-port="1" to-layer="913" to-port="2"/>
		<edge from-layer="911" from-port="1" to-layer="913" to-port="3"/>
		<edge from-layer="912" from-port="1" to-layer="913" to-port="4"/>
		<edge from-layer="913" from-port="5" to-layer="915" to-port="0"/>
		<edge from-layer="914" from-port="1" to-layer="915" to-port="1"/>
		<edge from-layer="915" from-port="2" to-layer="917" to-port="0"/>
		<edge from-layer="916" from-port="1" to-layer="917" to-port="1"/>
		<edge from-layer="918" from-port="1" to-layer="919" to-port="0"/>
		<edge from-layer="919" from-port="1" to-layer="924" to-port="0"/>
		<edge from-layer="920" from-port="1" to-layer="924" to-port="1"/>
		<edge from-layer="921" from-port="1" to-layer="924" to-port="2"/>
		<edge from-layer="922" from-port="1" to-layer="924" to-port="3"/>
		<edge from-layer="923" from-port="1" to-layer="924" to-port="4"/>
		<edge from-layer="917" from-port="2" to-layer="925" to-port="0"/>
		<edge from-layer="924" from-port="5" to-layer="925" to-port="1"/>
		<edge from-layer="925" from-port="2" to-layer="927" to-port="0"/>
		<edge from-layer="926" from-port="1" to-layer="927" to-port="1"/>
		<edge from-layer="927" from-port="2" to-layer="928" to-port="0"/>
	</edges>
	<meta_data>
		<MO_version value="unknown version"/>
		<cli_parameters>
			<blobs_as_inputs value="True"/>
			<caffe_parser_path value="DIR"/>
			<data_type value="FP16"/>
			<disable_nhwc_to_nchw value="False"/>
			<disable_omitting_optional value="False"/>
			<disable_resnet_optimization value="False"/>
			<disable_weights_compression value="False"/>
			<enable_concat_optimization value="False"/>
			<enable_flattening_nested_params value="False"/>
			<enable_ssd_gluoncv value="False"/>
			<extensions value="DIR"/>
			<framework value="caffe"/>
			<freeze_placeholder_with_value value="{}"/>
			<generate_deprecated_IR_V2 value="False"/>
			<generate_deprecated_IR_V7 value="False"/>
			<generate_experimental_IR_V10 value="True"/>
			<input value="data"/>
			<input_model value="DIR/weights.caffemodel"/>
			<input_model_is_text value="False"/>
			<input_proto value="DIR/deploy.prototxt"/>
			<input_shape value="[1,3,96,48]"/>
			<k value="DIR/CustomLayersMapping.xml"/>
			<keep_quantize_ops_in_IR value="True"/>
			<keep_shape_ops value="False"/>
			<legacy_mxnet_model value="False"/>
			<log_level value="ERROR"/>
			<mean_scale_values value="{}"/>
			<mean_values value="()"/>
			<model_name value="person-reidentification-retail-0031"/>
			<move_to_preprocess value="False"/>
			<output value="['ip_reid']"/>
			<output_dir value="DIR"/>
			<placeholder_data_types value="{}"/>
			<placeholder_shapes value="{'data': array([ 1,  3, 96, 48])}"/>
			<progress value="False"/>
			<remove_memory value="False"/>
			<remove_output_softmax value="False"/>
			<reverse_input_channels value="False"/>
			<save_params_from_nd value="False"/>
			<scale_values value="()"/>
			<silent value="False"/>
			<stream_output value="False"/>
			<unset unset_cli_parameters="batch, counts, disable_fusing, disable_gfusing, finegrain_fusing, input_checkpoint, input_meta_graph, input_symbol, mean_file, mean_file_offsets, nd_prefix_name, pretrained_model_name, saved_model_dir, saved_model_tags, scale, tensorboard_logdir, tensorflow_custom_layer_libraries, tensorflow_custom_operations_config_update, tensorflow_object_detection_api_pipeline_config, tensorflow_use_custom_operations_config, transformations_config"/>
		</cli_parameters>
	</meta_data>
	<quantization_parameters>
		<config>{
		'compression': {
			'algorithms': [
				{
					'name': 'DefaultQuantization',
					'params': {
						'preset': 'accuracy',
						'stat_subset_size': 300,
						'use_fast_bias': false
					}
				}
			],
			'target_device': 'CPU'
		},
		'engine': {
			'models': [
				{
					'name': 'person-reidentification-retail-0031',
					'launchers': [
						{
							'framework': 'dlsdk',
							'tags': [
								'FP32'
							],
							'model': 'PATH',
							'weights': 'PATH',
							'adapter': 'reid',
							'device': 'CPU'
						}
					],
					'datasets': [
						{
							'name': 'market1501',
							'data_source': 'PATH',
							'annotation_conversion': {
								'converter': 'market1501_reid',
								'data_dir': 'PATH'
							},
							'annotation': 'market1501_reid.pickle',
							'reader': 'pillow_imread',
							'preprocessing': [
								{
									'type': 'bgr_to_rgb'
								},
								{
									'type': 'resize',
									'dst_width': 48,
									'dst_height': 96,
									'use_pillow': true,
									'interpolation': 'ANTIALIAS'
								}
							],
							'metrics': [
								{
									'name': 'rank@1',
									'type': 'cmc',
									'top_k': 1
								},
								{
									'type': 'reid_map'
								}
							]
						}
					]
				},
				{
					'name': 'person-reidentification-retail-0031',
					'launchers': [
						{
							'framework': 'dlsdk',
							'tags': [
								'FP16'
							],
							'model': 'PATH',
							'weights': 'PATH',
							'adapter': 'reid',
							'device': 'CPU'
						}
					],
					'datasets': [
						{
							'name': 'market1501',
							'data_source': 'PATH',
							'annotation_conversion': {
								'converter': 'market1501_reid',
								'data_dir': 'PATH'
							},
							'annotation': 'market1501_reid.pickle',
							'reader': 'pillow_imread',
							'preprocessing': [
								{
									'type': 'bgr_to_rgb'
								},
								{
									'type': 'resize',
									'dst_width': 48,
									'dst_height': 96,
									'use_pillow': true,
									'interpolation': 'ANTIALIAS'
								}
							],
							'metrics': [
								{
									'name': 'rank@1',
									'type': 'cmc',
									'top_k': 1
								},
								{
									'type': 'reid_map'
								}
							]
						}
					]
				},
				{
					'name': 'person-reidentification-retail-0031',
					'launchers': [
						{
							'framework': 'dlsdk',
							'tags': [
								'FP16-INT8'
							],
							'model': 'PATH',
							'weights': 'PATH',
							'adapter': 'reid',
							'device': 'CPU'
						}
					],
					'datasets': [
						{
							'name': 'market1501',
							'data_source': 'PATH',
							'annotation_conversion': {
								'converter': 'market1501_reid',
								'data_dir': 'PATH'
							},
							'annotation': 'market1501_reid.pickle',
							'reader': 'pillow_imread',
							'preprocessing': [
								{
									'type': 'bgr_to_rgb'
								},
								{
									'type': 'resize',
									'dst_width': 48,
									'dst_height': 96,
									'use_pillow': true,
									'interpolation': 'ANTIALIAS'
								}
							],
							'metrics': [
								{
									'name': 'rank@1',
									'type': 'cmc',
									'top_k': 1
								},
								{
									'type': 'reid_map'
								}
							]
						}
					]
				}
			],
			'global_definitions': '../dataset_definitions.yml',
			'stat_requests_number': null,
			'eval_requests_number': null,
			'type': 'accuracy_checker'
		}
	}</config>
		<version value="1.0"/>
		<cli_params value="{'evaluate': False, 'output_dir': 'PATH', 'direct_dump': True, 'log_level': 'INFO', 'pbar': False, 'keep_uncompressed_weights': False}"/>
	</quantization_parameters>
</net>
